rock_paper_scissors_model.onnx (onnx, 500316 bytes, 20 tensors)

batchnorm1.weight f4 [20]
0	0x3f782174	0.96926045
1	0x3f810f20	1.0082741
2	0x3f9bebf1	1.2181379
3	0x3f803688	1.0016642
4	0x3f56a798	0.8384948
5	0x3f57feb5	0.8437303
6	0x3f779fb1	0.96728045
7	0x3f6798b2	0.9046737
8	0x3f8ba499	1.0909606
9	0x3f746fb2	0.95482934
10	0x3f5be4fd	0.85896283
11	0x3f81ec83	1.0150303
12	0x3f90bbbd	1.1307293
13	0x3f82f9bf	1.0232466
14	0x3f763f06	0.96189916
15	0x3f79909e	0.97486293
16	0x3f83ef28	1.030736
17	0x3f304246	0.68851125
18	0x3f6ad4fa	0.91731226
19	0x3f49d209	0.78836113

batchnorm1.bias f4 [20]
0	0xbdea3dd1	-0.11437572
1	0xbd7be4d8	-0.06149754
2	0x3da638af	0.0811628
3	0xbd43e8e2	-0.047829516
4	0x3c124b56	0.008929094
5	0x3e350971	0.17679383
6	0xbda76ed8	-0.08175439
7	0x3a388a72	0.0007039673
8	0x3e9499e4	0.2902366
9	0x3dee81e7	0.11645871
10	0x3ce92a4e	0.028462555
11	0xbdb07ddb	-0.08617755
12	0x3d601016	0.05470284
13	0x3e1c6bb9	0.15275468
14	0x3e11608c	0.14196986
15	0x3e07d28a	0.13263908
16	0xbbc6b998	-0.006064605
17	0x3d709ed9	0.05874524
18	0x3ba5037e	0.0050358167
19	0xbde0d71b	-0.10978528

batchnorm1.running_mean f4 [20]
0	0x3abaf50b	0.0014263702
1	0x3aac4950	0.0013144407
2	0x3a29bcab	0.0006474952
3	0x39c83d5f	0.00038192698
4	0x398fb0b5	0.00027406742
5	0x398a6148	0.0002639389
6	0x398e2548	0.00027112127
7	0x391687b3	0.00014355667
8	0x390458f8	0.00012621644
9	0xb6b8c745	-5.5068253e-06
10	0x37cfd664	2.4776156e-05
11	0x38ada6b3	8.280333e-05
12	0x3904ca99	0.00012663974
13	0x3935fc7f	0.00017355567
14	0x396bda79	0.00022492734
15	0x389e3de3	7.5455544e-05
16	0xb84c8c8a	-4.8768277e-05
17	0x38996eef	7.3162715e-05
18	0x3923cb35	0.00015620592
19	0x38a4dc32	7.861144e-05

batchnorm1.running_var f4 [20]
0	0x3aa3b57c	0.001249
1	0x3b0c90b4	0.0021448554
2	0x3b31346f	0.002703931
3	0x3b45f17c	0.003020375
4	0x3b531076	0.0032205856
5	0x3b563b14	0.0032689022
6	0x3b58257a	0.0032981322
7	0x3b5d0ac1	0.0033728334
8	0x3b6325e8	0.0034660045
9	0x3b5f7e47	0.0034102367
10	0x3b64d150	0.00349148
11	0x3b6383fb	0.0034716118
12	0x3b66a395	0.0035192717
13	0x3b621562	0.0034497608
14	0x3b67297f	0.0035272536
15	0x3b6c42f5	0.0036050652
16	0x3b69ae6f	0.003565695
17	0x3b66c744	0.0035213986
18	0x3b6a1780	0.0035719573
19	0x3b6ba536	0.0035956628

batchnorm2.weight f4 [64]
0	0x3f81ef52	1.015116
1	0x3f7bd70c	0.9837501
2	0x3f7c6398	0.9858947
3	0x3f6a9cc8	0.9164548
4	0x3f86cbeb	1.0530981
5	0x3f8c0a0b	1.0940565
6	0x3f85cfe0	1.0454063
7	0x3f808226	1.0039718
8	0x3f87b2cf	1.0601443
9	0x3f6d517a	0.9270245
10	0x3f833918	1.0251799
11	0x3f83a14a	1.0283597
12	0x3f6adc35	0.9174226
13	0x3f786a19	0.9703689
14	0x3f6c14c2	0.92219174
15	0x3f81bed0	1.0136356
16	0x3f69ec89	0.9137655
17	0x3f79a843	0.9752237
18	0x3f7e3a08	0.993073
19	0x3f79bd1f	0.975542
20	0x3f66c72c	0.9014766
21	0x3f7a3ef5	0.97752315
22	0x3f8d4e12	1.103945
23	0x3f84c964	1.037396
24	0x3f827a6d	1.0193611
25	0x3f84eecd	1.0385376
26	0x3f8363a9	1.0264789
27	0x3f77dcde	0.9682139
28	0x3f763708	0.9617772
29	0x3f84bc8e	1.0370042
30	0x3f7ddd75	0.9916604
31	0x3f7699b7	0.963283
32	0x3f698f64	0.9123442
33	0x3f77d889	0.9681478
34	0x3f695d7a	0.9115826
35	0x3f69a577	0.91268104
36	0x3f81b2ff	1.013275
37	0x3f6f98da	0.9359261
38	0x3f6dcfb3	0.9289505
39	0x3f87ea3c	1.0618358
40	0x3f821476	1.0162494
41	0x3f80a455	1.005015
42	0x3f60a5b6	0.87752855
43	0x3f508c22	0.81463826
44	0x3f766397	0.9624571
45	0x3f8e75dd	1.1129719
46	0x3f80eed6	1.0072887
47	0x3f72f39d	0.94902974
48	0x3f74cbc1	0.95623404
49	0x3f874a18	1.0569487
50	0x3f83c66c	1.0294929
51	0x3f8224d9	1.0167495
52	0x3f6af05d	0.91773015
53	0x3f85e27a	1.045974
54	0x3f7e53d3	0.99346656
55	0x3f92720b	1.1441053
56	0x3f7381b0	0.9511976
57	0x3f7732f7	0.9656214
58	0x3f78dc14	0.9721081
59	0x3f7e8efd	0.9943693
60	0x3f7ab214	0.97927976
61	0x3f6b099e	0.9181155
62	0x3f743a51	0.95401484
63	0x3f71b4e5	0.9441665

batchnorm2.bias f4 [64]
0	0xbc4aa424	-0.012368236
1	0xbc2f3624	-0.0106940605
2	0xb9c6c7aa	-0.00037914264
3	0xbdb9f2a2	-0.09079482
4	0xbe10855f	-0.14113377
5	0x3dd37432	0.10324897
6	0x3e2f9fc3	0.17150788
7	0x3d42cd96	0.047559343
8	0x3cba43fe	0.0227375
9	0x3d85e055	0.065369286
10	0xbdeff5b4	-0.11716786
11	0xbb841842	-0.004031212
12	0x3d993d31	0.074823745
13	0x3cd0ff71	0.025512429
14	0xbdb08295	-0.086186565
15	0xbdec25f6	-0.11530678
16	0x3d4147c7	0.047187593
17	0x3dae7624	0.08518627
18	0xbd354fff	-0.044265743
19	0x3d8186c8	0.063245356
20	0xbd0fc1a1	-0.03509677
21	0xbbf8336d	-0.00757449
22	0xbbe92213	-0.0071146577
23	0x3cb3d828	0.021953657
24	0xbc7dd7fd	-0.01549339
25	0x3db30df4	0.08742896
26	0xbb42401b	-0.002964026
27	0xbcd7c42c	-0.02633866
28	0xba3d3bf5	-0.0007218712
29	0xbdaff326	-0.08591299
30	0x3cc48f6b	0.023994168
31	0x3d61e8ee	0.05515378
32	0xbd20ccbf	-0.03925776
33	0xbde0cc65	-0.10976485
34	0x3d69f534	0.05711861
35	0x3c821b2e	0.0158821
36	0xbe0a49bb	-0.13504688
37	0xbe334017	-0.17504917
38	0x3d277e9b	0.040892225
39	0xbdd730f2	-0.105073825
40	0xbde9820c	-0.114017576
41	0x3de285ca	0.110606745
42	0xbd91fb26	-0.07127981
43	0xbd2d6e9e	-0.04234182
44	0x3ce5cf8e	0.028053071
45	0xbe1523a0	-0.14564371
46	0x3d9bdec7	0.07610851
47	0xbcc2e91e	-0.0237928
48	0x3d8399a9	0.06425793
49	0xbd06145d	-0.032734264
50	0xbd5192cf	-0.0511654
51	0xbd936385	-0.07196716
52	0xbcb7b35c	-0.022424392
53	0xbd707c55	-0.058712322
54	0xbd42b923	-0.04753984
55	0xbb5944f7	-0.0033152679
56	0xbca26d9f	-0.019827662
57	0x3dfedebc	0.12444827
58	0x3c331601	0.010930539
59	0x3a707b33	0.00091736316
60	0x3da997e8	0.08280927
61	0xbb23e62f	-0.0025009026
62	0x3d69db3c	0.057093844
63	0xbd4982ae	-0.04919689

batchnorm2.running_mean f4 [64]
0	0x3e4d4497	0.20045696
1	0x3ec0b6c3	0.37639436
2	0xbb298368	-0.0025865678
3	0xbc5d820a	-0.013519773
4	0xbe5031d1	-0.20331503
5	0xbe80df4b	-0.2517036
6	0xbe9d6f5f	-0.30749032
7	0x3f1ddc65	0.6166442
8	0xbd338bd0	-0.043834507
9	0xbddcad0c	-0.107751936
10	0xbebb2729	-0.36553314
11	0xbe02b666	-0.12764892
12	0x3f1c4e7e	0.6105727
13	0x3e3356a4	0.1751352
14	0xbf077d08	-0.5292516
15	0xbf271e76	-0.65280855
16	0xbe5c66a4	-0.2152353
17	0xbeccd290	-0.40004396
18	0x3ef5d593	0.48014507
19	0x3e335e9d	0.17516561
20	0x3dc4f09a	0.096162036
21	0xbe9be4ef	-0.304481
22	0xbe65ca76	-0.22440514
23	0xbe6c6af7	-0.23087679
24	0x3eec86da	0.46196634
25	0x3e094c08	0.1340791
26	0xbe8aeb80	-0.27132797
27	0xbe5f47d7	-0.21804748
28	0x3dc9c323	0.098516725
29	0x3eb21430	0.34781027
30	0x3f1e9028	0.61938715
31	0x3d2f8e5c	0.042860374
32	0x3e839be6	0.2570488
33	0xbf43fd06	-0.7655796
34	0x3e38deb2	0.18053702
35	0x3d8b13de	0.06790899
36	0x3e2436c2	0.16036513
37	0xbe8febbf	-0.28109547
38	0xbed53b78	-0.41646934
39	0xbe9ecf2d	-0.31017438
40	0x3ee53188	0.44764352
41	0x3f126f5a	0.5720116
42	0xbe64b00a	-0.22332779
43	0x3d0666aa	0.03281275
44	0xbf27b1a8	-0.65505457
45	0x3b6742b5	0.0035287563
46	0xbe12cfb2	-0.14337042
47	0xbe829b2c	-0.25509012
48	0xbd90e06f	-0.07074057
49	0xbbbdad3e	-0.0057884743
50	0x3f12d6ba	0.57358897
51	0xbe3114cf	-0.17293094
52	0x3e7187e1	0.2358699
53	0xbe85268d	-0.26005974
54	0xbe8d6b25	-0.27620807
55	0x3e4a6e02	0.19768527
56	0xbdd5f0ca	-0.104463175
57	0xbe1a652a	-0.15077654
58	0xbbc3f1d1	-0.0059797545
59	0x3d91f4de	0.07126783
60	0xbdc0bd59	-0.09411115
61	0xbe559aa9	-0.2085978
62	0x3f24845a	0.6426445
63	0x3ee03179	0.43787745

batchnorm2.running_var f4 [64]
0	0x3d36e7da	0.044654705
1	0x3e747961	0.23874427
2	0x3c9bbe6d	0.0190117
3	0x3d7159c9	0.058923516
4	0x3e0fa685	0.14028366
5	0x3db5bf52	0.08874382
6	0x3e2dd57c	0.16975969
7	0x3db80412	0.08985151
8	0x3cf8b1a8	0.03035815
9	0x3e374a29	0.17899384
10	0x3dc87ebe	0.09789799
11	0x3d541443	0.051777136
12	0x3e02ba7a	0.12766448
13	0x3d5360d3	0.05160601
14	0x3e0b791a	0.13620415
15	0x3e010572	0.12599733
16	0x3d5dda08	0.05416301
17	0x3e15f4f6	0.14644226
18	0x3defc8fa	0.11708255
19	0x3daf1782	0.08549406
20	0x3cf276a7	0.029597593
21	0x3df612f8	0.12015337
22	0x3e0c5ebc	0.13708013
23	0x3e22db48	0.15903962
24	0x3dc66f8d	0.096892454
25	0x3e80def9	0.25170115
26	0x3d8fa63f	0.07014131
27	0x3d86f608	0.065898955
28	0x3d200693	0.03906877
29	0x3db5d0cf	0.08877718
30	0x3e2de924	0.16983467
31	0x3d826e11	0.0636865
32	0x3e01181c	0.12606853
33	0x3d74bcd5	0.059750397
34	0x3d5fad8f	0.054608878
35	0x3e68aa1e	0.22721145
36	0x3d9ef361	0.077612646
37	0x3dfcc5f5	0.12342445
38	0x3e3a72f2	0.1820791
39	0x3dd6bd89	0.1048537
40	0x3dd5aa68	0.10432893
41	0x3def5bcf	0.11687433
42	0x3d785a97	0.06063327
43	0x3cba8ff7	0.022773726
44	0x3dc0df3f	0.09417581
45	0x3d7da840	0.061928034
46	0x3d5a29d9	0.053262565
47	0x3d67bc5f	0.05657613
48	0x3d8cec9f	0.068810694
49	0x3e0cb034	0.13739091
50	0x3e2b0836	0.16702351
51	0x3e09898e	0.13431379
52	0x3e43174e	0.19051859
53	0x3e0eb6d0	0.13936925
54	0x3df16cfd	0.11788366
55	0x3f178f84	0.5920336
56	0x3cd679f4	0.026181199
57	0x3d77e4d0	0.060520947
58	0x3d5b9306	0.05360701
59	0x3d669cfc	0.056302056
60	0x3d0d159a	0.03444443
61	0x3d65437c	0.05597256
62	0x3dd2a93c	0.10286185
63	0x3e0307d4	0.12795955

fc1.weight f4 [64, 64]
0	0x3e2c20d0	0.16809392
1	0x3e21f9fb	0.15818016
2	0x3d1fbb90	0.038997233
3	0xbcdde9f2	-0.027089093
4	0xbc2460d4	-0.010032851
5	0x3e33f786	0.17574891
6	0x3e0e7464	0.13911587
7	0xbd458578	-0.04822299
8	0xbce2549c	-0.027628236
9	0xbd5cf0ab	-0.053940456
10	0xbe2c4eb9	-0.16826905
11	0x3e718e98	0.23589551
12	0x3e1b3f85	0.1516095
13	0x3e1e12a7	0.15436803
14	0xbc068d36	-0.008212378
15	0xbc9534c2	-0.018213633
16	0xbd3c9642	-0.046041735
17	0xbd401452	-0.04689438
18	0x3d07ed72	0.03318543
19	0x3e12e18a	0.14343849
20	0xbd272f0f	-0.040816363
21	0x3d9995cc	0.074992746
22	0xbb6a3107	-0.003573479
23	0xbceb5dd1	-0.028731259
24	0xbdba8aec	-0.091085285
25	0xbdb38154	-0.08764902
26	0x3d92e4fd	0.07172582
27	0xbd9844af	-0.07434975
28	0x3d1e0a6d	0.03858416
29	0xbd84e1e1	-0.064883955
30	0xbd8b50a4	-0.0680249
31	0x3db09805	0.086227454
32	0xbd903de5	-0.070430554
33	0x3d18bfd0	0.0372923
34	0xbdaf69e3	-0.08565118
35	0xbd999569	-0.07499201
36	0x3d0bb9e2	0.03411282
37	0xbc499194	-0.012302775
38	0xbc6e1192	-0.014530556
39	0xbd6fef8b	-0.058578055
40	0x3e0c6b11	0.13712718
41	0xbe1dfe10	-0.15428948
42	0x3e380862	0.17971948
43	0xbc80ee21	-0.015738549
44	0x3df6cadb	0.1205041
45	0x3bd95272	0.0066321427
46	0xbca43dc7	-0.020048989
47	0x3d1722fc	0.036898598
48	0xbdbd8595	-0.092539944
49	0xbd8b1b11	-0.06792272
50	0xbe3260a2	-0.17419675
51	0x3cc2343b	0.023706546
52	0x3d2e5e95	0.04257067
53	0x3d41206d	0.047150064
54	0x3e4846a8	0.19558203
55	0xbc9154c6	-0.017740618
56	0xbd4f808e	-0.05065971
57	0x3ca12c91	0.019674571
58	0xbe2135bb	-0.15743153
59	0xbc600d70	-0.013675079
60	0x3e098671	0.13430192
61	0xbdfbe84e	-0.12300168
62	0xbdea86df	-0.11451506
63	0xbde87bcc	-0.113517374
64	0xbda664c9	-0.08124692
65	0x3d5b840a	0.05359272
66	0x3d58cb4b	0.05292825
67	0x3cdbfbba	0.026853431
68	0x3dbb2c20	0.091392756
69	0x3d929a05	0.07158283
70	0x3dd2264d	0.102612115
71	0x3d6421b2	0.055696197
72	0x3e23d87d	0.16000552
73	0x3c00290d	0.007822287
74	0x3c892613	0.016741788
75	0x3c4370ad	0.0119287195
76	0xbdc30e7d	-0.09524248
77	0x3da05885	0.07829384
78	0x3c363353	0.011120635
79	0xbd18f0b8	-0.037338942
80	0xbd8df987	-0.06932359
81	0x3c4b9f08	0.012428053
82	0x3dd83cb5	0.10558454
83	0x3d8a66fe	0.067579255
84	0xbdea59ae	-0.11442886
85	0x3e0d6aa3	0.1381021
86	0x3d1f2104	0.038849846
87	0x3c11b1ad	0.008892459
88	0x3dbee36d	0.09320722
89	0xbd868a95	-0.06569401
90	0x3d108056	0.03527864
91	0xbdf3c8d0	-0.11903536
92	0xbd3e52d6	-0.046465717
93	0x3db25066	0.08706741
94	0x3cc9426a	0.024567802
95	0xbdca0e7c	-0.09866044
96	0x3d0bbffd	0.03411864
97	0xbd605554	-0.054768875
98	0xbc3148b8	-0.01082056
99	0x3d49629d	0.04916631
100	0x3cdcd7f6	0.026958447
101	0xbd8aa990	-0.06770623
102	0x3cda2b0a	0.02663185
103	0x3c4c5ef7	0.012473813
104	0x3e33ef88	0.17571843
105	0xbe3d520f	-0.18488334
106	0x3df07319	0.11740703
107	0xbdcc041b	-0.099617206
108	0xbe25b428	-0.16182005
109	0xba092367	-0.00052314106
110	0xbd8a55b2	-0.06754626
111	0x3da6a622	0.08137156
112	0xbd58bb69	-0.052913103
113	0xbd947e94	-0.07250705
114	0xbde1fce0	-0.1103456
115	0x3d70dd30	0.05880469
116	0xbda336d4	-0.07969442
117	0xbdd7ed09	-0.10543258
118	0x3d7141f2	0.05890078
119	0x3df6cc14	0.120506436
120	0x3d8b0102	0.067873016
121	0xbdce7137	-0.10080188
122	0xbdc6cddc	-0.09707233
123	0xbd2eef5a	-0.042708732
124	0x3d5a90a0	0.05336058
125	0xbdc7daa5	-0.097585
126	0x3df14cf3	0.11782255
127	0x3df0dded	0.11761079
128	0x3ddd5787	0.1080771
129	0x3cd8efea	0.026481587
130	0x3d84b99f	0.06480717
131	0x3daea655	0.08527819
132	0xbdd64e43	-0.10464146
133	0x3e4d0f6d	0.20025416
134	0xbd4723dc	-0.048618183
135	0x3e4f4e9a	0.20244828
136	0x3d99318c	0.074801534
137	0x3dfea8ef	0.12434565
138	0x3e394e7f	0.1809635
139	0x3dc83024	0.09774807
140	0xbc41b9df	-0.0118241
141	0xbcf8251f	-0.030291138
142	0x3e42fd5f	0.19041966
143	0xbc5986ec	-0.013276797
144	0xbd869399	-0.06571121
145	0x3e0d4f80	0.13799858
146	0x3d82dcbc	0.06389758
147	0xbe40cd6c	-0.18828362
148	0x3c91bddc	0.017790727
149	0x3dbe8d91	0.093043454
150	0xbcc8a3b2	-0.024492119
151	0xbe1c7e8c	-0.15282649
152	0x3d914d3a	0.07094808
153	0x3e245513	0.16048078
154	0xbd8ffddc	-0.07030842
155	0x3df3d6b0	0.11906183
156	0x3c1c84f3	0.009553182
157	0xbe4881b2	-0.19580725
158	0x3e1411e7	0.14459954
159	0xbde7fd2b	-0.11327585
160	0xbca171f1	-0.019707652
161	0x3d691f29	0.056914482
162	0xbd863f12	-0.065549985
163	0xbd9f8d51	-0.07790626
164	0x3dc26dee	0.09493624
165	0xbdbdccdd	-0.0926759
166	0x3dda8faa	0.10671933
167	0x3d334965	0.043771166
168	0xbe10203c	-0.14074796
169	0x3cb74570	0.022371978
170	0x3ce4f34f	0.02794805
171	0xbd494c50	-0.049145043
172	0xbddcf50b	-0.10788926
173	0x3d397a25	0.0452825
174	0x3e025875	0.12729056
175	0xbd1669a2	-0.036721833
176	0x3e2463fd	0.16053768
177	0xbdd828cb	-0.10554656
178	0xbd4d5ebe	-0.05013918
179	0xbd91fe21	-0.07128549
180	0xbe0d81b3	-0.13819008
181	0xbd2405bc	-0.04004453
182	0x3e09b4df	0.13447903
183	0x3bd0c90c	0.006371623
184	0x3c35243b	0.011056001
185	0x3da7f242	0.08200504
186	0x3db3b390	0.08774483
187	0xbd3eb5c0	-0.04656005
188	0x3c23ed6d	0.010005337
189	0x3e17440c	0.14772052
190	0x3defda0f	0.11711513
191	0x3dc7ae29	0.09750015
192	0xbc8966f2	-0.016772721
193	0xb9c5b25a	-0.0003770765
194	0x3cdfe7ed	0.02733227
195	0x3d916e9d	0.07101176
196	0xbda47aa9	-0.08031208
197	0x3df6e2b8	0.12054962
198	0x3da97fc1	0.0827632
199	0x3e55acdf	0.20866726
200	0xbd1a3781	-0.03765059
201	0x3d5e9d06	0.054348968
202	0xbd80ba47	-0.062855296
203	0x3e39745d	0.18110795
204	0xbd0a5eaf	-0.033781704
205	0xbd2ee958	-0.042703003
206	0xbd9c865e	-0.07642816
207	0xbdcb454f	-0.09925329
208	0x3e0dfb3b	0.13865368
209	0x3b657cb8	0.0035016965
210	0xbdb06162	-0.08612324
211	0x3e13077d	0.14358325
212	0x3d905969	0.07048304
213	0xbccb4a3d	-0.024815673
214	0x3e605db0	0.21910739
215	0xbd1a4472	-0.03766293
216	0xbe0af8c0	-0.13571453
217	0x3ddd9418	0.10819262
218	0xbd290ce4	-0.04127206
219	0x3e6a2bcf	0.22868274
220	0x3cdf4e92	0.027259145
221	0xbdbd0918	-0.0923025
222	0x3e471710	0.19442391
223	0xbbcc27e5	-0.0062303417
224	0xbbd4b0a7	-0.006490785
225	0xbdaccf70	-0.08438003
226	0xbdace16c	-0.08441433
227	0x3ddf0d44	0.10891202
228	0xbd45c08f	-0.04827934
229	0xbd09698b	-0.03354792
230	0xbc10b526	-0.008832252
231	0xbc7a08c2	-0.015260877
232	0xbd6556bb	-0.055990916
233	0x3e28cb27	0.16483746
234	0xbcd38891	-0.025821956
235	0xbd1fb653	-0.038992237
236	0x3bd892b1	0.006609284
237	0x3c4fd7eb	0.012685756
238	0xbcf6fc47	-0.030149592
239	0x3deab49a	0.11460228
240	0x3d3a3efc	0.045470223
241	0xbd9ac649	-0.07557351
242	0xbc9cd9a7	-0.019146753
243	0xbd63fd76	-0.05566164
244	0x3b48c5f0	0.0030635558
245	0xbde308dd	-0.11085675
246	0x3c95ad3a	0.018271077
247	0x3db397dd	0.087692
248	0xbcdf3eb1	-0.027251573
249	0xbd24ad14	-0.040204123
250	0xbca96e99	-0.02068262
251	0x3df6aabc	0.12044284
252	0x3c9315c8	0.017954722
253	0xbd1b4057	-0.037903156
254	0xbd4047f0	-0.046943605
255	0x3d925336	0.071447775

fc1.bias f4 [64]
0	0xbd800b41	-0.062521465
1	0x3c8f78bc	0.017513625
2	0xbd987233	-0.07443657
3	0xbd614690	-0.054998934
4	0x3d80a970	0.06282318
5	0xbc4fa7ea	-0.012674311
6	0xbdab7442	-0.08371784
7	0xbde73956	-0.11290233
8	0xbe14dcb1	-0.14537312
9	0xbe0ee0a9	-0.13952889
10	0xbe65d6b9	-0.22445191
11	0xbc890492	-0.016725812
12	0xbe730fe8	-0.23736537
13	0xbe21d05c	-0.15802139
14	0xbe00d31c	-0.12580532
15	0x3d96507c	0.0733957
16	0x3d2206d1	0.039557282
17	0x3dc60b9c	0.09670183
18	0xbd49ddbc	-0.049283728
19	0x39197d0d	0.00014637802
20	0xbbd8b813	-0.00661374
21	0xbdaafeaf	-0.08349358
22	0xbe36e50e	-0.17860815
23	0x3ae7be1c	0.0017680558
24	0xbc8db363	-0.017297452
25	0xbe5cd191	-0.21564318
26	0xbc2807f2	-0.010255801
27	0xbcac4ba7	-0.021032168
28	0x3df06825	0.11738614
29	0x3d6376cb	0.05553321
30	0x3d5a1af5	0.053248364
31	0xbe25c08b	-0.1618673
32	0x3de6fa69	0.11278231
33	0xbd85db24	-0.065359384
34	0x3da75523	0.081705354
35	0xbc347461	-0.011014075
36	0x3d4ef852	0.050529785
37	0xbe16bc72	-0.14720324
38	0x3d0e67c8	0.034766942
39	0xbd93b46b	-0.07212146
40	0xbd83f4bf	-0.06443166
41	0xbd837141	-0.06418086
42	0xbe053b9a	-0.13011017
43	0x3e0e0afb	0.13871376
44	0xbbe7e44d	-0.007076776
45	0x3d7400a8	0.05957094
46	0xbdba756b	-0.09104427
47	0xbccdf211	-0.02513984
48	0xbdde452c	-0.10853037
49	0x3cc1ecef	0.023672549
50	0x3c9bb836	0.019008737
51	0xbde5d858	-0.11222905
52	0xbe3abe1f	-0.18236588
53	0xbc91fb76	-0.017820101
54	0xbe037ca6	-0.12840518
55	0xbe21622b	-0.15760104
56	0xbdfd0ba4	-0.12355736
57	0xbdb980bc	-0.09057757
58	0xbe4c4b2e	-0.19950554
59	0xbdad696a	-0.08467372
60	0x3d1ca2df	0.038241263
61	0xbac97880	-0.0015370995
62	0x3d8ecf9d	0.06973193
63	0xbd3eda7a	-0.046595074

fc2.weight f4 [32, 64]
0	0xbd99c205	-0.075077094
1	0xbd8f78c7	-0.07005458
2	0xbd18b955	-0.03728612
3	0x3de39728	0.11112815
4	0xbd32df76	-0.04367014
5	0xbdae3edd	-0.08508084
6	0x3e00667a	0.12539092
7	0xbcde36d6	-0.027125757
8	0x3dfb877a	0.122816995
9	0xbcad5e86	-0.021163236
10	0x3ca29b18	0.019849345
11	0xbe5c528d	-0.21515866
12	0xbe1ac8cd	-0.15115662
13	0x3c763932	0.015028285
14	0x3de457f1	0.11149586
15	0xbde3896c	-0.111101955
16	0xbc1d7593	-0.009610551
17	0x3dd89e78	0.105771005
18	0xbd0629eb	-0.03275482
19	0x3d2ea802	0.042640693
20	0xbdd68e28	-0.10476333
21	0x3ca94cf1	0.020666571
22	0x3ca4be20	0.02011019
23	0x3cfe387d	0.031032795
24	0xbe5832c6	-0.21113119
25	0xbdf86e6d	-0.12130437
26	0xbc14a36f	-0.009072169
27	0xbd835d2d	-0.06414256
28	0x3d668f84	0.05628921
29	0x3d2555a7	0.040364888
30	0x3d162530	0.03665656
31	0xbdb44ef3	-0.08804121
32	0xbd64d712	-0.05586917
33	0xbd928716	-0.07154672
34	0x3de5a3c5	0.11212877
35	0xbd0f1434	-0.034931377
36	0xbdaa76de	-0.08323453
37	0x3c52d3a8	0.012867846
38	0x3d5ec404	0.054386154
39	0x3c727902	0.014799358
40	0x3ddf3c00	0.10900116
41	0xbd8a31fb	-0.06747814
42	0x3a33352c	0.00068362313
43	0xbdd12b2a	-0.10213311
44	0xbe0a6940	-0.13516712
45	0x3d05800c	0.03259282
46	0x3de252ee	0.11050974
47	0x3d902c78	0.07039732
48	0xbd26d058	-0.040726036
49	0x3d0c53e3	0.034259688
50	0xbdefa921	-0.11702181
51	0xbe2811cb	-0.16413037
52	0x3d2e7004	0.042587295
53	0xbdd9f9ee	-0.106433734
54	0x3d18f8be	0.037346594
55	0xbe0041eb	-0.12525146
56	0xbc9bd6f8	-0.019023404
57	0x3c0fb71e	0.008771686
58	0x3d7614e3	0.060078513
59	0x3d31f41b	0.043445688
60	0x3d0888c6	0.033333562
61	0x3b907f6d	0.0044097216
62	0x3df56eed	0.11984048
63	0xbe0afe9d	-0.1357369
64	0x3daacb96	0.08339612
65	0xbdb38ab5	-0.08766691
66	0x3d97467e	0.07386492
67	0x3b7ceaa6	0.003859201
68	0xbd2e4fb9	-0.0425565
69	0xbd5455c5	-0.05183961
70	0xbd9b0e7f	-0.07571124
71	0x3dc04c69	0.09389574
72	0xbdce4d63	-0.10073354
73	0xbcb9a479	-0.022661434
74	0xbdc0529b	-0.09390756
75	0xbe0746b6	-0.13210568
76	0x3dc29dc2	0.09502746
77	0x3e02d01b	0.12774698
78	0xbe0445ae	-0.12917206
79	0xbcb57bc2	-0.022153739
80	0xbddaca50	-0.10683119
81	0xbd81b91a	-0.063341334
82	0x3e1dcadd	0.15409417
83	0xbdc128be	-0.09431599
84	0xbd9ec1e8	-0.077518284
85	0xbcae8c6d	-0.021307195
86	0xbe07d00d	-0.13262959
87	0xbce9c724	-0.02853734
88	0x3d7d24e8	0.061802775
89	0xbdcd6731	-0.10029448
90	0xbcf3a0cc	-0.02973976
91	0xbdee9400	-0.116493225
92	0x3c3ba0b5	0.01145189
93	0x3cf76af7	0.030202372
94	0xbd96cf68	-0.07363778
95	0x3dcf62e7	0.10126286
96	0xbe1575ee	-0.14595768
97	0x3dd40fc3	0.10354569
98	0xbd0808b1	-0.033211414
99	0xbcfa6abc	-0.030568473
100	0xbdcb61d5	-0.09930769
101	0x3dd7e381	0.1054144
102	0xbc544605	-0.012956147
103	0xbe22bdbf	-0.15892695
104	0xbc297e54	-0.01034506
105	0x3d35d4e7	0.044392493
106	0xbd0bac28	-0.034099728
107	0xbd9a7202	-0.075412765
108	0xbd4d760e	-0.050161414
109	0xbd414e01	-0.04719353
110	0x3cfc20cc	0.030777358
111	0x3d8be224	0.06830242
112	0x3e1b42ab	0.1516215
113	0xbe492fb2	-0.196471
114	0x3dbab3c0	0.09116316
115	0x3d38fa78	0.04516074
116	0x3d7355c7	0.059407976
117	0x3d3ed9e9	0.046594534
118	0x3e020494	0.12697059
119	0xbdb2bc3e	-0.087273106
120	0xbc812b8c	-0.015767835
121	0xbe214c12	-0.15751675
122	0x3d1ad8ac	0.03780429
123	0xbd7547a0	-0.05988276
124	0xbd319be1	-0.04336155
125	0x3e23ba21	0.15988971
126	0xbd4a9ce3	-0.049466025
127	0x3d1211d1	0.035661522
128	0xbdb0a4cb	-0.08625182
129	0xbcce053d	-0.025148982
130	0x3d2946be	0.04132723
131	0xbd1202c2	-0.03564716
132	0xbe173896	-0.1476768
133	0xbca69554	-0.020334877
134	0x3d6f5d37	0.058438506
135	0xbce0440e	-0.027376201
136	0xbd1d9b13	-0.03847797
137	0xbc34fd76	-0.011046758
138	0x3dc1dbe1	0.09465767
139	0xbd34482f	-0.044014152
140	0x3c87f787	0.016597522
141	0x3d21f2ff	0.03953838
142	0x3d2355b0	0.03987664
143	0xbdcc9b8c	-0.09990606
144	0xbbc668e2	-0.0060549835
145	0xbe10e57b	-0.1415004
146	0xbc7579ad	-0.014982623
147	0x3ccaa5a1	0.024737181
148	0x3d583d6b	0.052792948
149	0xbbea5c88	-0.007152144
150	0xbcbacca4	-0.022802658
151	0x3da55d53	0.08074441
152	0xbe60f998	-0.21970212
153	0x3daa4295	0.08313481
154	0xbd9efe58	-0.07763356
155	0xbb0c2fdb	-0.0021390829
156	0xbc12e2e6	-0.00896523
157	0xbe0a1a90	-0.13486695
158	0x3cc08124	0.023499079
159	0x3da469f7	0.08028024
160	0xbd248098	-0.0401617
161	0x3ce3fab1	0.0278295
162	0xbca56b54	-0.02019278
163	0xbe040076	-0.12890801
164	0x3c480ec0	0.012210548
165	0x3d457a02	0.04821206
166	0xbde6fb84	-0.112784415
167	0x3df488c5	0.11940149
168	0x3dd51b78	0.1040563
169	0xbd9b0a5f	-0.075703375
170	0xbd41fcfa	-0.047360398
171	0xbdd39fd8	-0.10333222
172	0xbe35abfd	-0.1774139
173	0xbd03a508	-0.032139808
174	0x3d2f48e8	0.04279414
175	0x3c969e69	0.018386083
176	0x3ce88a57	0.028386278
177	0xbe1710e8	-0.14752543
178	0xbd7887d0	-0.060676396
179	0xbda90f4f	-0.08254873
180	0xbcd1b30a	-0.025598068
181	0xbd954989	-0.07289416
182	0xbdb819a3	-0.08989265
183	0x3df46384	0.119330436
184	0xbbe04c2f	-0.0068450193
185	0xbdb5027f	-0.08838367
186	0x3dc50815	0.09620682
187	0xbd6ebff0	-0.058288515
188	0xbc9d89fe	-0.019230839
189	0x3d04944e	0.032367997
190	0xbd5a0cb3	-0.053234767
191	0xbe34a8ae	-0.17642471
192	0x3d3c1f0d	0.04592805
193	0xbe10db75	-0.14146216
194	0xbd204a5e	-0.039133422
195	0xbcb8ae1c	-0.02254396
196	0xbdb6200e	-0.08892833
197	0xbe3ad9d8	-0.18247163
198	0x3cd19ab6	0.025586467
199	0x3e083c5a	0.13304272
200	0xbe05ee9f	-0.13079308
201	0x3a9becfd	0.001189619
202	0xbe1353d8	-0.14387453
203	0xbccf8fb7	-0.025337083
204	0xbe00ec75	-0.12590201
205	0x3dc42b82	0.09578611
206	0x3e0e0fbf	0.13873194
207	0x3cdccba0	0.026952565
208	0xbe35735a	-0.17719784
209	0xbd957c6b	-0.072991215
210	0x3da67d9c	0.08129427
211	0xbdaf0cb5	-0.085473455
212	0xbe16bc9a	-0.14720383
213	0xbdf45a6e	-0.119313106
214	0xbc2c3f69	-0.010513165
215	0x3c9634db	0.01833575
216	0xbd146b30	-0.036235034
217	0x3cff55a9	0.031168776
218	0xbc03977f	-0.008031725
219	0x3daf8f5f	0.08572268
220	0xbdaf83ee	-0.085700855
221	0x3b14e190	0.0022717454
222	0x39eefbf4	0.00045582617
223	0x3e234654	0.15944797
224	0xbba99094	-0.0051747058
225	0xbe057539	-0.13032998
226	0xbc296b8b	-0.010340582
227	0x3c69613c	0.014244374
228	0xbd4355d3	-0.04768927
229	0xbd7f4098	-0.06231746
230	0x3e2ac010	0.16674829
231	0xbdba15ba	-0.09086175
232	0xbd4a5ad6	-0.049403034
233	0x3d60dc7b	0.054897767
234	0x3e0557fd	0.13021846
235	0xbd86feb1	-0.06591547
236	0xbd8842c8	-0.066533625
237	0xbd03d881	-0.032188896
238	0xbd36ba65	-0.044611353
239	0xbdccfdc0	-0.100093365
240	0xbd03760c	-0.032095
241	0xbd196679	-0.03745124
242	0xbd7cbd80	-0.06170416
243	0x3c2f1f09	0.010688552
244	0xbc7ad563	-0.015309664
245	0xbde3dfab	-0.11126646
246	0xbdb4d27f	-0.088292114
247	0xbdada4ba	-0.08478685
248	0x3e0e49ed	0.13895388
249	0x3c63ae54	0.0138965435
250	0xbd244c16	-0.040111624
251	0xbe3309b7	-0.17484175
252	0xbc251ece	-0.010078145
253	0xbd7a8d26	-0.061169766
254	0xbd0d711b	-0.034531694
255	0x3e2e8dd2	0.17046288

fc2.bias f4 [32]
0	0x3dcb2bb9	0.09920449
1	0x3d4e7046	0.05040004
2	0x3ce9a974	0.028523184
3	0x3b6aee53	0.0035847619
4	0xbd47e31a	-0.048800565
5	0x3adabc41	0.0016688184
6	0x3c8e777d	0.01739096
7	0x3e51e406	0.2049714
8	0x3d903a59	0.07042379
9	0x3cd5cb65	0.026097963
10	0xbd8bb604	-0.06821826
11	0xbda809f0	-0.082050204
12	0xbe1651df	-0.14679669
13	0xbdd5d00b	-0.10440072
14	0xbe332160	-0.174932
15	0xbdaa73c4	-0.08322862
16	0x3d5f0b4c	0.054454133
17	0x3d609904	0.054833427
18	0xbda72a82	-0.081624046
19	0xbdd7b94b	-0.10533389
20	0xbdf7288e	-0.12068282
21	0xba61409d	-0.0008592697
22	0x3d51b770	0.05120033
23	0x3dd55958	0.104174316
24	0xbd7104fc	-0.058842644
25	0xbc922cb7	-0.017843587
26	0x3d11546d	0.035480905
27	0xbd34e4f6	-0.044163667
28	0xbe20ecd8	-0.15715349
29	0xbdb31336	-0.087438986
30	0x3c99bbdd	0.018766338
31	0xbc91bb9a	-0.01778965

fc3.weight f4 [3, 32]
0	0xbc944746	-0.018100392
1	0x3e05f346	0.13081083
2	0x3d28f374	0.0412478
3	0x3dfa6600	0.12226486
4	0xbd9fcf92	-0.07803263
5	0x3e083b44	0.13303858
6	0xbb5cd45d	-0.0033695914
7	0xbe694975	-0.22781928
8	0xbdd202df	-0.10254454
9	0x3d73eeb2	0.05955381
10	0xbe011fae	-0.12609741
11	0xbe2adc86	-0.16685686
12	0xbd858134	-0.06518784
13	0x3bf42f6a	0.0074519413
14	0xbe0444c8	-0.12916863
15	0xbe4819e6	-0.1954113
16	0x3de591c4	0.11209443
17	0x3e097f6f	0.13427518
18	0xbdb697bc	-0.0891566
19	0x3e1e9f9f	0.15490578
20	0xbdcad03c	-0.09902999
21	0xbde93f71	-0.113890536
22	0xbdbf5356	-0.09342067
23	0x3ccc2826	0.024921488
24	0x3deb2bd4	0.11482969
25	0x3dca35b1	0.09873522
26	0x3e135bf3	0.14390545
27	0xbd67b757	-0.05657133
28	0x3de908d4	0.11378637
29	0x3dbc27a5	0.09187249
30	0x3a123d7d	0.00055786205
31	0x3e160152	0.14648941
32	0x3da61c10	0.08110821
33	0xbcf55c0a	-0.029951114
34	0xbdc601ba	-0.09668298
35	0xbd65ecd5	-0.056134064
36	0xbe099c10	-0.1343844
37	0x3d01e010	0.031707823
38	0xbc8c172e	-0.017100897
39	0x3cdcfc1c	0.026975684
40	0x3e35262d	0.17690344
41	0x3d92613b	0.071474515
42	0x3d80ec5d	0.06295083
43	0xbe89ade4	-0.2689048
44	0xbd617f97	-0.05505332
45	0xbdba0048	-0.09082085
46	0xbdb93002	-0.0904236
47	0xbd04b2e2	-0.03239716
48	0xbc780421	-0.015137703
49	0x3e0dfc2c	0.13865727
50	0x3d6ecee8	0.05830279
51	0xbcc5f583	-0.02416492
52	0x3cddda10	0.02708152
53	0xbe0b9760	-0.13631964
54	0x3d1bdd6c	0.03805296
55	0x3e43fd3b	0.19139569
56	0xbc6025a4	-0.013680849
57	0x3dbc23c5	0.0918651
58	0xbdbbce4d	-0.09170208
59	0x3c373612	0.011182325
60	0xbd21f653	-0.039541554
61	0x3de21730	0.11039579
62	0x3a1c4366	0.0005960971
63	0xbd4d9ed6	-0.050200306
64	0x3cc09cc6	0.023512255
65	0xbd585aac	-0.052820846
66	0x3ddc1502	0.107461944
67	0xbe0a00a9	-0.13476814
68	0xbd5b2342	-0.05350042
69	0xbd9f0828	-0.077652276
70	0xbcbcd238	-0.023049459
71	0x3e50f0d9	0.20404376
72	0xbd94a8af	-0.07258736
73	0xbd4b7280	-0.049669743
74	0xbe14ebaa	-0.14543024
75	0x3be65bfd	0.007030009
76	0xbd1082a5	-0.035280842
77	0x3e28b08c	0.16473597
78	0xbd86fb59	-0.065909095
79	0x3d688e1a	0.056776144
80	0xbd325b1a	-0.043543912
81	0x3e262fda	0.16229191
82	0x3e71fe43	0.2363215
83	0xbd572446	-0.052524827
84	0x3e09854f	0.1342976
85	0xbdc8d3c5	-0.09806017
86	0xbe3390e4	-0.1753574
87	0xbd360a1f	-0.044443246
88	0x3ce557c6	0.027995955
89	0x3dbcb737	0.09214633
90	0x3db625e7	0.08893948
91	0xbd949546	-0.07255034
92	0x3c8a83ea	0.016908605
93	0x3ddcb1b2	0.1077608
94	0x3d95ded9	0.073178954
95	0xbdb4f148	-0.08835083

fc3.bias f4 [3]
0	0xbdaa4023	-0.08313014
1	0xbd7fef7a	-0.062484242
2	0x3d2b882e	0.041877918

onnx::LSTM_209 f4 [1, 512, 2]
0	0x3d965ca5	0.07341889
1	0xbdfb35c5	-0.12266115
2	0x3df6163e	0.12015961
3	0x3e0101ab	0.12598293
4	0xbd8bf1e6	-0.06833248
5	0xbdcf14a3	-0.10111358
6	0xbe6cbae5	-0.2311817
7	0xbd8f7a85	-0.070057906
8	0xbd12d379	-0.035846207
9	0xbe074b59	-0.13212337
10	0xbe036124	-0.12830025
11	0xbcf20dc8	-0.029547587
12	0xbdc750db	-0.09732219
13	0x3de95cab	0.11394628
14	0x3d632420	0.055454373
15	0x3e00efc5	0.12591465
16	0xbc93dbea	-0.0180492
17	0x3e449a94	0.19199592
18	0xbdef6e38	-0.116909444
19	0xbd4ede59	-0.050505016
20	0xbb808126	-0.0039216457
21	0xbc90d698	-0.017680451
22	0xbbf683d3	-0.007523039
23	0xbd231baf	-0.039821323
24	0x3db8744a	0.090065554
25	0xbdc5545b	-0.0963523
26	0xbccd0e22	-0.025031153
27	0x3d1e92c2	0.038714178
28	0xbdac2acb	-0.084065996
29	0x3a740f7d	0.0009310169
30	0xbe145909	-0.14487089
31	0x3d91c057	0.07116764
32	0x3cd8be9a	0.026458073
33	0xbdb58933	-0.08864059
34	0x3dcbabd4	0.09944883
35	0xbc24a29e	-0.010048537
36	0xbe63fb19	-0.22263755
37	0xbdf76b67	-0.12081032
38	0xbe39e1ef	-0.18152593
39	0xbcb0e2ee	-0.021592584
40	0xbe30127a	-0.17194548
41	0xbdbbf7a5	-0.09178094
42	0x3d5e442f	0.054264244
43	0xbd195f59	-0.037444446
44	0x3a7966a1	0.0009513889
45	0x3d197481	0.037464622
46	0xbda26ceb	-0.07930931
47	0x3dd8d547	0.105875544
48	0xbe573a10	-0.21018243
49	0xbe7628a8	-0.24038947
50	0x39f4a5c6	0.00046662817
51	0xbe689013	-0.2271121
52	0xbe84028a	-0.25783187
53	0xbd4c1d27	-0.04983249
54	0xbe3b7206	-0.18305215
55	0x3b2330ca	0.0024900907
56	0xbe1cd640	-0.15316105
57	0x3d8452de	0.06461118
58	0x3dea2150	0.11432135
59	0x3d747dfb	0.059690457
60	0xbe6b0dda	-0.22954503
61	0xbd889c6a	-0.066704586
62	0x3c861649	0.016368048
63	0xbe5a25d5	-0.21303494
64	0xbe0fd438	-0.14045799
65	0xbdb5b549	-0.08872468
66	0xbc41db57	-0.01183208
67	0xbca343ae	-0.019929733
68	0xbe6450ae	-0.22296402
69	0xbe393b8e	-0.18089125
70	0xbdafbc34	-0.08580819
71	0xbde0daf4	-0.10979262
72	0x3ccc8812	0.024967227
73	0xbe1d60a9	-0.15368904
74	0x3d6e7f9b	0.058227163
75	0xbcc5a0b9	-0.02412449
76	0xbd419799	-0.047263715
77	0x3b370639	0.0027927293
78	0x3e02f5db	0.12789099
79	0x3e7d5e1f	0.24742936
80	0xbd0ec583	-0.03485633
81	0x3d70e767	0.058814432
82	0xbe35a314	-0.1773799
83	0xbe35b842	-0.1774607
84	0xbe5cf6b4	-0.21578485
85	0x3d3ee536	0.04660531
86	0xbd0c4624	-0.03424658
87	0x3db18b46	0.086691424
88	0xbd0c8abf	-0.034312006
89	0x3d240656	0.040045105
90	0xbd2c4acd	-0.042063523
91	0x3a117493	0.0005548682
92	0xbe4e4da7	-0.2014681
93	0xbd653ade	-0.055964343
94	0xbe434296	-0.1906837
95	0xbe0e7c5b	-0.13914625
96	0x3c4ade26	0.012382066
97	0xbd7733e7	-0.060352232
98	0xbe202648	-0.15639603
99	0xbe281f5c	-0.16418213
100	0x3e0ad655	0.13558324
101	0xbd225d8b	-0.03963999
102	0xbceff6d0	-0.029292494
103	0x3c2187b1	0.0098590115
104	0xbe0dea15	-0.13858826
105	0xbe150698	-0.14553297
106	0xbe0122f5	-0.12610991
107	0xbe0896be	-0.13338754
108	0xbe7999f8	-0.2437514
109	0xbe43cbd7	-0.19120727
110	0x3ad0b3b3	0.0015922695
111	0xbdb77232	-0.08957328
112	0xbc9d2f96	-0.01918773
113	0xbddaa0f9	-0.10675234
114	0xbe3865a4	-0.18007523
115	0x3d8ce568	0.06879693
116	0xbc9f929c	-0.019479088
117	0x3dddc216	0.108280346
118	0x3dc3412c	0.09533915
119	0xbe27a35d	-0.16370912
120	0x3db06145	0.08612303
121	0xbdde67b0	-0.108596206
122	0xbc033f12	-0.008010643
123	0x3aa07c78	0.0012244126
124	0xbd87aa95	-0.06624333
125	0xbdef6c1e	-0.116905436
126	0xbd9f2516	-0.077707455
127	0x3cb86ea0	0.022513688
128	0xbe402643	-0.18764596
129	0x3d668811	0.056282107
130	0xbe8bc15c	-0.2729596
131	0xbe000170	-0.12500548
132	0x3de20980	0.11036968
133	0xbb681031	-0.0035410041
134	0x3da3af9c	0.07992479
135	0xbdce9a5a	-0.10088034
136	0xbe4cb772	-0.19991854
137	0xbdf662f1	-0.1203059
138	0xbddc9738	-0.1077103
139	0xbe612553	-0.21986894
140	0xbcee1743	-0.029063826
141	0xbd9add88	-0.07561785
142	0xbe124911	-0.14285685
143	0xbe435eda	-0.19079152
144	0xbdb4931b	-0.08817121
145	0xbdf55001	-0.1197815
146	0xbd18087c	-0.037117466
147	0xbd7a7210	-0.061143935
148	0xbcf37d0b	-0.029722711
149	0xbe2b841c	-0.16749614
150	0xbce387a1	-0.027774634
151	0xbe31edf3	-0.17375927
152	0xbd6644eb	-0.05621807
153	0x3e846b72	0.25863224
154	0xbe0b63ab	-0.13612239
155	0xbca7f39d	-0.020501906
156	0x3b9cfdaf	0.0047909836
157	0xbd1393fa	-0.036029793
158	0x3c962c15	0.018331567
159	0xbdc102ec	-0.094243854
160	0xbd99e6fb	-0.07514759
161	0xbc2ba697	-0.01047673
162	0xbdd2b70d	-0.102888204
163	0xbcc2596a	-0.023724277
164	0x3cfdca5f	0.030980287
165	0xbdb4a9b2	-0.08821429
166	0xbd363427	-0.04448333
167	0xbc97ea9b	-0.018544486
168	0xbc4885c6	-0.012238925
169	0xbd756498	-0.059910387
170	0xbd2c461e	-0.042059056
171	0xbe2e0b5c	-0.16996521
172	0xbe058ba8	-0.13041556
173	0x3bb0bcff	0.005393624
174	0x3e0a2e68	0.13494265
175	0xbd486323	-0.04892267
176	0xbe7e590f	-0.2483866
177	0xbe4c07de	-0.19924876
178	0xbddfbc74	-0.109246165
179	0xbe824864	-0.25445855
180	0xbe117723	-0.14205603
181	0xbd3e5380	-0.04646635
182	0xbe2c77d1	-0.16842581
183	0xbd8b208e	-0.06793319
184	0x3d842bf0	0.06453693
185	0x3e10f032	0.14154127
186	0x3d213e1e	0.03936588
187	0x3e059ff2	0.13049296
188	0xbe5fedcc	-0.21868056
189	0x3d953606	0.07285695
190	0x3c8035fa	0.015650738
191	0x3d344db8	0.04401943
192	0x3dc7c0a7	0.097535424
193	0x3e35a4ff	0.17738722
194	0x3d95d2fe	0.07315634
195	0x3e026e63	0.12737422
196	0xbe3bd551	-0.18343093
197	0xbd839143	-0.06424191
198	0x3d88a820	0.06672692
199	0xbe03a366	-0.128553
200	0x3d88d8f2	0.06682004
201	0xbe0582d6	-0.13038191
202	0x3d1b7d39	0.03796122
203	0xbd2ba270	-0.04190296
204	0x3d946290	0.07245362
205	0xbbf3b3ab	-0.0074371896
206	0x3d02ec4b	0.031963628
207	0xbe116194	-0.1419738
208	0xbe0f93cf	-0.14021228
209	0x3d281889	0.041039024
210	0x3de43ceb	0.11144432
211	0x3d1e1175	0.038590867
212	0xbe92e593	-0.28690776
213	0x3d471230	0.04860133
214	0xbd6225d4	-0.055211857
215	0x3dd011a0	0.10159612
216	0xbdd1ae64	-0.102383405
217	0x3d59914d	0.053117085
218	0xbe0fae29	-0.1403128
219	0x3ddb4472	0.10706414
220	0x3c1996c3	0.009374323
221	0xbd027787	-0.03185227
222	0x3ab962c8	0.0014143819
223	0xbddb4e57	-0.107083015
224	0x3d14438f	0.03619724
225	0x3e2db147	0.16962157
226	0x3d1f27e3	0.0388564
227	0xbdf289f7	-0.11842721
228	0xbcdf95d4	-0.027293123
229	0x3c874d7f	0.016516445
230	0x3da654ac	0.08121619
231	0xbcc55ad4	-0.024091162
232	0x3de2c6cf	0.11073076
233	0xbd6f7362	-0.058459647
234	0xbb889460	-0.0041680783
235	0xbde817b6	-0.113326475
236	0xbd95e4eb	-0.07319053
237	0x3d2a49a1	0.041574124
238	0x3ca41f7f	0.02003455
239	0x3cbe05e2	0.023196165
240	0xbcbb427c	-0.02285885
241	0xbe492039	-0.19641198
242	0x3da3ca77	0.079976015
243	0xbaa0564c	-0.001223275
244	0xbe1ff177	-0.15619455
245	0x3c9d85b8	0.019228801
246	0x3d9dac4d	0.076988794
247	0xbd73b4cb	-0.05949859
248	0x3e130920	0.1435895
249	0xbcd36935	-0.025807003
250	0xbd57ddf2	-0.052701898
251	0xbd6fd99e	-0.058557145
252	0xbd9fc2cb	-0.07800826
253	0xbd1e8488	-0.03870061
254	0x3da80713	0.08204474
255	0xbe00cc98	-0.12578046

onnx::LSTM_210 f4 [1, 512, 128]
0	0xbde92eb8	-0.11385864
1	0x3c811214	0.01575569
2	0xbe26f625	-0.16304834
3	0x3d7dd4f2	0.06197066
4	0x3df716b0	0.12064874
5	0xbd9c933b	-0.076452695
6	0xbde9f8f4	-0.11424437
7	0x3c88572c	0.01664313
8	0xbda8f9e7	-0.0825079
9	0x3d1fb69f	0.03899252
10	0x3db81230	0.08987844
11	0x3daf4108	0.085573256
12	0xbdbd9f8e	-0.09258948
13	0xbc951879	-0.018200146
14	0x3d264f7f	0.040603157
15	0xbda7918e	-0.08182059
16	0x3a7e1d1c	0.00096936687
17	0xbd1121c7	-0.035432603
18	0xbdbf345a	-0.09336157
19	0xbd917501	-0.07102395
20	0xbc9ead7b	-0.019369831
21	0x3e2e665c	0.17031235
22	0xbcb3cc75	-0.021948079
23	0x3d07b91c	0.03313552
24	0x3dd7f172	0.10544099
25	0x3e100290	0.14063478
26	0xbe0b254c	-0.13588446
27	0xbe2d0912	-0.16897991
28	0xbcef5b5e	-0.029218372
29	0x3d8a3273	0.06747904
30	0x3dc6a141	0.096987255
31	0xbce6881a	-0.02814107
32	0xbdcda893	-0.100419186
33	0xbc90c956	-0.01767413
34	0xbd050a41	-0.032480482
35	0x3cd6dc2b	0.026228031
36	0x3de121f5	0.10992805
37	0x3c4e7b3b	0.012602623
38	0x3ce479b1	0.027890058
39	0x3bd06a8e	0.0063603586
40	0xbdf23371	-0.11826218
41	0x3d81e747	0.06342941
42	0xbd04c9fb	-0.032419186
43	0x3e77edbf	0.24211787
44	0xbd7bc82b	-0.061470192
45	0xbd472067	-0.048614886
46	0xbc87b953	-0.016567862
47	0xbd05bf80	-0.03265333
48	0xbc80b9c6	-0.015713584
49	0x3d45daab	0.04830424
50	0xbd9740e7	-0.07385426
51	0x3dec845e	0.115486845
52	0x3e201df0	0.1563642
53	0xbd9c8299	-0.07642097
54	0x3d44cd9f	0.048047658
55	0xbd98cf15	-0.07461373
56	0xbcaa2fc6	-0.020774733
57	0xbe0d889e	-0.13821647
58	0xbe3f9e3d	-0.18712707
59	0xbd3c26c3	-0.045935404
60	0x3e1a3bd7	0.1506189
61	0xbe0fd879	-0.14047422
62	0x3d0ff4fd	0.03514575
63	0xbd554e8c	-0.05207686
64	0x3dd92c44	0.10604146
65	0x3e1f1a70	0.15537429
66	0x3dcb5dce	0.09930001
67	0x3bd33a00	0.006446123
68	0x3e20205c	0.15637344
69	0xbdc7f6be	-0.09763859
70	0x3b17430f	0.0023080742
71	0xbc5bbbad	-0.013411445
72	0x3d8e2c0f	0.06941997
73	0xbd9497df	-0.072555296
74	0xbd33f6d3	-0.04393656
75	0x3e0aab46	0.13541898
76	0x3e112313	0.14173536
77	0x3d903fcf	0.070434205
78	0x3c7676a1	0.015042932
79	0xbdc76ed8	-0.09737939
80	0x3d7ddd9f	0.061978932
81	0xbc241147	-0.010013885
82	0x3e2d9055	0.1694959
83	0xbd685857	-0.056724872
84	0xbd6ee31f	-0.05832207
85	0xbc9668b4	-0.018360473
86	0x3d3f9373	0.046771478
87	0xbe007d71	-0.12547852
88	0x3cca0279	0.024659382
89	0xbc57fd0c	-0.01318289
90	0x3d1966c8	0.037451535
91	0xbd5e2b44	-0.05424048
92	0xbce4bfc7	-0.027923478
93	0xbbdc0d2c	-0.0067154374
94	0x3db7ba99	0.089711376
95	0x3c72fd06	0.014830833
96	0xbca3cec2	-0.01999605
97	0x3d56d813	0.05245216
98	0xbd5c27e8	-0.053748995
99	0xbd96ada7	-0.0735734
100	0xbc7faa52	-0.015604572
101	0xbc7d866a	-0.015473941
102	0x3c832939	0.016010867
103	0x3e28db4b	0.16489904
104	0x3dd3a0d1	0.10333408
105	0xbe0bfd78	-0.1367091
106	0x3c116f36	0.008876612
107	0xbd47cf83	-0.048781883
108	0xbdf39202	-0.11893083
109	0x3b1ff194	0.0024405466
110	0xbd722f23	-0.059126984
111	0xbe35fe10	-0.17772698
112	0x3c5a4ce9	0.013324001
113	0xb89bb6d9	-7.425034e-05
114	0x3e0e0abe	0.13871285
115	0x3e148644	0.14504343
116	0x3d7831c5	0.06059434
117	0xbdbc89a2	-0.09205939
118	0x3e8b5635	0.27214208
119	0xbd2c3856	-0.042045914
120	0xbd8b389f	-0.06797909
121	0x3d1e1ff6	0.0386047
122	0xbc7a6d38	-0.015284829
123	0x3e11c314	0.14234573
124	0x3de2ecc2	0.11080314
125	0xbb8af96f	-0.0042411606
126	0x3d2947e4	0.041328326
127	0xbcbf4ab4	-0.02335105
128	0xbdea153f	-0.114298336
129	0x3dd74fbd	0.10513256
130	0xbdd615db	-0.10453387
131	0x3db5f4a7	0.08884554
132	0xbca6f7c5	-0.020381818
133	0x3ce0c47c	0.027437441
134	0xbe314071	-0.17309739
135	0x3dcecdcf	0.100978486
136	0xbdf2b431	-0.11850775
137	0xbd4e1f93	-0.05032308
138	0xbbb2c0c4	-0.0054551084
139	0x3c9f71ba	0.019463409
140	0xbdc7b777	-0.0975179
141	0xbdf664ff	-0.12030982
142	0x3d9579df	0.07298636
143	0x3d7d00fb	0.061768513
144	0xbd9f38e9	-0.077745266
145	0x3db97774	0.09055987
146	0x3d89cac0	0.067281246
147	0xbdcc4fb5	-0.099761404
148	0x3e0c4fd7	0.13702331
149	0x3b5e7d4d	0.0033949197
150	0xbd7a0cf3	-0.061047506
151	0x3d9d79c6	0.07689242
152	0xbdf8a0e3	-0.12140062
153	0x3807d0f8	3.2381125e-05
154	0x3c18ed7c	0.009333964
155	0xbd6dc55c	-0.058049545
156	0x3e634cb1	0.22197224
157	0xbd587931	-0.052849952
158	0x3cab678b	0.020923397
159	0x3dcef40e	0.101051435
160	0xbd1a8249	-0.037721906
161	0x3e4bdaac	0.19907635
162	0xbc875a65	-0.016522596
163	0x3cb3a454	0.021928944
164	0x3d20476f	0.039130624
165	0x3d60c05f	0.05487096
166	0xbc176f78	-0.009242885
167	0xbc13213f	-0.008980094
168	0x3e2502dc	0.16114372
169	0xbd174512	-0.036931105
170	0x3dab83cd	0.083747484
171	0x3de9764d	0.11399517
172	0x3cd6a314	0.026200809
173	0xbda10db1	-0.078639396
174	0x3d922c97	0.07137411
175	0x3e013444	0.12617594
176	0xbd9c3fae	-0.076293334
177	0xbe0f98e1	-0.14023162
178	0x3dbe7ddd	0.0930135
179	0x3dfbc8a8	0.122941315
180	0x3d93aca0	0.0721066
181	0xbc89ea1d	-0.016835267
182	0x3c4a4142	0.01234466
183	0xbb9b3c9f	-0.004737451
184	0x3d70c7df	0.058784362
185	0xbd8cc088	-0.0687266
186	0xbe0b1c5c	-0.13585037
187	0xbda91e70	-0.082577586
188	0xbc83df4a	-0.016097683
189	0x3dc87f34	0.09789887
190	0x3db2db90	0.087332845
191	0xbd906d84	-0.070521384
192	0x3e39b241	0.18134405
193	0x3e3b5d62	0.18297341
194	0x3ca5e003	0.020248419
195	0xbd0ec584	-0.034856334
196	0x3dc515e3	0.09623315
197	0xbdb01e80	-0.085995674
198	0x3cc8dc29	0.024519043
199	0x3d9c5627	0.0763362
200	0xbdc0288c	-0.09382734
201	0x3da05ce3	0.07830217
202	0x3d257922	0.040398724
203	0xbd38124c	-0.044939324
204	0x3ca37115	0.019951383
205	0xbc91c7b8	-0.017795429
206	0x3d1bc802	0.03803254
207	0x3d920494	0.071297795
208	0x3de0fb7c	0.10985467
209	0x3be53915	0.00699533
210	0xbdb1f8e8	-0.08690053
211	0xbde2d8a6	-0.11076479
212	0x3de31695	0.110882916
213	0xbd98de0b	-0.07464226
214	0x3d717a18	0.05895433
215	0x3de49721	0.11161638
216	0x3d0bbc74	0.03411527
217	0x3dc9a126	0.0984519
218	0x3a1571f6	0.00057008804
219	0x3c197db7	0.009368352
220	0xbe43e537	-0.19130407
221	0xbd850c61	-0.06496502
222	0x3d852567	0.065012746
223	0xbd1f6f33	-0.038924407
224	0xbd30ecf1	-0.043194715
225	0x3e368757	0.17825066
226	0x3c5af55c	0.013364162
227	0x3d83bac3	0.06432106
228	0xbb91a102	-0.0044442425
229	0xbd8829ac	-0.06648573
230	0xbd24b782	-0.04021407
231	0xbd784b1c	-0.060618505
232	0xbd9c456b	-0.07630428
233	0x3d07878b	0.03308825
234	0x3cbbddae	0.022932854
235	0xbd7d89be	-0.06189894
236	0xbbaeeed8	-0.005338531
237	0xbc524227	-0.012833155
238	0x3de5a0f3	0.11212339
239	0xbd88f40f	-0.066871755
240	0xbddf3900	-0.10899544
241	0xbd642a79	-0.055704568
242	0xbdcbe334	-0.09955445
243	0xbc6c65a7	-0.014428533
244	0x3d56d452	0.05244858
245	0x3d47cd09	0.04877952
246	0x3d39c495	0.04535349
247	0x3e02da3c	0.12778562
248	0x3dc149f3	0.09437933
249	0x3ad5c286	0.0016308583
250	0xbd53592c	-0.051598713
251	0xbd80d670	-0.06290901
252	0xbe1afb17	-0.15134846
253	0xbcf48702	-0.029849533
254	0xbb793e8e	-0.003803167
255	0xbda26a9c	-0.079304904

onnx::LSTM_211 f4 [1, 1024]
0	0xbdd865a0	-0.105662584
1	0x3e073b68	0.13206255
2	0xb973f408	-0.00023265195
3	0xbd2813c0	-0.04103446
4	0xbc127517	-0.008939049
5	0x3c16a937	0.009195617
6	0x3dcf2094	0.10113636
7	0x3d94fac7	0.072743945
8	0x3e3235ef	0.17403387
9	0x3cb82a56	0.022481125
10	0xbc0cf28c	-0.00860275
11	0xbd6e5aa3	-0.058191907
12	0xbdb9b5a0	-0.09067845
13	0x3dc4edd6	0.09615676
14	0xbd027b22	-0.03185571
15	0x3d2dead6	0.042460285
16	0xbd0a851f	-0.03381836
17	0xbe1c0daf	-0.15239595
18	0xbcc8c8f3	-0.024509883
19	0x3cc25121	0.023720326
20	0xbc713189	-0.014721283
21	0xbd86841b	-0.06568166
22	0xbdf4a71e	-0.119459376
23	0x3d8ffe68	0.07030946
24	0xbe7db489	-0.247759
25	0x3c5301f0	0.01287888
26	0xbd6a9e37	-0.05727979
27	0x3cbad91f	0.02280861
28	0xbd87b2b8	-0.06625885
29	0xbdaec773	-0.08534136
30	0xbbd7954b	-0.0065790764
31	0xbc096401	-0.008385659
32	0xbe21f83f	-0.15817355
33	0xbd05fac2	-0.032709844
34	0x3cd59270	0.026070803
35	0xbde0e886	-0.1098185
36	0xbcd59f72	-0.026077006
37	0xbdf95941	-0.12175227
38	0xbd37f249	-0.044908796
39	0x3d800971	0.06251801
40	0xbc6dd980	-0.014517188
41	0xbd6df14d	-0.05809145
42	0xbd147e44	-0.03625323
43	0x3dfe9274	0.124302775
44	0xbd8987b1	-0.06715334
45	0xbdd11703	-0.10209467
46	0xbc62d73e	-0.013845263
47	0x3d8072e6	0.06271915
48	0xbbcf9b1a	-0.006335628
49	0xbbd478f4	-0.0064841453
50	0x3d8e736c	0.06955609
51	0xbdf95fb7	-0.12176459
52	0xbd9e0cae	-0.07717262
53	0x3d092f67	0.033492472
54	0xbd4f1616	-0.050558172
55	0xbe151f61	-0.14562751
56	0xbde6553c	-0.11246726
57	0xbd4064f4	-0.046971276
58	0x3d439a16	0.04775437
59	0xbc3158a7	-0.010824359
60	0xbe088a32	-0.13333967
61	0xbdb254d5	-0.08707587
62	0xbd6805c8	-0.05664614
63	0xbde97bc7	-0.11400562
64	0x3d27549f	0.040852185
65	0xbcfab9d3	-0.030606186
66	0xbd6a8240	-0.057253122
67	0xbd9f89d4	-0.077899605
68	0xbd343237	-0.0439932
69	0x3d9cf6f3	0.07664289
70	0xbe25477a	-0.16140547
71	0xbd050c35	-0.032482345
72	0xbbbeff28	-0.005828757
73	0xbd852846	-0.06501822
74	0xbdfbf611	-0.12302793
75	0xbe087702	-0.13326648
76	0xbc80ddf3	-0.015730834
77	0x3da4e1b6	0.080508634
78	0xbd0850cd	-0.033280183
79	0x3d1bbe0c	0.03802304
80	0xbdf4ce2d	-0.119533874
81	0xbdbc5463	-0.09195783
82	0x3d06a547	0.032872465
83	0xbd0a3b90	-0.03374821
84	0xbd5ff38c	-0.054675624
85	0xbe5ccf8c	-0.21563548
86	0xbe337fd4	-0.17529231
87	0xbe0b521b	-0.1360554
88	0xbd46d4d4	-0.048542812
89	0xbd0e6799	-0.034766767
90	0xbd29054f	-0.04126483
91	0xbded1835	-0.11576883
92	0xbdce914d	-0.10086308
93	0x3d0a5191	0.033769194
94	0xbda0d81e	-0.07853721
95	0xbcf72c29	-0.030172424
96	0x3d2440c5	0.04010083
97	0x3e16df55	0.14733632
98	0xbd7931a7	-0.060838368
99	0xbdfce3fe	-0.123481736
100	0xbe1220fb	-0.14270394
101	0xbb76a273	-0.0037633448
102	0xbd842b38	-0.06453556
103	0xbd5c2ed9	-0.053755615
104	0xbdaf3c0f	-0.08556377
105	0xbdd32664	-0.10310057
106	0xbd853c91	-0.06505693
107	0x3d6d853e	0.057988398
108	0xbd4df5c3	-0.050283205
109	0x3cc9d0bd	0.024635667
110	0xbd47f861	-0.048820857
111	0xbb9e5aaa	-0.0048325853
112	0xbc027ecb	-0.0079648
113	0x3b068953	0.002052863
114	0xbdfe233f	-0.124090664
115	0xbe1bf165	-0.15228803
116	0x3d24e6fb	0.040259343
117	0xbd1c2d90	-0.03812939
118	0x3d1db87a	0.03850601
119	0xbe023b83	-0.12718014
120	0xbdf01aba	-0.11723848
121	0xbd3e0c62	-0.046398528
122	0x3d6e0137	0.058106627
123	0xbdb16c11	-0.0866319
124	0xbe0b9c15	-0.1363376
125	0xbbdff0b8	-0.006834116
126	0xbd647d38	-0.05578348
127	0xbda4e771	-0.080519564
128	0xbd1c30c0	-0.03813243
129	0x3e136f39	0.14397897
130	0xbc2758ed	-0.010214073
131	0xbd5c2ef7	-0.053755727
132	0xbdcbe808	-0.09956366
133	0xbdafcd40	-0.0858407
134	0x3dbfb31c	0.09360334
135	0x3d237076	0.039902173
136	0x3d262daa	0.040570892
137	0xbc698c34	-0.014254618
138	0x3d13416d	0.035951067
139	0xbe228126	-0.15869579
140	0xbd9cb2ef	-0.076513164
141	0xbd0f4202	-0.03497506
142	0x3bf3905c	0.0074329805
143	0xbd852c57	-0.06502598
144	0xbdb9c887	-0.09071451
145	0xbe20f5db	-0.15718786
146	0xbd9e4f0f	-0.07729923
147	0x3ba046c0	0.0048912466
148	0xbe1b5bf4	-0.15171796
149	0x3d4f4cd1	0.050610367
150	0x3cb3bf7a	0.02194189
151	0xbd9df3bc	-0.07712504
152	0xbe80c695	-0.25151506
153	0xbdc63b8c	-0.096793264
154	0xbd55bea6	-0.05218377
155	0x3c5ac570	0.013352737
156	0xbce5e72f	-0.028064338
157	0xbc6f682a	-0.014612237
158	0x3d89be13	0.06725707
159	0xbdc75fc3	-0.09735062
160	0xbdcddae0	-0.10051513
161	0xbded3e4e	-0.11584149
162	0x3d951049	0.07278497
163	0xbd9099f2	-0.07060613
164	0xbdd5d205	-0.10440449
165	0xbdc58df7	-0.09646218
166	0xbdd3858a	-0.10328205
167	0x3deb1d1c	0.114801615
168	0xbcbb6c7f	-0.022878883
169	0x3bf33d36	0.0074230684
170	0x3d212d50	0.039349854
171	0x3e31475c	0.17312378
172	0xbcc4a8a3	-0.024006194
173	0xbde2a88a	-0.110673025
174	0xbde7ccc3	-0.11318352
175	0xbd8ce427	-0.06879454
176	0xbdfd217d	-0.12359903
177	0xbd6a9458	-0.057270378
178	0xbddae4f7	-0.10688203
179	0xbdff7147	-0.12472778
180	0xbda18522	-0.07886721
181	0xbddbbd74	-0.10729495
182	0xbd55be3e	-0.052183382
183	0xbd8ec8d9	-0.069719024
184	0xbdf38929	-0.118913956
185	0xbd27dfee	-0.04098504
186	0xbdbdbc0d	-0.092643835
187	0xbe0c3dfc	-0.1369552
188	0xbdfb3e58	-0.122677505
189	0xbd81336c	-0.06308636
190	0x3d05973f	0.032614943
191	0xbd81b7ab	-0.0633386
192	0x3d27419d	0.040834058
193	0xbdb8f74f	-0.09031545
194	0xbd948999	-0.07252807
195	0xbe10f623	-0.14156394
196	0xbbadba8a	-0.005301778
197	0xbd186eed	-0.037215162
198	0xbe42c87a	-0.19021788
199	0xbd9ddf3e	-0.07708596
200	0xbd426961	-0.04746378
201	0xbc5f4070	-0.013626203
202	0xbda502d7	-0.08057182
203	0xbcbb6fca	-0.022880454
204	0xbd82629a	-0.06366463
205	0xbce5861e	-0.028018054
206	0xbd944ec8	-0.07241589
207	0xbd0ea517	-0.03482541
208	0x3c10e900	0.008844614
209	0xbdda7054	-0.10665956
210	0xbe02e498	-0.12782514
211	0xbe19db7b	-0.15025131
212	0xbc524e14	-0.012835998
213	0xbe0f0c4a	-0.13969532
214	0xbcf12b8f	-0.029439716
215	0xbdeb2374	-0.114813715
216	0xbe3323ef	-0.17494176
217	0xbdb9e87d	-0.09077547
218	0xbde2614c	-0.11053714
219	0xbdf0720d	-0.117405035
220	0xbd3ef6f5	-0.046622235
221	0xbb1226ab	-0.002230088
222	0xbc8bc7d2	-0.017063055
223	0x3dbd874a	0.0925432
224	0xbd6a81c3	-0.057252657
225	0x3e304532	0.17213896
226	0xbe1ea92c	-0.15494221
227	0xbd825d74	-0.06365481
228	0xbd0dede6	-0.034650706
229	0xbddad457	-0.10685032
230	0xbdef0263	-0.11670377
231	0xbd8e8862	-0.06959607
232	0xbe1ae548	-0.15126526
233	0xbd898720	-0.06715226
234	0xbdccac1a	-0.09993763
235	0x3d712966	0.05887737
236	0xbda76d87	-0.081751876
237	0xbd21c3f0	-0.0394935
238	0xbdc270e9	-0.09494192
239	0x3d454e70	0.048170507
240	0xbcb8f3d8	-0.022577211
241	0xbd252771	-0.040320817
242	0xbd0500cc	-0.032471463
243	0xbd9ad42f	-0.07560002
244	0xbd9884f0	-0.07447231
245	0xbce37db1	-0.027769895
246	0x3d81d7d5	0.06339995
247	0xbde4ff9a	-0.11181565
248	0xbc738cea	-0.0148651395
249	0xbd2da839	-0.042396758
250	0x3c46bbc4	0.012129728
251	0xbda5c709	-0.080946036
252	0xbdc7ece2	-0.09761979
253	0xbc9f55ca	-0.019450087
254	0xbd8c53f0	-0.06851947
255	0xbdc1403f	-0.09436082
