rock_paper_scissors_model.onnx (onnx, 839065 bytes, 10 tensors)

fc1.weight f4 [64, 128]
00000000: 6b20 753d 2538 0abe 936d 5c3e bedd 893d
00000010: fefc a93d 0b34 043d ca10 843c c80a 673d
00000020: 8696 043e 14c0 63bc c59c cd3d a046 c5be
00000030: 9904 4abd 0177 953d a87d 0bbe 5c54 07bd
00000040: 6bf6 d43d cbd1 173e 4b2d 50be 94b3 a4bd
00000050: c5e5 dabe f5a0 25be 20cc 15be 7133 e4bd
00000060: 7f45 8b3e 00b5 dbbd 920e 173e 1afe 97bd
00000070: 0ee2 1ebe 1899 c0bd d64b ff3d 653e d33c
00000080: 8254 ea3d b140 d43d 8063 a63d ac8a 953e
00000090: 6492 bbbe bbfa 113d 161c e4bd cd5f 593c
000000a0: 6d4e 113e 9190 933e 4dba fcbd 0f45 893e
000000b0: e00d d8bc 920f 4cbc 99e0 183e e783 cabd
000000c0: 123b fe3d 19b9 6dbd 3d8e 70bd 0849 8dbc
000000d0: 9570 febe a8fc 563e 9045 6d3e 63c5 1d3e
000000e0: bc2e b6bc 9c68 dcbc 7884 4a3e 3671 253d
000000f0: 77eb d13d 576a f03d d361 063e 510b 0abe
00000100: d9c2 353e 35b3 95be 60a2 7abd 6a10 64bc
00000110: c39f 06bd bd09 da3d 44d4 ee3d b467 313e
00000120: bd7b b43d c254 d73d a787 393e 7977 42bd
00000130: 0230 653e 9e05 69be bbce 963d 6687 11be
00000140: ba89 b33d 1e88 ebbd cfea 1f3e d6bb 863d
00000150: c3d8 743d da23 1dbd 54cd d43d fb64 603d
00000160: 6f68 b13d 97a6 63bd 9a26 9e3e ca72 03be
00000170: 1c80 acbd 35da b93c a7a1 bc3d bb20 51be
00000180: e4a0 24be 2eb2 853e 729b 263e ce21 c63e
00000190: 87b2 98be 7e6d bf3b fa73 793d 37eb 9bbe
000001a0: edeb 0a3e 3037 f43c b69b 29be 9628 45be
000001b0: 6a63 3c3e fc49 09bd 816c 2b3e be37 583c
000001c0: c904 9d3e 28d1 a03d 6e6e aebb d59b ad3d
000001d0: 5e76 913c 23dc 3abe 4b04 b13d 3e71 313e
000001e0: 6a93 50be c45f 12be 5a79 65be d600 c13d
000001f0: 9841 b6bc c1bd 513e e32a 463d ae23 41bd
00000200: b618 cc3d f7fe 8d3c ac23 c13c 8edf 59be
00000210: c756 cb3d 52fb 7e3e 8a61 4f3d cfbc e83e
00000220: de72 9a3e 4f63 5abe a5e8 f6bd b725 a7bb
00000230: 921b 82bd eed0 acbd 652d 9e3c e2a6 dbbd
00000240: 7aa7 623e e33d 053b 0e4a 613d 2015 263e
00000250: 4b09 cd3d 47c2 413d afc4 913e eae5 15bd
00000260: b08c 423c 1711 f03d e594 c8bc 81e6 2a3e
00000270: e66a 9bbc c326 ba3d 2ddc 023e e8c2 9a3d
00000280: 7652 5d3c 44c2 95bd 992d 2b3d f6ad 62bd
00000290: 2445 56bc a00e 023d b602 223e 2655 08bd
000002a0: d49d e4bc 52fb 643d 7556 983e ea0c b33d
000002b0: 81d8 a8bd 124f 1d3e 6317 19be 145b babc
000002c0: 6715 543e 3f5e 623e 6c6f 4c3e 72a2 233e
000002d0: 4ef7 babd be98 633b 230b f6bd e208 9ebc
000002e0: ea51 d1bd 0c39 003e d619 8b3e d65c 22bd
000002f0: b8e5 eb3e 48e0 6e3d 8e44 24bd f145 113e
00000300: 7792 953e bbab 58bc f0be 6dbd 523b 333e
00000310: ba6b 9bbc 6ff7 e4bd dc28 45bc bb0f a83d
00000320: f48e 243b 409c 883d 8585 b53d 37bd d73d
00000330: fba7 203e cb72 2a3e cc6d 2d3e 5286 b63d
00000340: b974 193e d542 efbd f3f9 093e ed1a a2bd
00000350: 008c b63e 73da 64be d3e9 71bc 7dbd 883d
00000360: bff7 c43d 07c8 693d 0c16 a63d e37a 10be
00000370: 8adc 4b3d d863 913e 8a71 cb3a 280a 0ebe
00000380: 22e9 d93d d5a9 09bb d7fe 5dbd 50d0 aabe
00000390: de57 0c3d 7add 2f3e cce8 733e 4977 ae3c
000003a0: d3da 0a3e 8346 803e c29e 003d 6d91 d03d
000003b0: 395b 10be f36f 2ebd 20c3 88be 2a32 273d
000003c0: b11e dbbe 00e5 493e 6cc8 f73d 7c12 203e
000003d0: a8d7 debd bc7c 353e 341c 97bc 226e 48bb
000003e0: a56f 83bd 113f 433e ae48 093e 8a1d e13d
000003f0: c858 33be 4059 5e3d a47c 313d d2b1 873d
0.05984537 -0.1349798 0.21526174 0.06731747 0.083002076 0.032276195 0.016121287 0.056406766
0.12948045 -0.013900775 0.10039667 -0.38530445 -0.04932079 0.07298089 -0.13622153 -0.033039436
0.10398563 0.14826123 -0.20329778 -0.08042064 -0.42753425 -0.16174681 -0.14628649 -0.11142624
0.2720146 -0.107278824 0.14751652 -0.07421513 -0.1551592 -0.094042 0.124656364 0.025786588
0.114419 0.103639014 0.08124447 0.2920736 -0.36635125 0.035639506 -0.111381695 0.01326747
0.14190073 0.28821233 -0.123402216 0.268105 -0.026373804 -0.012454884 0.14929427 -0.098884396
0.124136105 -0.05803785 -0.0587294 -0.017246738 -0.49695268 0.20994818 0.23171067 0.15407328
-0.022239082 -0.02690535 0.19777095 0.04039117 0.102499895 0.11739033 0.13123254 -0.1348088
0.1775011 -0.29238287 -0.06119001 -0.013919929 -0.032867204 0.10646389 0.1166158 0.17324716
0.08812664 0.10514213 0.18118154 -0.04747722 0.22381595 -0.22756049 0.073636495 -0.14211807
0.08766504 -0.11500572 0.15616916 0.065787956 0.059777033 -0.03836427 0.10390726 0.054783802
0.08662497 -0.055578794 0.30888826 -0.12836757 -0.084228724 0.022687057 0.0921052 -0.20422642
-0.16077 0.26112503 0.16270235 0.38697666 -0.29823706 0.00584191 0.06090162 -0.30452892
0.13566561 0.029811472 -0.16563305 -0.19253764 0.18397298 -0.033517823 0.1674061 0.013196884
0.30667713 0.078523934 -0.005323223 0.08476988 0.017756637 -0.18248038 0.08643397 0.17328355
-0.20368734 -0.14294344 -0.22409573 0.094239876 -0.022248074 0.20482542 0.048380744 -0.047153167
0.09965651 0.01733349 0.02357658 -0.21276686 0.09928661 0.24900559 0.05063013 0.4545655
0.30165762 -0.21326946 -0.12056092 -0.0051009315 -0.06352915 -0.08438288 0.019308755 -0.1072519
0.221342 0.0020331077 0.055002265 0.16218996 0.10011538 0.047304418 0.2847037 -0.036596216
0.011874363 0.1172201 -0.024485061 0.16689493 -0.018971872 0.090894245 0.12779303 0.07556707
0.01350843 -0.07312444 0.041791532 -0.055341683 -0.013078008 0.03175223 0.15821347 -0.03328433
-0.02790729 0.05590374 0.2975346 0.087426975 -0.0824442 0.15362194 -0.14950328 -0.022748508
0.2071129 0.22106265 0.19964379 0.15979937 -0.09129201 0.0034728493 -0.12013843 -0.019291345
-0.10220702 0.12521762 0.2716815 -0.039639316 0.460737 0.05831936 -0.04010444 0.14186837
0.29213306 -0.0132245375 -0.05804342 0.17503098 -0.018972266 -0.11180007 -0.012033667 0.08206125
0.002510962 0.06670427 0.088633575 0.10534137 0.1568908 0.16645353 0.16936415 0.08912338
0.14985932 -0.11682669 0.13474254 -0.07915292 0.35653687 -0.22348957 -0.014765221 0.06676767
0.09617566 0.057075527 0.08109674 -0.14109378 0.04977087 0.28396487 0.0015521508 -0.13871062
0.1064017 -0.0021005769 -0.054198112 -0.33362055 0.034263484 0.1717433 0.23819274 0.021297114
0.13560037 0.25053796 0.031401403 0.10183988 -0.14097299 -0.04258723 -0.2671137 0.040819325
-0.42796853 0.19716263 0.12098774 0.15632051 -0.10880977 0.17723364 -0.018446065 -0.0030583222
-0.06417779 0.19067027 0.13406631 0.10991962 -0.17514336 0.054284334 0.043331757 0.066257134

fc1.bias f4 [64]
00000000: de00 2f3e fdb4 db3d eee2 af3c af6b 133e
00000010: 969d 17be 6e30 9d3c 5c53 c8bd 39e1 51bc
00000020: d5cc 843c 81a4 073d 22c2 1e3e f243 2abc
00000030: d9bc af3d eed0 b0bd 3fca 7dbc 3988 13be
00000040: bac8 e33d 3847 c7bd 10ba e53d c365 283d
00000050: 5261 fd3d a34a 873e a893 34bc 69d7 0c3e
00000060: ebaa ccbd 4834 203e 3c27 51bc f7a4 fe3d
00000070: e82c 813c cc92 073d a706 0b3e 419b 973d
00000080: 9010 24be e3aa 2ebe b1f3 08be 9fe1 20be
00000090: 9004 89bd cba7 21be f29d 0bbe 9e08 a9b9
000000a0: 0e0e f5bd 0f80 86bd 1857 48be 5b0f d3bd
000000b0: 314d 663c 22be e83d 549f 71bc e470 053e
000000c0: f60b 0e3d 0977 debc 7dd5 683b 1584 8c3c
000000d0: 8bf1 e6bd 6366 e33d d85d e2bd f0a2 c23d
000000e0: 1e6c 203e 5f4a 12be 5a8f 38bc 06ab 07be
000000f0: aa09 c43d bb6b 1bbe 5206 823d 26c2 9fbd
0.17090175 0.1072788 0.021470513 0.14396547 -0.14806208 0.019188132 -0.097815245 -0.012810045
0.016210953 0.033115868 0.15503743 -0.010392176 0.08580942 -0.086336 -0.015490114 -0.14407434
0.1112227 -0.09730381 0.11217129 0.041112673 0.12372078 0.2642413 -0.011021532 0.13754047
-0.099935375 0.15644944 -0.012765702 0.12433808 0.015768483 0.03309898 0.13576756 0.07402659
-0.16021943 -0.17057376 -0.13374211 -0.15711068 -0.06690323 -0.15786664 -0.1363447 -0.00032240612
-0.11965571 -0.06567394 -0.19564474 -0.10305663 0.01405649 0.1136439 -0.014747459 0.13031346
0.034679376 -0.02715637 0.003552764 0.017152825 -0.112765394 0.11103513 -0.110530555 0.09503734
0.15666243 -0.14286183 -0.011264646 -0.13248834 0.09572156 -0.15177815 0.06348862 -0.07800703

fc2.weight f4 [3, 64]
00000000: 088c a83d e3ca be3d c113 c43c cadf 383e
00000010: 6022 a7bd 6722 8bbd 0c5a 323d 32df c63d
00000020: 9b35 2fbe f04c c2be 89c5 103e a9d9 8ebe
00000030: c423 bb3d a66a 13bf 278c c8bd 0cbd e3bb
00000040: 9b7a 593e 72ff c23d 47cd 513e bc8a 03be
00000050: ef24 4a3e 324a 8f3e 2796 92be e2ed ebbe
00000060: f6e5 4abc d581 063e 4b07 15be 8967 693e
00000070: df00 b93c ce39 64be fb47 a1be 0841 3b3e
00000080: 9a5b a4be 7694 2a3d d9f0 303d 0121 f5bc
00000090: 16e1 85bd 879c 393c e2e9 1bbe 9b2c 93be
000000a0: ae95 163e b405 27bf e31c bf3d e2eb cdbc
000000b0: 29a0 a33d 1f3f 4e3e 55cc 9cbe 3854 a23e
000000c0: 4752 b3be c9d9 a0bc 5b55 1bbf 601d 97be
000000d0: 74fe a4bc 6669 233e d3c6 1fbe f170 afbe
000000e0: fea5 953c a399 2a3d a92f f7be 0c1f a63c
000000f0: 78fc 943e c8a6 a6ba bfe8 35bf d0c1 cfbd
00000100: 5f45 98be cd26 c83d 3cfb 403e aa01 97be
00000110: 215d 153d baf9 cbbe ba54 803e fec0 643e
00000120: 6b3e d03c 754f e33c 2d8f 31be c553 9b3e
00000130: 6d65 4e3e b07b b83d 636e f13d 92f2 133e
00000140: 18af 10be 40b9 ae3b 2c7a 8d3c 30db 133e
00000150: 4535 813d 093c c8be c5ce cabd d31f 873e
00000160: 1dff a9bd 854c a9be ef37 0d3e 1c37 84be
00000170: f950 003e 3686 85be e6bb e7bd b6cd 71be
00000180: fbe7 9abe 6498 21bb f3a6 0d3d 4524 dcbc
00000190: e39c 723e 7b12 3ebd 3ded d5bc 2175 193d
000001a0: 87d5 09be c3c7 c4bc a88c 9abe 6f40 a9bd
000001b0: 2184 05be e911 87be a77e 7b3e 805f febc
000001c0: 5e1f 1f3d 26d7 493d 487c 7a3e 6324 4cbe
000001d0: 15b3 27bd 6f16 96be 8dc0 8c3e a27f ee3d
000001e0: efda 80be dc62 d4bd b032 153d 8d8a a3bd
000001f0: 48d5 8ebe 0c44 90bc f62b 0d3c f7c2 9e3d
00000200: ded4 c23c 1582 67be 8cd6 83be 180e 1c3e
00000210: 8586 baba 1b71 473e bcc3 9abe ad26 3ebe
00000220: 9607 083e 79f6 993e c50c 74be 02a1 0bbe
00000230: 25ee 41be 2b27 c93e d530 7d3c 28f0 89be
00000240: 10e1 52be 54d5 873c fd32 93be 9a1b 77be
00000250: 74ba a3be d92c 2f3e 6d76 b93e 1d16 82bd
00000260: 911f b5bd e88e 90bd 6d74 2b3e 2e37 ec3d
00000270: 5c88 7fbe 9838 b83e e94a ad3e cabf 47be
00000280: 5514 023f 2331 9639 e060 40bd 5edc 66bd
00000290: 07e3 67be 5d2b 0ebd 5f69 0e3d 92a3 aa3e
000002a0: 72fa 2c3b a91f c53e b1c1 a33e 52f6 5abd
000002b0: 3774 37be dff4 4ebd c680 173d 63f4 2fbd
000002c0: b8af ae3e 5ab4 51be 91c6 0b3e a68a b93e
000002d0: 5ae1 0ab8 9f92 e13d 1ed8 9abe 1734 c43e
000002e0: 6211 8d3e 78bf ebbc 2bc5 c83e c628 2abd
000002f0: cd72 adbd 1259 533a 85f8 bb3e c830 52bd
0.08229834 0.09316041 0.0239352 0.18054119 -0.081608534 -0.06793671 0.043542907 0.0971054
-0.17110293 -0.37949324 0.14137854 -0.27900437 0.09137681 -0.5758461 -0.09792357 -0.0069500264
0.21238177 0.095213786 0.20488463 -0.12845892 0.19740652 0.27986294 -0.28630182 -0.46079928
-0.0123839285 0.13135464 -0.14553563 0.22793402 0.022583423 -0.22287676 -0.3150023 0.18286526
-0.32101136 0.04164549 0.04319844 -0.029922964 -0.06537072 0.011328823 -0.15225938 -0.2874497
0.14705536 -0.6524308 0.093316816 -0.025136892 0.079895325 0.20141266 -0.30624643 0.3170488
-0.3502371 -0.019635098 -0.6067712 -0.295146 -0.020140864 0.15958175 -0.15603189 -0.34265855
0.018267628 0.041650426 -0.4827855 0.020278476 0.29098868 -0.00127145 -0.7105827 -0.10144389
-0.29740426 0.09773026 0.18845838 -0.29493457 0.036465768 -0.39838964 0.2506464 0.22339246
0.025420388 0.027747849 -0.17339773 0.3033735 0.20155878 0.090079665 0.11788633 0.14448002
-0.14129293 0.005332142 0.01727017 0.14439082 0.063089885 -0.39108303 -0.099027194 0.26391467
-0.08300612 -0.33066192 0.13790868 -0.25823295 0.12530889 -0.26078957 -0.11315136 -0.23613629
-0.30255112 -0.0024657482 0.034583043 -0.026872763 0.2369266 -0.046404343 -0.0261141 0.03746522
-0.1346036 -0.024021035 -0.30185437 -0.08264243 -0.13038684 -0.26380852 0.24560033 -0.031051397
0.038848273 0.049277447 0.24461472 -0.19935755 -0.04094227 -0.2931399 0.27490655 0.11645438
-0.25167033 -0.103704184 0.036425292 -0.07985411 -0.27897096 -0.017610572 0.008616438 0.0775203
0.023783144 -0.22608216 -0.25749624 0.15239751 -0.0014230764 0.1947674 -0.30227458 -0.18569441
0.13284144 0.30070856 -0.23832996 -0.13635638 -0.18938501 0.39287695 0.015453537 -0.26941037
-0.20593667 0.016581215 -0.28749838 -0.24131623 -0.3197819 0.17106952 0.36223164 -0.06351874
-0.088439114 -0.07058507 0.16743632 0.11533962 -0.2495436 0.35980678 0.33846214 -0.19506755
0.50812274 0.0002864684 -0.046967387 -0.056362502 -0.22645198 -0.034709323 0.03476846 0.3332792
0.0026394394 0.38500717 0.31983712 -0.053457566 -0.17915426 -0.050526496 0.036988042 -0.042957675
0.34118438 -0.20478955 0.13649966 0.36238593 -3.311164e-05 0.11014294 -0.3024301 0.3832099
0.27552325 -0.028777823 0.39212927 -0.04154279 -0.08469162 0.0008062284 0.36713043 -0.051316053

fc2.bias f4 [3]
00000000: ee03 723c 43fe 513d 33da b2ba
0.014771445 0.051267873 -0.0013645351

onnx::LSTM_198 f4 [1, 512, 3]
00000000: 6834 a2be 8243 64be 862f 3bbe efc5 a8bd
00000010: 29d4 eb3c 1cb2 e3be bc70 2d3e a3fa a6be
00000020: 56e5 b13d 3370 123d d9c5 c0be 00ac a0bd
00000030: 0bac f6bd ca5c b5bd 990f 45be b207 58be
00000040: 2aa6 04be f2ac 83be 5a7d 98be e23c 5bbd
00000050: e33c 32be d424 9fbe 0e31 ac3d 8a7b 9dbe
00000060: 8343 b43e d659 603e d17e cabd 4f65 a5be
00000070: 454e 8c3d 119d 1b3e ef47 643c 192f 5fbe
00000080: 4934 3bbe 175d 913c b6c8 b93d b1c5 31be
00000090: 7c36 c2be c8da c53c 3a16 8bbe 075f 8fbe
000000a0: 09ae c4be 83f8 72bd 8b23 723c 2aeb 26be
000000b0: e8f3 dfbd 1e01 dabe c064 863c 7239 82be
000000c0: ed64 bd3c b554 ffbc 42a8 fb3d f122 42be
000000d0: dd66 f3bd dbd3 8ebe 6c6d ec3c d96f a0bc
000000e0: 0dac 80be c94e d6bd 9399 13bd 696e 5dbe
000000f0: 1faf 14be 906b b03d 4e62 a0bd 943f a9bc
00000100: 6ad9 8cbe bef0 debd f11d 1f3e 3fd7 20bd
00000110: 27ba 293d fd75 1b3c 6d88 87bc bd5b 37be
00000120: 7b87 403e bd6a 053e aded 953c 6a3f e23d
00000130: 5953 9f3d a83d 5c3e d2cc 89be 90eb 44be
00000140: ab0f 80be 7833 0a3e 50f9 4b3e b3e1 033e
00000150: 41d9 5c3d 2ca5 88be 10de 813c f8f1 93bc
00000160: 985f a8bd 188d 14be ebb8 763e 4e4d bd3c
00000170: c878 243e b200 eb3d 4cb2 65bd 46f9 8ebe
00000180: e706 d33d 420e 44be b4c5 20be d41c 53be
00000190: 7892 fabd 3868 78ba 63ab 47bb 73ad 8cbe
000001a0: 4395 6e3d 44a0 263d bb75 f3bd 92d8 e0bc
000001b0: f58a 543e e98e 133c 6795 933d 26b6 b0be
000001c0: 7178 1dbe de09 dbbd d246 3abd 3fec 213d
000001d0: d6c2 76bd 3d4a 643c 4d7d e8bc b9c6 93bd
000001e0: 405d 99be 694e 483e 7172 f0be 8231 e9be
000001f0: 0b2f 74be ccab 95be 8097 803d f97b 843d
00000200: 104b c03d 9c2e 86bd db6c 843d 739f a63c
00000210: 0ab3 b83b 1349 5abe c504 6abe dcfa 01bd
00000220: ca62 2dbd e02d 33be a38d 86bd 8ab7 9b3a
00000230: 4e6b 853d 5bc4 b93d 5c07 53be 0816 8dbd
00000240: 634b 93be 2c88 5bbd f970 21be 6f16 8a3c
00000250: 9fe0 8c3d 2ae5 363d 21fa 83bd 1881 99be
00000260: 9e16 15be a094 823d c495 513d 0622 86bd
00000270: 6174 393c 6f0c 513d 64ce 853d 51a1 6fbe
00000280: d74a 78be f0bb 8ebe 53ed 283e 5417 7d3e
00000290: f6dd bdbd c3e7 e8bd c6ef 363d 7e41 2fbe
000002a0: 9312 56be c14a bebc f246 8dbe 794a 40be
000002b0: d244 2d3d 500a f3bc c626 a4bd b100 193d
000002c0: 6e3e f23c 88d9 13be 9db3 9a3c ec6f ddbd
000002d0: 7a25 063b ad6d d23e 9d42 9ebd be2b 043e
000002e0: c515 8d3d 52cb 9d3d 0e64 a23a a108 c8bd
000002f0: a72f 9abd e89b 87bd 4fa1 8a3c c154 c4bd
00000300: 8a4d 893d 0fa9 9c3c 6246 233e 684c 1fbe
00000310: 744a 0dbe d2f1 21be 681e 6e3d 7b58 fb3d
00000320: 5933 323d 4c02 023e 5830 d13e 9ddb 5a3c
00000330: 0bfb 86be ab47 57be d066 3ebe 94e1 8cbd
00000340: cad5 033e 8536 9a3d 05fc 8cbd 9a3d a7be
00000350: b8bc ffbd 64ff 94bd 3b0b 8fbe 2a01 a4be
00000360: 48bd 043e 15ff 763e 459a 14be 8324 b6bc
00000370: d33b 4b3c 2a73 463c f6e1 af3d 360d 1d3e
00000380: 09d6 e53c cd60 71bd 925e 91be 55ab 7e3d
00000390: 764c 133e 6b40 d53d 034a dabc ab74 5b3e
000003a0: 1a0c 593e 774b 3e3e 77b6 403d 01f0 fc3b
000003b0: 5147 42bd 3c13 81be 4fd9 ffbd 931e 07be
000003c0: 447f 643d d5ba fa3d ea05 90b9 d115 8ebe
000003d0: 4758 d6bd 8b1f 1bbe e0d4 c3bd 2ec4 9bbc
000003e0: 587f 7fbd c804 8b3d 173d 253d a534 063e
000003f0: 5831 91bc 5fce 183d d807 55bd 6815 48bc
-0.31680608 -0.22291377 -0.18279848 -0.08240878 0.02878769 -0.44471824 0.16937536 -0.32613096
0.086863205 0.035751533 -0.37650946 -0.078453064 -0.12044533 -0.08855589 -0.19244231 -0.21096686
-0.12954012 -0.25717884 -0.29783136 -0.05352486 -0.17406039 -0.31082785 0.08407794 -0.30758315
0.35207757 0.2190927 -0.098874696 -0.32303855 0.06850866 0.15196635 0.013933166 -0.2179531
-0.18281664 0.017744584 0.09071486 -0.1736057 -0.37932193 0.024152175 -0.27165395 -0.28002188
-0.38414028 -0.05931903 0.014778982 -0.16300645 -0.10935193 -0.42578977 0.016405463 -0.25434452
0.023119414 -0.031168321 0.12287952 -0.18958642 -0.11884854 -0.27896008 0.02886077 -0.019584583
-0.25131264 -0.10464246 -0.03603513 -0.2162415 -0.14519928 0.08614266 -0.0783125 -0.0206602
-0.27509624 -0.10885762 0.15538765 -0.039267775 0.041437294 0.00948858 -0.016544545 -0.17906089
0.18801682 0.13028999 0.01830181 0.110472515 0.07779569 0.21507895 -0.26914078 -0.19230485
-0.25011954 0.13496196 0.19919324 0.12879066 0.053918127 -0.26688516 0.015852958 -0.018059716
-0.08221358 -0.14506948 0.24093978 0.02310815 0.160617 0.11474742 -0.05607824 -0.27924556
0.10304051 -0.19146064 -0.15700418 -0.20616466 -0.12234968 -0.0009475979 -0.0030467145 -0.2747608
0.058247816 0.040680185 -0.1188769 -0.027447019 0.20756133 0.00900624 0.072062306 -0.34513968
-0.15377976 -0.106952414 -0.045477696 0.039531942 -0.060244404 0.013933715 -0.02838006 -0.07215638
-0.29953957 0.19561161 -0.46962312 -0.45545584 -0.2384607 -0.29232633 0.06278896 0.064689584
0.09389317 -0.06551859 0.06466075 0.020339703 0.0056365775 -0.21316938 -0.22853382 -0.03173338
-0.04233054 -0.17497969 -0.06569984 0.001188026 0.06514607 0.09070655 -0.20608276 -0.06888968
-0.28768453 -0.05359666 -0.15765752 0.0168564 0.068787806 0.04465214 -0.06444193 -0.29981303
-0.14559409 0.06376004 0.05116822 -0.06549458 0.011319251 0.05103725 0.065335065 -0.23401381
-0.24247299 -0.2787776 0.16496782 0.2471593 -0.09270851 -0.1137233 0.04466226 -0.17114827
-0.20905523 -0.023229005 -0.2759319 -0.18778409 0.04230196 -0.029668003 -0.08015208 0.037354175
0.029570784 -0.1443845 0.018884474 -0.10812363 0.0020469115 0.410993 -0.07727549 0.12907311
0.06888918 0.07704796 0.0012389438 -0.09767271 -0.0752862 -0.06621534 0.016922621 -0.09586478
0.067042425 0.019123582 0.15944818 -0.1555649 -0.13797933 -0.15814903 0.058134466 0.12272736
0.043506 0.12696189 0.40857196 0.013358024 -0.26363406 -0.21023433 -0.18593907 -0.06878963
0.12874523 0.0752993 -0.068840064 -0.32664186 -0.12487167 -0.072752744 -0.27938256 -0.32032138
0.1296283 0.24120744 -0.14511974 -0.022234207 0.0124044 0.012112418 0.085880205 0.15337071
0.028056161 -0.058930207 -0.28392464 0.062175114 0.14384636 0.104126774 -0.02664662 0.21431224
0.21196023 0.18583475 0.047049012 0.0077190404 -0.047431294 -0.25209987 -0.1249262 -0.13195257
0.055785432 0.12242667 -0.00027470227 -0.2775102 -0.10466056 -0.15148751 -0.09562087 -0.019014444
-0.062377304 0.06788021 0.040341463 0.1310602 -0.017723724 0.037306186 -0.052009434 -0.012212135

onnx::LSTM_199 f4 [1, 512, 128]
00000000: 6d4c 0ebe 0628 d63d ed0a e8bd 17c3 1e3e
00000010: fbbd c53d 507d 2a3e 5774 b83c f7e0 643e
00000020: 7428 db3d a63b 8c3d f4f9 dc3d 8423 6abd
00000030: 689f 1e3e 6561 2abe c73b 08be 7200 c93c
00000040: b2e2 0ebd 4adc 26be 0460 8dbd 0101 c5bd
00000050: b802 40be 8fcb 6b3d 6808 093d ad33 333d
00000060: 643b 713c 73b0 1dbd 2316 8e3d 6aae 16be
00000070: 1eb7 333d 18e7 9c3d 52d3 613d dc22 c63c
00000080: ad58 e33d 0032 1ebe 3557 223d 528e f33d
00000090: 8d53 81bc ef65 163e 8c1a 9abd d9cb 42bd
000000a0: 9b45 41bd 0044 703e 6cde 223e b7cd 81bc
000000b0: 03ea 163d baf0 cbbc e643 613c 3b3e d23c
000000c0: 1da5 07bd 8803 8abd 23cc e3bd 2aba 85bd
000000d0: f322 103e 9c42 8ebd b6df c9bd 0394 213e
000000e0: 36cd cbbc d7a9 a1be 1b8a 50be d3ae d3bc
000000f0: d9ad 1a3e 121e 37bd a107 16bd ad78 043d
00000100: 2642 49bd 91f5 fd3d e6ea 823c 88e8 65bd
00000110: b48d 613d fe01 be3b 2953 2dbd ef7b e13c
00000120: db93 093e 0072 e3bb 420b 313c df3e 9e3c
00000130: 2aa7 efbc 91de 3abd 7590 083e 5ac1 833e
00000140: 2104 48be c42d 1abe 1c96 34be 0cde 19bd
00000150: 4260 61bd d2be 95ba bfae 1cbd 93ed 853d
00000160: 1ca6 d8bd 7ae7 b13e 8d19 b6bd 0566 8d3d
00000170: a95f 803b 3637 03be 14f9 673d 335f bdbd
00000180: ed76 ed3d fbbf 993d fb76 0cbd be2e 7b3d
00000190: 0f1b 903d 9abd fabd 8f52 92bc b78f 28bd
000001a0: 63aa 4fbe 4ae8 433e 08a6 553e 1199 5dbe
000001b0: 2ed8 bf3c 4c5b cfbd 0be1 393d cfc5 383e
000001c0: 7273 d4bc e87e d1bc 9502 1cbd fbc4 f2bc
000001d0: 0917 e7bd 9886 63bd f91e 1b3e 6e78 373d
000001e0: 065f 81bc 6317 0f3d 2ff8 19be 0dc0 1a3c
000001f0: 81e2 ee3d 04ff 4fbd 02ae 60bb 8be2 a0bb
00000200: b555 d6bd a85c 923d 2a38 46be 4934 acbd
00000210: ed10 2d3d 4890 1dbd 0368 1bbe dc9c 0c3d
00000220: 1483 14be 27ef 463e d115 0fbd e6bd 463d
00000230: dc98 503e a909 fd3d 66cf babc a5ab 6ebe
00000240: 2bb3 193d 4220 833d 91c9 063e 4a12 433a
00000250: 0a25 cf3d 0780 5ebe 777d 7abd 14bb cb3c
00000260: 5b42 b0be 241d df3d cba4 5e3e 247b 85be
00000270: 3d70 653d 8146 9e3d fdc1 68bd d538 0c3e
00000280: 7320 7b3d 7099 7a3d 5fe6 f6bd 9533 6e3d
00000290: 53f4 1dbd 0f7b 883e 6761 1f3e aea9 46be
000002a0: 927c 09be 0919 3fbd 6394 113e 15ba 183d
000002b0: 159a 6d3b 955f d1bc d507 123c 11f7 2d3d
000002c0: 4f74 6d3e 02d5 0b3d 943f 6e3d 9b0a 193c
000002d0: cac8 3d3e 26b8 abbd 6b95 543c 557c 90be
000002e0: 4f85 79be 86d8 bcbd c7f9 223c 57e7 84bd
000002f0: ff6a 83bd 4cca af3c 72da 9e3d bb10 3abd
00000300: bb4d 45bd 3a59 1dbd 88cd ef3d 5169 2c3e
00000310: 33a0 fdbb 9f3c 23be b4dc f2bd a268 973d
00000320: e944 96be 7717 e6bd 6dca 9a3b 8b14 623e
00000330: 3905 da3c e92e 8dbc 9fb3 a8bd 77d9 243e
00000340: 8ebb 343a 3e03 503d 0f38 11be ec7c f0bc
00000350: 309b 82be 231a 59be cc3d d43c 65cc 293e
00000360: 8b73 b33d 0890 a2bd bab8 d6bd 99ad f0bd
00000370: 269b 103e e380 433d ec96 ac3d a5c2 2dbe
00000380: 5433 393e 9c20 44bb 20ff 593e 83d1 3a3e
00000390: bf05 81bd ca2c a7bc 7c4f 133e 5dec 933d
000003a0: 7e63 d7bd 1b39 bdbd a851 d33d 6083 d53d
000003b0: e20c 9a3c 1558 043e 7169 1f3c 77fd acbd
000003c0: 8bf1 be3d 1c03 683e c4cd de3d 3361 823d
000003d0: 79bf 79bd fd12 e5bd 849d 283d 7a2b 473c
000003e0: fdbe ec3d 8a6a 14bc 178e e23d ff1c 003d
000003f0: 2366 74be 9b0f 183d 0b1d 29be 13af f13d
-0.13896342 0.104568526 -0.11330209 0.15504108 0.096553765 0.16649365 0.022516413 0.22351442
0.10701075 0.068473145 0.10789862 -0.057162777 0.15490496 -0.16638716 -0.13304053 0.024536345
-0.034884162 -0.16294971 -0.06903079 -0.09619332 -0.18751037 0.057567175 0.033455282 0.043750454
0.0147236325 -0.038498353 0.06937816 -0.14714971 0.043875806 0.07661265 0.05513317 0.024186544
0.11100898 -0.15448761 0.03963395 0.1189238 -0.01578691 0.14687322 -0.07524595 -0.047557686
-0.04718552 0.2346344 0.1590516 -0.015845163 0.036844265 -0.02489506 0.013749098 0.02566444
-0.03311645 -0.06738955 -0.1112292 -0.065296486 0.14075832 -0.069462985 -0.098571226 0.15779118
-0.024878126 -0.3157489 -0.20365183 -0.025840199 0.1510538 -0.04470641 -0.03662837 0.032341648
-0.04913535 0.12400354 0.015981149 -0.056129962 0.05506678 0.0057985773 -0.042315636 0.027524916
0.13435309 -0.00694108 0.010805907 0.019317089 -0.029254515 -0.045622412 0.13336356 0.25733453
-0.19532825 -0.1505652 -0.17635387 -0.037565276 -0.05502344 -0.0011424667 -0.03825259 0.06539454
-0.10578558 0.34746915 -0.08891592 0.06904224 0.0039176536 -0.1281403 0.056634024 -0.092466734
0.11594949 0.075073205 -0.034293156 0.061323874 0.07036411 -0.12243195 -0.017861633 -0.041152682
-0.20279841 0.1913158 0.20864117 -0.21640421 0.023418512 -0.10124835 0.045380633 0.18044208
-0.025933955 -0.025573209 -0.0380884 -0.029634943 -0.112836905 -0.05554828 0.15148534 0.044792585
-0.015792381 0.034934413 -0.15036081 0.009445203 0.11664296 -0.05078031 -0.0034283404 -0.0049098185
-0.10465566 0.07146579 -0.19357362 -0.0840841 0.04225247 -0.038467675 -0.15176396 0.03432928
-0.14503127 0.19427167 -0.034932915 0.048520945 0.20370811 0.12355358 -0.022803973 -0.23307665
0.037524384 0.06402637 0.13162829 0.0007441385 0.101144865 -0.21728526 -0.06115481 0.02486948
-0.34425625 0.1089423 0.21742551 -0.2607051 0.056015242 0.07728291 -0.056825627 0.13693555
0.061310243 0.061181486 -0.120556585 0.05815466 -0.038563084 0.26656386 0.155645 -0.19400665
-0.13426426 -0.046654735 0.14216761 0.037286837 0.003625517 -0.025558272 0.008913 0.04247195
0.231889 0.034138687 0.0581661 0.009340907 0.18533626 -0.08384733 0.012975077 -0.28219858
-0.2436726 -0.09220986 0.009947247 -0.06489437 -0.06416892 0.021458767 0.07756509 -0.04542611
-0.048169833 -0.03841517 0.11709124 0.1683705 -0.0077400445 -0.15941094 -0.11858502 0.07393004
-0.2934945 -0.11234944 0.004723838 0.22078149 0.026613818 -0.017234283 -0.08237385 0.16098581
0.0006894403 0.050784342 -0.14181541 -0.029356442 -0.25509024 -0.21201377 0.025908373 0.16581877
0.087622724 -0.07937628 -0.104844525 -0.11751861 0.14121684 0.047730338 0.084272236 -0.16968782
0.18085986 -0.0029926663 0.21288729 0.18243985 -0.06299924 -0.0204071 0.1438579 0.07222817
-0.105170235 -0.09239408 0.10318309 0.104254484 0.018804971 0.12924226 0.009729729 -0.08446782
0.093234144 0.22657436 0.108790904 0.063661955 -0.06097362 -0.11185262 0.041165844 0.012156362
0.115598656 -0.009058604 0.11062258 0.031277653 -0.23867087 0.037124258 -0.16514985 0.11800971

onnx::LSTM_200 f4 [1, 1024]
00000000: ffa3 7cbe f55d 1bbe 16d1 80bd 1a7a f4bd
00000010: 1095 5cbe 537c 01be 67a0 22be f8a6 eebc
00000020: a030 343e ff0e 7ebd b577 9cbd 7c64 7ebd
00000030: b093 36be f354 1ebe e2e3 73bd 3c0c 3dbe
00000040: e01a 27bb df36 60be 7a19 debd 0915 81bd
00000050: 8185 4abc a94b 43be 61b1 0c3e 639a 18be
00000060: 8c38 633e ea5a 583d a4c1 85bc 4129 073e
00000070: d9b1 1bbe abe1 36be 0378 063e 8bcf da3c
00000080: 601e 303d e671 1abd 27dc 21bd 59f4 813d
00000090: a12b 533e a519 75be 4246 aa3d c245 80bd
000000a0: 2e74 0dbd 59cb e03c f7e1 1b3d 4af4 f1bd
000000b0: 1e6e 85bb dbcd 25be 8668 88bc ad80 82bd
000000c0: b2d1 bebd 5b3a 573b 7e92 55bd bc99 3f3e
000000d0: e0e0 be3c f180 63be 8414 733e 6fe1 d03d
000000e0: 29f4 f23c 64b8 56bc 1fc0 e3bc 0785 0a3d
000000f0: 5130 913e 41f4 9c3d 0ac8 99bc 880f 333d
00000100: 6799 f63d 83e2 e2bd 7e99 e03d 058a 3a3e
00000110: c3b8 d1bd baa0 30bd ae43 f1bc 99a7 06be
00000120: a9d4 1d3e 1859 08bd 7ec2 2f3d eb54 02be
00000130: 5d58 263e ac12 013e 8d30 05be b5ab 7bbd
00000140: 8c38 483d c003 8abe bbf7 a8bc da2f 563e
00000150: 1840 0ebe b6de 4c3e e03c 26be 503a 84be
00000160: 1e5f 3a3d ed67 013d 2b9f 22be 1673 60bd
00000170: f09c 6fbe 1fc2 e1bd e273 75bd aa2b bebd
00000180: 930a 6a3c 9faa 6f3d bc8b b83e 6aed 863c
00000190: 7af5 78be eef9 883d 0936 45bd a7f2 24bd
000001a0: 0aa1 593c 6f29 72be 3136 873e ccb4 17be
000001b0: 36c6 46be 6ac2 043e dfcc b1bd 5396 aabd
000001c0: 8494 593e 4dfa 823d 40b4 d03c e842 64be
000001d0: 59f9 a5bd 86d1 0f3d 79f1 f9bd 4899 17be
000001e0: 6a77 b93b 8e1f 3bbe e691 ef3d 603e 73bd
000001f0: ced5 fe3b 16a6 85be cfc9 e2bd f87f a83e
00000200: 85c3 19be 113d 05be 9579 1dbb 581f bfbc
00000210: 4d85 41be cf24 07be 243c 40be fd5d a83d
00000220: 1f3a 6e3e 8daa 8fbd 99b8 613b bc8a 6abc
00000230: 8e46 02bd 72c8 0bbe a602 f43d 697a e1bd
00000240: d328 bebb b1e5 21be 2f37 b8bd 0ec7 87bd
00000250: 8d62 f2bc 897e 9bbd ee4c 383d e64d d0bc
00000260: 86b8 4e3e 7d8e 553d e0e9 fabd 63f1 183d
00000270: 12c1 bcbc 02d2 cfbb 8182 a13d f1df ecbd
00000280: 6640 543c 0194 82bc b76d 8dbd afcc 66bc
00000290: 93cc 1d3d f40d 03be 6908 b63d 8f62 48bd
000002a0: cf1e c4bd 66fa 143d c1f7 cc3d 2039 e5bc
000002b0: 693b f13d b950 68be 91d4 ae3d 9276 1abd
000002c0: 1358 f5bd 8373 3b3e 1c8a e1bd 0959 2f3e
000002d0: ec02 903d 6146 ddbd d3ca 2b3e 998d 973d
000002e0: f4ef 113d ffda bb3c 66d5 82bd 64e4 a3bd
000002f0: 378c 1c3e 2c3e df3d 8ab7 c1bb edb4 f7b9
00000300: 4c77 b43d 2902 abbd 0005 993d 18bb 023e
00000310: 4425 3dbe db24 37bd 953a 81bd 8ff7 19be
00000320: 8961 e53d 3e65 c63c 280e eb3c eea1 96ba
00000330: 7de9 233e 4a30 f83d 5a2c d1ba 7dfb ffbd
00000340: 3b77 c93d 939b 7cbe 2694 5abd a1a8 753e
00000350: 4241 dcbd e829 043e a599 32be b3f6 3dbe
00000360: a600 8c3c f5ca 713c a65d 2fbe b8e9 a0bd
00000370: ba8c 02be 5755 103c 6c7a c73c 0933 80bd
00000380: 4d41 563d bfd2 c0bc 67f5 a03e f7f2 7c3d
00000390: c7ef 0dbe 08ae 54bd 6e2d 843b 1ed4 84bd
000003a0: ead8 f43d 62d5 22be b62b d03d f0e3 8fbd
000003b0: 522d 2fbe e511 263e c28b 06be 07a5 13be
000003c0: c718 0e3e 15e2 01bd f26a f03d ff24 5ebe
000003d0: b72e f4bb 00b8 263e 28b0 39be 0288 92bd
000003e0: a962 15be 98b7 1ebe d846 923d d078 20bd
000003f0: 4e31 913b 8a92 3bbe 8efe a6bd 69bd 963e
-0.24671935 -0.1517256 -0.0628988 -0.119373515 -0.21541238 -0.12645082 -0.15881501 -0.029132351
0.17596674 -0.06202602 -0.0764002 -0.062107548 -0.17829776 -0.15462093 -0.059543498 -0.18461698
-0.0025498196 -0.21895932 -0.10844703 -0.0630284 -0.012360931 -0.19071831 0.1373954 -0.14902644
0.2218954 0.052821077 -0.016327687 0.13199331 -0.15204562 -0.17859523 0.13131718 0.026710292
0.042997718 -0.03770628 -0.039516594 0.06345434 0.20622112 -0.23935564 0.08314182 -0.06263305
-0.034534626 0.027440714 0.038057294 -0.118141726 -0.004071965 -0.16191809 -0.016651403 -0.06372199
-0.0931734 0.003284118 -0.05214166 0.18710989 0.023300588 -0.22217156 0.23738295 0.10199248
0.02965744 -0.013105486 -0.027801571 0.03381827 0.28357175 0.07663775 -0.018772144 0.043715984
0.12040978 -0.1107836 0.10966776 0.18216713 -0.102403186 -0.04312203 -0.029451218 -0.13149871
0.15413155 -0.03328809 0.04291009 -0.12727706 0.16244645 0.12604779 -0.13006802 -0.06144305
0.048882052 -0.26955986 -0.02062594 0.20916691 -0.13891637 0.20006832 -0.1623416 -0.2582574
0.045500867 0.031593252 -0.1588103 -0.054797255 -0.2339971 -0.11023354 -0.059924968 -0.09285672
0.014284748 0.058512326 0.3604411 0.01647063 -0.24312392 0.06688295 -0.048147235 -0.040270474
0.013283024 -0.23648618 0.26408532 -0.14815062 -0.19411549 0.12964788 -0.08681654 -0.08329453
0.2124806 0.06395397 0.025476575 -0.22291148 -0.081042 0.035111926 -0.122042604 -0.14804566
0.005659987 -0.18273756 0.1169775 -0.059385657 0.0077769523 -0.26103276 -0.11073648 0.32910132
-0.15015991 -0.13011576 -0.0024028767 -0.023330376 -0.18898506 -0.13197635 -0.18772942 0.08221052
0.23264359 -0.07014952 0.0034442304 -0.014315303 -0.031805567 -0.13650683 0.11914568 -0.11009676
-0.0058032065 -0.15810277 -0.089949004 -0.066297635 -0.029588008 -0.07592494 0.04499524 -0.02542777
0.20187578 0.05213784 -0.12251639 0.03733958 -0.023041282 -0.0063421736 0.0788622 -0.11566151
0.012954807 -0.015939714 -0.06905692 -0.014086886 0.038525175 -0.12798291 0.08888323 -0.048922118
-0.09576189 0.03637161 0.10008193 -0.02798134 0.1177891 -0.22687043 0.085366376 -0.037710734
-0.119796894 0.18305783 -0.110126704 0.17123808 0.07031807 -0.10804439 0.1677659 0.074000545
0.035629228 0.022931574 -0.06388359 -0.080025464 0.15287863 0.1090053 -0.005911772 -0.0004724631
0.088118166 -0.083500214 0.07471657 0.12766683 -0.18471247 -0.044712882 -0.06310002 -0.15035842
0.11200244 0.024218198 0.028693274 -0.0011492351 0.16007037 0.121185854 -0.0015958652 -0.124991395
0.098371945 -0.24668722 -0.05336394 0.23990108 -0.107546344 0.12906611 -0.17441423 -0.1855114
0.017090153 0.014757861 -0.17125568 -0.07857078 -0.12748995 0.008809409 0.024350367 -0.06259734
0.05230837 -0.023537992 0.31437227 0.061755147 -0.13860999 -0.05192378 0.004033736 -0.06485771
0.119554356 -0.15901712 0.10164587 -0.070258975 -0.17107132 0.16217764 -0.13139251 -0.14418422
0.1387664 -0.03170975 0.11739148 -0.216938 -0.007451858 0.16281128 -0.18133605 -0.07154848
-0.14588417 -0.15499723 0.071424186 -0.039177716 0.0044309264 -0.18317619 -0.08154021 0.29441383

onnx::LSTM_218 f4 [1, 512, 128]
00000000: 20b3 a2be 3be5 98bc b357 99bd 7816 4cbd
00000010: 80bd 1d3d 5295 383c 147e b5be 4524 803d
00000020: 7daa 70be 2634 423e fabf 0a3e 0e4e 32bd
00000030: 46ee 963e ad73 2b3e b611 793e 26e3 14be
00000040: 2c2f 4abc 4811 4abe 02e1 a2bd a676 263e
00000050: 7ddf e3bc cfd1 9ebe 4e1d bcbd 080e 20bd
00000060: 5970 bebc bdde 493e 0736 42bd 8809 adbd
00000070: 6ff6 ca3d 77d5 d8bd b88a 053d 850a 023e
00000080: 8089 f43d 6ee9 48be 6756 0abd ceac e53d
00000090: 71a8 853c 8775 243e 923e 94be 50b7 33be
000000a0: c238 a3be 0388 7e3b b3a0 593e c0a0 01be
000000b0: 9655 85bc e4bc 0f3e b6b8 6fbd 67af 9dbd
000000c0: 8baf 1d3d 1632 a73d 7652 0c3e 799d 1e3e
000000d0: 054a f7bd bfe2 e7bd 8259 a5bd e9c9 473d
000000e0: 57c0 f6bc 848e 403e 3cda 413e 11eb 763e
000000f0: cb90 2bbe e8b9 823e a169 41be 5be4 17bd
00000100: 18a1 553c 83c6 e0bd ecb8 883d 87d6 a7bd
00000110: 9b26 123e b5f8 26be f767 f73d 97bd 8e3d
00000120: 55ae 9bbe 6c7a 80be eb0f 36be 1b3b d53d
00000130: 69cc 193c acd5 a8bd 944f 4d3c 2b7f 063e
00000140: 3844 89bd 6a97 263e 2a5c 3a3e 68f5 623e
00000150: db92 713d adec 86be 6294 913c bd1e 953e
00000160: 55de 0b3e 4807 7e3e 2b34 56be 14ff 45bc
00000170: 87c0 013e 1a1f c4bb 9e56 53be 84d7 fabd
00000180: 8b1c c1bd 2bf0 3a3d eed9 73bd d1af d63c
00000190: 9626 49be d06b 873d 117d 783e 3b0e 483e
000001a0: 29ab a43d fdf6 02bd f3c5 d23d 0a59 80bd
000001b0: 8a25 6a3d 43a5 9c3d 6315 753e b6a8 31be
000001c0: 0fa3 bc3d fa0e 5a3d 7103 2a3e 6f9e 1c3e
000001d0: e7e4 0d3d be72 febc 25df 2b3d f80a 763e
000001e0: f29d 4fbd e538 213e c64c 6b3d dee7 b23d
000001f0: 3f54 2bbe 1c05 b63d d5df 6f3d 998b 57bd
00000200: 7209 32bd 1fd4 26bd 569f 0bbe 6081 633e
00000210: 3893 913d 8876 483d f567 5dbd ed09 6dbe
00000220: 8cb6 58bc b6f1 973d d467 ab3c 7dc1 6dbd
00000230: 39a0 583e 97f8 bebd 7af7 513d f339 8dbe
00000240: 5feb 7abd 9b85 743d a1e8 003c 5e37 ce3d
00000250: 0fa8 b6bd f4ee 1fbe 396c 5c3e a58e 023e
00000260: b787 003e 877f babd 1d16 b03d 6ecc 663e
00000270: ef0a 343e 0c9d a83b 677e a33e 7068 bebc
00000280: a504 943d eab7 ae3d e30d 403e 485e 623e
00000290: e737 d93e 0562 2d3e fa1a 62be 23fd 893d
000002a0: cdf3 283e 06dd 013e 54b4 5dbe 3e1f ab3d
000002b0: 73cd 583e 7446 893c 09f9 2fbe 5ce2 393e
000002c0: d58d 0cbe 9c68 38bd 95a1 9cbd 8aa5 5d3e
000002d0: d53a c5bd 2b8f 43be e622 1c3d fcb6 243c
000002e0: 465f cb3b e1a6 0f3e e894 e1bd 92f4 563d
000002f0: 3323 ed3d cde0 8e3e 7bd0 ccbc f77e 123e
00000300: 2150 4c3e 6f26 4e3d 2f0c 4cbe 7389 a23d
00000310: 2942 08bc 9827 043e 4f59 9ebe 9a52 d63d
00000320: 94ab b1be e55b 1fbe 3852 203e 4201 533e
00000330: cde6 9e3e de9c 73bc dde1 5a3e b2ec 583c
00000340: 7be6 c1bc b156 3bbd e493 013a 58cd 813e
00000350: c006 1dbe 0945 67bd d991 5fbe ab22 2f3e
00000360: 9ac2 77be 94f5 243e 158f 18bd 879f f03c
00000370: 364a 2abe 98dc 52bc fc37 0e3e ac8d 9bbd
00000380: 60e3 96bc de0d 363e 71a3 81bd ef3c 3bbe
00000390: cc7b d03b 9336 963c d2ec 64bd 22b7 1ebe
000003a0: f804 623e 000b 13bd 3ab5 ddbd 915a 80be
000003b0: 9859 c2bd 6278 e8bd 9941 c0bd e06c 34be
000003c0: 4779 033d f3bf 11be 3521 b0bd ab93 953d
000003d0: 9af6 e53c d614 3d3e bec8 123e 5145 943e
000003e0: c532 b4bc 076e 413d 0572 fb3d 337c bc3d
000003f0: 5a96 ae3d 807a 25bb 37e2 51bd ff24 53be
-0.31777287 -0.018663993 -0.074874304 -0.049826115 0.0385108 0.0112660695 -0.35447752 0.06256918
-0.23502536 0.18965206 0.13549796 -0.04353147 0.29478663 0.16743346 0.24323162 -0.14539775
-0.012340348 -0.19733155 -0.07953073 0.16256198 -0.027816528 -0.31019446 -0.09185277 -0.03907588
-0.02324693 0.19713874 -0.047414806 -0.084490836 0.09910285 -0.1058759 0.032602996 0.12699325
0.119402885 -0.19620296 -0.033773806 0.112146005 0.01631567 0.16060458 -0.28953987 -0.17550397
-0.3187924 0.0038838394 0.21252708 -0.12658978 -0.016276162 0.140369 -0.058525763 -0.07699471
0.03849749 0.0816385 0.13703331 0.15489759 -0.12074665 -0.11322545 -0.08073713 0.04877654
-0.030121012 0.18804365 0.18930906 0.24113108 -0.16754453 0.2553246 -0.1888795 -0.03708301
0.013038896 -0.10975363 0.06675896 -0.08195215 0.1427254 -0.16305812 0.120803766 0.06969755
-0.30406442 -0.250934 -0.1777951 0.10411664 0.009387114 -0.0824388 0.01253118 0.13134448
-0.06702465 0.16268697 0.1819922 0.22163928 0.058977943 -0.26352444 0.01777095 0.29125014
0.13659032 0.24807465 -0.20918338 -0.012084741 0.126711 -0.005985153 -0.2063851 -0.122481376
-0.09429272 0.0456392 -0.059534006 0.026206883 -0.19643626 0.066123605 0.24266459 0.19536678
0.08040459 -0.031973828 0.10291662 -0.06266983 0.057164706 0.07648709 0.2393394 -0.17349514
0.092107885 0.05323694 0.16602875 0.15294813 0.034642126 -0.031060573 0.041960854 0.24027622
-0.050687738 0.1574436 0.057446264 0.087356314 -0.16731356 0.08887693 0.058563072 -0.052623365
-0.04346604 -0.04072964 -0.13635 0.22217321 0.07108158 0.048941165 -0.05405422 -0.23148318
-0.013227116 0.074191496 0.020923533 -0.058045853 0.2115487 -0.093247585 0.051261403 -0.27583274
-0.061259624 0.05969773 0.007867963 0.10069154 -0.089187734 -0.15618497 0.21525659 0.12749727
0.12551771 -0.09106355 0.08597968 0.22538921 0.17582296 0.0051456746 0.31932375 -0.023243159
0.072274484 0.085311726 0.18755297 0.22106278 0.42425463 0.16931923 -0.22080603 0.06737735
0.16499253 0.1268197 -0.21650821 0.08355568 0.21172123 0.016757227 -0.17184843 0.18152755
-0.1372598 -0.04502164 -0.07648007 0.2164518 -0.09630362 -0.19097583 0.03811922 0.0100533925
0.006206426 0.14028503 -0.1101473 0.052479334 0.11578979 0.27905884 -0.025001755 0.14306246
0.19952442 0.050329622 -0.19926523 0.079363726 -0.008316555 0.12905729 -0.30927512 0.10464974
-0.34701216 -0.15562399 0.15656364 0.20605949 0.31035462 -0.014868943 0.21375223 0.013240026
-0.023669472 -0.045736972 0.0004942997 0.25351977 -0.15334606 -0.05646232 -0.2183298 0.17103069
-0.24195328 0.16109306 -0.03724583 0.029372944 -0.16629872 -0.012869976 0.13888544 -0.07595381
-0.018418968 0.17778727 -0.06330002 -0.18284963 0.006362414 0.01833657 -0.055889912 -0.15499547
0.22072208 -0.035899162 -0.10825582 -0.25069097 -0.09489745 -0.11351086 -0.09387512 -0.17619658
0.03209808 -0.14233379 -0.08600084 0.07303556 0.02807169 0.1846498 0.1433439 0.28959134
-0.021996865 0.04722407 0.12277607 0.092033766 0.08524771 -0.0025250018 -0.051241126 -0.20619582

onnx::LSTM_219 f4 [1, 512, 128]
00000000: 6fd6 78bd aef9 24be 1ee7 98bc 8f08 b7bd
00000010: 4e9f 04be 785b f2bd 28f9 50be 2bba 37be
00000020: 1861 efbd 328a 41be 49b6 f5bd c3ec c8bd
00000030: 6d5d fd3d 20fb c2ba 6251 253e c7a0 e6bd
00000040: 7e92 8c3e a3a8 a53e 8cec 7b3d 6eab 783e
00000050: c1c3 8f3d b001 4dbe e7be 083e 7020 b1be
00000060: ecbc 843d eb53 0e3e 0e4a 56bd 0fda 52bd
00000070: e61e 343e 3d98 01be 8baa 8b3e 38e3 86bd
00000080: d77b 77bd 1254 a1bd aa39 133e 7cdd b5bd
00000090: f666 433e 9b03 7b3e dde8 2d3c fe7c ac3d
000000a0: 6410 833d 58a5 bfbd 184f 0c3e 46b0 103e
000000b0: 2200 0d3d ead9 6a3d e338 ffbd ae8d 17bd
000000c0: 57b0 3cbe 5a5d 9abd 0e51 25be 7789 d93c
000000d0: 54be 0bbe e709 f83c 91f4 253e 7042 0e3a
000000e0: ec0a f83b 1e61 a53e a72b 5a3c fe7b 03be
000000f0: 1da9 11be 7da6 d13d 6b0c 943e 2105 eabd
00000100: 763a 653e 5722 f4bc c974 fcbd f0f1 40bd
00000110: 744e 483d 6813 043e c739 b5bd 7fdf c43d
00000120: 6969 8fbe a2dd d23d dc8d d7bd 37b1 31bd
00000130: 9a23 083e a001 313e 6772 a5bd aa94 0fbe
00000140: 23c4 29be c297 8bbd 5576 6bbd 729c 483c
00000150: ac52 f5bc bd00 ed3d 5094 753e cafb a63e
00000160: 4730 5abd b18b 6bbc facb 463c 94c9 053e
00000170: 9022 7fbc db71 98bb 88c6 8dbe d175 27bd
00000180: 1fde 313e 6a14 5fbe 6213 503e 16cc d9bd
00000190: 66a9 733d 1884 a4bd a915 843c 4dd0 183d
000001a0: 5b8c 383e a1c4 30bd d464 083e c916 b83c
000001b0: 6035 9dbd be3b 36be c4ea 443e f2a0 2ebe
000001c0: d04f 3bbd 0c0a 703d a358 783e 7b39 4cbe
000001d0: d009 d53d abfc b23d aabd f3bc e534 4f3d
000001e0: 2eaa f2bd 1f62 533d d5f4 d13d 0535 35be
000001f0: 5988 083e a2c9 0bbe 6d0e 053d 3874 c43d
00000200: e66d 2fbd 5a24 1ebe 59dc 263e 0a0e 1fbe
00000210: 0bb4 643d c484 753e 68d4 0fbb f1c0 7bbe
00000220: 5c02 adbb 00a1 8a3e 2bd6 81be 0f3d 88bd
00000230: d526 713e 1c7a a3be 03eb 253e 3382 0abe
00000240: ca01 083e 8c22 833d 8db0 82bc 7820 fe3d
00000250: dfb0 243c ecb3 abbe 8477 05be c227 443e
00000260: 81c3 873e d55e cfbd 6c0f cdbc 21a1 a5bd
00000270: 2d53 7d3c 1230 ee3c c8a9 de3b 2071 24bd
00000280: 909c d5bd 8c70 953e 7969 c3bd aa56 14be
00000290: 26ae 6ebe e0c2 6f3d 9ab3 6fbe 3b37 2ebc
000002a0: 3db9 1bbe 0618 2d3d 2e8c c73b 2825 0cbe
000002b0: daa1 443d 8983 c2bd 2e25 20be 1f92 b8bd
000002c0: 424a 07be 1a67 1bbe cf42 29be 7051 26bc
000002d0: e1b6 1d3e 8751 a13c 89b1 b33d 6d57 41be
000002e0: a77d 31be 3e11 edbd 950f a4bc c758 55be
000002f0: cd64 13be 6ac1 533e b606 643c 4c96 3fbe
00000300: ff1a 83bd 792c 0ebe c750 8abe fc0d 4a3d
00000310: 6f3e d6bc 627e 133e 5975 74be acc3 4cbe
00000320: f3e3 f93b f853 a73e f432 85bc cbf9 b5bd
00000330: 3877 d3bd a924 903d 64b2 67bc 0992 34be
00000340: ec2c 39bd 37cc 7c3e 62c9 19be 549d 7cbd
00000350: 439c acbc 2d66 15be 6c91 e63d 9c48 4a3e
00000360: b2bd 5dbe 723e 69be d4a3 c23e b99b 28be
00000370: 32b8 103e 20f5 46be 8dcf c53e 01e7 e13c
00000380: e16d 46bc 1204 d3bd 886c 8d3d 2b60 08bd
00000390: fafb 8b3b 3683 a8bd aaa9 82bb a597 ebbd
000003a0: ce47 cbbb ded8 973d 13fc 823e 8fec 94be
000003b0: b9b1 76bb 20f4 ecbd 5d0f 88be fff9 4fbe
000003c0: 27a0 de3d 9a5c 083d 3b43 803c 1b95 4cbd
000003d0: 7ee4 a83b 4b2d 13be bedf 32bd 187f 46be
000003e0: 31ba 0ebe a08f 8a3d 32c8 40be f208 fabc
000003f0: bed1 ea3e 2b31 79be 44ba 29be 5e48 063e
-0.060751375 -0.1611087 -0.018664893 -0.08937179 -0.12951395 -0.118338525 -0.20407546 -0.17942111
-0.11688441 -0.18900374 -0.11997659 -0.09810784 0.12371335 -0.0014875866 0.16144326 -0.112611346
0.27455515 0.32355222 0.061504886 0.24284145 0.07019759 -0.20020175 0.13354073 -0.3459506
0.064813465 0.138992 -0.052316718 -0.051477488 0.17589912 -0.1265573 0.2727855 -0.06586307
-0.060420837 -0.07877363 0.14377466 -0.088801354 0.19082245 0.24513094 0.010614601 0.08422278
0.06399611 -0.09357709 0.13702047 0.14129743 0.034423955 0.057336725 -0.12462022 -0.03700035
-0.18426643 -0.07537337 -0.16144201 0.026554806 -0.13646823 0.03027816 0.16206576 0.000542677
0.0075696614 0.32300657 0.013316072 -0.12840268 -0.14224668 0.10236833 0.28915724 -0.114267595
0.22385582 -0.02980153 -0.123269625 -0.04710573 0.048902944 0.12898028 -0.08848911 0.09612941
-0.2801011 0.10296179 -0.105251044 -0.043381896 0.13294831 0.17285776 -0.08078461 -0.14021555
-0.16578726 -0.06816055 -0.057485897 0.012244331 -0.029946648 0.115724064 0.23982358 0.32613975
-0.053268697 -0.014376567 0.012133593 0.13065177 -0.015572205 -0.0046522445 -0.2769053 -0.040883843
0.17369889 -0.21785131 0.20319894 -0.106346294 0.059487723 -0.080330074 0.01612361 0.037308026
0.18022291 -0.04315627 0.13319713 0.022471802 -0.07676196 -0.17796227 0.19230181 -0.17053583
-0.045730412 0.05860333 0.24252562 -0.19943802 0.10402262 0.08739599 -0.029753525 0.050587554
-0.118488654 0.051607247 0.10251776 -0.17696007 0.13333263 -0.13651136 0.03248446 0.095924795
-0.042829417 -0.15443555 0.16294993 -0.15532699 0.055835765 0.23976427 -0.0021946672 -0.2458532
-0.0052798223 0.27075958 -0.2535871 -0.06652271 0.2354997 -0.319291 0.16202931 -0.1352623
0.13281932 0.06403074 -0.015953327 0.12408537 0.010051935 -0.33535707 -0.13033873 0.19155791
0.26516345 -0.1012551 -0.025031768 -0.080873735 0.015461725 0.029075656 0.006795142 -0.040146947
-0.104302526 0.2918743 -0.09541602 -0.14486185 -0.2330862 0.058535457 -0.23408356 -0.010633285
-0.15207382 0.04225924 0.006089709 -0.13686049 0.048005916 -0.094977446 -0.15639183 -0.090122454
-0.13211921 -0.15176049 -0.16529392 -0.010151252 0.15401794 0.019692196 0.087740965 -0.18881007
-0.17333089 -0.11575554 -0.020026961 -0.20834647 -0.14393921 0.2067925 0.013917616 -0.18709677
-0.064016335 -0.13884152 -0.27014753 0.049329743 -0.026152818 0.1440368 -0.2387289 -0.19996518
0.0076260506 0.3268125 -0.016259648 -0.08885535 -0.103254735 0.07038242 -0.014141653 -0.17633833
-0.045208856 0.24687277 -0.15018228 -0.061673477 -0.021070605 -0.14589758 0.11258206 0.19754261
-0.21654394 -0.22777727 0.38015616 -0.16465653 0.14132765 -0.19429445 0.3863491 0.027575972
-0.012111158 -0.10303511 0.06905466 -0.033294838 0.0042719813 -0.082281515 -0.0039875107 -0.11503533
-0.006203628 0.07414411 0.25582942 -0.2908673 -0.0037642552 -0.11570001 -0.2657422 -0.2031021
0.108703904 0.033291437 0.015657058 -0.049946886 0.0051541915 -0.14372747 -0.04367041 -0.1938442
-0.13938214 0.067656755 -0.18826368 -0.030521844 0.45863146 -0.24335162 -0.16574961 0.13113543

onnx::LSTM_220 f4 [1, 1024]
00000000: 2f47 9ebd a578 a5be b768 003c f7e5 1ebe
00000010: c420 84bd 484b 54be aafc 683d c5da 413e
00000020: f12b 0b3c a9e9 91bd 6543 f8bd 83bf cabd
00000030: bea4 41bd 92b9 39be b837 37bd ddd7 48be
00000040: 8283 1d3e b22d 18be a465 7ebe 3407 59bd
00000050: 1cca 593a ac59 5dbd 3237 10be 4318 213e
00000060: 4f95 7dbd 2029 f63d a54b 7f3e 9562 a73d
00000070: 8dc7 40be f89f 46bc d229 40bc 5a87 a1be
00000080: cee4 a8be 007d 0dbe a07c 21bd 3718 d0bc
00000090: 0113 9e3c 090d 74be 31ae 81be 4013 22bd
000000a0: 6ff5 d03d 3b63 123d 7afd 1abd 0d17 9d3c
000000b0: c24c 3abe 6732 693d 7916 0e3e 2472 443e
000000c0: b8da dd39 59cc a83d 41bf 16be cb77 8fbe
000000d0: 777e ddbd 18eb 99bc 7f38 29be 375f c4bd
000000e0: 8a3d 8bbd 18fc 31be 779f 61bd 9bbd 28be
000000f0: 49a5 123d 3078 093d 9e30 50bd f5e3 babe
00000100: c05d 47bd 6384 d73d e158 cebd 054a 8e3b
00000110: a6a8 9dbe a45f 113d 6348 393e ab7c e6bd
00000120: a217 553e f6a5 88bd 92e5 f83d 4945 c0bd
00000130: 7586 02be 1cb0 f33a 8243 a2bd f532 0dbe
00000140: fa87 05bd 17d7 363e 2b2a e3bd f205 9abc
00000150: e8f4 b23e 89bd 80bd 3825 4fbd 2954 35be
00000160: 1308 b83d c74e acbd a0b1 c93d 1d6c f9bd
00000170: 0161 91bc 6156 0a3e dd35 543c 5ecf fc3c
00000180: 3280 783c 460f 80bc 8068 3dbd 3568 ed3d
00000190: 69e6 4cbd 4571 143e 8f63 96bd 8b01 b63c
000001a0: 1452 0b3d 179d 7b3d 6ffd 81bc 97e6 a8bd
000001b0: c757 e4bc f0f8 89be 8e0f f23c 2a87 2ebd
000001c0: bf61 323e b21b 90bd 3a14 08be c331 99ba
000001d0: 0f69 30be 3938 b93b 86c5 b1be 784e b93d
000001e0: 666e dcbc a1a3 11be 5316 223e e088 81bd
000001f0: f48d 50bd c2c2 543d 6c42 0bbd 3a54 5bbd
00000200: 94df c1bb eaaa 29be 7022 5b3c 4688 4fbe
00000210: 05d0 05bd ae9a 80be cad8 d6bc dbf1 5c3e
00000220: 98af 24be 4d7a 2fbd 9730 51be fae1 9d3d
00000230: dc06 b3bd 897c aabd 055f 80bd 4de5 e8bd
00000240: f5ff 623d d480 ac3d c592 bbbd fbbe 7abe
00000250: 103f 8c3c dc3f 16be 7748 9cbe bd79 043e
00000260: 7039 44be dada 3ebb 09c7 893c 1e47 8f3d
00000270: f390 17be 9931 213d 2a14 e23b 9583 74be
00000280: 5355 14be a39f 14be ab42 2bbd a399 8ebd
00000290: 7034 01bd 2941 55bc 44f7 75be 1550 e53c
000002a0: caf7 553e b349 e4bd ae55 63bd bf7c 023e
000002b0: 97ea 90bd 38f3 133e 6e27 a03e 3d40 d1bb
000002c0: db3b f43c 8ab4 1c3e 1995 41bb 3618 44be
000002d0: da8a 483e 8e2b 7dbd 0f6c 14be 7953 76be
000002e0: f48f ecbd a5cf 99bd 0202 3f3c 5a43 49be
000002f0: 45c0 d63c 743b 223d aa66 3dbd 7b2b bebe
00000300: 927d 08be 88fb 77bd dd25 36be 805a 58bd
00000310: 8019 1cbd 61b9 abbd 0845 ae3d 89c2 5fbe
00000320: 29ae c93d e82d d7bd cdbf a33d adf1 dcbd
00000330: f8fb 523e f25e f33d f059 66be 27c3 1dbe
00000340: d8f5 e8bd 17f5 a53d 383c bb3c 5b42 e8bd
00000350: 25d6 963e 9b99 c2bc 2b01 193d 9704 2cbd
00000360: cbde 90bc eff5 0f3d d977 37bc 4739 51be
00000370: 69bb 333d 7a0b 9b3e 1766 b93d 2e6a f7bd
00000380: 8f58 86bd 4ca5 633d b984 0cbe a28a e63d
00000390: 5933 43bd 20c5 123d 82f6 adbd e5de 903d
000003a0: c1b7 b8bd 6a6d 913e fede bdbb 6253 853c
000003b0: 50e1 57bd 7ca4 18be 2f15 183d efc3 e63c
000003c0: 1aa9 5a3e 3723 63be 931d 3dbd 7f84 d03c
000003d0: 14ef 5abe 6479 1fbb 2ff4 7abe 4050 8f3d
000003e0: ac9e 0bba fd4d dab9 dbef 123e d257 42be
000003f0: d84e 5ebd 7562 fe3d 9873 2cbe 248a 17bc
-0.07728421 -0.32318607 0.007837466 -0.15517412 -0.06451562 -0.20731843 0.056881584 0.1893111
0.008494363 -0.07124645 -0.121222295 -0.09899809 -0.04727625 -0.18137196 -0.044730872 -0.19613595
0.15382197 -0.14861181 -0.2484346 -0.052985385 0.000830801 -0.054040596 -0.14083555 0.15731911
-0.06190997 0.12019563 0.249312 0.081731 -0.18826123 -0.0121231 -0.011728721 -0.31548578
-0.32987064 -0.13817215 -0.039425492 -0.025402172 0.019296171 -0.23833098 -0.2532821 -0.03956914
0.10203063 0.035739165 -0.03783939 0.01917603 -0.18193343 0.056932833 0.1387576 0.19184166
0.00042315363 0.08242101 -0.14721395 -0.28021082 -0.10815137 -0.01878886 -0.16525458 -0.09588473
-0.06798847 -0.17381322 -0.05508372 -0.16478579 0.03580216 0.033561885 -0.050827615 -0.36502042
-0.04867339 0.10523298 -0.10075546 0.00434232 -0.3079273 0.0354916 0.1809402 -0.11254247
0.20809796 -0.066722795 0.12153162 -0.09388215 -0.12746604 0.0018591913 -0.07923032 -0.1378897
-0.03260038 0.17855488 -0.11092027 -0.018801663 0.34952474 -0.06286151 -0.050572604 -0.17707886
0.08985915 -0.08413463 0.098483324 -0.12178824 -0.01774645 0.13509513 0.012952295 0.0308606
0.015167283 -0.015632283 -0.046242237 0.115921415 -0.050024424 0.14496334 -0.07343208 0.022217533
0.034013823 0.06142911 -0.015867917 -0.082471065 -0.027873887 -0.26947737 0.029548433 -0.04260937
0.174201 -0.070365325 -0.13288966 -0.0011687804 -0.17227577 0.005652454 -0.3472101 0.0904817
-0.02690811 -0.14222576 0.15828829 -0.06324935 -0.050916627 0.051943548 -0.03399889 -0.05354712
-0.005916545 -0.16569105 0.01337491 -0.20266828 -0.032669086 -0.2511801 -0.02622642 0.21576636
-0.16082609 -0.042841244 -0.20428692 0.07709117 -0.08741543 -0.083245344 -0.062681235 -0.11371861
0.05541988 0.084230095 -0.091588534 -0.24486916 0.017119914 -0.14672798 -0.30524036 0.12937064
-0.19162536 -0.0029122145 0.01681854 0.069959864 -0.14801387 0.03935394 0.0068993764 -0.2387832
-0.14485674 -0.14514022 -0.041811626 -0.06962898 -0.03154415 -0.013016024 -0.24020106 0.027992288
0.20895305 -0.111468695 -0.055501632 0.127429 -0.070759945 0.1444825 0.31280082 -0.0063858316
0.029813698 0.15303245 -0.0029538332 -0.1914986 0.19584218 -0.061809115 -0.14494346 -0.2405528
-0.115508944 -0.07510308 0.011658194 -0.19654599 0.026214728 0.03960748 -0.046240486 -0.37142548
-0.13329151 -0.060542613 -0.17787881 -0.052820683 -0.038110256 -0.083849676 0.085092604 -0.21851553
0.098476715 -0.10506803 0.079955675 -0.107882835 0.20603931 0.11883344 -0.22495246 -0.15406476
-0.11375016 0.08103388 0.022855863 -0.11340781 0.29460254 -0.023754885 0.03735463 -0.041996565
-0.017684361 0.03514665 -0.0111980075 -0.20432006 0.0438799 0.30282193 0.09052675 -0.12080799
-0.0655986 0.05557756 -0.13722505 0.11256911 -0.04765639 0.035832524 -0.08494283 0.07073764
-0.09019423 0.2840379 -0.005794405 0.016275112 -0.05270511 -0.14906496 0.037129577 0.0281696
0.2135357 -0.22181402 -0.046170782 0.025453804 -0.21380264 -0.002433383 -0.24507211 0.06997728
-0.0005326073 -0.00041638306 0.1434931 -0.18978813 -0.05427441 0.12421123 -0.1684097 -0.009249244
