rock_paper_scissors_model.onnx (onnx, 500316 bytes, 20 tensors)

batchnorm1.weight f4 [20]
1.0881846 0.9528599 1.0781925 1.0270612 1.104815 1.0054507 1.048807 0.95001835
1.0397775 0.98647255 0.94527525 0.902346 0.9815984 0.8809506 1.126895 0.78429234
1.0739418 0.86081976 1.1633908 0.9009952
00000000: a249 8b3f a0ee 733f 3602 8a3f be76 833f
00000010: 946a 8d3f 9cb2 803f 4f3f 863f 6734 733f
00000020: 6e17 853f 7789 7c3f 8ffd 713f 2600 673f
00000030: 084a 7b3f fb85 613f 183e 903f 62c7 483f
00000040: ed76 893f af5e 5c3f fde9 943f 9fa7 663f

batchnorm1.bias f4 [20]
0.0443593 -0.11311192 0.08488345 0.007170083 0.07715407 -0.07815901 0.005421995 0.011829658
-0.07390781 -0.077188164 0.103039585 -0.08254353 -0.0856528 -0.063579425 0.0685491 -0.050796427
-0.08012377 -0.016231444 0.06791357 -0.07100581
00000000: 19b2 353d 39a7 e7bd 60d7 ad3d 04f3 ea3b
00000010: f402 9e3d d511 a0bd feaa b13b 2fd1 413c
00000020: fa5c 97bd d414 9ebd 6b06 d33d 950c a9bd
00000030: bc6a afbd ee35 82bd 7863 8c3d ea0f 50bd
00000040: ee17 a4bd cef7 84bc 4516 8b3d 7e6b 91bd

batchnorm1.running_mean f4 [20]
0.00043353377 0.00070043775 0.0009159114 0.0006105194 0.0005588487 0.00064380537 0.00049117836 0.00048153254
0.0010983531 0.00083015126 0.00074581197 0.0007476317 0.00062860554 0.0006115253 0.00094925857 0.00058461796
0.0005385617 0.0006915319 0.0006100247 0.00072255486
00000000: eb4b e339 959d 373a c619 703a 430b 203a
00000010: b47f 123a 0cc5 283a 6cc2 003a 3476 fc39
00000020: 9df6 8f3a 829e 593a 9882 433a b7fc 433a
00000030: 01c9 243a c54e 203a aad7 783a 0c41 193a
00000040: 442e 0d3a ec47 353a 11ea 1f3a d669 3d3a

batchnorm1.running_var f4 [20]
0.000764054 0.0012117032 0.0013907056 0.0014589779 0.0014472775 0.0014637188 0.0014650334 0.0014637901
0.0015211594 0.0015061264 0.0015193827 0.0015718744 0.0015629499 0.0015402602 0.0015741613 0.0015514415
0.0015391612 0.0015097416 0.0015301293 0.0015480797
00000000: cc4a 483a 03d2 9e3a 5648 b63a 2d3b bf3a
00000010: 93b2 bd3a 41da bf3a 5d06 c03a a5dc bf3a
00000020: a461 c73a 3769 c53a 0626 c73a 5a07 ce3a
00000030: e5db cc3a 8ee2 c93a 1754 ce3a bd59 cb3a
00000040: aebd c93a 86e2 c53a 9f8e c83a efe8 ca3a

batchnorm2.weight f4 [64]
1.0125805 0.94645286 0.99911773 1.001379 0.9206314 0.8603506 0.99340606 1.1014482
0.9362283 1.0547158 1.0518774 1.0403521 1.0022196 0.95938224 1.0131106 1.044191
1.1081269 0.8858966 1.0001522 1.0029211 0.9706376 1.0091189 1.0305159 1.0229744
1.0115826 0.9969724 1.0335763 0.94739735 0.98365587 1.014743 0.93917584 1.0538024
1.0767596 1.0701547 0.960597 0.979739 1.0180454 1.0270199 1.0432909 1.0903959
1.0740299 0.8846052 1.1217135 0.96684766 1.024912 0.9812607 1.0137331 1.0561788
1.0145326 0.97574234 0.9882893 0.95940644 0.93589264 1.0062306 0.9937693 0.98977494
1.0339195 0.9451213 0.958215 1.0435113 1.0294684 1.0020192 1.0634097 1.0194917
00000000: 3d9c 813f bc4a 723f 2ec6 7f3f 302d 803f
00000010: 80ae 6b3f f03f 5c3f dc4f 7e3f 41fc 8c3f
00000020: a8ac 6f3f ed00 873f eba3 863f 422a 853f
00000030: bb48 803f 139a 753f 9cad 813f 0da8 853f
00000040: 1ad7 8d3f 1fca 623f fd04 803f b85f 803f
00000050: b57b 783f cf2a 813f f2e7 833f d3f0 823f
00000060: 8a7b 813f 9539 7f3f 3a4c 843f a288 723f
00000070: dfd0 7b3f 19e3 813f d46d 703f ffe2 863f
00000080: 42d3 893f d4fa 883f afe9 753f 2dd0 7a3f
00000090: 504f 823f 6375 833f 8e8a 853f 1892 8b3f
000000a0: d079 893f 7d75 623f 4f94 8f3f 5483 773f
000000b0: 5130 833f e733 7b3f 02c2 813f de30 873f
000000c0: 34dc 813f 40ca 793f 8700 7d3f a99b 753f
000000d0: a996 6f3f 2acc 803f aa67 7e3f e461 7d3f
000000e0: 7957 843f 78f3 713f 944d 753f c791 853f
000000f0: 9fc5 833f 2a42 803f cf1d 883f b47e 823f

batchnorm2.bias f4 [64]
0.014362643 0.035389557 0.08383502 -0.038970083 -0.069677114 0.09930079 0.017005777 0.0048834607
0.050068457 -0.09219218 -0.1102272 -0.076824896 0.06752976 0.07524039 -0.08350748 0.055768766
-0.076813154 -0.0028969443 -0.004869519 0.05622914 -0.007728167 -0.04013821 -0.050209537 0.017885298
0.116188556 0.018574107 0.012951824 0.04219933 -0.007686589 0.025000202 0.018885281 0.03517216
0.030403927 0.020141868 -0.024982657 0.006602157 0.061995246 -0.023469388 -0.014494907 -0.023470072
0.09196502 -0.02769912 -0.105998576 0.007049413 0.12541549 -0.075754024 0.06113095 0.027957572
-0.027783275 0.16115877 0.09251104 -0.07407347 0.063212454 0.06680948 0.10988837 0.026227616
0.07835585 -0.07940111 0.042806763 -0.059967387 -0.024435986 -0.17207138 -0.04822056 -0.044674784
00000000: 4a51 6b3c a4f4 103d b2b1 ab3d 189f 1fbd
00000010: e0b2 8ebd 365e cb3d b34f 8b3c 7005 a03b
00000020: 9514 4d3d 41cf bcbd ccbe e1bd 5f56 9dbd
00000030: 0b4d 8a3d a217 9a3d f805 abbd ca6d 643d
00000040: 3750 9dbd a9da 3dbb 7c90 9fbb 8750 663d
00000050: 903c fdbb f767 24bd 84a8 4dbd 3084 923c
00000060: 44f4 ed3d ba28 983c e333 543c 34d9 2c3d
00000070: c8df fbbb 39cd cc3c 4eb5 9a3c af10 103d
00000080: a811 f93c 8f00 a53c 6ea8 ccbc e856 d83b
00000090: baee 7d3d e042 c0bc 0c7c 6dbc 4f44 c0bc
000000a0: 2858 bc3d 44e9 e2bc c815 d9bd c3fe e63b
000000b0: eb6c 003e ed24 9bbd 7264 7a3d 4707 e53c
000000c0: c099 e3bc ce06 253e 6e76 bd3d d5b3 97bd
000000d0: 8875 813d 69d3 883d 270d e13d 4cdb d63c
000000e0: 0879 a03d 0d9d a2bd 2556 2f3d 5da0 75bd
000000f0: fa2d c8bc 7b33 30be ec82 45bd e8fc 36bd

batchnorm2.running_mean f4 [64]
-0.49851134 0.42279816 0.41384822 -0.1092251 -0.2103913 0.15478976 -0.19714025 -0.25048372
0.6624332 -0.069329575 0.09322276 -0.576876 0.2594512 0.102639064 -0.15512422 0.08408137
0.18744907 0.094647914 -0.46095887 -0.23822972 0.19523744 -0.4283556 0.2357887 -0.114375345
0.40744638 0.48448563 -0.5643512 0.28038266 0.11116284 -0.39996648 0.4510036 -0.18610108
0.5338057 -0.07328403 -0.16689174 -0.113940634 0.15838787 -0.52351284 -0.44408628 -0.486035
-0.2439408 -0.44063774 -0.7514851 -0.38304788 -0.17929354 0.2293206 -0.08480952 0.2567057
0.057224862 0.6101639 -0.038734674 0.4687953 -0.069141254 -0.39210954 -0.37495682 0.24961045
0.29131162 -0.61915237 0.5605675 0.31119224 0.42709944 0.11337487 0.3932852 0.5768631
00000000: e13c ffbe 0079 d83e eae3 d33e 69b1 dfbd
00000010: d170 57be 3581 1e3e 22df 49be 673f 80be
00000020: 3995 293f aafc 8dbd 93eb be3d 25ae 13bf
00000030: cad6 843e 6e34 d23d e2d8 1ebe da32 ac3d
00000040: a6f2 3f3e c4d6 c13d cd02 ecbe 7ef2 73be
00000050: 53ec 473e 6d51 dbbe 9872 713e 9f3d eabd
00000060: d09c d03e 800e f83e 5279 10bf 518e 8f3e
00000070: 58a9 e33d 68c8 ccbe f2e9 e63e 4891 3ebe
00000080: 7ea7 083f f015 96bd abe5 2abe b559 e9bd
00000090: 6e30 223e f004 06bf 475f e3be 94d9 f8be
000000a0: 9ecb 79be 459b e1be 5461 40bf da1e c4be
000000b0: ba98 37be 05d3 6a3e 9db0 adbd ee6e 833e
000000c0: 9e64 6a3d b433 1c3f 40a8 1ebd f005 f03e
000000d0: ee99 8dbd 95c2 c8be 57fa bfbe e299 7f3e
000000e0: cc26 953e c580 1ebf 5a81 0f3f 9754 9f3e
000000f0: c7ac da3e 1531 e83d ae5c c93e 4dad 133f

batchnorm2.running_var f4 [64]
0.10405192 0.121670134 0.2597731 0.13533126 0.2279953 0.15020838 0.139308 0.0730408
0.09726261 0.17847514 0.5128734 0.095932595 0.11610377 0.22103436 0.15225998 0.3478487
0.07825938 0.16036354 0.19424441 0.08773734 0.044091303 0.20672256 0.093968585 0.082958475
0.17424957 0.15807134 0.11242621 0.08643977 0.044458628 0.11744473 0.18698318 0.21432939
0.10878389 0.11501946 0.0615496 0.090254046 0.107437156 0.32025084 0.2123795 0.15371871
0.17530148 0.1541446 0.0842067 0.16133808 0.11861777 0.067427434 0.04423769 0.15033774
0.17521036 0.12690738 0.018986737 0.090237536 0.1430258 0.17180467 0.15831666 0.06463692
0.061493196 0.12879261 0.15123893 0.119563214 0.12869118 0.036718912 0.13183145 0.17008902
00000000: 2c19 d53d 312e f93d fb00 853e 4794 0a3e
00000010: 9a77 693e 3ad0 193e c2a6 0e3e 6a96 953d
00000020: 9f31 c73d 30c2 363e ac4b 033f 4f78 c43d
00000030: d0c7 ed3d d556 623e 0aea 1b3e 3a19 b23e
00000040: 7446 a03d 5736 243e 02e8 463e a2af b33d
00000050: 1599 343d 14af 533e 9a72 c03d 22e6 a93d
00000060: 7b6e 323e 74dd 213e b63f e63d 5607 b13d
00000070: 401a 363d dd86 f03d 8578 3f3e 2a79 5b3e
00000080: 17ca de3d 538f eb3d 6f1b 7c3d 1dd7 b83d
00000090: 0308 dc3d ebf7 a33e 037a 593e 7068 1d3e
000000a0: 3b82 333e 15d8 1d3e 9074 ac3d cf35 253e
000000b0: e0ed f23d 6517 8a3d 9432 353d 23f2 193e
000000c0: 586a 333e 02f4 013e 138a 9b3c 75ce b83d
000000d0: 5b75 123e 90ed 2f3e c31d 223e 5d60 843d
000000e0: 4ae0 7b3d 36e2 033e 61de 1a3e 8fdd f43d
000000f0: 9fc7 033e 9266 163d d3fe 063e d12b 2e3e

fc1.weight f4 [64, 64]
0.0092222355 0.034554955 0.029775025 0.055391204 -0.025746845 -0.1375329 -0.07965865 0.014588154
-0.1291893 0.08205603 -0.07577628 -0.0021867622 0.023396399 -0.014660839 0.1063751 0.09512481
-0.22136357 0.0035572813 0.10668362 -0.09421355 0.009965472 0.060779095 0.0032920123 0.067102194
-0.15690506 -0.011461574 0.030296475 0.08659875 0.056948442 0.01068529 0.03106385 -0.06124493
0.062962465 -0.12744817 -0.07806541 0.011573941 -0.006463622 0.012018439 0.060242776 0.078075714
-0.10365519 -0.0033604526 0.12785707 0.10659894 0.060170073 -0.0046768426 -0.018673236 -0.03738774
0.09978609 0.0035854427 -0.09790464 0.1541746 0.06121513 -0.013680004 0.065790586 0.12702702
0.04058569 -0.026372308 0.07941573 0.14327177 0.0805186 0.024773749 0.019719737 0.04595933
0.106329 0.091813825 0.026299635 -0.0142273605 -0.055735547 0.050150726 -0.07736901 -0.11020685
0.034318563 -0.13969699 0.08907905 0.085555546 -0.017596446 -0.027284184 0.076377705 -0.08189039
-0.08480486 0.09258147 -0.13190901 -0.09058928 -0.05721426 0.047148336 0.103823945 -0.107914865
0.035570078 -0.086174265 0.10463376 0.17826368 0.005526944 -0.100120485 0.010343189 -0.06824104
-0.14400643 -0.04315798 -0.011037567 0.012337656 -0.11896672 -0.031320397 0.070407346 0.13682008
0.09757529 -0.07769458 -0.16988634 -0.1559587 -0.009785898 0.07169645 -0.08795835 0.09988219
-0.06078208 0.018949838 0.12010023 0.011303936 0.07787898 -0.078584865 -0.041959275 0.09278274
0.03447252 -0.06852048 0.0662426 -0.17623614 -0.10797326 -0.03538324 0.16390291 -0.029784199
-0.057223793 -0.09815345 -0.09962008 0.15415083 1.784613e-05 -0.06257342 0.013270158 0.0025198834
0.12587485 0.11578801 -0.04950503 -0.14252135 0.16780488 0.028853534 -0.060702898 -0.13225959
0.08907082 -0.032920435 -0.02725656 0.058207314 0.028783659 0.06560255 0.18747304 -0.027801333
-0.01397801 0.1186783 0.18108726 -0.03889246 0.0127515495 -0.1351907 -0.005888987 0.057874944
0.15489286 0.03572647 -0.08186323 0.017487556 0.09147951 0.07258088 0.05914138 0.11574543
-0.18433104 -0.015486318 0.104475945 -0.0343253 0.0058130687 -0.05675197 -0.055196006 0.05588743
0.039776117 0.047729224 0.048879117 -0.04271978 0.004754528 0.13421436 -0.024115758 -0.094726026
0.0018832268 0.12654357 0.024469582 0.11334364 0.10802873 0.079390444 -0.10485007 -0.11377605
0.10205998 -0.0009506423 -0.020852825 -0.03778568 0.043280683 -0.07175814 0.03892847 0.012466366
0.009963342 0.12738901 0.045728553 -0.070234135 -0.05911097 -0.07046373 0.07138023 -0.00926281
0.054627143 -0.008431993 0.16224419 -0.0062098857 -0.08403137 0.08639114 -0.15937734 -0.1682312
0.0615327 -0.04031931 -0.10931357 0.045181673 0.012012152 0.1297106 -0.047996614 -0.09920542
0.16501272 -0.012067712 0.111033134 0.012644375 -0.026593173 0.066733114 -0.021628626 0.100282885
-0.11763299 0.14267655 0.09548857 0.11361 0.044235446 0.09977674 -0.17037737 0.049428523
0.1456168 -0.025129804 -0.08819549 -0.13333564 0.012767657 -0.057972055 0.0976953 -0.007834669
0.080208406 -0.031561803 -0.04586167 0.17068903 0.06586187 -0.12770966 -0.042628597 0.04451885
00000000: dc18 173c 7f89 0d3d c1ea f33c e3e1 623d
00000010: 0ceb d2bc 6dd5 0cbe 1324 a3bd 2703 6f3c
00000020: 334a 04be fe0c a83d 9830 9bbd c84f 0fbb
00000030: cea9 bf3c 0434 70bc 30db d93d ccd0 c23d
00000040: 22ad 62be 4721 693b f17c da3d 09f3 c0bd
00000050: 3846 233c 80f3 783d cdbe 573b e06c 893d
00000060: b8ab 20be 53c9 3bbc 5030 f83c af5a b13d
00000070: c542 693d 5b11 2f3c 9d79 fe3c f7db 7abd
00000080: 77f2 803d c681 02be c2e0 9fbd a1a0 3d3c
00000090: cbcc d3bb fde8 443c 21c1 763d 29e6 9f3d
000000a0: 2c49 d4bd 0a3b 5cbb f7ec 023e 8c50 da3d
000000b0: e574 763d 3340 99bb 9df8 98bc e323 19bd
000000c0: a65c cc3d bff9 6a3b 3a82 c8bd f2df 1d3e
000000d0: b7bc 7a3d 1822 60bc 37bd 863d 5f13 023e
000000e0: 2e3d 263d bd0a d8bc b7a4 a23d d6b5 123e
000000f0: f0e6 a43d 51f2 ca3c 498b a13c da3f 3c3d
00000100: 05c3 d93d e308 bc3d 5572 d73c e019 69bc
00000110: f54a 64bd d96a 4d3d a573 9ebd 21b4 e1bd
00000120: 9f91 0c3d ba0c 0fbe 146f b63d bf37 af3d
00000130: 6c26 90bc 1583 dfbc ea6b 9c3d 26b6 a7bd
00000140: 2cae adbd 5b9b bd3d 2813 07be df86 b9bd
00000150: 8059 6abd 9d1e 413d a6a1 d43d 7802 ddbd
00000160: eeb1 113d 227c b0bd 3a4a d63d c18a 363e
00000170: 5e1b b53b f80b cdbd 7b76 293c f5c1 8bbd
00000180: 6c76 13be 6cc6 30bd e9d6 34bc e123 4a3c
00000190: d3a4 f3bd d149 00bd ba31 903d 901a 0c3e
000001a0: 8ed5 c73d 561e 9fbd aff6 2dbe a3b3 1fbe
000001b0: 0855 20bc 97d5 923d 8223 b4bd 098f cc3d
000001c0: a1f6 78bd b13c 9b3c 1cf7 f53d 2534 393c
000001d0: 047f 9f3d 1af1 a0bd 7ddd 2bbd e104 be3d
000001e0: 0f33 0d3d 7754 8cbd 33aa 873d 3f77 34be
000001f0: 1621 ddbd 04ee 10bd 2ad6 273e fefd f3bc
00000200: 7f63 6abd ad04 c9bd 9d05 ccbd b7d9 1d3e
00000210: 46b4 9537 7e26 80bd 146b 593c a124 253b
00000220: 56e5 003e 4422 ed3d c9c5 4abd 1ef1 11be
00000230: 0bd5 2b3e 3f5e ec3c 9aa3 78bd 0f6f 07be
00000240: c36a b63d 94d7 06bd 2649 dfbc cb6a 6e3d
00000250: b5cb eb3c a15a 863d eff8 3f3e 9fbf e3bc
00000260: 0604 65bc 9c0d f33d f06e 393e b34d 1fbd
00000270: e0eb 503c 6e6f 0abe 67f8 c0bb 470e 6d3d
00000280: 3c9c 1e3e eb55 123d e9a7 a7bd 1042 8f3c
00000290: 9c59 bb3d 49a5 943d 3b3e 723d f10b ed3d
000002a0: 47c1 3cbe 53ba 7dbc 7cf7 d53d b098 0cbd
000002b0: 8e7b be3b c174 68bd 3515 62bd 38ea 643d
000002c0: 48ec 223d b87f 433d 7835 483d f0fa 2ebd
000002d0: dfcb 9b3b 7d6f 093e 698e c5bc b8ff c1bd
000002e0: 9bd6 f63a a394 013e 6f74 c83c b620 e83d
000002f0: 2b3e dd3d 7597 a23d a2bb d6bd 6b03 e9bd
00000300: d304 d13d 8634 79ba 8bd3 aabc 28c5 1abd
00000310: 1647 313d eff5 92bd 7673 1f3d bb3f 4c3c
00000320: 493d 233c 4472 023e dd4d 3b3d ead6 8fbd
00000330: 581e 72bd 4a4f 90bd cc2f 923d 0bc3 17bc
00000340: b6c0 5f3d 5826 0abc 5723 263e 4c7c cbbb
00000350: a418 acbd d7ed b03d d033 23be cd44 2cbe
00000360: b609 7c3d dc25 25bd cbdf dfbd 6b10 393d
00000370: 9ece 443c dbd2 043e 1998 44bd 362c cbbd
00000380: 18f9 283e a7b7 45bc 5765 e33d 5a2a 4f3c
00000390: edd9 d9bc 5fab 883d 842e b1bc 1d61 cd3d
000003a0: 91e9 f0bd cd19 123e 838f c33d 5cac e83d
000003b0: 3a30 353d bf57 cc3d 6877 2ebe 9075 4a3d
000003c0: 921c 153e 05dd cdbc d69f b4bd 2389 08be
000003d0: 6f2f 513c 1b74 6dbd 7914 c83d fc5c 00bc
000003e0: 4e44 a43d f346 01bd 72d9 3bbd 1bc9 2e3e
000003f0: 97e2 863d 52c6 02be 539b 2ebd 6659 363d

fc1.bias f4 [64]
-0.23309454 -0.08677212 -0.011822978 -0.039731443 -0.027430763 -0.034182332 -0.15063743 0.0773628
-0.08300911 -0.011462468 0.12553257 -0.09192217 0.016259424 -0.18553364 0.122250155 0.07539089
0.014290396 0.04523605 0.2478927 -0.15280917 -0.19656378 -0.020538785 0.117314145 -0.14251447
0.0071875914 -0.08301552 -0.058009442 -0.07442879 -0.18945916 -0.022881607 -0.09098247 -0.09165534
0.17726322 -0.11069519 0.12261702 -0.16391087 0.08038585 0.045863036 0.0594587 -0.11023899
0.109566234 -0.026968941 -0.007952601 -0.04217868 -0.19252531 -0.026528925 0.021968434 0.11065005
0.1115945 0.095727175 -0.10631407 -0.08134906 -0.095655724 0.19681633 -0.11833234 -0.24222095
0.14743133 0.09895421 -0.037080307 -0.031551883 0.016898125 -0.07949104 -0.014468661 0.08811187
00000000: 56b0 6ebe 95b5 b1bd 2ab5 41bc 70bd 22bd
00000010: 7bb6 e0bc c602 0cbd b340 1abe 6370 9e3d
00000020: ae00 aabd 13cd 3bbc 9c8b 003e b141 bcbd
00000030: 7c32 853c 88fc 3dbe 4a5e fa3d 8a66 9a3d
00000040: 4422 6a3c 7049 393d 95d7 7d3e 027a 1cbe
00000050: 0448 49be f440 a8bc 6642 f03d 50ef 11be
00000060: e385 eb3b 0a04 aabd 4f9b 6dbd 1f6e 98bd
00000070: 9501 42be 3572 bbbc 0455 babd cbb5 bbbd
00000080: 7d84 353e 29b4 e2bd a21e fb3d 40d8 27be
00000090: 56a1 a43d e1da 3b3d f78a 733d fbc4 e1bd
000000a0: 4364 e03d f8ed dcbc a04b 02bc 8dc3 2cbd
000000b0: 5b25 45be 3053 d9bc 25f7 b33c 7e9c e23d
000000c0: a88b e43d 9c0c c43d 31bb d9bd 569a a6bd
000000d0: 26e7 c3bd 388a 493e 3a58 f2bd c508 78be
000000e0: 3df8 163e 81a8 ca3d 85e1 17bd 8c3c 01bd
000000f0: f06d 8a3c 33cc a2bd f60d 6dbc ff73 b43d

fc2.weight f4 [32, 64]
-0.01819196 0.05763288 -0.124659374 0.07215242 -0.011980749 -0.0060756584 0.10826684 -0.014809867
0.15716249 -0.103617035 -0.060864624 0.14833494 0.09234256 0.012737093 -0.03563095 -0.19942766
-0.09788617 0.07167201 0.036114533 -0.12005501 0.11448953 -0.044141043 -0.03110493 -0.022022402
-0.051580384 -0.09256982 -0.11135186 -0.059866317 -0.083370104 0.073959336 0.029307654 0.16880183
-0.12874302 -0.026797527 -0.013281807 0.02075501 -0.08610132 -0.03375617 -0.057076514 0.14947876
-0.032037456 0.045435026 -0.08306534 -0.107061274 0.05246922 0.123769835 -0.03049756 -0.016967911
0.074042425 -0.120131195 0.048417997 0.056582056 0.119380385 -0.026683563 -0.057610765 0.068864
-0.14436516 0.023664547 0.010405256 -0.0865153 0.14159715 -0.07485336 0.09773314 -0.051798448
0.124011055 -0.1133853 -0.07629186 0.008739777 0.081729986 -0.11175716 0.14878534 -0.17063096
0.09424206 0.09481405 0.08034539 -0.16723801 0.03527761 0.15821844 -0.11675714 0.029898537
0.15480568 -0.0654948 -0.08598614 -0.07415072 0.08712035 -0.07620645 -0.07028309 0.059600297
0.0466695 -0.016050063 -0.26031172 0.042978182 -0.071366146 0.034365628 -0.16316354 0.017927693
0.030247523 -0.10252936 -0.0020613996 0.0018029131 -0.010165708 0.103204824 -0.27435082 0.119219996
0.08199631 -0.09767257 -0.032076977 0.094626546 0.10906681 0.051703807 0.11070739 0.037479352
-0.022025598 0.06548415 -0.10769281 0.084819384 0.11436295 -0.05219891 -0.0047180145 -0.0690876
0.022248223 0.03233195 -0.06487937 0.1188574 0.13678111 -0.08147315 0.05433108 -0.14333326
-0.017385414 -0.030549506 0.13211635 -0.050754704 0.107624084 -0.08304352 0.022897618 -0.096759856
0.15244004 -0.07003984 0.04442614 0.07467377 0.043780692 0.061385084 -0.07081093 0.042760182
0.08565564 -0.06902526 -0.13395496 -0.07555277 -0.010111667 -0.025671275 -0.14127514 -0.037532922
0.02044822 -0.060617138 -0.09996858 0.021878298 -0.19940983 0.03007457 0.058323853 0.11182754
0.10143459 -0.1719596 0.025350664 -0.08926706 0.11725818 -0.049905863 0.03405858 0.08700512
0.051044285 0.097666845 0.14002426 0.007956302 0.023385659 -0.16363136 0.058744397 -0.16926984
0.049490895 -0.024876857 0.09562237 -0.040499996 0.05078353 0.02463307 0.08098643 -0.0011138855
-0.079023905 0.07676887 0.102494076 -0.035224892 -0.06793458 0.017923135 0.07179789 0.10828243
-0.0032535824 0.008195693 0.08459968 -0.085776605 -0.07344172 0.04309455 0.07900571 -0.038536362
-0.079282366 -0.057950284 -0.041449048 -0.031528335 0.0024351433 -0.27985606 -0.07207824 0.03026196
0.09227875 0.047623564 0.020965397 -0.108908586 0.015425198 -0.124118745 0.13349478 -0.056593966
0.17405586 0.08018022 -0.0042347037 -0.013948448 -0.16047128 -0.107219055 -0.11103543 -0.10961149
0.13984431 -0.030577151 0.072915755 0.059657775 0.021337103 0.044643376 0.033784013 0.04984264
0.065297276 0.1101331 -0.10700679 -0.101662606 -0.045636833 -0.13951692 -0.07185424 0.17045207
0.038994346 -0.03591708 0.08739324 -0.041792013 -0.28121802 0.16431981 -0.16002053 0.05093959
-0.010986271 0.075972915 -0.21336217 -0.043256674 -0.084184416 -0.11694821 -0.20223317 -0.036319047
00000000: 4e07 95bc 7410 6c3d 6a4d ffbd a6c4 933d
00000010: e74a 44bc 5116 c7bb 01bb dd3d 16a5 72bc
00000020: 34ef 203e 2b35 d4bd 2f4d 79bd 1de5 173e
00000030: 191e bd3d 3daf 503c c2f1 11bd c436 4cbe
00000040: 8b78 c8bd c6c8 923d d5ec 133d 67df f5bd
00000050: 7d79 ea3d 3dcd 34bd c4cf febc 5368 b4bc
00000060: f445 53bd 3f95 bdbd 720c e4bd 6236 75bd
00000070: f2bd aabd fe77 973d 9b16 f03c 63da 2c3e
00000080: 36d5 03be 7d86 dbbc f09b 59bc 6906 aa3c
00000090: e455 b0bd e943 0abd 10c9 69bd f610 193e
000000a0: b539 03bd 141a 3a3d 291e aabd f142 dbbd
000000b0: f7e9 563d 0a7b fd3d 05d6 f9bc 4a00 8bbc
000000c0: 8ea3 973d 5807 f6bd f351 463d 96c2 673d
000000d0: b47d f43d 7d97 dabc 44f9 6bbd 9208 8d3d
000000e0: 76d4 13be 27dc c13c cf7a 2a3c ef2e b1bd
000000f0: d8fe 103e b84c 99bd 5028 c83d 9c2a 54bd
00000100: 82f9 fd3d 8d36 e8bd e83e 9cbd 4831 0f3c
00000110: 0d62 a73d f0e0 e4bd 2f5b 183e e2b9 2ebe
00000120: fb01 c13d de2d c23d 208c a43d 7140 2bbe
00000130: 417f 103d 0404 223e 5e1e efbd c7ed f43c
00000140: 6185 1e3e 2322 86bd 8019 b0bd 55dc 97bd
00000150: 276c b23d 2112 9cbd 95f0 8fbd 711f 743d
00000160: 8528 3f3d 6c7b 83bc 9447 85be e409 303d
00000170: 6a28 92bd f9c2 0c3d 5814 27be 19dd 923c
00000180: a7c9 f73c eafa d1bd 8c18 07bb ba4f ec3a
00000190: 128e 26bc 0d5d d33d b677 8cbe 9d29 f43d
000001a0: aeed a73d 8e08 c8bd 2663 03bd 90cb c13d
000001b0: 6b5e df3d 5fc7 533d 8eba e23d f383 193d
000001c0: 076f b4bc 8e1c 863d 0c8e dcbd c9b5 ad3d
000001d0: 1f37 ea3d 86ce 55bd 9399 9abb cd7d 8dbd
000001e0: e841 b63c 826e 043d 7adf 84bd 826b f33d
000001f0: 5910 0c3e 65db a6bd 448a 5e3d f4c5 12be
00000200: db6b 8ebc f542 fabc 8249 073e 2ae4 4fbd
00000210: 046a dc3d b912 aabd c993 bb3c 082a c6bd
00000220: 3e19 1c3e 0c71 8fbd 2ff8 353d 90ee 983d
00000230: 6253 333d ed6e 7b3d 5205 91bd 4d25 2f3d
00000240: 396c af3d 1e5d 8dbd 7d2b 09be 69bb 9abd
00000250: 68ab 25bc 914c d2bc 6eaa 10be 1fbc 19bd
00000260: 0783 a73c ad49 78bd 54bc ccbd 1e3a b33c
00000270: 1732 4cbe f25e f63c fee4 6e3d d605 e53d
00000280: f0bc cf3d 2d16 30be 32ac cf3c a6d1 b6bd
00000290: 0f25 f03d 176a 4cbd 0281 0b3d be2f b23d
000002a0: d013 513d 8e05 c83d 8562 0f3e 265b 023c
000002b0: 4893 bf3c fb8e 27be f79d 703d 1355 2dbe
000002c0: f7b6 4a3d 8dca cbbc a9d5 c33d 53e3 25bd
000002d0: 6402 503d 4bcb c93c 37dc a53d ccff 91ba
000002e0: 49d7 a1bd ff38 9d3d 6ae8 d13d fa47 10bd
000002f0: 4921 8bbd 8ad3 923c c60a 933d 2ec3 dd3d
00000300: 0e3a 55bb 3a47 063c 9942 ad3d a5ab afbd
00000310: 9d68 96bd e983 303d bfcd a13d 4ed8 1dbd
00000320: cb5e a2bd 475d 6dbd 7ac6 29bd db23 01bd
00000330: ed96 1f3b 4b49 8fbe c29d 93bd eee7 f73c
00000340: a4fc bc3d ed10 433d a0bf ab3c 770b dfbd
00000350: f8b9 7c3c f831 febd dbb2 083e 13cf 67bd
00000360: b33b 323e 8735 a43d 45c3 8abb 0888 64bc
00000370: 9552 24be aa95 dbbd 8b66 e3bd fd7b e0bd
00000380: 5933 0f3e ef7c fabc db54 953d b65b 743d
00000390: 26cb ae3c f9db 363d 1b61 0a3d cc27 4c3d
000003a0: 94ba 853d 768d e13d 6026 dbbd 7c34 d0bd
000003b0: b0ed 3abd 86dd 0ebe 5128 93bd fd8a 2e3e
000003c0: 89b8 1f3d ca1d 13bd 3afb b23d 1a2e 2bbd
000003d0: cffb 8fbe 7443 283e 6cdc 23be 08a6 503d
000003e0: c3ff 33bc b097 9b3d 9d7b 5abe e92d 31bd
000003f0: e168 acbd 8b82 efbd 3616 4fbe 48c3 14bd

fc2.bias f4 [32]
-0.058021788 -0.047764722 0.080813654 0.087939054 0.009532928 -0.068615966 0.014180198 -0.13965052
-0.13645175 -0.08045799 0.09299434 0.1244517 -0.14595954 -0.03259828 0.12893498 -0.02753221
0.11137455 0.0960382 -0.073547885 -0.13848898 0.0141823385 -0.11097437 -0.059351753 -0.015474333
0.12136569 0.10359939 -0.12030357 0.121989995 0.049214326 -0.050982133 0.12885134 -0.12940611
00000000: 41a8 6dbd f1a4 43bd a181 a53d 6419 b43d
00000010: ff2f 1c3c 8786 8cbd 1054 683c 8c00 0fbe
00000020: 02ba 0bbe 29c7 a4bd d173 be3d 88e0 fe3d
00000030: 6b76 15be c685 05bd 8807 043e 3b8b e1bc
00000040: 5718 e43d adaf c43d 46a0 96bd 0ed0 0dbe
00000050: 0a5d 683c 8846 e3bd d31a 73bd 0f88 7dbc
00000060: 938e f83d eb2b d43d b861 f6bd e4d5 f93d
00000070: f694 493d a4d2 50bd 9bf1 033e 0983 04be

fc3.weight f4 [3, 32]
0.08405405 0.17342633 0.11095395 -0.047016494 0.11821001 -0.13025519 0.10971916 -0.16396324
-0.13706006 0.027028723 -0.2084526 0.06236857 -0.25670746 -0.17240523 -0.14276956 0.035786193
0.10779519 0.090912506 -0.033741113 -0.22129533 -0.03130206 -0.105576865 -0.08123516 0.18807629
0.24146809 0.2170786 -0.015575945 -0.02113917 0.24022096 -0.03181422 -0.1961192 -0.013826349
-0.05883026 0.020251963 0.13995565 0.08211725 0.12145899 0.14766514 -0.20454326 -0.06423921
-0.018654926 -0.0008725743 0.15710536 0.14893392 -0.14993133 -0.13257214 -0.13526268 0.14066367
-0.036632054 0.11747783 0.017608244 -0.09915688 0.027267216 0.17045577 0.19277684 -0.05725264
-0.13742201 0.03409917 -0.061863385 0.14672916 -0.07166309 -0.09095417 0.004326166 -0.040295035
-0.03127699 0.02752076 -0.01581101 0.1720707 -0.12194868 -0.089803256 0.15014668 0.10354507
0.17083852 0.04057253 -0.008512222 0.15892114 0.15779306 0.044820115 0.08198601 0.043553296
-0.15261659 -0.01216744 -0.0027670278 -0.13659818 -0.05561705 0.015155933 -0.08656954 -0.1365735
0.15956385 -0.09239907 0.14552936 0.10135565 0.0337731 0.17397691 0.11144132 0.020073902
00000000: 8824 ac3d ac96 313e d33b e33d 5e94 40bd
00000010: 1718 f23d 9e61 05be 70b4 e03d fbe5 27be
00000020: 7959 0cbe 576b dd3c 9974 55be 3076 7f3d
00000030: 296f 83be ff8a 30be 2f32 12be 8b94 123d
00000040: b9c3 dc3d 5630 ba3d 1f34 0abd 3e9b 62be
00000050: 9736 00bd af38 d8bd 9f5e a6bd 1297 403e
00000060: 6943 773e da49 5e3e 4032 7fbc 0d2c adbc
00000070: 7cfc 753e a14f 02bd 79d3 48be e987 62bc
00000080: 00f8 70bd 72e7 a53c 8950 0f3e 172d a83d
00000090: 7ebf f83d 8835 173e ca73 51be d98f 83bd
000000a0: 37d2 98bc 78bd 64ba 3ae0 203e 2282 183e
000000b0: 9987 19be fec0 07be 4d82 0abe 230a 103e
000000c0: 7e0b 16bd 3798 f03d 2a3f 903c c312 cbbd
000000d0: 7f5f df3c f58b 2e3e 4b67 453e bf81 6abd
000000e0: 5bb8 0cbe 92ab 0b3d 7664 7dbd 2b40 163e
000000f0: 19c4 92bd 2e46 babd 83c2 8d3b 680c 25bd
00000100: 4d1c 00bd 3873 e13c 1786 81bc 4d33 303e
00000110: 3bc0 f9bd c5ea b7bd 0dc0 193e 700f d43d
00000120: 4bf0 2e3e 622f 263d d976 0bbc 39bc 223e
00000130: 8194 213e 4c95 373d 48e8 a73d f164 323d
00000140: 8647 1cbe f159 47bc 0657 35bb 65e0 0bbe
00000150: b4ce 63bd 9750 783c 5f4b b1bd ecd9 0bbe
00000160: b564 233e b93b bdbd a605 153e 8d93 cf3d
00000170: a955 0a3d 0127 323e 593b e43d 0672 a43c

fc3.bias f4 [3]
0.08598361 0.042215325 0.03184706
00000000: 2d18 b03d fae9 2c3d 1072 023d

onnx::LSTM_209 f4 [1, 512, 2]
-0.11478181 0.052391164 0.07374243 -0.035907306 -0.0056195697 0.008531429 -0.15673572 -0.015947161
0.011319001 -0.089602344 -0.015119595 -0.022458324 -0.003613913 -0.042170323 -0.14325634 -0.14547454
-0.002660603 0.03895508 -0.016614823 -0.08822847 0.014696991 0.022526413 -0.087233566 -0.109155804
-0.014227536 0.017757941 -0.0023731436 -0.11500404 -0.052135378 0.03441068 0.042863324 0.1061889
-0.102408595 0.03453756 -0.09843149 0.040382214 0.08866163 0.07363434 -0.13181068 -0.071362816
-0.04713212 0.12368303 -0.032969724 0.10552875 0.13333715 0.08481054 -0.0004660096 -0.07732961
-0.036987673 -0.13678367 -0.111263976 -0.08238876 -0.031624846 0.026199799 -0.012351859 -0.06451965
-0.12914829 0.02961648 -0.14415655 -0.021790618 -0.015844868 -0.15886588 -0.026281372 -0.0035693173
-0.07429022 -0.13070902 -0.08629582 -0.120383024 0.06802679 -0.1294423 -0.057666622 0.11609434
-0.20357528 -0.03587643 -0.035851177 -0.06204734 0.030092107 -0.019970918 -0.07005301 -0.004734936
0.048712034 -0.15834245 -0.1742437 -0.06305243 -0.06835483 -0.068304434 -0.0511177 -0.017156228
-0.08933875 -0.088927045 0.108576134 0.050372526 0.035430703 -0.111492194 0.016698994 -0.029150251
-0.008152443 -0.14241223 0.10120078 -0.0845861 -0.121748336 -0.072791606 -0.021800518 -0.04160473
-0.1262754 -0.10061087 0.079490975 -0.028568313 -0.19619234 -0.050451484 0.04017743 -0.12844117
-0.113130525 -0.032779798 -0.095060274 0.10531177 -0.13934986 0.11321365 -0.048808936 -0.13729678
-0.044093784 -0.03890523 0.0030355023 -0.13516591 -0.16759294 -0.045055542 -0.13951169 -0.07252244
-0.062085927 0.06738468 -0.00755282 -0.024462627 -0.05936085 -0.047413304 -0.17840628 -0.044358943
-0.08719335 -0.00665611 -0.116009615 -0.03874368 -0.0892969 -0.035902206 -0.031167801 -0.07676635
-0.031552415 -0.0548521 -0.1913139 -0.051585626 -0.09860088 -0.07621529 -0.025404824 0.014080767
-0.18644902 -0.12039509 -0.09539033 0.0807083 -0.10941792 -0.12480146 -0.1449709 0.06470818
-0.10571741 -0.14684846 -0.1361835 -0.1303306 0.021030294 -0.07499464 -0.13925882 0.04607366
0.123293154 0.01881893 0.06457211 -0.042514775 -0.09698716 0.084460706 0.09244503 0.11436705
-0.052794274 -0.107751355 -0.12412476 -0.069400944 0.14469664 0.020463588 0.014310028 0.13932015
0.07194808 0.042387042 -0.14795727 -0.14577284 -0.027477454 -0.088090636 -0.088063374 0.09459609
-0.015193283 -0.018403979 -0.045079287 0.028696489 -0.05593288 0.010784734 0.096151814 0.0036750063
-0.056362435 -0.006255786 0.030467827 -0.0048871953 -0.12266337 -0.020013042 -0.06313431 -0.09375087
0.08140312 -0.08838233 -0.09997322 -0.05194032 -0.05039523 -0.072045796 -0.05790679 -0.08591661
-0.10002447 -0.027246369 0.062821984 -0.08486555 -0.015363687 0.07581979 0.004113173 -0.004491966
0.03537056 -0.011148154 -0.043152668 0.0831416 -0.11795944 0.010075994 0.0789556 -0.0056839446
-0.01706025 0.059490334 -0.004423011 -0.11131523 -0.21245323 0.17839117 0.09784838 0.07936625
-0.018249944 0.0047531007 0.005135766 -0.08044444 -0.045176048 -0.042276237 -0.10482328 -0.061409373
0.08668112 0.077987194 -0.11370423 0.017149935 -0.15796483 0.0066436697 -0.07212538 0.024920592
00000000: ba12 ebbd 1e98 563d 4506 973d 8a13 13bd
00000010: 5e24 b8bb 68c7 0b3c 547f 20be 9fa3 82bc
00000020: 5573 393c 6f81 b7bd 2eb8 77bc 85fa b7bc
00000030: 66d7 6cbb caba 2cbd cab1 12be 47f7 14be
00000040: 835d 2ebb 5d8f 1f3d cf1b 88bc 21b1 b4bd
00000050: a6cb 703c 5089 b83c 83a7 b2bd 148d dfbd
00000060: 9c1a 69bc 1a79 913c be86 1bbb 3d87 ebbd
00000070: e88b 55bd 37f2 0c3d 7491 2f3d 9179 d93d
00000080: 99bb d1bd 4277 0d3d 7396 c9bd d267 253d
00000090: 3b94 b53d 9acd 963d 61f9 06be ab26 92bd
000000a0: 9c0d 41bd 874d fd3d 430b 07bd 751f d83d
000000b0: 8989 083e 26b1 ad3d c052 f4b9 fd5e 9ebd
000000c0: 6380 17bd 0511 0cbe 5ede e3bd 70bb a8bd
000000d0: 0e89 01bd f6a0 d63c 745f 4abc e122 84bd
000000e0: 733f 04be 439e f23c c69d 13be 3d82 b2bc
000000f0: 19cd 81bc bdad 22be 084c d7bc 35eb 69bb
00000100: 7925 98bd 96d8 05be ddbb b0bd 608b f6bd
00000110: a151 8b3d 868c 04be d633 6cbd dfc2 ed3d
00000120: 0a76 50be 2af3 12bd afd8 12bd 5a25 7ebd
00000130: b983 f63c 0d9a a3bc f477 8fbd 8627 9bbb
00000140: 4586 473d 8624 22be f16c 32be a221 81bd
00000150: 9efd 8bbd 32e3 8bbd cb60 51bd 388b 8cbc
00000160: 3cf7 b6bd 621f b6bd 2a5d de3d 6c53 4e3d
00000170: c91f 113d 0556 e4bd 54cc 883c 82cc eebc
00000180: d391 05bc 83d4 11be 5b42 cf3d 7a3b adbd
00000190: 3157 f9bd c413 95bd 0097 b2bc b969 2abd
000001a0: 574e 01be 120d cebd 2acc a23d 1808 eabc
000001b0: a5e6 48be 37a6 4ebd 1791 243d 1586 03be
000001c0: fab0 e7bd 1c44 06bd f6ae c2bd b3ad d73d
000001d0: bbb1 0ebe 8fdc e73d e1eb 47bd 8797 0cbe
000001e0: af9b 34bd 175b 1fbd 47ef 463b ef68 0abe
000001f0: 7c9d 2bbe 298c 38bd 27dc 0ebe a586 94bd
00000200: d04d 7ebd fb00 8a3d a57d f7bb d965 c8bc
00000210: 5d24 73bd 7434 42bd 23b0 36be b9b1 35bd
00000220: 6d92 b2bd 7f1b dabb 7396 edbd b1b1 1ebd
00000230: 4be1 b6bd 310e 13bd 9e53 ffbc ad37 9dbd
00000240: 1b3d 01bd 98ac 60bd cae7 43be 734b 53bd
00000250: 42ef c9bd c316 9cbd c71d d0bc 04b3 663c
00000260: 7eec 3ebe b391 f6bd 015c c3bd 654a a53d
00000270: 8116 e0bd e897 ffbd 4073 14be b985 843d
00000280: 5f82 d8bd 715f 16be b073 0bbe 6375 05be
00000290: b947 ac3c ca96 99bd dd99 0ebe bcb7 3c3d
000002a0: 1f81 fc3d 282a 9a3c 623e 843d f923 2ebd
000002b0: 34a1 c6bd bcf9 ac3d d253 bd3d 4639 ea3d
000002c0: cf3e 58bd beac dcbd 1f35 febd 1522 8ebd
000002d0: 5b2b 143e 41a3 a73c 9c74 6a3c f1a9 0e3e
000002e0: 8459 933d 099e 2d3d 1c82 17be 7a45 15be
000002f0: 6618 e1bc dd68 b4bd 925a b4bd 98bb c13d
00000300: 3fed 78bc f1c3 96bc 0fa5 38bd e614 eb3c
00000310: e019 65bd 74b2 303c 3eeb c43d 60d8 703b
00000320: 4cdc 66bd 56fd ccbb aa97 f93c c424 a0bb
00000330: ef36 fbbd 64f2 a3bc 904c 81bd 7500 c0bd
00000340: aeb6 a63d cc01 b5bd c2be ccbd 5fbf 54bd
00000350: 3b6b 4ebd bf8c 93bd ac2f 6dbd 0cf5 afbd
00000360: a1d9 ccbd c733 dfbc d0a8 803d fdcd adbd
00000370: f9b7 7bbc 6847 9b3d ccc7 863b 5831 93bb
00000380: b8e0 103d bfa6 36bc dac0 30bd 2546 aa3d
00000390: b894 f1bd c815 253c 79b3 a13d 6240 babb
000003a0: f0c1 8bbc 23ac 733d e8ee 90bb 3df9 e3bd
000003b0: 578d 59be 2dac 363e bb64 c83d c68a a23d
000003c0: e880 95bc e6bf 9b3b ee49 a83b 0ec0 a4bd
000003d0: 850a 39bd d929 2dbd 96ad d6bd 6588 7bbd
000003e0: df85 b13d c0b7 9f3d c3dd e8bd 057e 8c3c
000003f0: 88c1 21be 24b3 d93b 79b6 93bd 4526 cc3c

onnx::LSTM_210 f4 [1, 512, 128]
0.2097062 -0.029689966 0.07957996 -0.033337872 0.08043598 -0.01841973 -0.08274915 0.11830789
0.18633987 0.015267471 -0.042324517 -0.006112442 -0.016688682 -0.18251778 0.16113012 -0.017988876
0.25456592 -0.1503914 0.11237222 0.021483636 -0.007978183 0.06474466 0.19875467 -0.16203687
-0.027197579 0.029036107 -0.23074804 -0.04628495 0.12329447 -0.10258298 -0.00025064946 0.031583376
0.27341038 -0.045495864 0.1093368 0.2048917 -0.10974238 -0.28651115 -0.077229805 -0.04481311
0.10287431 0.15935303 -0.14553452 0.1368174 0.12526257 0.11696586 -0.018312955 -0.0698113
-0.07614962 0.21589422 -0.059236273 -0.0058266018 0.08985941 0.07632717 0.104095474 -0.055302214
-0.08507208 -0.3337897 0.074777566 -0.15855214 0.13498132 -0.18792945 0.03807578 -0.021476187
0.10540085 -0.014836426 -0.10374881 -0.0036723928 0.14997403 -0.038105164 0.027024737 0.018273944
-0.0061254585 -0.08338389 0.1355686 -0.14426488 0.043582547 0.09305388 0.023510149 0.124135844
0.04754698 -0.20580873 -0.0047986116 -0.04059908 0.19420823 0.09303557 0.06955814 0.0051623285
0.088288054 0.27980182 0.24932899 -0.14546312 -0.1263798 0.069270454 0.15575157 -0.005619121
-0.10281877 0.13605651 -0.045325637 0.0152316615 0.12402447 0.038840555 -0.14217487 -0.15518099
0.12508829 0.024693642 -0.16738224 -0.0106499335 0.06355408 0.11777705 -0.085736625 0.14441094
-0.099473 0.20187011 -0.09122966 0.20754932 -0.071094595 0.022929408 0.0919523 0.068928115
0.10123407 -0.10763762 0.0859877 0.15131679 0.012915853 -0.074307315 0.06635756 -0.19805044
-0.052571304 0.014902987 -0.09133692 -0.03132289 0.059356827 0.01540804 0.046947278 -0.07893677
-0.07940825 0.07314778 -0.014637665 -0.08741561 -0.017196074 0.0024728798 0.040426794 0.07005102
0.057552185 0.17165335 -0.12004317 0.059039768 -0.056413025 -0.030611768 -0.0406873 0.07063381
-0.08917207 -0.06823927 0.07089982 0.13447186 0.062682256 0.0686648 -0.059267577 -0.105907984
-0.056668364 0.097235896 -0.032864094 -0.15200089 0.13522315 0.048995063 -0.010199114 -0.052531395
-0.08423131 -0.019691328 0.04550626 0.006594538 -0.08932868 -0.059344444 -0.058247585 0.026878305
0.16553348 -0.12849711 0.0046022995 0.07027287 0.003814089 -0.13645041 -0.015681032 -0.07452649
0.09624827 0.1219519 -0.08791325 -0.07257232 0.039364696 0.20024502 -0.09974948 -0.0920634
-0.06468758 0.014304541 0.15504774 -0.04354432 0.0074944533 -0.03589995 0.08457448 -0.026821358
0.03600633 -0.112073265 0.03223225 0.006593848 -0.19365361 0.11208723 -0.06133799 0.09875767
-0.05202798 0.10407281 3.0670199e-06 -0.028808827 -0.031367153 0.06233823 -0.15207013 -0.075403735
-0.029760081 -0.052059196 -0.05114652 0.1809206 0.14326566 0.06994896 -0.15702306 0.08084248
-0.024918249 -0.029406372 0.041430987 -0.09766104 -0.059848137 -0.087551825 0.12327516 0.056684136
-0.0766588 -0.033798315 0.17693965 -0.026473524 -0.06065474 0.15705507 0.07465561 -0.010549937
0.03928312 -0.094370075 -0.035277423 -0.19522053 0.10914714 -0.0936206 0.022647135 -0.049751498
-0.07862772 0.08518896 -0.011606202 0.02579423 -0.066154316 0.08321798 0.05817672 0.02965079
00000000: 39bd 563e 5f38 f3bc d1fa a23d 4b8d 08bd
00000010: 9ebb a43d f9e4 96bc 6378 a9bd 684b f23d
00000020: e1cf 3e3e 6a24 7a3c 795c 2dbd e14a c8bb
00000030: b4b6 88bc f1e5 3abe 4bff 243e 685d 93bc
00000040: 7756 823e 3400 1abe 6823 e63d 73fe af3c
00000050: edb6 02bc d998 843d 5886 4b3e feec 25be
00000060: 75cd debc 21dd ed3c 3749 6cbe 4a95 3dbd
00000070: d081 fc3d 0717 d2bd 9a69 83b9 925d 013d
00000080: 72fc 8b3e df59 3abd f9eb df3d 21cf 513e
00000090: 9dc0 e0bd 97b1 92be a92a 9ebd f48d 37bd
000000a0: c4af d23d 712d 233e 0007 15be dc19 0c3e
000000b0: d544 003e cc8b ef3d 0d05 96bc 3af9 8ebd
000000c0: 55f4 9bbd 6013 5d3e bca1 72bd 14ed bebb
000000d0: 3608 b83d 6b51 9c3d 0230 d53d 9384 62bd
000000e0: 453a aebd 7ce6 aabe fb24 993d 7e5b 22be
000000f0: 8b38 0a3e 9470 40be 59f5 1b3d d4ee afbc
00000100: 67dc d73d 7b14 73bc 427a d4bd 87ac 70bb
00000110: cb92 193e 2914 1cbd fb62 dd3c 3db3 953c
00000120: 12b8 c8bb 2cc5 aabd 7fd2 0a3e 2cba 13be
00000130: 9d83 323d 0893 be3d 5b98 c03c ef3a fe3d
00000140: 9fc0 423d 86bf 52be ac3d 9dbb 394b 26bd
00000150: 86de 463e 6f89 be3d 8074 8e3d c028 a93b
00000160: 5ed0 b43d 2f42 8f3e 1950 7f3e 49f4 14be
00000170: b569 01be abdd 8d3d 577d 1f3e 9a20 b8bb
00000180: a692 d2bd 6652 0b3e 60a7 39bd 388e 793c
00000190: 8b00 fe3d 4617 1f3d 4a96 11be c4e7 1ebe
000001a0: 2517 003e 524a ca3c 4066 2bbe 0f7d 2ebc
000001b0: a428 823d 1835 f13d af96 afbd 76e0 133e
000001c0: 80b8 cbbd 0ab7 4e3e 9ed6 babd cf87 543e
000001d0: 0b9a 91bd 74d6 bb3c 7d51 bc3d 2f2a 8d3d
000001e0: cf53 cf3d 1d71 dcbd 521a b03d caf2 1a3e
000001f0: 049d 533c 6f2e 98bd 79e6 873d bccd 4abe
00000200: 0255 57bd a82b 743c da0e bbbd 6e4c 00bd
00000210: 2520 733d 0172 7c3c ca4b 403d 9aa9 a1bd
00000220: cba0 a2bd 81ce 953d d1d2 6fbc f506 b3bd
00000230: c8de 8cbc 0a10 223b 9196 253d e976 8f3d
00000240: d7bb 6b3d e5c5 2f3e 32d9 f5bd afd3 713d
00000250: 5811 67bd 88c5 fabc baa7 26bd 75a8 903d
00000260: d99f b6bd 08c1 8bbd ed33 913d feb2 093e
00000270: 8e5f 803d 21a0 8c3d 8fc2 72bd 49e6 d8bd
00000280: 161d 68bd 9d23 c73d 809c 06bd 1fa6 1bbe
00000290: f077 0a3e 0caf 483d 2f1a 27bc 292b 57bd
000002a0: 7781 acbd b54f a1bc c664 3a3d ff16 d83b
000002b0: f4f1 b6bd 2913 73bd 0595 6ebd e42f dc3c
000002c0: 9c81 293e bf94 03be e3ce 963b 39eb 8f3d
000002d0: ccf5 793b a8b9 0bbe 8275 80bc 58a1 98bd
000002e0: d01d c53d ebc1 f93d dd0b b4bd cca0 94bd
000002f0: e03c 213d 080d 4d3e 7549 ccbd bc8b bcbd
00000300: ec7a 84bd 985d 6a3c d6c4 1e3e 875b 32bd
00000310: 0894 f53b d30b 13bd 6335 ad3d 77b8 dbbc
00000320: 607b 133d ab86 e5bd f705 043d 3511 d83b
00000330: 224d 46be fd8d e53d 8b3d 7bbd 7641 ca3d
00000340: 4b1b 55bd 2024 d53d 00d3 4d36 7d00 ecbc
00000350: d87a 00bd 5f56 7f3d 46b8 1bbe 466d 9abd
00000360: 6acb f3bc 063c 55bd 037f 51bd 4043 393e
00000370: 3cb4 123e 6641 8f3d a7ca 20be be90 a53d
00000380: 5b21 ccbc a2e5 f0bc 8ab3 293d 8302 c8bd
00000390: 5223 75bd 5f4e b3bd b077 fc3d a02d 683d
000003a0: 4aff 9cbd 1a70 0abd ab2f 353e 01df d8bc
000003b0: 1b71 78bd 0bd3 203e 0ae5 983d a5d9 2cbc
000003c0: 56e7 203d 1945 c1bd 0f7f 10bd e4e7 47be
000003d0: 8988 df3d 28bc bfbd 7c86 b93c 3ac8 4bbd
000003e0: 9207 a1bd 8d77 ae3d f127 3ebc 6c4e d33c
000003f0: ea7b 87bd 306e aa3d b64a 6e3d 37e6 f23c

onnx::LSTM_211 f4 [1, 1024]
0.07656716 -0.038662083 -0.05962706 -0.11055603 -0.0027746137 0.018586846 0.04352419 -0.09606357
0.04945544 -0.06862619 0.009843036 -0.037410326 -0.053558152 0.01871503 0.012001151 0.075286634
0.06354381 -0.10177075 -0.026209613 -0.100906186 -0.03896651 0.105332196 0.05846305 0.047569726
-0.033119436 -0.14481804 0.042545997 0.0076313624 0.048774734 -0.021915382 -0.050199583 -0.027786475
0.088692166 -0.073621646 -0.00954114 0.031792033 -0.10907383 -0.028304879 -0.052454744 0.058266353
-0.039369535 -0.04821684 0.053484812 -0.09353108 -0.10877562 0.068808265 -0.07800655 -0.033384923
-0.080423 -0.026356867 -0.1279576 -0.039846793 -0.05456959 -0.054182038 -0.03521041 -0.013468779
-0.012803787 0.15261193 0.01937131 -0.1443333 0.0032152068 -0.06279599 0.011248441 -0.018090023
0.08260185 -0.093094915 0.008352952 -0.056879304 -0.07233316 -0.10584669 -0.06488525 -0.1261713
0.053948164 -0.07139637 -0.06681671 -0.0631504 -0.07648171 -0.11855258 -0.09223792 -0.057049
0.02387736 0.055269692 -0.055346295 -0.11111004 -0.05755738 -0.06333205 -0.06840659 -0.010477666
0.0016959894 -0.07302755 0.023876064 -0.0027310348 0.0768349 -0.08810337 -0.033069678 0.034742184
-0.00019405542 -0.08857266 -0.057167802 -0.11606559 -0.05897949 0.03589441 -0.070663475 -0.025467958
-0.020556873 -0.16321172 -0.035778463 -0.011472798 0.018901149 0.16928297 0.055878267 0.05896672
-0.02333854 -0.088138714 -0.009384216 0.08696015 -0.088880345 0.018171215 -0.06634897 0.033903964
0.047850497 -0.048103392 -0.12168987 -0.010705455 0.06438616 -0.029745145 0.014221203 -0.13738106
0.105964296 -0.03936759 0.04402375 -0.05973644 -0.060123075 -0.13559592 0.007209891 -0.073064595
0.029424988 -0.096747674 0.08541109 0.014698668 -0.12018107 0.02523743 -0.10445634 -0.0065933825
-0.032537874 0.009908739 0.053526193 0.038741548 -0.011615033 0.066293955 0.08456464 0.055975508
0.046467625 -0.0076892967 0.02579582 -0.030932829 0.043443196 -0.016223023 -0.16402587 -0.052147154
-0.041468572 -0.0030229525 -0.033165023 0.011361187 -0.11061321 -0.05526377 -0.05627279 0.049709853
0.042235106 -0.008619778 0.08895667 -0.10228007 -0.023086168 0.012140827 -0.0606534 -0.0062037753
0.017714702 -0.043931473 -0.017790858 0.01356546 -0.020670589 -0.031378172 -0.028312981 -0.034774065
-0.012106674 0.1787187 -0.10125501 0.026842065 -0.0357211 0.07638067 0.042143892 0.0066023637
0.1461103 -0.08172804 -0.09493714 -0.062149275 -0.055875167 -0.043151416 -0.06700251 -0.079813406
-0.083136246 -0.010330288 -0.08165996 0.034596875 -0.11847025 -0.0107434485 -0.116012625 -0.04674768
-0.12343703 0.092950754 -0.08497901 -0.117718436 0.07030714 -0.08664353 -0.012899808 -0.09856734
-0.003872903 0.0072556436 0.10763217 0.066061236 0.07862154 -0.080382094 -0.04828697 0.118946895
0.026595317 0.028963061 -0.017347274 -0.11184426 -0.048792727 0.03430638 -0.07510044 -0.012965835
-0.030940935 -0.13313712 0.0233072 -0.05777104 -0.06497489 0.1567592 0.066146575 -0.04521636
0.06819726 0.03287312 -0.07220813 -0.09359988 -0.044129882 -0.056134656 -0.06903325 -0.015103928
-0.051094 -0.11249698 -0.035438254 0.0870903 0.042403378 0.01871545 0.0068229483 -0.13758257
00000000: 3ecf 9c3d 225c 1ebd 813b 74bd 336b e2bd
00000010: 4bd6 35bb 7143 983c 6c46 323d fabc c4bd
00000020: ca91 4a3d e38b 8cbd af44 213c 923b 19bd
00000030: cb5f 5bbd 4350 993c 7aa0 443c e12f 9a3d
00000040: 4223 823d 2f6d d0bd 8bb5 d6bc e7a7 cebd
00000050: 599b 1fbd 68b8 d73d f376 6f3d 79d8 423d
00000060: 3fa8 07bd 2e4b 14be b644 2e3d 8210 fa3b
00000070: 04c8 473d e387 b3bc 149e 4dbd 76a0 e3bc
00000080: 3da4 b53d f2c6 96bd 7152 1cbc 5d38 023d
00000090: 1a62 dfbd a2df e7bc c9da 56bd b3a8 6e3d
000000a0: f341 21bd 057f 45bd e412 5b3d 398d bfbd
000000b0: c1c5 debd 59eb 8c3d e6c1 9fbd a1be 08bd
000000c0: d0b4 a4bd 5bea d7bc 5107 03be 6436 23bd
000000d0: 5d84 5fbd fced 5dbd ca38 10bd 27ac 5cbc
000000e0: fac6 51bc 4d46 1c3e 95b0 9e3c 1ccc 13be
000000f0: 38b6 523b 2f9b 80bd 624b 383c 8731 94bc
00000100: 292b a93d 8ca8 bebd d2da 083c 46fa 68bd
00000110: 6823 94bd 26c6 d8bd 8fe2 84bd 0d33 01be
00000120: c0f8 5c3d 4338 92bd 33d7 88bd ff54 81bd
00000130: 71a2 9cbd b2cb f2bd 3ce7 bcbd 36ac 69bd
00000140: 749a c33c 7962 623d ccb2 62bd a98d e3bd
00000150: 4ac1 6bbd 3cb4 81bd c118 8cbd 84aa 2bbc
00000160: f64b de3a 788f 95bd bc97 c33c 29fb 32bb
00000170: 9e5b 9d3d 8a6f b4bd 1274 07bd d24d 0e3d
00000180: 5b7b 4bb9 9565 b5bd c928 6abd ccb3 edbd
00000190: 7a94 71bd 0406 133d 03b8 90bd 2ea2 d0bc
000001a0: e366 a8bc f920 27be 708c 12bd 67f8 3bbc
000001b0: 95d6 9a3c 8458 2d3e 9ce0 643d 1687 713d
000001c0: 7730 bfbc 1282 b4bd 41c0 19bc 2a18 b23d
000001d0: e606 b6bd cddb 943c f8e1 87bd e2de 0a3d
000001e0: e2fe 433d 1008 45bd 8a38 f9bd ef65 2fbc
000001f0: e4dc 833d 17ac f3bc 0c00 693c 9fad 0cbe
00000200: cf03 d93d e93f 21bd 3f52 343d 33ae 74bd
00000210: 9d43 76bd a8d9 0abe f340 ec3b e4a2 95bd
00000220: ac0c f13c a523 c6bd 02ec ae3d afd2 703c
00000230: 7e21 f6bd babe ce3c 35ed d5bd 4d0d d8bb
00000240: 6f46 05bd 4358 223c 483e 5b3d 75af 1e3d
00000250: fb4c 3ebc 20c5 873d 3a30 ad3d 9346 653d
00000260: d654 3e3d 7ff6 fbbb c151 d33c d866 fdbc
00000270: 7ef1 313d 25e6 84bc 66f6 27be 4198 55bd
00000280: f3da 29bd ba1c 46bb 0cd8 07bd 4624 3a3c
00000290: 2e89 e2bd 435c 62bd 4c7e 66bd 8f9c 4b3d
000002a0: b8fe 2c3d f839 0dbc ea2e b63d 3778 d1bd
000002b0: 341f bdbc 52ea 463c b36f 78bd 0a49 cbbb
000002c0: 6c1e 913c 7df1 33bd 22be 91bc aa41 5e3c
000002d0: 5e55 a9bc 6686 00bd a0f0 e7bc 406f 0ebd
000002e0: 125b 46bc 0902 373e c95e cfbd e4e3 db3c
000002f0: 4a50 12bd 786d 9c3d 139f 2c3d a458 d83b
00000300: f09d 153e 0861 a7bd 676e c2bd 3d90 7ebd
00000310: 5cdd 64bd 8abf 30bd 9d38 89bd 3675 a3bd
00000320: 5643 aabd 5e40 29bc 563d a7bd 74b5 0d3d
00000330: 88a0 f2bd 4a05 30bc 0798 edbd 7f7a 3fbd
00000340: 8ecc fcbd f75c be3d 7a09 aebd 5d16 f1bd
00000350: 31fd 8f3d 2a72 b1bd b759 53bc acdd c9bd
00000360: 88d0 7dbb c0c0 ed3b 416e dc3d 1d4b 873d
00000370: 5404 a13d 5e9f a4bd 8fc8 45bd 6e9a f33d
00000380: 6cde d93c f143 ed3c df1b 8ebc 9a0e e5bd
00000390: e2da 47bd d984 0c3d 42ce 99bd a76e 54bc
000003a0: d877 fdbc 1955 08be beee be3c 53a1 6cbd
000003b0: 8e11 85bd 7c85 203e db77 873d ca34 39bd
000003c0: 01ab 8b3d f7a5 063d dbe1 93bd 4bb1 bfbd
000003d0: 89c1 34bd 74ed 65bd 4e61 8dbd 7776 77bc
000003e0: f147 51bd d164 e6bd b427 11bd 665c b23d
000003f0: 2aaf 2d3d 2551 993c 0a93 df3b 72e2 0cbe
