rock_paper_scissors_model.onnx (onnx, 383212 bytes, 20 tensors)

batchnorm1.weight f4 [20]
0	0x3f89dff1	1.0771466
1	0x3f90297d	1.1262661
2	0x3f3f4d1d	0.7472704
3	0x3f85572d	1.0417229
4	0x3f15d124	0.5852225
5	0x3f8757f9	1.0573722
6	0x3f8ce937	1.1008672
7	0x3f87070c	1.0549026
8	0x3f185aa3	0.595133
9	0x3f5d99de	0.8656291
10	0x3f839f7d	1.0283047
11	0x3f9beb81	1.2181245
12	0x3f33cf09	0.70237786
13	0x3f427a29	0.7596765
14	0x3f2094db	0.62727135
15	0x3f74ebf8	0.9567256
16	0x3f4e9b0a	0.8070532
17	0x3f81eec0	1.0150986
18	0x3f3458f0	0.7044821
19	0x3f3ecc23	0.7453024

batchnorm1.bias f4 [20]
0	0x3e91ab66	0.2845108
1	0x3dd4a036	0.1038212
2	0x3e79a885	0.24380691
3	0x3e292ba5	0.16520555
4	0x3c92abbe	0.017904159
5	0x3e1425d8	0.14467561
6	0x3c75757e	0.014981626
7	0xbcf44343	-0.02981723
8	0xbe8b5ded	-0.27220097
9	0xbe5d9dbc	-0.21642202
10	0xbe14517e	-0.14484212
11	0xbd7d239e	-0.061801545
12	0xbe07b04f	-0.1325085
13	0x3cc89119	0.02448325
14	0xbe11ea0d	-0.1424944
15	0x3e0696ea	0.13143507
16	0xbdde3efc	-0.10851857
17	0xbc9f4b73	-0.019445157
18	0xbe1a3147	-0.1505786
19	0x3db189b7	0.08668845

batchnorm1.running_mean f4 [20]
0	0xbc136682	-0.008996608
1	0xbcac551a	-0.021036673
2	0xbc965658	-0.018351719
3	0xbcb4afb8	-0.022056445
4	0xbc9d336c	-0.019189559
5	0xbc9c6bde	-0.019094404
6	0xbca2d457	-0.019876642
7	0xbcaa39af	-0.020779459
8	0xbcb06b22	-0.02153546
9	0xbca95460	-0.020670116
10	0xbcae6b98	-0.02129154
11	0xbcb8fa88	-0.0225804
12	0xbcbfc5dc	-0.023409776
13	0xbcb3662e	-0.021899309
14	0xbcbb8e2b	-0.02289494
15	0xbcc367a9	-0.02385314
16	0xbcbb1d98	-0.02284126
17	0xbcb062a7	-0.021531416
18	0xbcb81ac3	-0.022473698
19	0xbcc04081	-0.023468258

batchnorm1.running_var f4 [20]
0	0x3ca475cf	0.020075707
1	0x3d1e6727	0.038672592
2	0x3d50675d	0.050879825
3	0x3d685d5c	0.05672966
4	0x3d6d5173	0.057939004
5	0x3d75dae7	0.060023215
6	0x3d75c3ef	0.06000131
7	0x3d74dac0	0.05977893
8	0x3d74814d	0.059693623
9	0x3d72ee29	0.05930916
10	0x3d740b39	0.059581015
11	0x3d788863	0.060676944
12	0x3d77375d	0.060355533
13	0x3d7bf5a2	0.06151355
14	0x3d7e44ae	0.062077217
15	0x3d7fe906	0.062478088
16	0x3d8037ac	0.062606186
17	0x3d7f3c8a	0.062313594
18	0x3d7dd7cc	0.061973378
19	0x3d7e2377	0.06204554

batchnorm2.weight f4 [64]
0	0x3f739a3c	0.9515722
1	0x3f866760	1.0500298
2	0x3f47f852	0.7811328
3	0x3f7791f5	0.9670709
4	0x3f8414f3	1.0318893
5	0x3f79bb3d	0.9755133
6	0x3f6a1e8e	0.9145287
7	0x3f66aa9e	0.9010409
8	0x3f6dde1f	0.92917055
9	0x3f7c9b66	0.9867462
10	0x3f6a2406	0.9146122
11	0x3f70a744	0.9400523
12	0x3f791a30	0.97305584
13	0x3f6582db	0.89652795
14	0x3f803e17	1.0018948
15	0x3f5cad45	0.8620189
16	0x3f7d92ac	0.9905193
17	0x3f8b0eff	1.0863951
18	0x3f60b04c	0.8776901
19	0x3f7fe5fc	0.99960303
20	0x3f8b6fbf	1.0893477
21	0x3f6ee89d	0.9332369
22	0x3f7fd55d	0.9993494
23	0x3f610eac	0.8791301
24	0x3f94663b	1.1593698
25	0x3f6e124a	0.92996657
26	0x3f746cc9	0.9547849
27	0x3f65c4fc	0.897537
28	0x3f5bf14b	0.8591506
29	0x3f3fcca6	0.74921644
30	0x3f61f985	0.8827136
31	0x3f753480	0.95783234
32	0x3f7fe846	0.99963796
33	0x3f6c0b45	0.92204696
34	0x3f63aa53	0.8893177
35	0x3f85b5e9	1.044614
36	0x3f7458ab	0.95447797
37	0x3f8bc841	1.0920488
38	0x3f86c7fb	1.0529779
39	0x3f7f4c5c	0.9972589
40	0x3f6e3778	0.9305339
41	0x3f7cbeb8	0.98728514
42	0x3f620255	0.8828481
43	0x3f8825b3	1.0636505
44	0x3f554ede	0.83323467
45	0x3f8922d5	1.0713755
46	0x3f6f5ab8	0.934978
47	0x3f6d6751	0.92735773
48	0x3f918676	1.1369159
49	0x3f51e81b	0.8199479
50	0x3f837df7	1.0272816
51	0x3f837202	1.0269167
52	0x3f705436	0.93878496
53	0x3f883de7	1.0643891
54	0x3f625ee7	0.8842606
55	0x3f59f376	0.85137117
56	0x3f8365c6	1.0265434
57	0x3f80caf8	1.0061941
58	0x3f7eee38	0.9958224
59	0x3f5f2c2a	0.87176764
60	0x3f5a6d55	0.8532308
61	0x3f5ffec0	0.8749809
62	0x3f81d96f	1.014448
63	0x3f814808	1.0100107

batchnorm2.bias f4 [64]
0	0x3cc591d1	0.024117382
1	0x3e17bd04	0.14818197
2	0xbdd40d37	-0.10354083
3	0x3e085c5f	0.13316487
4	0xbdd49322	-0.10379626
5	0x3dab02fa	0.08350177
6	0x3d3cb701	0.046072964
7	0xbe0769df	-0.1322398
8	0xbdd2d641	-0.10294772
9	0x3b793911	0.00380284
10	0xbe2ab102	-0.16669086
11	0xbd4f4bd2	-0.050609417
12	0x3d452616	0.048132025
13	0x3d3a3d88	0.045468837
14	0x3c82209e	0.015884694
15	0xbdc628d9	-0.0967576
16	0x3cf3fa1f	0.029782353
17	0xbd4f56a8	-0.05061975
18	0x3e5afda4	0.21385819
19	0x3e06ea87	0.13175403
20	0x3e45de5b	0.19323103
21	0x3e84e175	0.2595326
22	0x3e1c89e7	0.1528698
23	0xbda4fc82	-0.080559745
24	0xbe12eb50	-0.14347577
25	0x3d825e13	0.063655995
26	0x3d6b56d4	0.057455853
27	0xbe9910b6	-0.29895562
28	0xbe5ee63f	-0.2176752
29	0xbdf2f188	-0.11862475
30	0xbdb63ed9	-0.08898706
31	0x3b54b5e1	0.003245704
32	0xbcab29c4	-0.020893939
33	0x3e798900	0.24368668
34	0x3abd5524	0.001444493
35	0x3ced33af	0.028955309
36	0xbda6f713	-0.081525944
37	0xbe80908a	-0.25110275
38	0x3d5a6a6c	0.053324148
39	0x3df0b6ec	0.117536396
40	0x3d898fbc	0.06716868
41	0x3a9fb384	0.0012184237
42	0xbdda429d	-0.10657237
43	0x3d02f6b9	0.031973574
44	0xbcd88c39	-0.02643405
45	0x3e151540	0.14558887
46	0xbd22f377	-0.039782967
47	0x3d92ade4	0.07162073
48	0xbe82969a	-0.25505525
49	0xbe15171d	-0.14559598
50	0xbd2ac3a8	-0.0416905
51	0xbdafce9d	-0.0858433
52	0xbd0fbc98	-0.035091966
53	0x3e0c11bd	0.13678642
54	0x3d2ddee3	0.04244889
55	0xbd1ad8e3	-0.037804496
56	0xbde0b8a8	-0.109727204
57	0xbdec6281	-0.11542226
58	0x3daa1965	0.08305625
59	0x3c2aa609	0.010415562
60	0xbe143ccc	-0.14476317
61	0xbd8f90c8	-0.07010037
62	0xbe0952ce	-0.13410494
63	0x3c82d1c5	0.015969167

batchnorm2.running_mean f4 [64]
0	0x3f301ca4	0.687937
1	0xbe87512e	-0.26429123
2	0xbf17bcdd	-0.5927256
3	0x3f0bc06f	0.54590505
4	0x3e68ffd0	0.22753835
5	0xbed87c2c	-0.42282236
6	0x3e366a0a	0.17813888
7	0xbed9a67f	-0.4250984
8	0xbf06aa1a	-0.52603304
9	0xbe4a7a9e	-0.19773337
10	0x3f25426c	0.64554477
11	0xbf635ca3	-0.8881323
12	0xbd91c5bc	-0.07117793
13	0x3f1e1d57	0.6176352
14	0x3f0339ec	0.51260257
15	0x3e81486c	0.25250566
16	0xbf040bae	-0.5158032
17	0xbde72ce0	-0.11287856
18	0x3e342365	0.17591627
19	0x3f5da2d2	0.8657657
20	0x3f269738	0.6507449
21	0xbe095649	-0.13411821
22	0xbe9f933c	-0.31167018
23	0xbf2986f0	-0.66221523
24	0x3cc3a858	0.023883983
25	0x3f5c7574	0.8611672
26	0xbf4c972a	-0.7991816
27	0xbf14acff	-0.5807647
28	0xbf14a016	-0.5805677
29	0xbf6fa700	-0.93614197
30	0xbf01f6a3	-0.5076696
31	0xbe4cbbaa	-0.19993463
32	0x3f19f152	0.6013385
33	0x3ebebce3	0.37253484
34	0x3eaa85f9	0.33305338
35	0xbc6ff44e	-0.014645649
36	0xbf40bd19	-0.7528854
37	0x3ec87e85	0.39159027
38	0x3e4018e3	0.18759494
39	0x3e206452	0.15663269
40	0xbe3bf0fc	-0.18353647
41	0xbefd2bb9	-0.4944742
42	0xbe9d5082	-0.30725485
43	0x3eed7d50	0.46384668
44	0xbe7ebc0d	-0.24876423
45	0xbe92955f	-0.28629586
46	0xbf7e5746	-0.9935192
47	0x3e624913	0.22098188
48	0xbf5eb34f	-0.86992353
49	0x3ef7fc05	0.48434463
50	0xbd0d510c	-0.03450112
51	0x3eb39a39	0.350786
52	0x3d2bfed0	0.041991055
53	0xbdb5bc17	-0.08873766
54	0x3f1c99fa	0.6117245
55	0x3ed4ffe5	0.41601482
56	0x3f0cb367	0.54961246
57	0x3e74cb01	0.23905565
58	0x3f277770	0.6541662
59	0xbf5f0b28	-0.871264
60	0xbd40048a	-0.04687933
61	0xbf15b548	-0.5847974
62	0xbf44282f	-0.76623815
63	0xbd39e447	-0.045383718

batchnorm2.running_var f4 [64]
0	0x3eadab36	0.33919686
1	0x3f0135f5	0.50472957
2	0x3eb10b5c	0.3457898
3	0x3eb92aaa	0.36165363
4	0x3f0d95a2	0.55306447
5	0x3e706e1a	0.234795
6	0x3f36f03f	0.71460336
7	0x3d7e6cfc	0.062115654
8	0x3dbf1947	0.09330993
9	0x3d8ceb2f	0.06880795
10	0x3d904248	0.07043892
11	0x3d8ea718	0.06965464
12	0x3eea2cfb	0.45737442
13	0x3eac1230	0.33607626
14	0x3ee13940	0.4398899
15	0x3e3e3ad4	0.18577129
16	0x3eb354f4	0.35025752
17	0x3f3a9ebc	0.7289846
18	0x3dedf132	0.1161827
19	0x3dd32dfa	0.10311504
20	0x3e9f0b28	0.310632
21	0x3ef21073	0.47278175
22	0x3f106a86	0.5641254
23	0x3e80e8e1	0.25177673
24	0x3f3d69ed	0.73989755
25	0x3dc57027	0.09640532
26	0x3e42c4e4	0.1902042
27	0x3dcdadc6	0.1004291
28	0x3d74f269	0.059801493
29	0x3d4af0eb	0.049546164
30	0x3ebd1b0a	0.36934692
31	0x3d5959d5	0.053064186
32	0x3d5aecbb	0.05344842
33	0x3d7ac78b	0.061225455
34	0x3ee96918	0.45587993
35	0x3e11f2d5	0.1425279
36	0x3e505502	0.20344928
37	0x3ea7c409	0.3276675
38	0x3f53790b	0.8260657
39	0x3e703c0f	0.2346041
40	0x3ee65363	0.44985494
41	0x3ed6d961	0.41962722
42	0x3ea94691	0.3306165
43	0x3ee535e5	0.4476768
44	0x3e906e95	0.28209367
45	0x3f167ed4	0.58787274
46	0x3b2c3412	0.0026276154
47	0x3edb60d6	0.42847317
48	0x3d3a2c91	0.045452658
49	0x3eebaefb	0.46031937
50	0x3f1e6063	0.61865824
51	0x3f1b05c6	0.60555685
52	0x3f196afd	0.59928876
53	0x3f1fc27f	0.6240615
54	0x3e3c9f3b	0.18420117
55	0x3d3e3a35	0.04644223
56	0x3ec2aa6b	0.38020644
57	0x3f0c259e	0.547449
58	0x3e5eefd8	0.2177118
59	0x3e037aa1	0.12839748
60	0x3eb0bd08	0.3451922
61	0x3e9ea0c3	0.30982026
62	0x3dabebcd	0.08394585
63	0x3e8f72ef	0.28017375

fc1.weight f4 [64, 64]
0	0x3d508b3a	0.050914027
1	0x3d3f32f5	0.046679456
2	0x3da6a583	0.081370376
3	0x3e2c847a	0.16847411
4	0x3d3b9e72	0.045805402
5	0x3ba51a9a	0.0050385715
6	0x3e403f0c	0.1877405
7	0x3defc405	0.1170731
8	0xbd1602f2	-0.036623903
9	0xbd98b1e1	-0.07455803
10	0x3b85f22f	0.0040877084
11	0xbd49f66f	-0.049307283
12	0xbdc24509	-0.09485824
13	0xbba52595	-0.0050398805
14	0x3ded2558	0.115793884
15	0xbca032be	-0.019555446
16	0x3d8a8a31	0.06764639
17	0x38e6adae	0.00010999605
18	0x3d9e2a45	0.07722906
19	0xbd802bc1	-0.062583454
20	0x3e7d9295	0.24762948
21	0x3da81e37	0.08208888
22	0xbdf17a05	-0.117908515
23	0x3d862927	0.06550818
24	0x3c7c52a0	0.015400559
25	0x3d70398e	0.05864864
26	0xbe254def	-0.1614301
27	0xbcccaf37	-0.024985893
28	0xbc5d5898	-0.013509892
29	0xbe007e3f	-0.12548159
30	0x3d8acf86	0.06777863
31	0x3e2b63e7	0.16737328
32	0x3e3690f0	0.17828727
33	0xbba4e548	-0.0050322153
34	0x3dd2a023	0.1028445
35	0xbc848c7b	-0.016180268
36	0xbc357953	-0.011076289
37	0xbbdff43a	-0.006834534
38	0xbe6fa080	-0.2340107
39	0x3cceb227	0.025231434
40	0x3e262963	0.16226725
41	0xbe22d688	-0.1590215
42	0xbd859b8b	-0.06523808
43	0xbe39fd48	-0.18163025
44	0x3d07f08f	0.0331884
45	0xbe65bb07	-0.22434627
46	0x3e0f76da	0.14010182
47	0xbb80f8e1	-0.0039359187
48	0x3dbedf47	0.093199305
49	0x3e0fb9c2	0.14035705
50	0xbc8293c5	-0.015939603
51	0x3e2935ed	0.16524477
52	0x3c7929d3	0.015207726
53	0xbc0348c7	-0.008012957
54	0x3e50950d	0.20369358
55	0x3d153080	0.036423206
56	0x3cc48758	0.023990318
57	0x3decd501	0.11564065
58	0xbd0acf2e	-0.03388899
59	0x3d841e10	0.064510465
60	0xbd83b706	-0.06431393
61	0xbb8e21d9	-0.004337531
62	0xbc5ad859	-0.013357245
63	0xbdec2672	-0.1153077
64	0x3b1cfd05	0.0023954522
65	0x3ced2b08	0.028951183
66	0x3d615628	0.055013806
67	0xbdc6a1df	-0.09698843
68	0x3dfae0d7	0.12249916
69	0xbe7d90cf	-0.24762271
70	0xbb14a0dc	-0.0022678887
71	0xbdb015a4	-0.085978776
72	0x3d2c71dc	0.042100772
73	0xbe470431	-0.19435193
74	0x3cc2a61a	0.023760844
75	0xbe9aaae9	-0.3020852
76	0xbd3292cd	-0.04359703
77	0xbd771f5e	-0.06033265
78	0x3e2426c3	0.16030411
79	0xbd5d5488	-0.054035693
80	0xbe43af18	-0.19109762
81	0x3cc81003	0.024421697
82	0xbe04c429	-0.12965454
83	0x3daf9d1f	0.0857489
84	0xbe47330c	-0.19453067
85	0x3e605606	0.21907815
86	0x3c010ef3	0.007877099
87	0xbe5206b0	-0.20510364
88	0xbea827ab	-0.32842764
89	0x3e02b361	0.1276374
90	0x3d522bd4	0.05131133
91	0x3e25967f	0.16170691
92	0x3d8219c1	0.063525684
93	0xbe02536c	-0.12727135
94	0x3cfd6562	0.030932132
95	0xbc8b1521	-0.016977848
96	0x3d5e2b71	0.054240648
97	0x3d8b2835	0.06794778
98	0xbe86d937	-0.26337597
99	0xbe60e7bf	-0.21963404
100	0xbe141ea0	-0.14464808
101	0x3e44d1c6	0.19220647
102	0x3d23e432	0.040012546
103	0x3dcc3d9f	0.09972691
104	0xbdc06ede	-0.09396146
105	0xbdf5e6ef	-0.12006938
106	0xbd2b05fd	-0.041753758
107	0x3e052683	0.13002972
108	0xbe099973	-0.13437442
109	0xbd9ba19b	-0.07599183
110	0xbd3202d1	-0.043459717
111	0xbd882469	-0.0664757
112	0xbd0df176	-0.034654103
113	0xbc6f4865	-0.014604663
114	0x3d7f57e5	0.062339682
115	0xbdbc68df	-0.0919969
116	0x3c4a1e32	0.012336301
117	0x3e1589c6	0.14603338
118	0x3d0a71bd	0.033799876
119	0x3e068d74	0.13139898
120	0x3d82bf1e	0.06384109
121	0x3daafd62	0.0834911
122	0xbdc99d38	-0.0984444
123	0x3ddfcfcd	0.10928307
124	0x3e010e09	0.1260301
125	0xbbb5973a	-0.0055417093
126	0xbe2493cb	-0.16072004
127	0xbd8e281c	-0.06941244
128	0xbd94f0af	-0.07272469
129	0x3e38fbe3	0.18064837
130	0x3e4ace75	0.1980532
131	0xbd9a8666	-0.07545166
132	0x3daaef3e	0.08346413
133	0xbdab3606	-0.083599135
134	0xbe10c134	-0.14136201
135	0x3e0f8bbc	0.14018148
136	0xbcce4182	-0.025177721
137	0x3c10c110	0.008835092
138	0x3dc55817	0.096359424
139	0x3c92d42d	0.017923439
140	0xbda977fb	-0.082748376
141	0xbe939b07	-0.28829214
142	0xbe8487e6	-0.25884932
143	0x3d03d92d	0.032189537
144	0x3dfc8fd4	0.123321205
145	0xbe149655	-0.14510472
146	0x3d249a58	0.040186256
147	0x3e49f1da	0.19721165
148	0xbe7e18df	-0.24814175
149	0xbd73e673	-0.059545945
150	0x3dd09253	0.10184159
151	0x3e1cac49	0.15300097
152	0x3e87e4e9	0.26541832
153	0x3e057ed0	0.13036656
154	0xbe3ab2e0	-0.18232298
155	0xbda14008	-0.07873541
156	0xbd010a19	-0.03150377
157	0x3dbcb8b4	0.09214917
158	0x3ce7f36f	0.02831432
159	0xbd802322	-0.06256701
160	0xbce846f6	-0.02835415
161	0xbd605e9b	-0.054777723
162	0x3e0b6d70	0.13615966
163	0xbe0dcc9d	-0.13847585
164	0xbd061ec9	-0.032744203
165	0x3c25e19d	0.010124591
166	0x3db81056	0.08987491
167	0xbd55cc81	-0.052196983
168	0xbde306f7	-0.11085313
169	0x3db8c8a5	0.09022645
170	0xbdfb84a5	-0.12281159
171	0x3c7a3981	0.015272499
172	0x3dc25877	0.094895296
173	0x3e65a93b	0.22427838
174	0x3ddc976f	0.10771071
175	0xbbbe2418	-0.0058026426
176	0x3d7f6ece	0.06236153
177	0x3e0bb172	0.13641909
178	0xbd58e5ec	-0.052953646
179	0x3e2f5a22	0.17124227
180	0xbde74d5f	-0.11294054
181	0xbc2f2727	-0.010690487
182	0xb9a1272a	-0.00030737492
183	0x3c8f9b83	0.017530208
184	0xbe64f36b	-0.22358482
185	0x3c9684ce	0.018373873
186	0x3d03ec28	0.032207638
187	0x3e23ed5b	0.16008513
188	0xbbaa5100	-0.0051976442
189	0xbbf65fb7	-0.0075187343
190	0xbd026c5e	-0.03184163
191	0x3d86e4e7	0.065866284
192	0xbdfa7224	-0.12228802
193	0x3db75551	0.0895182
194	0x3e65450f	0.22389625
195	0x3e3ce79f	0.18447731
196	0xbdd0b430	-0.10190618
197	0x3d63cfc8	0.055618078
198	0xbd156562	-0.03647364
199	0xbc7a78ad	-0.01528756
200	0x3a1c40f3	0.0005960606
201	0xbe5206d1	-0.20510413
202	0xbd4cfaa4	-0.050043717
203	0xbda19440	-0.078896046
204	0x3dfda561	0.12385059
205	0xbde963be	-0.113959774
206	0xbdd5a118	-0.10431117
207	0x3c71001f	0.0147095015
208	0xbe1446ef	-0.14480184
209	0xbe1edfe4	-0.15515095
210	0x3e031018	0.12799108
211	0x3d7b113c	0.061295733
212	0xbd7c5c21	-0.0616113
213	0xbdbbd1b5	-0.09170858
214	0x3e31f5e9	0.17378964
215	0x3c7d1ea1	0.015449197
216	0xbdded498	-0.10880393
217	0xbdaef0a9	-0.08541996
218	0x3e2b4f2d	0.16729422
219	0xbc331c3b	-0.010932024
220	0x3df0160e	0.117229566
221	0x3e31209f	0.172976
222	0xbe0468a6	-0.12930545
223	0xbd99dbb7	-0.075126104
224	0xb8d283f8	-0.000100381614
225	0xbe08821f	-0.13330887
226	0x3d7dacac	0.06193225
227	0x3db78b79	0.08962149
228	0x3de22187	0.11041551
229	0xbe299130	-0.16559291
230	0x3e6f94c5	0.23396595
231	0x3e096af7	0.1341971
232	0x3df3c79a	0.11903305
233	0xbc20f47d	-0.009823916
234	0x3d585953	0.05281956
235	0xbdbab0ac	-0.09115729
236	0xbddcb0bb	-0.10775896
237	0x3decd9c1	0.11564971
238	0xbdc61851	-0.09672607
239	0x3d4fe4ef	0.050755437
240	0x3d22ea02	0.03977395
241	0x3e0366ee	0.12832233
242	0xbd4fbc1f	-0.050716516
243	0xbe0efcb6	-0.13963589
244	0x3c0533ec	0.008130055
245	0x3dbd3420	0.09238458
246	0x3cd6a811	0.026203187
247	0x3dbc7286	0.09201531
248	0x3c20c1d6	0.009811839
249	0xbdf18bdc	-0.11794254
250	0xbe2993d0	-0.16560292
251	0x3d5d282a	0.05399338
252	0x3de7df82	0.113219276
253	0xbe35b396	-0.17744288
254	0x3bd1f1ad	0.006406984
255	0xbe702eda	-0.23455372

fc1.bias f4 [64]
0	0xbe110f2a	-0.14165941
1	0xbe49d041	-0.19708349
2	0xbe2bd34a	-0.16779819
3	0xbe71b360	-0.23603582
4	0x3d323486	0.04350712
5	0xbe87da37	-0.26533672
6	0x3e2dbd36	0.1696671
7	0xbdaae469	-0.08344347
8	0xbe973c63	-0.2953826
9	0xbd6ec34a	-0.05829171
10	0xbd604cba	-0.054760672
11	0xbe6298fc	-0.22128671
12	0xbd029b04	-0.031886116
13	0xbe38a21d	-0.18030591
14	0xbdfb2e4c	-0.1226469
15	0xbd8ea6a8	-0.06965381
16	0xbd58a1d0	-0.05288869
17	0x3e06f699	0.13180007
18	0xbd6d48f8	-0.057930917
19	0xbd8f31c6	-0.069919154
20	0xbe1c1600	-0.15242767
21	0xbce41036	-0.027839761
22	0xbe2d72ee	-0.16938373
23	0x3d3dbf66	0.04632511
24	0xbcba3460	-0.022730052
25	0xbe27c550	-0.16383862
26	0xbde131d6	-0.109958336
27	0x3d159b44	0.036525026
28	0xbcbe3b9c	-0.023221783
29	0xbe211ab4	-0.15732843
30	0xbea2af05	-0.31774154
31	0x3dd89af4	0.1057643
32	0xbde34398	-0.11096877
33	0xbd555bb2	-0.0520894
34	0xbddf9940	-0.10917902
35	0xbd13390d	-0.03594308
36	0xbcbcdc0b	-0.023054143
37	0xbda01fb5	-0.07818548
38	0xbde44b8f	-0.11147224
39	0x3e19c61e	0.15016982
40	0xbe87b952	-0.26508576
41	0xbe194c50	-0.14970517
42	0xbe9ff97e	-0.31245035
43	0xbe33779f	-0.175261
44	0xbe42b748	-0.19015229
45	0xbe2802bc	-0.16407293
46	0xbdef50eb	-0.11685356
47	0xbe1e3087	-0.15448199
48	0x3d349b4c	0.044093415
49	0x3c4805a0	0.012208372
50	0xbe3606bb	-0.17776005
51	0xbe0456bf	-0.12923716
52	0x3b6bf995	0.0036006917
53	0x3dc24c49	0.094872065
54	0xbdba0c23	-0.09084346
55	0xbe5713ea	-0.2100369
56	0x3d9da0c1	0.07696677
57	0xbe9a726e	-0.30165428
58	0xbe82e15c	-0.2556256
59	0xbe43432d	-0.19068594
60	0xbe29c38c	-0.16578501
61	0xbdafa406	-0.08576207
62	0xbe5cae35	-0.2155083
63	0x3d314283	0.04327632

fc2.weight f4 [32, 64]
0	0x3cddcb4b	0.027074477
1	0x3d9fac1d	0.077965
2	0x3d60db51	0.054896656
3	0xbdb7cc34	-0.089744955
4	0xbd5824a5	-0.052769322
5	0x3d02e20d	0.03195386
6	0xbd1eeede	-0.03880202
7	0xbd832597	-0.06403654
8	0xbd336d6a	-0.043805517
9	0x3d8e08ed	0.06935296
10	0xbda05548	-0.07828766
11	0xbe21941b	-0.15779154
12	0x3ce109ea	0.027470548
13	0xbd0a98ce	-0.033837132
14	0x3daa6bda	0.08321352
15	0x3d74e8ef	0.059792455
16	0xbd72e68f	-0.05930191
17	0x3d4d23b7	0.05008289
18	0x3cbbbf5d	0.022918398
19	0x3bdd1f98	0.006748151
20	0xbe0ac9cf	-0.13553546
21	0xbbb07838	-0.005385425
22	0x3d3557b4	0.044273093
23	0xbda7f6a7	-0.08201342
24	0xbe11b676	-0.1422976
25	0xbd7db977	-0.06194445
26	0xbd658837	-0.056038108
27	0xbdcd5bfb	-0.100273095
28	0xbda7e1d6	-0.08197372
29	0xbd176b69	-0.03696767
30	0x3ca466ec	0.020068608
31	0xbd1704a0	-0.036869645
32	0xbdf26c4a	-0.11837061
33	0x3c23506e	0.009967906
34	0x3d35ec20	0.04441464
35	0xbd4e44db	-0.050358634
36	0xbd4ea5bd	-0.05045103
37	0x3c9272b1	0.017876955
38	0xbdc35eaf	-0.09539544
39	0xbdc32b28	-0.09529716
40	0x3d9e31e3	0.07724359
41	0xbe1bb10e	-0.1520426
42	0x3ce25970	0.027630538
43	0xbd9fe4bc	-0.078072995
44	0x3c4eaa32	0.01261382
45	0xbdf69994	-0.120410115
46	0x3b20e300	0.0024549365
47	0xba9482ef	-0.0011330525
48	0xbcd59762	-0.026073162
49	0x3cc8d024	0.024513312
50	0xbe051e3b	-0.12999813
51	0xbcc21446	-0.023691308
52	0xbdd3034c	-0.10303363
53	0xbdae62c7	-0.08514934
54	0xbdfab95a	-0.12242384
55	0xbc225d4c	-0.009909939
56	0xbe1890ee	-0.14899036
57	0x3b0f2246	0.0021840497
58	0xbdedbb8f	-0.116080396
59	0xbdde5d2d	-0.108576156
60	0xbe050204	-0.1298905
61	0xbdb15862	-0.08659436
62	0xbdbb9056	-0.09158389
63	0xbd9c035f	-0.076178305
64	0xbdc60809	-0.09669501
65	0xbe659f6f	-0.224241
66	0xbd8ce05b	-0.0687873
67	0xbd7650f0	-0.06013578
68	0x3dda3f41	0.10656596
69	0x3d529aa1	0.051416997
70	0x3bc0767b	0.005873499
71	0x3e6c98dd	0.23105188
72	0xbbc3c91f	-0.0059749032
73	0x3e6d9647	0.23201858
74	0xbc98c851	-0.018650206
75	0xbda86737	-0.08222812
76	0x3d226a58	0.0396522
77	0x3e8174a2	0.25284296
78	0xbc58fdd7	-0.013244114
79	0x3d4d04b5	0.050053317
80	0xbe64c2d6	-0.22339949
81	0xbd107de7	-0.03527632
82	0x3e01c2db	0.12671988
83	0x3df06cfb	0.117395364
84	0xbdeadbd0	-0.11467707
85	0xbe399bc3	-0.18125825
86	0x3d679004	0.05653383
87	0xbcea4b9e	-0.02860051
88	0xbe1558f2	-0.14584711
89	0xbaa148ef	-0.0012305061
90	0xbe593d3d	-0.21214767
91	0xbde92786	-0.113844916
92	0x3d44566e	0.04793399
93	0xbe93e246	-0.2888357
94	0x3c8af3e3	0.016961997
95	0xbdd0aa5e	-0.10188745
96	0xbea9efb8	-0.33190703
97	0x3d124003	0.035705578
98	0xbdd43858	-0.10362309
99	0x3d316b77	0.043315377
100	0x3e4095c7	0.18807136
101	0xbd7cf2a6	-0.061754845
102	0x3deba7ac	0.1150659
103	0x3bb56f85	0.005536976
104	0xbd12f812	-0.03588111
105	0x3d440b67	0.047862437
106	0xbe474554	-0.1946004
107	0x3d5c8b5f	0.053843852
108	0xbd8e333c	-0.06943366
109	0x3e264e20	0.1624074
110	0xbe3e8190	-0.18604112
111	0xbe050bf5	-0.12992842
112	0xbdd6be24	-0.10485485
113	0xbc818f29	-0.015815334
114	0xbe51193f	-0.20419787
115	0xbdc29acd	-0.09502182
116	0xbce39972	-0.02778313
117	0xbe17893e	-0.14798447
118	0x3da69b52	0.08135094
119	0x3d5b3549	0.053517614
120	0xbe2e1b76	-0.17002663
121	0xbcede96c	-0.029041968
122	0xbdf43257	-0.11923664
123	0xbd681bab	-0.05666701
124	0x3da2f6fb	0.07957264
125	0xbb3df178	-0.0028983038
126	0xbde46594	-0.11152187
127	0xbe56939d	-0.20954747
128	0xbd42552f	-0.04744452
129	0x3cd38d6d	0.025824273
130	0xbdd1b3fa	-0.10239406
131	0xbcec40cd	-0.028839493
132	0xbdb07956	-0.08616893
133	0xbdcda76d	-0.100416996
134	0x3d0ff7e6	0.035148524
135	0x3d8d184e	0.068894014
136	0xba0c3521	-0.0005348493
137	0x3dc9cf8c	0.098540395
138	0x3dc3c5c0	0.09559202
139	0x3d64a848	0.055824548
140	0xbd5ef4c4	-0.054432645
141	0xbd70125a	-0.05861125
142	0x3ce83f45	0.028350482
143	0xbd8ce7da	-0.0688016
144	0xbe1f1941	-0.15536977
145	0xbd43efe8	-0.047836214
146	0x3d3336c5	0.043753404
147	0xbdc1b6f7	-0.09458726
148	0x3c7389d9	0.014864408
149	0xbdfeb2df	-0.12436461
150	0xbcf75913	-0.030193841
151	0x3c912bd7	0.0177211
152	0xbdc172e6	-0.09445743
153	0xbd22204d	-0.039581586
154	0xbd1a6c6d	-0.03770106
155	0xbd0a1e72	-0.03372044
156	0x3d3c72a7	0.04600778
157	0xbc57004b	-0.013122628
158	0x3dc89ffd	0.0979614
159	0xbe580ec1	-0.21099378
160	0xbc677859	-0.014127814
161	0xbd3553e8	-0.044269472
162	0xbcd5aa36	-0.02608214
163	0xbe731357	-0.23737846
164	0xbdd467ea	-0.103713825
165	0xbd7d0a82	-0.0617776
166	0xbe2b8fe7	-0.16754113
167	0xbc1ee194	-0.009697337
168	0x3befec5d	0.007321878
169	0x3c8ad318	0.01694636
170	0x3bae4602	0.005318404
171	0x3b59cdaf	0.003323417
172	0xbdc7369e	-0.09727214
173	0x3db3cbfb	0.087791406
174	0xbe45957f	-0.1929531
175	0x3dd7cdc6	0.10537295
176	0xbd72fffb	-0.059326153
177	0x3e03546b	0.12825172
178	0x3d3d72b8	0.046251982
179	0x3ce47d3d	0.02789175
180	0xbd90bbaf	-0.07067048
181	0xbe0c5eaf	-0.13707994
182	0xbd84f382	-0.06491758
183	0xbe630252	-0.22168854
184	0x3d9135d5	0.07090346
185	0x3cfe866c	0.031069957
186	0xbe75a727	-0.23989545
187	0xbda7ba90	-0.08189881
188	0xbc4c5731	-0.01247196
189	0xbd24b18f	-0.040208396
190	0xbd8ad61c	-0.06779119
191	0x3e2f741b	0.17134134
192	0xbdeb231a	-0.114813045
193	0xbdc878df	-0.09788679
194	0xbe194e82	-0.14971355
195	0xbbb0f39d	-0.0054001347
196	0x39ce2127	0.00039316082
197	0xbc920cb2	-0.01782832
198	0x3d6d4b7b	0.057933312
199	0xbd809c95	-0.06279866
200	0xbd987df6	-0.074459
201	0xbd34b5d5	-0.04411872
202	0xbe2239bb	-0.15842335
203	0xbd20e0ae	-0.03927677
204	0xbdf2a897	-0.11848562
205	0x3d81f3df	0.06345343
206	0xbd952443	-0.07282307
207	0xbd949589	-0.07255084
208	0xbdce4fdb	-0.10073825
209	0x3cdf6ec7	0.027274502
210	0xbc43190f	-0.01190783
211	0x3d446a26	0.047952794
212	0xbdbab37d	-0.09116266
213	0xbd3222b7	-0.043490138
214	0xbd5b91cd	-0.053605843
215	0xbe1842ab	-0.14869182
216	0xbd59e570	-0.053197324
217	0xbd8b5f74	-0.068053156
218	0xbe04b7a8	-0.12960684
219	0x3c94140d	0.018075967
220	0xbd3cca5f	-0.046091434
221	0xbdbaaf3e	-0.09115456
222	0xbe0c1d1f	-0.13682984
223	0xbd8754e4	-0.066079885
224	0xbdd68e4b	-0.10476359
225	0xbd01c876	-0.031685315
226	0x3c0343e9	0.0080117965
227	0x3c9db551	0.019251497
228	0x3d29bb89	0.041438613
229	0x3b9a2ea6	0.004705268
230	0xbde6d337	-0.11270755
231	0xbc61919b	-0.013767625
232	0xbdad6782	-0.08467008
233	0xbd62338b	-0.055224936
234	0x3db3f2ab	0.087865196
235	0x3c46aff0	0.012126908
236	0xbcbbb005	-0.022911081
237	0xbe1e93bb	-0.15486042
238	0xbde113ea	-0.109901264
239	0xbdf8cfaf	-0.121489875
240	0x3cd88f20	0.026435435
241	0x3d2ebb15	0.042658884
242	0xbd1bacf9	-0.038006756
243	0xbd6ff42a	-0.058582462
244	0xbd714c7f	-0.058910843
245	0xbda07332	-0.07834472
246	0xbd905b1b	-0.07048627
247	0x3d8ce322	0.0687926
248	0x3de80659	0.11329336
249	0xbd42081f	-0.047371026
250	0xbdcb2f78	-0.09921163
251	0x3c09259c	0.008370783
252	0x3c8570f7	0.016289217
253	0xbc3fec5f	-0.01171407
254	0xbd8b48b7	-0.06800979
255	0xbd9892fc	-0.0744991

fc2.bias f4 [32]
0	0xbe4556cd	-0.19271393
1	0x3d81e775	0.06342975
2	0x3d0d01ea	0.034425654
3	0xbdbdb9bb	-0.09263941
4	0xbe304e0a	-0.1721727
5	0xbd971a16	-0.073780224
6	0xbd064235	-0.032777984
7	0x3e20cd9f	0.15703438
8	0xbc87c8ae	-0.016575184
9	0xbd22c5ff	-0.039739605
10	0xbd9fb628	-0.077984154
11	0xbe5a344f	-0.21309017
12	0x3d655d1d	0.055997003
13	0xbe5c96ca	-0.21541896
14	0xbdb7c346	-0.08972792
15	0xbe051f29	-0.13000168
16	0xbc9cbdb7	-0.019133432
17	0xbe742bca	-0.23844829
18	0xbd8a24c6	-0.06745295
19	0x3d065889	0.032799277
20	0xba6d4449	-0.0009051008
21	0xbc1838e2	-0.009290906
22	0x3d34eb59	0.044169758
23	0xbdfc2fa4	-0.12313774
24	0xbe623d7f	-0.22093771
25	0x3d3ed240	0.04658723
26	0xbdadc5ab	-0.08484968
27	0x3d4ea588	0.05045083
28	0x3c5c1b55	0.013434251
29	0xbc05bccd	-0.008162689
30	0xbe2d6aa2	-0.16935208
31	0xbe3da392	-0.18519428

fc3.weight f4 [3, 32]
0	0xbd816749	-0.06318528
1	0x3e6ada65	0.22934873
2	0xbd7c4f6b	-0.061599176
3	0xbdc45c25	-0.09587888
4	0x3d116cee	0.035504274
5	0x3dfe0b4e	0.124045
6	0xbd7abaed	-0.061213423
7	0xbd9cb164	-0.07651022
8	0xbe085d27	-0.13316785
9	0x3dfe479a	0.12416001
10	0x3d25bf60	0.040465713
11	0xbca5b8b2	-0.020229671
12	0xbde5eeb6	-0.11227171
13	0x3c58b6a3	0.013227138
14	0x3b440ba3	0.0029914163
15	0x3d2107bf	0.039314028
16	0xbc3b3e1a	-0.01142838
17	0xbe362a45	-0.17789562
18	0xbe0718eb	-0.13193099
19	0x3b952a62	0.0045521716
20	0x3de56d53	0.112024926
21	0xbc85bc16	-0.016325038
22	0x3d2ac4a9	0.041691456
23	0xbb82326d	-0.0039732964
24	0xbdd8f69b	-0.10593911
25	0xbd013d7f	-0.031552788
26	0x3c916054	0.017746128
27	0xbe144fa6	-0.14483508
28	0xbd1a487f	-0.037666794
29	0x3c3b7c8d	0.011443269
30	0xbe0266cf	-0.12734531
31	0x3e1a5989	0.15073217
32	0xbda5b0dc	-0.08090374
33	0xbcc9c50b	-0.02463009
34	0xbd9ba65c	-0.0760009
35	0x3d5a2a1c	0.053262815
36	0xbe4beca9	-0.19914497
37	0x3c834976	0.01602624
38	0xbbfa6c33	-0.007642293
39	0x3db33768	0.08750802
40	0xbd9c96d7	-0.07645958
41	0xba431b55	-0.00074427325
42	0x3e16e67f	0.14736365
43	0xbbe50521	-0.006989137
44	0xbd7b1f63	-0.06130923
45	0xbdc26fe8	-0.09494001
46	0x3be2af3a	0.0069178613
47	0x3e4bd1a1	0.19904186
48	0xbda4b06a	-0.08041461
49	0x3c45f184	0.012081508
50	0x3e319dea	0.17345396
51	0x3c4a8046	0.012359684
52	0xbdbf73c6	-0.09348254
53	0xbd658598	-0.056035608
54	0xbe807fb8	-0.25097442
55	0xbe6f2b65	-0.23356397
56	0xbd2c3ea4	-0.042051926
57	0x3e6795fc	0.22615808
58	0x3cd0e7da	0.02550118
59	0x3c975ff8	0.018478379
60	0x3e04d0de	0.12970302
61	0xbccf125a	-0.025277305
62	0x3e0b4daf	0.13603853
63	0x3d5d7f7e	0.054076664
64	0xbdac796d	-0.08421598
65	0x3c1b1f91	0.009467975
66	0xbe175b78	-0.14780986
67	0xbdd78e38	-0.10525173
68	0xbc818cea	-0.015814263
69	0xbde9b5a9	-0.11411602
70	0x3e0962de	0.13416621
71	0x3e335f2b	0.17516772
72	0x3e2f8cd4	0.17143565
73	0x3d958cee	0.07302271
74	0xbdfa8e0e	-0.12234126
75	0x3cec97af	0.028880922
76	0x3d979553	0.07401528
77	0x3d49b082	0.049240597
78	0xba8269f2	-0.0009949787
79	0x3b334c75	0.0027358804
80	0x3d2c2faf	0.042037662
81	0xbe636273	-0.22205524
82	0xbc1384bf	-0.009003817
83	0x3d749250	0.059709847
84	0x3e31d43f	0.17366122
85	0xbc0a3ec0	-0.008437812
86	0x3d5411d1	0.051774804
87	0xbe56f16f	-0.20990537
88	0xbce96b5a	-0.028493572
89	0xbd8fc2df	-0.070195906
90	0x3d3fc8ba	0.046822287
91	0x3ccb0732	0.024783704
92	0xbd7617e2	-0.06008137
93	0x3ccf75bf	0.0253247
94	0xbba3d353	-0.004999557
95	0x3e00648c	0.12538356

fc3.bias f4 [3]
0	0xbdde6136	-0.10858385
1	0x3ccdf2f8	0.02514027
2	0xbe1ff3f7	-0.15620409

onnx::GRU_210 f4 [1, 384, 2]
0	0x3dabf6bb	0.083966695
1	0x3ebd776a	0.37005168
2	0xbeab1da5	-0.33421054
3	0xbe916b59	-0.28402212
4	0x3e994f91	0.29943517
5	0x3d707aa1	0.058710698
6	0xbbcfce5b	-0.006341738
7	0xbc0596f8	-0.00815367
8	0x3d3ddc5e	0.046352737
9	0xbeb04ec9	-0.34435108
10	0xbe075691	-0.13216616
11	0xbdf5411e	-0.11975311
12	0xbd0461d9	-0.032319877
13	0xbda6cd84	-0.08144668
14	0xbe91f514	-0.28507292
15	0xbe516dc3	-0.20452027
16	0x3ce34191	0.027741225
17	0xbdf7eac0	-0.12105322
18	0xbe12f051	-0.14349486
19	0x3dae445d	0.08509133
20	0xbd3a58dd	-0.045494903
21	0x3dcf64be	0.10126637
22	0xbe1388c1	-0.14407636
23	0xbe42bd60	-0.19017553
24	0xbe364537	-0.17799841
25	0xbe4fa8bb	-0.2027921
26	0xbe96a592	-0.29423195
27	0xbe47ff59	-0.19531001
28	0xbdd8a1af	-0.10577714
29	0xbeaab475	-0.33340803
30	0xbb684c54	-0.0035445886
31	0xbe298c65	-0.16557463
32	0xbd05721a	-0.03257952
33	0xbe8c6b4f	-0.2742562
34	0xbd8ee1aa	-0.06976636
35	0x3dcf5b2a	0.1012481
36	0x3d22c9a6	0.03974309
37	0xbea356cd	-0.3190216
38	0xbe46c1f8	-0.1940993
39	0xbe4e8850	-0.20169187
40	0x3dd78ad5	0.10524527
41	0x3dd40737	0.103529386
42	0xbd2076eb	-0.03917591
43	0xbe76f53f	-0.24116991
44	0xbe5d0e5f	-0.21587513
45	0xbe362118	-0.17786062
46	0xbe07d763	-0.13265757
47	0xbe9dc2e5	-0.30812755
48	0x3dcd2eb4	0.100186735
49	0xbd8580db	-0.06518718
50	0xbe6e3925	-0.23263986
51	0x3e060d61	0.13091041
52	0xbeac6932	-0.33674008
53	0xbd9c9ee7	-0.07647496
54	0x3e8d32b2	0.2757774
55	0xbe6ea1dd	-0.23303933
56	0xbe5ba3be	-0.21449181
57	0x3de84e09	0.11343009
58	0x3c505fa1	0.012718112
59	0x3d31b089	0.043381248
60	0x3daf77da	0.08567782
61	0x3e3c906d	0.18414469
62	0xbe17f5ad	-0.14839812
63	0xbd43d694	-0.04781206
64	0x3d451971	0.048119966
65	0x3e564b7f	0.20927237
66	0x3d02aa57	0.03190073
67	0xbe03d353	-0.12873583
68	0xbe42d4a2	-0.19026425
69	0xbe788217	-0.24268375
70	0x3bd5add4	0.006520966
71	0xbd7d0589	-0.061772857
72	0x3d035daa	0.032071747
73	0x3d8dc8fa	0.06923099
74	0xbe1b676a	-0.15176168
75	0x3bb2e642	0.005459578
76	0x3da09672	0.07841195
77	0xbdd57c31	-0.10424078
78	0x3d860692	0.06544222
79	0xbe3cdac1	-0.18442823
80	0xbe0b2e99	-0.13591994
81	0xbe44afaa	-0.19207636
82	0xbe67eca2	-0.22648862
83	0xbd6fbe6e	-0.058531217
84	0x3dd61392	0.104529515
85	0xbd4a2053	-0.049347233
86	0x3e65607e	0.2240009
87	0xbd83ff83	-0.06445219
88	0xbda696a6	-0.08134203
89	0xbdbf3bf1	-0.09337605
90	0x3dc9c37c	0.09851739
91	0xbe257aaf	-0.16160081
92	0x3e0553a6	0.1302019
93	0x3c668a0f	0.014071002
94	0xbd90bee0	-0.070676565
95	0xbe275fe9	-0.1634518
96	0xbd857d2a	-0.06518014
97	0xbe3d72bb	-0.18500797
98	0xbe3b9ab0	-0.18320727
99	0xbe175add	-0.14780755
100	0xbe9a8b99	-0.3018463
101	0xbe3cdd42	-0.18443778
102	0x3d18dffe	0.03732299
103	0xbd801903	-0.062547706
104	0x3d51b4cb	0.05119781
105	0x3ea57e08	0.32322717
106	0xbd95e61d	-0.07319281
107	0xbd347161	-0.04405344
108	0xbe93c032	-0.2885757
109	0x3d39fb61	0.04540575
110	0xbdfd1aa8	-0.123586
111	0xbe5e0f78	-0.21685588
112	0xbd00fa4d	-0.031488705
113	0xbe0d700c	-0.13812274
114	0xbd0a4fb9	-0.033767436
115	0xbd9f19eb	-0.07768615
116	0x3e014c13	0.12626676
117	0x3e96e7fb	0.29473862
118	0xbe472d8a	-0.19450966
119	0xbe75898b	-0.2397825
120	0x3da20fd6	0.07913177
121	0xbe5d0595	-0.2158416
122	0xbe1d6ffa	-0.15374747
123	0xbe596485	-0.21229751
124	0xbe33a43c	-0.17543119
125	0x3e27f2a5	0.16401155
126	0x3e7a8ecb	0.24468534
127	0x3c77586a	0.015096763
128	0xbe1ba2cc	-0.15198821
129	0x3e1fb669	0.15596928
130	0x3d8de7be	0.06928967
131	0xbcbe4d79	-0.023230301
132	0xbd45d8ed	-0.04830258
133	0xbe25ba4e	-0.16184351
134	0xbbe01080	-0.0068379045
135	0xbe060039	-0.13086022
136	0xbe7d7b90	-0.24754167
137	0xbe24d1d1	-0.16095664
138	0xbe3e718e	-0.18598005
139	0x3c832a71	0.016011449
140	0xbd9f15a9	-0.07767803
141	0xbe588c38	-0.21147239
142	0xbe188635	-0.14894946
143	0xbe772b4f	-0.24137615
144	0xbb252d7a	-0.0025204108
145	0xbd240d22	-0.040051587
146	0xbd52ff61	-0.05151308
147	0x3e2dc4b2	0.16969565
148	0xbc7a559b	-0.015279199
149	0x3cdbc508	0.02682735
150	0x3cb938e9	0.022610145
151	0x3dbaab55	0.0911471
152	0x3c445d14	0.011985082
153	0x3d58bd88	0.052915126
154	0x3e65be5e	0.224359
155	0x3dbd99dd	0.09257863
156	0x3e78eca5	0.24309023
157	0xbe69c54b	-0.22829168
158	0xbcc2bb98	-0.023771092
159	0xbd5ddc0e	-0.05416494
160	0xbe36f788	-0.17867863
161	0xbe6d7ed4	-0.23192912
162	0x3d87bc83	0.06627753
163	0xbe17522e	-0.14777443
164	0x3d952db4	0.07284108
165	0xbcd6b53e	-0.02620947
166	0x3cd764c3	0.026293164
167	0x3d9992f9	0.07498736
168	0x3b8fd776	0.0043896986
169	0x3d2e1ae7	0.042506125
170	0xbe0d0354	-0.13770801
171	0x3d51d90d	0.051232386
172	0x3e3f422d	0.18677588
173	0xbe85c86b	-0.2612947
174	0xbe3bbac9	-0.18332972
175	0xbdf18e13	-0.11794677
176	0x3e9d11a7	0.3067753
177	0x3cc5ebd9	0.024160312
178	0xbb1f1091	-0.002427135
179	0x3de18608	0.110118926
180	0xbd5ccdbc	-0.05390714
181	0xbe802ad6	-0.2503268
182	0x3dccb9d8	0.099963844
183	0x3d8ebe92	0.06969942
184	0xbcc98579	-0.024599778
185	0xbe0bf3e4	-0.13667256
186	0xbe5715f7	-0.21004473
187	0xbbbf6b05	-0.005841615
188	0xbdec8b32	-0.11549987
189	0xbe91fd6e	-0.28513664
190	0x3d532b37	0.051554885
191	0xbe18fb16	-0.14939532
192	0xbd457fa5	-0.048217434
193	0xbe16ec8f	-0.14738677
194	0xbd2813d9	-0.041034553
195	0xbe264901	-0.16238786
196	0x3db9cf92	0.09072794
197	0x3e433884	0.19064528
198	0xbc9f9564	-0.019480415
199	0xbdc04d46	-0.09389739
200	0x3ca2b256	0.019860428
201	0x3d9d423b	0.07678648
202	0xbead5ff8	-0.3386228
203	0xbd040284	-0.03222896
204	0xbe99305a	-0.29919702
205	0x3d45c35b	0.04828201
206	0x3e7a3ee0	0.24438047
207	0x3ce39ed8	0.027785704
208	0x3e1d27d2	0.15347221
209	0x3e3a1da5	0.18175371
210	0x3d2fb107	0.042893436
211	0x3dc1b511	0.09458364
212	0x3dbd1fc8	0.092345774
213	0x3dda65bd	0.10663936
214	0x3e06ac66	0.13151702
215	0x3e82c666	0.2554199
216	0xbdc8d58d	-0.098063566
217	0xbdec0ce0	-0.11525893
218	0xbd1434b7	-0.036183085
219	0x3b6deccf	0.003630448
220	0x392dbd63	0.00016569118
221	0xbd69d769	-0.057090197
222	0x3cec9fbc	0.028884761
223	0xbe05d23b	-0.13068478
224	0xbe2cbb0d	-0.16868229
225	0xbe8f517d	-0.27991858
226	0xbe80e971	-0.25178102
227	0xbe905e69	-0.2819703
228	0xbe387be2	-0.18016008
229	0xbe14b5d1	-0.14522482
230	0x3d10ba14	0.035333708
231	0xbe6532eb	-0.22382705
232	0xbce3b20a	-0.027794857
233	0xbe924a8c	-0.285725
234	0xbe1b2b5f	-0.15153264
235	0xbdd9d56d	-0.10636411
236	0xbcd2b30c	-0.025720142
237	0x3dc84437	0.09778636
238	0xbe3d8510	-0.1850779
239	0x3d0d66df	0.034521934
240	0xbed7699f	-0.4207277
241	0xbd93aa20	-0.07210183
242	0x3e84323e	0.25819582
243	0xbd33087a	-0.043709256
244	0x3e077a7b	0.13230316
245	0xbda439bb	-0.08018824
246	0xbe653412	-0.22383144
247	0x3d066b65	0.032817263
248	0x3bef9f1e	0.0073126694
249	0x3dd0638d	0.10175238
250	0x3e8cd334	0.27504885
251	0x3d213c25	0.039364
252	0x3c162adb	0.009165491
253	0xbdcc6b19	-0.09981365
254	0xbce12c8b	-0.02748706
255	0xbe81413b	-0.2524508

onnx::GRU_211 f4 [1, 384, 128]
0	0xbe9f15bc	-0.3107127
1	0xbd10a8bf	-0.03531718
2	0xbdc61549	-0.096720286
3	0x3e253532	0.16133574
4	0xbd8c2f42	-0.06844951
5	0x3c5b3209	0.0133786285
6	0xbddacc2a	-0.106834725
7	0x3de29e0e	0.11065303
8	0xbd3c45ae	-0.04596489
9	0x3e4612f6	0.1934317
10	0xbdb34999	-0.08754272
11	0x3e0160b1	0.12634541
12	0x3ded02aa	0.11572774
13	0xbd140617	-0.03613862
14	0x3e142602	0.14467624
15	0xbda76355	-0.08173243
16	0x3eb1f2e8	0.34755635
17	0xbe6ee2f0	-0.23328757
18	0xbe4d1eeb	-0.20031326
19	0xbe7aae7b	-0.24480622
20	0xbd2d7415	-0.042347033
21	0x3db650bb	0.08902117
22	0xbe2a2960	-0.16617346
23	0xbdee4387	-0.116339736
24	0xbe103a2d	-0.14084692
25	0x3e1dda87	0.15415393
26	0xbd8a7a8b	-0.067616545
27	0x3d14ec19	0.036357973
28	0xbdc7f89f	-0.097642176
29	0x3dafe248	0.085880816
30	0xbea9818a	-0.33106643
31	0x3e1b03d3	0.15138178
32	0x3e2df1bb	0.16986744
33	0xbe842543	-0.25809678
34	0xbeaa3de2	-0.33250338
35	0xbaa72478	-0.0012751957
36	0xbe0548f6	-0.13016114
37	0xbd42917a	-0.04750202
38	0xbbeabd68	-0.0071636923
39	0xbdb5244c	-0.08844814
40	0xbe14dcae	-0.14537308
41	0xbc5ba232	-0.01340537
42	0x3d5a2759	0.05326018
43	0xbd355f91	-0.044280592
44	0xbe5d9b46	-0.21641263
45	0xbe30abf5	-0.17253096
46	0xbea8c722	-0.32964426
47	0xbdd03e1b	-0.10168096
48	0xbec9d27c	-0.394184
49	0xbea06b75	-0.31331983
50	0x3d913d2c	0.07091746
51	0xbe34746c	-0.17622536
52	0xbe54e062	-0.2078872
53	0x3e6b9159	0.23004664
54	0x3e6cec2d	0.23136969
55	0xbe23eaf7	-0.160076
56	0xbe1afcb3	-0.1513546
57	0xbe58dd4c	-0.21178168
58	0x3e56cee8	0.20977366
59	0x3e22b686	0.1588994
60	0x3e1e3524	0.15449959
61	0xbd7a9cc7	-0.06118467
62	0x3e479b5f	0.19492863
63	0x3e66c354	0.2253545
64	0x3df3f0b6	0.11911146
65	0x3e7162f0	0.23572898
66	0x3e013195	0.1261657
67	0xbeaa7a00	-0.33296204
68	0xbe5e06b8	-0.2168225
69	0xbe60e718	-0.21963155
70	0x3e200d4b	0.15630071
71	0xbe8c8807	-0.2744753
72	0x3da6006d	0.0810555
73	0x3e87503f	0.2642841
74	0x3baa1dfc	0.0051915627
75	0x3e401d58	0.18761194
76	0x3eba38ac	0.36371362
77	0x3e105e1a	0.14098397
78	0xbe30ed00	-0.17277908
79	0x3e1aec4f	0.15129207
80	0x3e6b2557	0.22963463
81	0xbe557e65	-0.20848997
82	0xbe78c085	-0.2429219
83	0x3e022a4f	0.12711452
84	0x3e337c6e	0.17527935
85	0xbe15a096	-0.1461204
86	0x3e825a6a	0.25459605
87	0xbd7e13ed	-0.06203072
88	0x3cba2715	0.022723714
89	0xbe9bac3d	-0.30404845
90	0x3e858259	0.2607601
91	0x3e04cd82	0.1296902
92	0x3dddd9c9	0.10832555
93	0xbe86cc12	-0.26327568
94	0xbd17fdfc	-0.037107453
95	0x3dac691f	0.08418488
96	0xbe2b1ba2	-0.1670976
97	0x3e54316d	0.2072198
98	0xbe5cd650	-0.21566129
99	0x3e7ea64a	0.24868122
100	0xbe77f1a5	-0.24213274
101	0x3d8a9668	0.06766969
102	0x3db0d1e7	0.08633786
103	0x3cbf0b7e	0.02332091
104	0x3d9c0a76	0.07619183
105	0x3d103c44	0.035213724
106	0xbe49ba76	-0.19700035
107	0xbe4cdfb8	-0.20007217
108	0xbda0ed5a	-0.07857771
109	0xbe6fd1a9	-0.23419823
110	0x3e8897d8	0.26678348
111	0xbd303cb2	-0.043026634
112	0xbe054b20	-0.13016939
113	0xbda54508	-0.08069807
114	0xbd308946	-0.043099664
115	0xbe4ab1de	-0.19794413
116	0x3dcb177d	0.099165894
117	0xbdf2bd4b	-0.11852511
118	0xbde9b1c3	-0.114108585
119	0xbea9e1df	-0.33180138
120	0xbdd09adc	-0.10185787
121	0xbdb6d804	-0.089279205
122	0xbdaef95f	-0.085436575
123	0x3dcefe8a	0.10107143
124	0xbe0a3d16	-0.13499865
125	0x3cf27a45	0.029599318
126	0xbdd40453	-0.10352387
127	0xbd1f3608	-0.038869888
128	0x3ec2ec53	0.38070926
129	0x3e581948	0.21103394
130	0xbdfea816	-0.124344036
131	0xbe296ef4	-0.16546232
132	0x3dd2b18a	0.10287769
133	0xbe9192e4	-0.2843238
134	0x3e31ab01	0.17350389
135	0x3e19bb06	0.1501275
136	0xbdbb3bfe	-0.09142302
137	0xbe882032	-0.26587063
138	0xbdfe7bc3	-0.124259494
139	0xbe271b84	-0.1631909
140	0xbe365b7e	-0.17808339
141	0x3d9b66cd	0.07587967
142	0xbc5dfa36	-0.0135484245
143	0xbe39ea5c	-0.18155807
144	0xbeafb691	-0.34318975
145	0x3e9a0247	0.30079862
146	0x3e6835da	0.22676793
147	0x3e51a922	0.20474675
148	0x3e6989e6	0.2280651
149	0xbdd8970f	-0.10575687
150	0x3e3b1945	0.18271358
151	0x3e2dec7e	0.16984746
152	0xbd35a8c7	-0.04435041
153	0xbe4e913f	-0.20172594
154	0xbd545ead	-0.051848102
155	0x3d933e46	0.07189612
156	0xbd65505a	-0.055984832
157	0x3ded0588	0.115733206
158	0x3ea6437d	0.32473364
159	0xbe40250c	-0.18764132
160	0xbe13a49f	-0.14418267
161	0x3e1f95d6	0.15584502
162	0x3d2d9b4e	0.04238444
163	0x3e3602ba	0.17774478
164	0x3e3110ee	0.17291614
165	0x3d20754e	0.03917437
166	0x3e768ce4	0.24077183
167	0xbc1cbbf5	-0.009566297
168	0x3debd6ea	0.11515601
169	0xbe0c9152	-0.1372731
170	0xbe0ad69b	-0.13558428
171	0xbe6e3b11	-0.2326472
172	0x3e650446	0.22364911
173	0x39160818	0.0001430813
174	0x3e9bdb27	0.30440637
175	0xbdf4db6e	-0.119559154
176	0x3e728f07	0.23687373
177	0x3dd7cbe2	0.105369344
178	0x3d5e9ee4	0.05435075
179	0xbde85931	-0.11345137
180	0x3e52b4f4	0.2057684
181	0xbea372a3	-0.31923398
182	0xbe67d2d9	-0.22639026
183	0x3e628abd	0.22123237
184	0x3d2bac43	0.04191233
185	0x3e1f6dbb	0.15569203
186	0xbe5f2390	-0.2179091
187	0xbecfb795	-0.4056975
188	0xbdf59a27	-0.11992293
189	0xbb9387b7	-0.0045022625
190	0xbe57bd0f	-0.21068214
191	0xbc2b2d5d	-0.010447827
192	0xbe544333	-0.2072876
193	0xbe809c76	-0.2511937
194	0xbcd79395	-0.02631549
195	0x3e14765d	0.14498277
196	0x3e994ac9	0.2993987
197	0x3d0313df	0.032001372
198	0xbebf3cd0	-0.37351084
199	0x3e52920a	0.20563522
200	0x3c5ef567	0.013608313
201	0xbe8b20d6	-0.2717349
202	0xbc013cd0	-0.007888034
203	0xbe8e6991	-0.27814916
204	0xbe5cd28e	-0.21564695
205	0xbebaf3d5	-0.36514154
206	0xbb8001b3	-0.0039064526
207	0x3d8b5882	0.06803991
208	0xbe59325f	-0.21210621
209	0x3e408cee	0.1880376
210	0xbd8deb4b	-0.06929644
211	0xbd749524	-0.059712544
212	0xbe1df064	-0.15423733
213	0xbc6c2e86	-0.014415389
214	0x3d1ce52d	0.038304497
215	0x3e955c4c	0.2917198
216	0xbe52fbdd	-0.2060389
217	0x3e962772	0.2932697
218	0xbe09dbf0	-0.13462806
219	0xbe43f994	-0.19138175
220	0x3d275118	0.04084882
221	0x3ea06abe	0.31331438
222	0xbe6b9fd6	-0.23010191
223	0x3d7785bc	0.060430273
224	0x3e8ce7d8	0.27520633
225	0xbe0c68ca	-0.13711849
226	0x3e89f01b	0.26940998
227	0xbe311539	-0.17293252
228	0xbe1285d9	-0.14308871
229	0x3dc46bf9	0.09590907
230	0x3de54acb	0.11195906
231	0xbe39d960	-0.18149328
232	0x3e2305ce	0.15920183
233	0x3dee8c57	0.116478615
234	0xbdbb50f1	-0.09146298
235	0x3e40ae67	0.18816529
236	0xbe566156	-0.20935568
237	0x3e7d6f8a	0.2474958
238	0xbbad8124	-0.005294936
239	0x3e0a82f2	0.13526514
240	0xbdb3686b	-0.087601505
241	0x3dcab176	0.09897129
242	0x3e81e774	0.25371897
243	0xbd464b90	-0.048411906
244	0xbda26d2d	-0.0793098
245	0x3df41c33	0.11919441
246	0xba87ef26	-0.0010370954
247	0x3e812b27	0.25228235
248	0x3de487ad	0.111586906
249	0x3c149216	0.009068033
250	0x3ec4c308	0.38430047
251	0xbe36aa8e	-0.17838499
252	0x3e8fa515	0.28055635
253	0xbd676d9d	-0.05650102
254	0xbd70d782	-0.058799274
255	0x3dd248b5	0.10267774

onnx::GRU_212 f4 [1, 768]
0	0x3e7f0632	0.24904707
1	0xbed0e21f	-0.40797517
2	0x3e027315	0.12739213
3	0xbda8352d	-0.082132675
4	0xbe53e383	-0.20692258
5	0xbe184f55	-0.14874013
6	0xbe3c0a26	-0.18363246
7	0xbdf6d10b	-0.120515905
8	0xbcad0d88	-0.021124616
9	0x3d32a1bf	0.043611284
10	0xbbc88072	-0.0061188275
11	0xbdbb393d	-0.09141777
12	0xbe236f63	-0.1596046
13	0xbde46325	-0.11151723
14	0xbdd816be	-0.10551213
15	0xbbe1ab34	-0.006886864
16	0xbd748235	-0.059694488
17	0xbdeb433d	-0.11487434
18	0xbd8eb1f8	-0.069675386
19	0xbe182fa8	-0.1486193
20	0x3ea58943	0.32331285
21	0xbd9819eb	-0.074268185
22	0xbe63c2a7	-0.22242223
23	0xbdfc3a71	-0.12315834
24	0xbe2f9a18	-0.17148626
25	0xbd8e28e8	-0.06941396
26	0xbe103dd4	-0.14086086
27	0xbd8d8e5d	-0.06911919
28	0xbc75e2ae	-0.015007658
29	0x3dedf0db	0.11618205
30	0x3e1e8ed8	0.15484178
31	0xbe55264b	-0.20815389
32	0xbd441eb6	-0.04788085
33	0xbb7174f4	-0.003684339
34	0xbe5353de	-0.20637462
35	0xbe39d430	-0.1814735
36	0xbcd3808b	-0.02581813
37	0xbe0205c1	-0.12697507
38	0xbc103f6d	-0.008804184
39	0xbced70d8	-0.028984472
40	0xbe0a72b2	-0.13520315
41	0xbd9d91b3	-0.076938055
42	0xbd41b95f	-0.047295924
43	0xbe13476a	-0.14382711
44	0x3d48d5ca	0.04903201
45	0xbe00e718	-0.12588155
46	0x3ccae5dc	0.024767809
47	0xbdd01bdc	-0.10161564
48	0xbd9c2fbd	-0.07626293
49	0xbe30e980	-0.17276573
50	0xbe001b5d	-0.12510438
51	0xbd0c07ac	-0.034187004
52	0x3ce3e73b	0.02782022
53	0x3cfc4ca5	0.030798266
54	0xbda62568	-0.081126034
55	0xbbdada24	-0.0066788364
56	0xbd729516	-0.05922421
57	0xbdcb690d	-0.09932146
58	0x3df5d5ab	0.120036446
59	0xbe5d599f	-0.21616219
60	0x3d4db070	0.050217092
61	0xbdbd8ee8	-0.09255773
62	0xbdbd235c	-0.0923526
63	0x3e2c7011	0.16839625
64	0x3de34a2d	0.11098132
65	0x3c471c95	0.012152811
66	0x3d65f10a	0.056138076
67	0xbe51e88c	-0.20498866
68	0xbe3d1d96	-0.18468317
69	0xbe4658c8	-0.19369805
70	0xbe377e93	-0.17919378
71	0xbe4300f7	-0.19043337
72	0x3e4951f6	0.19660172
73	0x3e861c34	0.26193392
74	0xbdc4d2d2	-0.09610523
75	0xbd580625	-0.052740235
76	0x3c9ded30	0.019278139
77	0x3cfb2b4d	0.030660296
78	0xbe586595	-0.211325
79	0xbc705126	-0.014667785
80	0xbe33b21c	-0.17548412
81	0x3d345af5	0.044032056
82	0xbd85ab97	-0.06526869
83	0xbdb4ec10	-0.08834088
84	0xbd24c42d	-0.04022615
85	0xbd15559a	-0.03645859
86	0xbe137bef	-0.14402746
87	0xbe7e2a4e	-0.24820825
88	0x3e28e87a	0.16494933
89	0xbb85846e	-0.0040746247
90	0xbd7a63d9	-0.06113038
91	0x3dfb13e0	0.1225965
92	0xbe701c86	-0.23448381
93	0xbda12e56	-0.07870166
94	0xbe59d639	-0.21273126
95	0xbe5369ef	-0.20645879
96	0xbe10e2d2	-0.14149025
97	0xbdfedcb0	-0.124444366
98	0x3e5b4986	0.21414766
99	0xbd979a64	-0.074024945
100	0x3db26731	0.087110884
101	0xbe547773	-0.20748691
102	0xbbe90bd0	-0.007112004
103	0x3d456e69	0.048201
104	0x3e872641	0.26396373
105	0x3d24c884	0.04023029
106	0x3e3312ec	0.17487687
107	0x3e8ac504	0.27103436
108	0x3d913add	0.070913054
109	0xbe77b878	-0.24191463
110	0xbc85e247	-0.016343249
111	0xbc6fdfc8	-0.014640756
112	0xbe7b535a	-0.24543515
113	0xbe22ce63	-0.15899043
114	0xbd36ef36	-0.044661723
115	0xbe69c8d8	-0.22830522
116	0xbe876adf	-0.26448724
117	0xbe30b768	-0.17257464
118	0x3de8b5db	0.11362811
119	0xbd2b8e5f	-0.041883823
120	0xbe004253	-0.125253
121	0xbd70190f	-0.058617648
122	0x3d36af23	0.044600617
123	0xbda63c2b	-0.08116945
124	0x3e38a50e	0.18031713
125	0x3e1c68a8	0.15274298
126	0xbc7b1034	-0.015323687
127	0xbe48de3e	-0.19616029
128	0xbc4ce60d	-0.01250602
129	0x3e429fd1	0.19006278
130	0xbe85429e	-0.26027387
131	0xbe345d69	-0.17613758
132	0xbb85b61e	-0.004080548
133	0xbe0f8444	-0.14015299
134	0xbea621ab	-0.32447562
135	0x3d404197	0.04693755
136	0xbe1bde72	-0.15221575
137	0xbdb8b3dc	-0.090186805
138	0xbd0bd384	-0.034137264
139	0xbe75476c	-0.23953027
140	0xbe4701fb	-0.19434349
141	0xbde5b686	-0.11216454
142	0xbe886f8e	-0.2664761
143	0xbea55833	-0.32293853
144	0xbe910cd3	-0.28330097
145	0xbd1785e6	-0.03699293
146	0xbe92bff8	-0.28662086
147	0xbe21f3f4	-0.15815717
148	0xbd1ba840	-0.038002253
149	0xbe26807e	-0.16259953
150	0xbe7071d8	-0.23480928
151	0xbe63be86	-0.22240648
152	0xbcb2f916	-0.021847289
153	0xbe46cc5d	-0.19413896
154	0xbdf8ac90	-0.12142289
155	0xbe89c96d	-0.26911488
156	0x3be1ebd1	0.0068945666
157	0xbdea2640	-0.11433077
158	0xbe081cc7	-0.13292228
159	0xbe483a4b	-0.19553487
160	0xbd0c0689	-0.03418592
161	0xbe3040a7	-0.17212163
162	0xbd28c871	-0.04120678
163	0xbd826a28	-0.06367904
164	0xbe8bb4c1	-0.27286342
165	0xbe4f344f	-0.20234798
166	0xbe1cced2	-0.1531327
167	0xbca44163	-0.02005071
168	0xbe098c99	-0.1343254
169	0xbe049d4c	-0.12950629
170	0xbd921ce2	-0.07134415
171	0x3d93237f	0.07184505
172	0xbe5da59c	-0.21645206
173	0xbce73b40	-0.028226495
174	0xbd5620f4	-0.05227752
175	0xbc545c3a	-0.012961442
176	0xbe457c34	-0.19285661
177	0xbe0fc6d2	-0.14040688
178	0xbda274f4	-0.07932463
179	0xbda01cdf	-0.07818007
180	0xbdb0f06a	-0.08639605
181	0xbe94ac95	-0.2903792
182	0xbe1644fd	-0.14674754
183	0x3d12adb9	0.035810206
184	0xbd77c32e	-0.060488872
185	0x3d987233	0.07443657
186	0x3cfa0778	0.03052114
187	0xbcd373bf	-0.025812028
188	0xbe639c39	-0.22227563
189	0xbda8622a	-0.08221848
190	0xbdd0e1e6	-0.10199337
191	0xbddfc346	-0.10925917
192	0x3c85a557	0.016314192
193	0xbe09cce9	-0.13457073
194	0xbe0ea939	-0.13931741
195	0xbd4d0b0b	-0.05005936
196	0xbdc1f483	-0.09470465
197	0xbe6a4fac	-0.22881955
198	0xbda922a6	-0.08258562
199	0xbd20a2ca	-0.039217748
200	0xbe00a0fe	-0.12561414
201	0xbe52d1f8	-0.20587909
202	0xbd899b4f	-0.06719076
203	0xbe84093f	-0.25788304
204	0xbe16598f	-0.14682601
205	0xbd4140c5	-0.04718091
206	0xbcf0a433	-0.029375171
207	0xbe2a45d1	-0.16628195
208	0xbd90be82	-0.070675865
209	0xbb49c3fe	-0.0030786986
210	0xbdb9623f	-0.09051942
211	0xbe53137d	-0.20612903
212	0xbd263fa7	-0.040588047
213	0xbe07c0bd	-0.13257118
214	0xbe38e539	-0.18056192
215	0xbd8f8c50	-0.07009184
216	0xbde9c953	-0.11415353
217	0xbd5d21ff	-0.0539875
218	0xbddedd2d	-0.1088203
219	0xbe207b42	-0.15672019
220	0xbea0e00a	-0.31420928
221	0xbd6aafea	-0.05729667
222	0xbd2814ea	-0.04103557
223	0x3d99deff	0.07513236
224	0xbd74a546	-0.05972793
225	0xbe2cdb96	-0.1688064
226	0xbcf474df	-0.029840885
227	0xbb815c2c	-0.0039477553
228	0xbdc6416c	-0.09680447
229	0xbe481d72	-0.19542482
230	0xbe26a44a	-0.16273609
231	0xbe61252d	-0.21986838
232	0xbdd9cd3e	-0.1063485
233	0xbd287484	-0.041126743
234	0xbe86510a	-0.26233703
235	0xbe77fe73	-0.24218158
236	0xbdc481c1	-0.09595061
237	0xbe52c539	-0.20583047
238	0xbdbee4a0	-0.093209505
239	0xbe9be289	-0.3044627
240	0xbda32301	-0.07965661
241	0xbcfee657	-0.031115694
242	0x3cb27bcc	0.021787547
243	0xbe3f264d	-0.18666954
244	0x3d0abe23	0.033872735
245	0xbe611555	-0.21980794
246	0xbde2c9a9	-0.1107362
247	0xbd3dddb7	-0.046354022
248	0xbd9bdac3	-0.07610085
249	0x3ce5e7f0	0.028064698
250	0xbd137aa6	-0.03600564
251	0xbdf2db6b	-0.11858257
252	0xbdd67fcc	-0.10473594
253	0xbde43f2e	-0.11144863
254	0xbd952fa7	-0.072844796
255	0xbe037acb	-0.1283981
