rock_paper_scissors_model.onnx (onnx, 208799 bytes, 8 tensors)

fc2.weight f4 [3, 64]
00000000: b0ac 9dbe 429f 8dbe f079 633e 1f29 103f
00000010: 13dd 61be 3893 9e3e ed52 d63e 3441 06be
00000020: 4203 6bbd f3c2 a53e a56c 7abe d63a ec3b
00000030: b4ce 5a3c b92b 743d 9a99 d23e 5fff 18bf
00000040: c0e1 e63e 7e70 f5be 3fab 0ebd 3ff1 653d
00000050: 6770 79be e849 dbbe 7383 dc3e 684d 13bf
00000060: 9fe8 a33e 3b52 10bf a120 88bf 5625 c13c
00000070: 5c13 f63d edc8 54be 1161 033e 5b1d c33e
00000080: 6ca9 c4be 52b5 663e 5af6 003e d703 60be
00000090: fdd5 bf3d 33ae 42bf c5cf 89bd c4da 523e
000000a0: 5c09 3f3d 6702 303e 157b 2fbd c046 833e
000000b0: 264a 1cbf 1d6b 04bd 5d0b afbd 98cc dd3e
000000c0: 2dde 913e 99e4 653e 8752 7ebe 9247 06bf
000000d0: b44d 48bf 7e5a a5be 1823 b73d 3d1b ca3d
000000e0: fb4e db3d 1ea2 bf3e c961 943e 4b45 d43e
000000f0: 447c c83e 1e50 3ebf a1da a23d 903a 21bf
00000100: 5350 4f3e 3f9f e5be 3a63 67be f069 90bf
00000110: f42d 9abe daf7 bf3e 56d5 6cbf 35b8 18bc
00000120: c337 f43e 3248 3dbf 49cd 5a3d 1ba3 6abb
00000130: 309f 0bbd 989d be3c 2c08 b03e f63b 273d
00000140: 5a8c 8cbf 251a aa3e b179 fc3d c152 f4be
00000150: 93eb 9a3e 9406 c9bc 23b7 95bf 5c35 713d
00000160: e17e aabf 24bf 003e e625 243f eae8 243c
00000170: 4706 003f f170 d3be bb74 be3e d757 93bf
00000180: 4f4a 003d 7a31 0b3f 7ebc d8bc 43d3 9fbe
00000190: 4046 34bd 3ef7 aa3d ec13 d9bc 12bb 923e
000001a0: b5da 403e cb7a 983e ca03 843e df88 c43e
000001b0: bbb5 d1be b9e7 85be 551b 013f 8aae a2bf
000001c0: de63 5cbf 4e08 083f 5c61 003e 5d45 dcbe
000001d0: 328f 6abe 30e5 95be 60c7 3fbf 4754 debd
000001e0: 91a1 44bf fd37 7ebf 3195 173f 37bc f43e
000001f0: 5e4c ecbe 3c13 62be 9a2a e93e 8efe eebd
00000200: 3c79 b03e 9ab1 c93e d505 e7bd 6fdf 11bd
00000210: 6d24 8e3e 9def 71bf 5957 8a3e cbb3 323e
00000220: b850 42be 4dc0 923e 09d4 e73d 525f df3c
00000230: 32a9 42be 900c 0c3c 76ae 95bf e4eb 333f
00000240: 99ed 6e3e 68c6 e63d 536f 953e c4dd 713e
00000250: 5b06 fabd e87d 183f c216 a33e 657c 263f
00000260: 59cb 823e 74c2 e33e 8ed0 183f 231e 56bd
00000270: 4ce2 39bf 59dc 033f d440 2ebf a44a 9d3e
00000280: 8860 953e 8f1f 5dbf 674b 9dbd 7c65 a33e
00000290: 2d68 17be 0e42 373f aa09 babd f06e 27bf
000002a0: e1c0 86bd 39d5 babe 96aa 043e aec6 6bbf
000002b0: 7d82 493f bdc7 263e 42d9 24bf 60a4 6e3e
000002c0: 9f3e 4c3e 75d9 71bf b822 a0bc cdfc 323f
000002d0: 171a 663f 0310 283f 2749 cd3e 05a1 233d
000002e0: 4678 a13e 55c9 273e 6884 a1bf fa04 99bf
000002f0: 03e0 03bd fd6d 5f3f 9f1d 69bf e087 273f
-0.30795813 -0.27660567 0.22214484 0.56312746 -0.2205699 0.30971694 0.41860142 -0.1311081
-0.057376154 0.32375297 -0.24455507 0.007209162 0.013354946 0.05961201 0.41132814 -0.59764665
0.4509411 -0.47937387 -0.03483128 0.056138273 -0.24359284 -0.42829823 0.43069038 -0.5753999
0.32013413 -0.56375474 -1.0634958 0.023577373 0.12015411 -0.20779772 0.12829997 0.38108334
-0.3841051 0.22530106 0.12593976 -0.21876465 0.09366987 -0.76047057 -0.06729082 0.20591265
0.046639785 0.17188416 -0.04284199 0.25639915 -0.6105064 -0.032328714 -0.08547089 0.43320155
0.2848982 0.22450484 -0.24836169 -0.5245296 -0.78243566 -0.32295603 0.089422405 0.098684765
0.10708424 0.37428373 0.28980854 0.41459116 0.39157307 -0.74341 0.079518564 -0.62979984
0.20245485 -0.44848058 -0.22596446 -1.128233 -0.30113184 0.37493783 -0.92513025 -0.009321262
0.47698793 -0.73938286 0.05341843 -0.0035802785 -0.03408736 0.023268506 0.34381235 0.040828668
-1.0980332 0.33223072 0.12327898 -0.47719386 0.30257854 -0.02453927 -1.1696514 0.058888778
-1.331997 0.12572914 0.6412033 0.010065297 0.5000958 -0.41297105 0.37198433 -1.1511182
0.031320866 0.5437237 -0.026457068 -0.31215867 -0.044012308 0.08347939 -0.026498757 0.28658348
0.1883343 0.29781184 0.2578414 0.38385674 -0.40958962 -0.26153353 0.5043233 -1.2709515
-0.86089885 0.5313767 0.1253714 -0.4302167 -0.22906187 -0.2927642 -0.749136 -0.108559184
-0.7680903 -0.9930418 0.59212023 0.47799847 -0.46152014 -0.2207765 0.45540315 -0.11669646
0.34467494 0.39393312 -0.11280409 -0.035613474 0.27762166 -0.94506246 0.27019766 0.17451398
-0.18976104 0.2866234 0.11319739 0.027267132 -0.19009855 0.008547917 -1.1693866 0.70281816
0.23332824 0.11268312 0.29186496 0.23619753 -0.122082435 0.5956712 0.318533 0.6503356
0.25545767 0.44484293 0.5969323 -0.052274834 -0.72610927 0.515081 -0.6806767 0.3072101
0.2917521 -0.8637628 -0.076803975 0.31913364 -0.14785834 0.71585166 -0.090838745 -0.6540365
-0.065797575 -0.364908 0.12955698 -0.92100036 0.78714734 0.16287132 -0.6439401 0.23304892
0.19945763 -0.9447244 -0.019547805 0.69916993 0.8988356 0.6564943 0.40094873 0.039948482
0.31537074 0.16385396 -1.2618532 -1.1954644 -0.032196056 0.87277204 -0.91060823 0.65441704

fc2.bias f4 [3]
00000000: ea95 58be 20fe 43bd b7c4 363e
-0.21150938 -0.047849774 0.17848478

onnx::LSTM_196 f4 [1, 256, 3]
00000000: 90d1 21be 5a86 ae3e 533b 5f3e ad4e 52bd
00000010: 325c f7bc 6760 8e3b cc7d e1bd 7941 fd3d
00000020: cff9 fa3d fd79 b53e f334 b03e 90ec a23e
00000030: e5da e03c 3f5b a0bd 2498 debd 8286 253c
00000040: 8014 fd3e f148 083e ae73 6abe 72d4 06be
00000050: a5f8 73bc e52d fcbd f43f 813d 55b2 b13c
00000060: 39cd 1bbc 1ce9 623d 8c78 f5bb ac52 bbbd
00000070: 9042 9f3d 13e6 563d 18b8 f23e ef5c 6a3d
00000080: 48f6 5c3e 2056 d5bd 4b0d 0e3e 54f3 853c
00000090: a392 1fbd 4c17 6b3e babe 3c3d e509 e03c
000000a0: 2162 35bc e180 f23c 3834 1abe d5c1 ddbd
000000b0: a010 25be 6a7a 80be b932 49be 28ef ca3d
000000c0: 6d84 a5bc 844d fcbc bc51 353e 95af c33d
000000d0: 79b7 6e3e 4a7f a63d 4aa7 a1bc 8a41 9fbd
000000e0: b7ec 19be 3339 86be ec31 513e 9984 c83e
000000f0: f4c9 2f3e dde2 993e eb6c a83e 7780 8c3d
00000100: bf9e 8cbd bdb2 4a3d 3925 aabe cd6a e53c
00000110: 90a0 993e 0918 453e 778e aabe 1449 d93d
00000120: 426d 043e b202 1b3c 4599 3cbd ac0a c13e
00000130: 94a0 bd3e d08d 8d3e af06 17ba ef39 433d
00000140: 0e5f 213e 63b4 f8bd 1a98 183e 6d1f b03d
00000150: ec30 213e f228 553e c16d 823e 0ef7 d13e
00000160: f368 973e 5961 0d3e 0fcf 93bc 7123 1f3d
00000170: 59b6 613c bfbc 6dbc 32ed d1bd 6dd9 453d
00000180: 2a72 8ebe 1ff3 0abe 242d 8c3d 6b64 983c
00000190: 8ceb dcbd c750 9b3d ef9f 043d fcd8 83bd
000001a0: 32ae dc3d 2cbd 8a3e 541e 4cbe 0b70 9e3e
000001b0: fd64 ca3e 3477 bcbd f356 633e 000e 37be
000001c0: 5283 ad3d 1fb5 80bc a267 4fbe c8c7 e2bd
000001d0: 2181 563e d393 4abe c016 96bc 3076 213d
000001e0: 73e4 0e3d 7ea0 533d 219c f6bd b16a 4a3e
000001f0: 9ea4 c43d 023d a03e 3463 593e 2d44 6f3d
00000200: 5f9d 9a3b 605d c63a 063b 5cbd bf11 973e
00000210: bab7 2b3e ddc2 583e 569d d53d 2682 73bd
00000220: 763d 013c e118 053d eff4 a3bd c7d0 ec3d
00000230: e663 5ebd ad8b 6fbd 2da5 2f3d 7ac8 3dbd
00000240: 00ad 163e 52db 73bd 54cb 633e da66 063f
00000250: 47af 5f3f 378e 033f 5a41 163d 1985 003e
00000260: 9935 873d f1c2 f73e 7149 adbe 8c53 043e
00000270: cc5b 41be 34bc b13d 8595 1dbb 26d2 bf3c
00000280: 8a57 473e 5712 9abd 60bf 473d f99d 04be
00000290: 9172 12be 8cbf 1bbe 9e97 23bd b5da df3c
000002a0: 7bfc d3bd 03f0 2fbe faba 903d 69ff d63c
000002b0: bffd 36bc b1c1 043e 82aa 1ebd 3c84 df3e
000002c0: 237b c63e d38c ed3d a7cf 4f3e a5c6 673a
000002d0: 1c6d 903e 0414 113f 0272 663e 3765 3bbe
000002e0: 648e 5e3e b34f a83e 13dc 853e a6a5 86bc
000002f0: c780 c53d 0b0f dabd fcb6 8abd 3fc1 42be
00000300: 6ddc dc3e 0494 a43e 8c1c 733e 7cd5 8a3d
00000310: 34ed ca3d 3791 3e3c f506 b93d 50a2 6c3d
00000320: 676a 6f3e 4a91 473d 5d6c a63e 3bd5 c43e
00000330: 2935 05bd d64d 7d3c 2298 8d3d 9fb0 643e
00000340: f40c cf3e 907e a43e 420d dfbd 375d 4ebd
00000350: 9306 ad3d da41 623e c44a 1e3e 2368 393d
00000360: 6d6a dc3d 8967 193e c981 063e 17c1 fa3d
00000370: fe9d 0c3a 2f1e e7bc 8189 cd3e 8aff a33e
00000380: 83bb 933e 94e7 943d 913b 0dbd 8efe c43d
00000390: f992 073e 82ed 463d b31c cd3d 06df 623e
000003a0: d7c1 81bd 0d2a adbd d656 2dbd c561 46bd
000003b0: 5782 f43d f76a a13d 2cf2 07be f288 143e
000003c0: ff7c c33d 5df4 85bd e444 053e 213e 12be
000003d0: 1575 0e3e 63ba 9e3c 5c05 e63b ea9a b4bc
000003e0: 3f0c d23c 3f74 a5bd f2a0 dc3e bdef dc3e
000003f0: d49f 453e 361e ddbb acda 373e 42ee 053e
-0.15802598 0.34086877 0.21799974 -0.051344562 -0.03019533 0.004344988 -0.11010322 0.123660035
0.122546785 0.35444632 0.34415397 0.31821108 0.027448127 -0.07829904 -0.10868862 0.01010287
0.49429703 0.13309075 -0.22895691 -0.13166979 -0.014890824 -0.12313441 0.06311026 0.02169148
-0.009509378 0.05539809 -0.007491177 -0.09146628 0.07776368 0.05246551 0.47406077 0.057217535
0.21578324 -0.10416818 0.13872258 0.01635138 -0.038958203 0.22958106 0.04608033 0.027348468
-0.011070759 0.02960247 -0.15058982 -0.10827986 -0.16119623 -0.25093395 -0.19648255 0.09908897
-0.020204747 -0.030798681 0.1770696 0.09554974 0.23312177 0.08129747 -0.01973309 -0.077761725
-0.15031706 -0.26215515 0.204292 0.39163664 0.17166883 0.30055895 0.32895598 0.0686044
-0.06866216 0.049486864 -0.33231524 0.028005028 0.30005312 0.1924745 -0.33311817 0.10609642
0.12932304 0.009461092 -0.046044607 0.37703454 0.37036574 0.27647257 -0.0005761189 0.04766267
0.15758917 -0.12143781 0.14901772 0.08599744 0.15741318 0.208164 0.2547436 0.410088
0.29572257 0.13806666 -0.01804307 0.03885216 0.013776385 -0.014510333 -0.102503195 0.048303057
-0.27821475 -0.13569306 0.068445474 0.01860257 -0.107871145 0.075837664 0.032379087 -0.06437871
0.107754126 0.27097452 -0.19933444 0.30944857 0.39530173 -0.09202424 0.22201137 -0.17876434
0.08472313 -0.015711365 -0.20254377 -0.110732615 0.20947696 -0.19782953 -0.018321395 0.039419353
0.034885835 0.05166673 -0.12041498 0.19767262 0.09601711 0.31296545 0.21229249 0.058414627
0.004718467 0.0015134029 -0.053767227 0.29505727 0.16769305 0.21168084 0.104304 -0.05945029
0.007888189 0.03249443 -0.08005702 0.115632586 -0.05429449 -0.058482815 0.042882133 -0.046333767
0.14714432 -0.059535332 0.22245532 0.5250069 0.87376827 0.5138888 0.036683418 0.12550773
0.0660202 0.48390916 -0.33845094 0.12922496 -0.18882674 0.08678475 -0.002404542 0.023415636
0.19466987 -0.07523029 0.048766494 -0.12950887 -0.14301516 -0.15209788 -0.039939515 0.027325967
-0.10350891 -0.17181401 0.07066913 0.026244836 -0.011168896 0.12964512 -0.038736828 0.43655574
0.3876582 0.11599126 0.20294057 0.0008841551 0.28208244 0.56671166 0.22504428 -0.18300329
0.21734005 0.32873306 0.26144466 -0.01643641 0.09643703 -0.106474005 -0.06773183 -0.1901903
0.43136922 0.32144177 0.23741359 0.06779 0.09908524 0.011631302 0.0903453 0.05777198
0.23380433 0.048722543 0.3250455 0.38443932 -0.0325214 0.015460452 0.06913783 0.22333
0.4043957 0.3212781 -0.108912006 -0.050381865 0.084485196 0.22095433 0.15458208 0.04526533
0.107624866 0.14980902 0.13135447 0.1224386 0.0005364119 -0.028212635 0.4014397 0.32030898
0.28853998 0.072707325 -0.034480635 0.09618865 0.1323966 0.04856635 0.100152396 0.22155389
-0.063358 -0.08455286 -0.04231914 -0.048433084 0.11938923 0.0788173 -0.13275975 0.14505365
0.095453255 -0.06540749 0.13014561 -0.14281513 0.13911851 0.019375985 0.007019682 -0.022046525
0.025640605 -0.08078813 0.43091542 0.43151656 0.19299251 -0.006747986 0.1795451 0.1307917

onnx::LSTM_197 f4 [1, 256, 64]
00000000: 6a8c 943e dbbf 6fbd ceb7 13bd eb3f fabd
00000010: a954 5bbc de97 203e 430e 6a3e 0727 8b3d
00000020: 00b6 ed3b 281d 90bd a3c6 14be 5b01 a9bc
00000030: 76bc 7ebd 056a 183b 1e2f e8bd 42f8 f73d
00000040: 444d da3d ec67 f0bd ffde 4c3e dc5a 6fbd
00000050: 5327 ec3c 410e b53c b72a 70bd 859b 4d3e
00000060: 0b93 f2bc 04e5 733e 8ce8 d03d 8986 b2be
00000070: ca8a 9cbe b05c 503e e85b b03d ab62 4dbe
00000080: f961 f7bd b40c f8bd e33e 123d 3730 693d
00000090: 19fd 88be c3e0 e63c 0ec2 8c3d 74da 873d
000000a0: ce41 c2bc 51fd 063d cd16 373d 4328 ad3d
000000b0: d771 0f3d d0ea 133e 97b7 b93b 9145 5d3e
000000c0: 3e45 543e 3a99 6a3e 20b0 f13d ab31 dcbd
000000d0: adf8 193e f8b3 94be 1b33 2ebc a542 d4bd
000000e0: 63f0 e8bd 8118 c13d 2ee0 8a3d 1653 4ebe
000000f0: 3983 e73e 134c 8ebd 01f2 5e3e 960c f63d
00000100: 6d38 ff3a 484f cabd 3349 01be 13ca 133d
00000110: d143 953d 725f 12bc 0101 063e cf62 973d
00000120: 2938 a93d d20c 96bd de28 ba3c 440f 0cbc
00000130: 4a32 a3bd baf3 4f3d 143d 263d 2e25 ca3b
00000140: 7078 74bd b25d a2bd caca a23d 9a80 64bd
00000150: 3e25 50be 3ab6 f2bd 2599 2d3e 231d b8bd
00000160: 4122 b9bc 0e21 0a3e 782c dd3d 6647 15be
00000170: ef5d 14bd 94e3 00be 852e d1bc 4a06 873c
00000180: b109 9d3c 2abf 59be 1dc5 273d eb71 8e3e
00000190: e405 c2bc 6723 6c3d bc32 153e dc32 8f3c
000001a0: 131f 74bd 548e 22bc c9c6 6b3d f75a 5fbd
000001b0: 845d 093c e64d 18bc 1c09 023e 6df0 8aba
000001c0: 25d5 85bd 9771 db3d efaf f1bc aea6 9ebd
000001d0: b790 ca3c f56f 7d3e d8cd 0e3b 9965 383e
000001e0: 6f1a de3c c70d 093c 164b 15be 6c75 183e
000001f0: e01e 9b3d 49b0 a53c 5368 f13d 69db 2bbd
00000200: 40b8 013d 2a45 afbc 4a6a 293d 8428 3ebe
00000210: ac9d 8fbd 58e9 ad3d c727 e9bd 6b93 15be
00000220: a56b 8e3d 5fc2 ae3d 19ce 68be 6df8 1c3e
00000230: 1261 463e 2f6a 0ebd 86b5 853d f138 683c
00000240: 8990 5f3d 889f 6d3d 1cdb ad3b 73ad b0bd
00000250: fd01 72be 0351 8bbd 75b9 ad3d 2b5b b9bd
00000260: 80d3 3abd 05e4 6b3e 7e97 d33d 3fe5 c2bd
00000270: 6967 00be caae 9a3a 5a51 b33c 525b eabd
00000280: 394c f6bb 93a4 3fbe 4c27 b83d 3857 863d
00000290: e90d 36be 387e fd3d 8a95 21be 1716 e1bd
000002a0: 8eaa 0abd d4b4 b33d df41 febd 9300 5e3d
000002b0: 5c69 4ebe 143e eebd f60b 603d 46d4 3c39
000002c0: e34a 063e 6f50 8d3e f4c5 a73d c0c5 513d
000002d0: bf74 ae3d 9fc6 7c3e 0b0a 8e3d b43d 69be
000002e0: 23e2 37bc b42e 1abe b286 873d 32f0 c4bc
000002f0: d16d b13d e299 0e3c 3df7 5b3e 5c58 f63d
00000300: 5824 723e 5eb8 9d3d 90c4 3abe ceb3 9d3e
00000310: 72ed 873e 789a 573e 501c 643e 0c2a 8bbe
00000320: b00a 3cbe 07c0 cc3d 3aba 823c 26fd 9c3d
00000330: 40cb 943e bbfc ab3e 591d eb3d ee00 723e
00000340: c0da 85be 4cf4 5ebe 171c 0dbe 474d 3b3d
00000350: 6e72 0dbd 5c30 823e a9db f13d 29dc 0a3e
00000360: b1eb 2f3e 9b19 a5be 4d52 4b3e 8f6c 4ebe
00000370: 2ccb 37bd 4c69 66be edc4 683d 5704 9d3e
00000380: b7ee f6bd e927 923e 4ac2 1bbe d8a0 023e
00000390: be5e 81be 85af 2bbe 0299 4abe d54b 89be
000003a0: 7d28 73be 18d1 3c3e 7e18 67be 80e3 cabd
000003b0: 33bd bcbe a852 2dbe 376d 92be 9ec6 1cbe
000003c0: 9de5 033e 1073 573e 0cfb 6c3e ef85 183e
000003d0: 8f52 163e ae2d 1b3e bffc 4a3e 8530 313e
000003e0: a3b7 bdbe d539 843e 7105 31be d5a8 1a3e
000003f0: 3aa7 6d3e 425d fa3d 16e5 bebd 4fd9 12be
0.29013377 -0.058532577 -0.03606396 -0.12219223 -0.013386884 0.15682933 0.22857003 0.06794553
0.007254362 -0.07036811 -0.14528899 -0.02063053 -0.06219145 0.0023256552 -0.11337112 0.12107898
0.106592685 -0.117385715 0.20006941 -0.05843626 0.028827345 0.022101523 -0.058634486 0.20078857
-0.029611131 0.23817831 0.10200605 -0.34868267 -0.30574638 0.20347857 0.0861128 -0.2005717
-0.12079234 -0.12111798 0.035704505 0.056930747 -0.26755598 0.028183347 0.068729505 0.066334635
-0.023713019 0.032956425 0.04469948 0.08454945 0.035020676 0.14445043 0.0056676376 0.21608569
0.20729539 0.22910014 0.11801171 -0.10751661 0.15036269 -0.29043555 -0.010632302 -0.10364274
-0.11373975 0.09428502 0.0678104 -0.20148882 0.45217302 -0.06948104 0.21772005 0.12014119
0.0019471772 -0.09878403 -0.1262558 0.036081385 0.072883256 -0.008933889 0.1308632 0.07391893
0.08262665 -0.07326664 0.022724565 -0.0085485615 -0.07968576 0.050769545 0.040585592 0.006168983
-0.05968517 -0.07928027 0.07948835 -0.055786707 -0.20326707 -0.11851163 0.16952951 -0.089899324
-0.022599341 0.13489172 0.10799497 -0.14578018 -0.036222395 -0.12586814 -0.025534878 0.016482491
0.01916966 -0.2126433 0.040959466 0.27821288 -0.02368445 0.05765095 0.14570135 0.017480306
-0.059599947 -0.009921629 0.057562623 -0.05453011 0.008384112 -0.009295916 0.12698787 -0.0010600217
-0.06534795 0.10715025 -0.029502837 -0.077466354 0.024727209 0.2474974 0.0021790173 0.18007506
0.027112214 0.008365101 -0.14579424 0.14888543 0.07574248 0.02022566 0.117874764 -0.041957293
0.031669855 -0.021395285 0.04136113 -0.18570143 -0.070124954 0.084917724 -0.1138454 -0.14607017
0.06954125 0.08533167 -0.2273487 0.15329142 0.19372967 -0.034769233 0.065287635 0.014173732
0.0545812 0.05801347 0.005305661 -0.08626833 -0.23633571 -0.06802561 0.08482639 -0.09050592
-0.04561186 0.23036201 0.10331629 -0.095163815 -0.12539448 0.0011801359 0.021889377 -0.11443199
-0.0075164107 -0.18715124 0.0899187 0.065596044 -0.17778744 0.1237759 -0.15779701 -0.109905414
-0.03385406 0.087747246 -0.12414908 0.054199766 -0.20157379 -0.11632934 0.054698907 0.00018008155
0.13114505 0.27600428 0.081920534 0.05121398 0.08518361 0.24685143 0.06935509 -0.22777444
-0.011223349 -0.15056878 0.06617488 -0.024040315 0.08663524 0.008703681 0.21481033 0.12028572
0.23646677 0.07701181 -0.18239045 0.30801243 0.26548344 0.21055019 0.22276425 -0.27180517
-0.18363452 0.09997564 0.01595794 0.07665472 0.29061317 0.33591256 0.11480207 0.23633167
-0.26143456 -0.2177288 -0.13780247 0.045727994 -0.034532957 0.2542752 0.11809475 0.13560547
0.17179753 -0.32246098 0.19855614 -0.201586 -0.044871494 -0.22501105 0.056828428 0.30667374
-0.1205725 0.28546074 -0.15210834 0.1275667 -0.25267595 -0.16766174 -0.1978493 -0.26815668
-0.23745914 0.18439138 -0.22567937 -0.099066734 -0.36863098 -0.16926062 -0.2859895 -0.15310141
0.1288056 0.21039987 0.23142642 0.14894842 0.14679931 0.15154144 0.19822977 0.17303665
-0.37054166 0.25825372 -0.17287232 0.15103467 0.23208323 0.12224819 -0.093210384 -0.14340709

onnx::LSTM_198 f4 [1, 512]
00000000: 4ef1 7f3e 3778 193d 13ae 1bbd 624d 0b3f
00000010: 42c6 0d3d 2ba3 b83e db94 8b3e 0a73 0b3e
00000020: 6488 fdbd e960 febc ff65 ca3e 3cb0 2b3e
00000030: 44ec 143e 08c2 263d 8a04 f03d 142a 163d
00000040: 1b03 6d3d b129 cdbd a424 c23d 2a37 c03e
00000050: 8b54 853e 5c25 253d cb7d ec3c 7ea7 083d
00000060: d5f9 25be 9128 563f 11e4 bf3c ad12 a53e
00000070: 916d a03e e5f4 e83e 30ca b4bd 806a f0bd
00000080: e0ce 0bbe ab6e a3bb a60e dc3d 68d4 2d3e
00000090: 1b18 cf3d 92e0 3fbe 1297 923d 88b6 65bd
000000a0: 01bb 993e 38d3 613e 800c d1bd 2208 a13d
000000b0: 50a4 933e c800 85bd 5e10 253e 2761 993e
000000c0: 458a d6bb 8740 873f c7c8 583c 6123 25bd
000000d0: 7ab1 21be 74d5 153e 8df8 28bd 6dfd 843e
000000e0: b431 153d 5bc3 0bbd d936 f03e 6ad2 493e
000000f0: a291 c43e ce4d 873d 9b06 733c 53a6 0c3e
00000100: 2826 9f3e 8f61 4fbd ea71 9c3b bee0 f23e
00000110: 1789 26bd 3731 a53e 66e4 473e 88aa 5dbd
00000120: 0027 a2bd 1b07 a73d fbf8 d23e 65fb 493e
00000130: 5395 043e 1535 fa3d 8395 9b3d 156e 7d3c
00000140: 3bdf d93d f862 b33c f8d2 4f3d 3167 e73e
00000150: 7bb9 0d3e 6240 303e 947d f83d 26e2 d53d
00000160: b800 15be 2411 0f3f 5c54 c93d 802e c03e
00000170: 92ff 013e f651 0c3f 128b a33d 2cb3 cebc
00000180: 0b62 ae3b 9493 023d ee2b 09bd 0014 413e
00000190: 4b4c ca3e 6c26 2cbe 39c1 b2bc 2d0d de3d
000001a0: 8494 413e 36a6 683e 9d80 113e 6769 b5bc
000001b0: e47e 9f3e 0a79 cebc 9a72 303d acd0 a33d
000001c0: e824 9b3c 582b 743f 8279 163e f6a4 9b3d
000001d0: f912 d03d d8cc 4c3e e538 93bd 57bd 6c3e
000001e0: 9dfe 213e 1f64 9cbd b693 043f 46ee 953d
000001f0: 1685 d63e a4ca 143d 67e4 253e 8959 fe3b
00000200: ee61 60bd 5f15 8cbc 13f4 9dbc ee7a 27bd
00000210: ae1f 3bbd e782 04bb 1560 f0bd cb3b 453d
00000220: d0b7 663e ff58 68bd d319 283e d1c8 793e
00000230: 65ad ff3d 07e0 8d3c 8686 94bc a0fc 14bc
00000240: a1b6 2e3e 11b4 f93d cb6c 4a3e 19f7 a8bc
00000250: 20b4 bd3d 5b03 823d edcc 723c 598d ae3d
00000260: db8b 073e f8cf a53a b229 7ebd 0f5f 91be
00000270: 8c19 173d 1ce2 d9bd 60b1 d23c ac28 213d
00000280: 969d 6d3d 4cf9 273e d6e0 9abd ce86 2d3e
00000290: 0c96 6a3d df48 083e 4495 433e e20a 153d
000002a0: 229c e7bd 7943 2bbe bf63 153e 11aa c43d
000002b0: cfba 16be fffd d33d 5211 2d3c 0f23 a9bd
000002c0: 548f b03d 4bda 2dbe d0c9 ff3c edf5 d2bc
000002d0: cd31 c43c c4ff b23b dc1d eb3d f793 d7bd
000002e0: 3713 b03d 351e 393d 08c2 9e3d 6818 9bbd
000002f0: b9f2 03be 1e75 36be fbb5 943d cdf1 5bbb
00000300: 87d8 f63c da61 8a3d fc5b 253e 56b9 e13d
00000310: fa74 373d 268e a8bd ea24 cd3d 9ba9 823d
00000320: 8a44 9d3c b8f3 623d 163e 933d 83a6 b4bd
00000330: 7385 a8bd 5743 13be 30fe 243c 6d61 813d
00000340: 8e51 31bd 847c 573d b4d8 4abd 9777 113e
00000350: 52b2 0d3e f17d a83d 71af f73c 42ec af3d
00000360: d146 f9bc 88f6 00be b48a ed3b b9e6 50be
00000370: dffb 973c 1167 dcbc 03f4 173e f5e3 963d
00000380: 7b3d b13c 9776 203e 503d f5bd df7a 20bd
00000390: faf1 943d bd55 c9bd af42 ce3d 1c21 853d
000003a0: 321f 003e da33 a03d 9df5 b1bc 39ca e7bd
000003b0: 00e6 7d3d c351 0d3e 2038 b93d 8e4c 6b3d
000003c0: 51e1 1abe 3d34 86be 9a01 d3bd 9305 eb3d
000003d0: cc2c 863d 52fd 57bd bbd5 d8bd b686 033d
000003e0: b18c 9cbd 3d14 80bd 3f01 52be 8fb5 ac3d
000003f0: a498 1f3d 006f 43bd 3cec efbd baea 243c
0.24994394 0.03746816 -0.038007807 0.5441495 0.0346129 0.36061987 0.27262005 0.13618103
-0.1237953 -0.03105207 0.39530942 0.16766447 0.14543253 0.040712386 0.11719616 0.036661223
0.05786429 -0.10017718 0.09479645 0.37542087 0.26041064 0.04031883 0.028868577 0.033362858
-0.16208585 0.8365565 0.02342418 0.3224081 0.31333593 0.4549934 -0.08827627 -0.11739063
-0.13653135 -0.004987558 0.107449815 0.16975558 0.1011202 -0.1873801 0.071577206 -0.05608228
0.30025485 0.2205323 -0.10207462 0.07862879 0.28836298 -0.0649429 0.16119525 0.29956934
-0.0065472447 1.0566567 0.013231463 -0.040316943 -0.15790358 0.14632207 -0.04125266 0.259746
0.036424354 -0.034121852 0.46916845 0.19709173 0.3839236 0.06606637 0.014833118 0.13735323
0.31083798 -0.05063015 0.004774322 0.4743709 -0.040658083 0.3226411 0.19520721 -0.05411771
-0.07917595 0.08155652 0.41205582 0.19724806 0.12947588 0.12217156 0.075968765 0.01546814
0.10638281 0.021897778 0.050738305 0.45195916 0.13840286 0.1721206 0.12133327 0.10443525
-0.14551055 0.5588553 0.098305434 0.37535477 0.12695149 0.5481256 0.0798551 -0.02523192
0.005321746 0.031879023 -0.03348916 0.18855286 0.39511332 -0.16811532 -0.021820651 0.10842357
0.1890431 0.22719654 0.14209218 -0.022144986 0.31151497 -0.0252042 0.043078043 0.079987854
0.018938497 0.9537864 0.14694789 0.07599823 0.10159869 0.20000017 -0.07188586 0.23119102
0.15819784 -0.07636284 0.5178789 0.07320838 0.41898412 0.036326066 0.1620041 0.0077621383
-0.054780893 -0.017100034 -0.019281423 -0.04088872 -0.04568451 -0.0020219625 -0.11737076 0.048152726
0.22531056 -0.0567255 0.16416101 0.24393012 0.12484244 0.017318739 -0.018130552 -0.009093434
0.17061855 0.12192548 0.19768064 -0.020625638 0.09262872 0.06348296 0.014819366 0.08523054
0.13236944 0.001265048 -0.062051482 -0.28392836 0.036889598 -0.1063883 0.025719345 0.03934543
0.058011614 0.16403693 -0.07562415 0.16945955 0.057272002 0.13309048 0.19099909 0.03638733
-0.11309077 -0.16724958 0.14588831 0.0960275 -0.147197 0.1035118 0.0105632115 -0.0825864
0.08621088 -0.16977803 0.031224161 -0.025752032 0.023949528 0.0054626185 0.114803046 -0.10526269
0.08597415 0.045194823 0.07751852 -0.075730145 -0.1288556 -0.17818114 0.072612725 -0.0033560873
0.030132545 0.06756945 0.1614837 0.11021678 0.044789292 -0.08230238 0.100168064 0.06380006
0.019197721 0.05540821 0.07189576 -0.08820822 -0.082285784 -0.14381157 0.010070369 0.063174106
-0.043290667 0.05260898 -0.04952307 0.14205776 0.13837555 0.082271464 0.030235024 0.085899845
-0.030429276 -0.12594044 0.0072492007 -0.20400514 0.018552719 -0.026904615 0.14839177 0.07367698
0.021635761 0.15670238 -0.11974585 -0.03917968 0.07272716 -0.098308064 0.10071313 0.06500456
0.125119 0.0782239 -0.021723563 -0.11317868 0.061986923 0.13800721 0.09043908 0.057446055
-0.15125014 -0.2621173 -0.1030304 0.114756726 0.06551513 -0.05273182 -0.10587641 0.032110892
-0.07644022 -0.0625386 -0.20508288 0.08433067 0.03896393 -0.04771328 -0.1171498 0.010065729

onnx::LSTM_216 f4 [1, 256, 64]
00000000: c198 33be 68da 14be d83d 6c3d 00d8 233e
00000010: 9969 80bd cc8a c0be 948d 083e c814 393e
00000020: da6f cd3d e302 193c 0b84 cb3e b3a4 28bd
00000030: cfe0 f0bd 0476 16ba 2a52 cdbc 001d c93d
00000040: 283f ed3d 3209 b83d 2970 893c a2b2 7b3e
00000050: 861d 6cbd a8a7 e8bd 8f40 bebd 75f7 913c
00000060: 34b5 373c 2fa8 94be d4c4 d03d 8799 e13e
00000070: ac32 103f 4ec0 c5be cc94 8c3d d39e 9e3d
00000080: b9ec d13d fa1c 3f3e 138f c5bd 9fc7 a63d
00000090: 97b8 1b3e e7a9 a83c a743 c33d 93e7 783d
000000a0: 0c94 623e 3509 123e 00af 923e 3be3 103e
000000b0: 1047 303e 5d86 503e f183 143d e892 a9be
000000c0: c61f 4ebe 2e73 9ebe 8cab 1ebe 3028 8737
000000d0: fd7b 683e b21c 63bd 91c7 e3bb b9a7 6f3e
000000e0: 3cfa 97be 7d9f 1f3e e30d dcbe edff bb3e
000000f0: 2804 5cbe 0c4b 65be cb63 52bd fc5b 693b
00000100: 4b24 c8bc e65a 16bd a4f8 01be 64e2 0bbe
00000110: 70ea b5bd eaf1 acbd d9e4 2c3e a082 78be
00000120: 9cac 84bd 365f 85bd 97c6 5dbc c7a0 dd3d
00000130: d296 96bd 7054 163c 984f 1fbb cd96 323d
00000140: 66e0 f03d f75e 143d 65b6 a5bd 7b7a aabd
00000150: 24ed aebd aa9e 12be bd15 1f3e 9c4f 923d
00000160: 3e45 e73d fa10 f33d bbeb 223d 91aa a93c
00000170: 0a4f f13d 2c62 5ebd cbd5 64bd a4de c73d
00000180: 5909 a43d c296 7e3d e684 cabd 99d0 5a3d
00000190: 866d a6bb 8f56 ddbd 52bf 303e ff53 313d
000001a0: c888 c6be 3644 a63d 5c28 93bd 10f1 173d
000001b0: 8311 c4bb bcfc 373e d126 68bd fba7 0ebe
000001c0: f321 91be 527b 233e 8c5d a33d d1db a4bd
000001d0: 288e 4f3e 0fa6 1d3e 3434 043c 1ec5 4a3e
000001e0: cfbb 56be 9bad 803d a536 71bd 32e6 833e
000001f0: 3af2 8d3d 823f b2bd 16f3 19be 9b32 3c3e
00000200: ff98 833e 56b9 473d 2f4f fbbd ddb9 d73d
00000210: aa89 bf3e 7e1d 913d 3098 983e 2cd4 37be
00000220: 3525 08be cb37 3f3e b460 48bd 24c3 18bd
00000230: 8050 3e3e 1510 3d3e a489 2f3d 3ac4 783e
00000240: e178 0bbd 10b1 6bbe ba27 d7bd a9c8 723e
00000250: ee58 4b3c 4ba6 573e 4555 c83d 18a4 113e
00000260: 4fe8 bcbc e78a fdbd 7e8a ed3c 18d4 65be
00000270: 339d b7be 3bc9 abbd fc36 743d 7082 8e3e
00000280: a14f 293d ce16 0a3e 3177 31be 4ea6 b93d
00000290: b1d6 33be 2f93 35bd ea5d 87bd 2e05 cfbd
000002a0: 6125 13be 57f4 4c3e e946 66bd b089 81be
000002b0: afb6 143e 6b3c 62bd 9c6f 57be 282d bc3c
000002c0: 9776 30bd 53fa 6b3e b1cf 623d d4d6 963d
000002d0: 37df 6b3e 646d fc3d 8103 543e 0587 663e
000002e0: 7c1b b9be 6114 863e 145b a1bd 82d5 b23d
000002f0: cf89 963e 77e4 573c 89c8 53be 16c3 ebbd
00000300: 43fe a33e 6d31 b8bc f63f 13bd 4ea0 bd3e
00000310: c782 7f3d c7cf 3cbc 3494 d63e 89ec 883d
00000320: ec72 80bc 83a0 36be b01c 6a3d 0e0c e1bd
00000330: 2eeb 5fbe 7832 1f3d d084 5cbe dc14 9bbe
00000340: bcee be3d 72e7 82be 96ac 6d3e fa5b ce3e
00000350: bc98 94bd 9a57 723d c734 303e 71b8 c1be
00000360: 8985 adbe ee95 e6be fa65 e5bd 985e a8be
00000370: d943 a33d 54f4 c3be e017 283e 0051 df3e
00000380: 7aa1 5d3e c3d1 df3e 3dff dcbe fbfe 873e
00000390: 1df3 7d3e 40b1 cebe 90d7 b8bd c223 08be
000003a0: ff58 83be c2f6 f4bd 8863 b83e 164d 48be
000003b0: 776c 42be 8f03 86bd ab42 1a3e 15bd d6bd
000003c0: 2f86 75be a7b1 adbe 0806 e4bd d715 883e
000003d0: bb22 3dbe 910a d53e 4b32 b7bc 060e 403e
000003e0: a19c 14be 78aa f93e 1e3c b5be 6066 c33e
000003f0: 3ad3 0d3e 0af8 43be 77de 3c3e c0af 8fbe
-0.1753874 -0.1453644 0.057676166 0.16000366 -0.06270141 -0.37605894 0.13335258 0.18074334
0.100310996 0.009339067 0.39749178 -0.041172694 -0.11761629 -0.00057396316 -0.025063593 0.098199844
0.11584312 0.08986129 0.016777115 0.24579862 -0.057645343 -0.11360103 -0.09289657 0.017818192
0.011212636 -0.29034564 0.10193792 0.44062445 0.5632732 -0.3862328 0.06864318 0.07745137
0.102502294 0.18663397 -0.0964643 0.081435435 0.15207134 0.020588828 0.09534388 0.06076772
0.22126788 0.14261325 0.2864914 0.14149182 0.17214608 0.20363756 0.03625864 -0.33119893
-0.20129308 -0.3094725 -0.15495127 1.6111968e-05 0.22703548 -0.055447288 -0.0069512804 0.23403825
-0.296831 0.15588184 -0.42979345 0.36718693 -0.2148596 -0.2239191 -0.0513647 0.0035607805
-0.024431368 -0.03670778 -0.12692505 -0.1366058 -0.08882606 -0.08444579 0.16884173 -0.2426858
-0.06478235 -0.06512301 -0.013536117 0.108216815 -0.073529854 0.009175405 -0.0024308916 0.043600846
0.117615506 0.036223378 -0.080914296 -0.083241425 -0.08541325 -0.14318338 0.15535636 0.071440905
0.11292504 0.118684724 0.03977559 0.020711215 0.11782654 -0.054292843 -0.05586795 0.09759262
0.080095954 0.062155493 -0.098886296 0.05342159 -0.005078974 -0.10807525 0.17260483 0.043292996
-0.3877623 0.08118479 -0.07185432 0.03709513 -0.005983533 0.17967504 -0.056677643 -0.13931267
-0.28346214 0.15965012 0.07976827 -0.08049739 0.20269072 0.15395378 0.008069087 0.19801757
-0.20970081 0.062831126 -0.058890004 0.25761563 0.06930967 -0.087035194 -0.15034136 0.1837868
0.25702664 0.048760734 -0.122709624 0.105334975 0.37409717 0.07085703 0.2980361 -0.17952031
-0.13295443 0.18673627 -0.04892035 -0.037295476 0.18585396 0.18463166 0.042855874 0.24293604
-0.034050826 -0.23016763 -0.10505624 0.23709358 0.012411339 0.2105953 0.09781889 0.14222753
-0.023059992 -0.12380009 0.028996702 -0.22444189 -0.3586212 -0.08387991 0.05962275 0.2783389
0.041335706 0.13485262 -0.17330624 0.09064923 -0.17562367 -0.04432982 -0.066097096 -0.1010841
-0.14369728 0.20015083 -0.05621997 -0.2530036 0.14522813 -0.0552334 -0.2103867 0.02297075
-0.043081846 0.2304471 0.05537385 0.07365194 0.23034368 0.12325552 0.20704462 0.22512443
-0.3615378 0.26187423 -0.078787 0.0873213 0.29402015 0.013177029 -0.20681967 -0.11511819
0.32029924 -0.022484506 -0.03594967 0.37036365 0.06238058 -0.011524147 0.41909945 0.066857405
-0.015679799 -0.17834668 0.057156265 -0.109886274 -0.21867058 0.03886649 -0.21535039 -0.30289352
0.09322879 -0.25567204 0.23210368 0.40304548 -0.07255694 0.059165575 0.17207633 -0.3783603
-0.33890942 -0.45036262 -0.11201091 -0.3288467 0.07971925 -0.38272345 0.16415358 0.43616486
0.2164363 0.43714723 -0.4316348 0.26561722 0.24799772 -0.40369606 -0.0902549 -0.1329489
-0.25653836 -0.11961128 0.36013436 -0.19560656 -0.18986689 -0.065436475 0.15064494 -0.10485283
-0.23976968 -0.339246 -0.11133963 0.26579162 -0.1847028 0.41609624 -0.022362849 0.1875535
-0.14512874 0.4876287 -0.35397428 0.38164043 0.13850108 -0.19137588 0.18444239 -0.28063774

onnx::LSTM_217 f4 [1, 256, 64]
00000000: e852 3fbb 4732 593e fdc9 80be 7049 83be
00000010: ab0b 3f3e 6983 59bc 0a96 7dbe ff63 f13e
00000020: 70ac 9dbd 02f9 943e b9c1 073e b5f8 87be
00000030: bac3 a93d f248 b33b 20eb 16be bd1e 683e
00000040: 25e7 92bd 5864 d63e 9763 e83d fc65 93bd
00000050: 6615 0c3e 0341 773d 4be4 02be 5cb7 a3bd
00000060: fcd8 f2bd df20 3cbe 0fcd 243e ac4a f5be
00000070: 8ab8 a43d 661c 16be 6ce5 343e e509 1cbe
00000080: c956 19be edc0 81bd a4d4 c13c ad48 803d
00000090: 83c8 34be ab7c e8bc 7736 863d 0a5c ffbd
000000a0: dac6 af3c 2b52 80be d954 7bbd 4541 d53d
000000b0: 159e c03e 6f03 7abd 5d67 23bd dda9 b9bd
000000c0: 5b80 ccbd 4931 533d a749 993e 469f 843e
000000d0: a4a0 a23e fc77 a53d a122 c43d e6b7 d63b
000000e0: c7fd 09be ab69 65be 69f4 d33d 3492 1cbc
000000f0: 2ecb 15bd b051 0fbe 8904 8f3d 124b f33d
00000100: 045e 8a3d c4e5 c53d dfde 583d 80d6 ab3c
00000110: 4e4a 0b3e d053 10be 2c3f dd3d fada 183e
00000120: 6b14 8dbe 58a5 623e 39c3 263e af5e 69be
00000130: 3c45 4f3d 7073 53be 1d3b 94bc 6ef2 f23d
00000140: f19d 2a3e 941b 3c3e 46fa f53d 05e1 39be
00000150: c566 b6bd ac02 2a3e ae72 0b3e 7415 9ebb
00000160: 7024 663d 138b e5bc 5d8d 713d 4e70 aabe
00000170: 69d1 01be 105b 373e 24f2 0f3d c182 67bd
00000180: 0d51 743d afff 8cbd 1811 dcbd 479f 0f3e
00000190: d4c9 5cbe a16b ca3a 2bb7 183d 062b 10bd
000001a0: a3c6 d23b 768b d4bd 7964 06bd fb61 9b3d
000001b0: 8fb7 0d3e 0b3d 66bc 95d0 563d 98ac bbbd
000001c0: d3ad 5a3e 02e1 44be c8f8 78bd 1038 6c3d
000001d0: 0a24 233e 6b4c 923d 0d06 fa3d 5610 8ebc
000001e0: 0201 5fbb 697a ee3d 9ceb 32be 5b16 fbbd
000001f0: 62d9 a43a 779a 1f3e 3e5d f33d 697f b8bd
00000200: 9a7e aebd 4f4f aabe 09ac 443e 3f9f 89bd
00000210: edfe f73d c5f1 3f3d a4ad d83d 17e2 cd3d
00000220: fd26 15bf 18cb 1b3f 2e47 fd3e f215 1cbe
00000230: 9077 323f d71a b2be 62dd 84bd 694d 28bc
00000240: 7485 0f3e 15e9 1a3f 7362 233e ed56 c6bd
00000250: 2694 27be e8dd 513e 5638 eb3c e058 413e
00000260: 57ea a63b 28fc 91be faf3 153e df22 c6bd
00000270: a155 ab3e 9a35 d43e cbe0 143e eb86 a3bd
00000280: 596f a6bc 66c8 bf3c f7f0 63be e5ff d03d
00000290: 4675 c8be 2d1e 14be 0051 8ebe b3f7 46bd
000002a0: 69ff 83be dd74 4bbe 584d 65bd 87cd e53d
000002b0: 82b0 58bd 81e6 59be f2d2 a53b d459 493d
000002c0: d985 f53d ac2d 07bd 7b91 683e bbee 163e
000002d0: 879b 703c f1a4 e73c 69da dfbc 8ebd b73b
000002e0: 777f a5bc 3f7d a93d 2ba1 66be 0c78 723e
000002f0: 5290 233e c619 103e eca7 5ebd b580 4f3e
00000300: 2925 99bd 528a 08be 7cf5 d2be b56e 0dbe
00000310: 4d67 103d 544d d23d 326c 39be c69c 9bbe
00000320: 8447 c5be fa36 9e3e a518 ca3e fdaa 503e
00000330: f986 c93d 29a1 c4be a356 ed3c 3454 66be
00000340: 9ced 18be 07fe 143f 749f 683d f00c 2d3e
00000350: 19e5 f73c 76a5 7dbe 16fa 49be 1324 0cbe
00000360: 5db8 173d 63d0 b6be 57c7 8c3e afdc 2bbe
00000370: df05 ed3e f947 143d 062d 193e 32b1 d9bb
00000380: b0aa 92be 4dd4 663e 5e6d 8abe 8dba 34be
00000390: ef9b fbbd 6479 48be 2444 bebd b7d3 ad3e
000003a0: 0338 9dbd 97ff 20bf 67ec c2bd 7ab6 743e
000003b0: 670c 54be 8179 1ebe 06ec dc3e 6eae 73bd
000003c0: bd02 483e f702 cf3d e032 623e 52be 3d3e
000003d0: dd76 c4bc 11fd ab3e 60d1 ae3d 61da 87bd
000003e0: 6a6f a4bb 1728 36be 1aa4 133e c02a d13d
000003f0: 6871 d93d f24d 31be c46f 683e 71fa 12be
-0.0029193703 0.21210586 -0.25154105 -0.25641966 0.18656795 -0.0132759595 -0.24764267 0.47146603
-0.076989055 0.29096228 0.13257493 -0.26556936 0.08289285 0.0054713422 -0.1473813 0.22667976
-0.071729936 0.4187343 0.1134712 -0.07197186 0.13680038 0.060364734 -0.127824 -0.079939574
-0.11857793 -0.18371914 0.16093849 -0.47908533 0.080430105 -0.1465927 0.17665642 -0.1523815
-0.14974512 -0.06335626 0.023660965 0.06263862 -0.17654614 -0.028379759 0.06553357 -0.12468727
0.021457125 -0.2506269 -0.061360214 0.1041284 0.37620607 -0.06103843 -0.039893497 -0.09065602
-0.09985419 0.051560674 0.29939005 0.25902766 0.31763184 0.08079526 0.095769174 0.006552684
-0.13475715 -0.2240359 0.10349352 -0.009556342 -0.03657072 -0.13996005 0.06983287 0.11879553
0.06756213 0.09662965 0.05294692 0.020976305 0.13602564 -0.14094472 0.10803065 0.14927283
-0.2755464 0.22133386 0.16285409 -0.22790025 0.050603136 -0.20649505 -0.018094594 0.11862646
0.16661812 0.18369895 0.120106265 -0.18152244 -0.089063205 0.16602582 0.13617966 -0.0048243348
0.056187093 -0.028020417 0.058972705 -0.33288807 -0.1267754 0.17905831 0.035143033 -0.05652118
0.05964761 -0.06884705 -0.10745448 0.14025603 -0.21561366 0.0015443453 0.037284058 -0.03519728
0.0064323707 -0.103781626 -0.032810662 0.07587048 0.13839553 -0.01405264 0.052445013 -0.09163779
0.21355371 -0.19226459 -0.06078413 0.057670653 0.15931717 0.07143482 0.12208185 -0.017341774
-0.00340277 0.11644442 -0.1747269 -0.12260123 0.0012576992 0.15586267 0.11883019 -0.090086766
-0.08520241 -0.33263633 0.19206251 -0.06719827 0.1210917 0.04686143 0.10579994 0.10052889
-0.58262616 0.6085677 0.49468368 -0.15242746 0.6971369 -0.34786102 -0.06487538 -0.010272362
0.14015752 0.60511905 0.15955524 -0.096845485 -0.16365108 0.20494807 0.028713387 0.1888156
0.0050938535 -0.28512692 0.14643851 -0.0967462 0.33463767 0.41447145 0.14538877 -0.07984718
-0.020316767 0.023410987 -0.2225989 0.10205058 -0.39151973 -0.14464636 -0.27796173 -0.048576068
-0.257808 -0.19868799 -0.055981964 0.11220842 -0.052902706 -0.21279337 0.005060547 0.049157932
0.1198842 -0.03300254 0.22711746 0.14739506 0.014685518 0.028276892 -0.027325826 0.0056073135
-0.020202382 0.08275842 -0.22522418 0.23678607 0.15973023 0.14072332 -0.05435936 0.20263942
-0.07477791 -0.13334015 -0.41202915 -0.13811763 0.035254765 0.102686554 -0.1810768 -0.30393046
-0.38531125 0.3090132 0.39471927 0.20377727 0.09840197 -0.38404205 0.028971976 -0.22493058
-0.14934391 0.58200115 0.05679269 0.16899467 0.03026061 -0.2477015 -0.19724306 -0.13685636
0.037041057 -0.3570586 0.27495834 -0.16783403 0.46293542 0.03620145 0.14958581 -0.006643438
-0.2864585 0.22541924 -0.27036566 -0.17649288 -0.12285601 -0.19577557 -0.092903405 0.33950588
-0.07676699 -0.6289 -0.095177464 0.23897734 -0.20707856 -0.15476038 0.43148822 -0.05949252
0.19532295 0.101079874 0.2208972 0.18529633 -0.02398246 0.33591512 0.08536029 -0.06633449
-0.0050181644 -0.1778873 0.14418069 0.10213232 0.10617334 -0.1731489 0.22698885 -0.14353348

onnx::LSTM_218 f4 [1, 512]
00000000: 700a 97bd 4cf6 80bd 05e9 513e 07f4 293e
00000010: c490 473e 3a58 fb3d a896 84bd e348 363e
00000020: 5f66 823e 2e93 a1bd 1b0a 9ebd 36cd cb3d
00000030: a1d1 7e3e 4278 893d 4ce3 1e3e a24b 32be
00000040: b266 653e c880 38be 7ee0 443d df19 4d3e
00000050: 322c 223e 718b 423e f98e ab3d aa67 6ebd
00000060: 7de0 e2bd d3f5 113e fe03 873d 85ea d83e
00000070: 14e6 423d 7d2f 5c3e ed1d 133e 482e ed3d
00000080: b4c2 0a3e 4f92 8f3e 48b6 cabc 71fe aebd
00000090: 4207 c4bb a2f9 913c 2055 293d 07f8 6d3e
000000a0: e7fa 4a3e be76 803e 44a0 6e3e 417e 8c3d
000000b0: 3eaf 793d 5394 f9bd 27f2 b33e 24d5 9dbd
000000c0: 8d35 843e 421e 463e c0b9 82bd 6d9b c03d
000000d0: 4caf 8cbd c727 903e 9a4f 2a3e 9463 e3bb
000000e0: b17c 3f3d 5340 2e3e 73b7 ed3e 0ebf 7d3e
000000f0: 3f97 fb3d f225 cfbc 7168 203d 454c 81be
00000100: 0dde a03d 1d94 8bbd 5524 6a3e 0562 6f3d
00000110: 910f 533e 2501 483e b328 893d b340 c73e
00000120: 5d75 503d e978 a63d 4611 393e 04e7 023e
00000130: f2b6 f03c 3103 d5bc dd1a c93d dd76 6dbd
00000140: 52b7 4c3e 30bf 193e 55b8 fa3d 1dc4 e6bb
00000150: 8f4c e93c 49af 0f3e 68e0 e23d a54d f7bc
00000160: caf3 873e 8bad 313e 7b84 1e3e 728d c33e
00000170: 3516 b93d 5dfc 6d3d ea18 5c3e c4d8 333e
00000180: 31a6 b53d d973 b63e 8689 983d ee82 073e
00000190: 9788 1ebd 6bba a23d f6e2 3e3d c784 ac3e
000001a0: 25f0 3f3d 7513 df3d f15d 3c3e 074c 2f3e
000001b0: 2c48 6a3e a1b4 ef3d be61 9a3e 2426 513e
000001c0: 535b 983e 102b 903e 8ac8 6cbb bb7c e7b8
000001d0: 47f6 e9ba 0368 963e 56ea 983e 3e7c 9b3d
000001e0: 608f 2a3e ff77 2f3c 4f02 e13e c49c 8e3d
000001f0: 238e f13d 5978 023e e484 b83e a6bb 9bbd
00000200: 3f03 bf3d b413 b2bd a124 59be f644 04bc
00000210: aad4 1fbe 8102 39be 44cd a53c 970b a1be
00000220: 2f55 8f3d 6fbb 353e c6c2 d83d 83b8 e43d
00000230: 0ed0 fcbd 4bda edbd e905 2dbd 9090 d83d
00000240: 6d88 c7bd 02ac 0bbc 5766 ec3d 9542 9b3e
00000250: fb7c 263c fc4f d4bd 6a65 ee3c 4600 43bd
00000260: 968b 503d 51b4 96bd f0be 47be 3e86 8bbe
00000270: 0760 83bd 51f2 c8bd 77a9 4ebe 48c5 273e
00000280: 5fe5 fdbc 040d d13d df80 283c 3f9f 183e
00000290: b239 123d 0f37 b5bd ed77 873e 958d d1bc
000002a0: b4f1 353e 9169 b03d c309 92bd 05f3 79bd
000002b0: d93f da3c 7ba1 593e 90da 19be d7b2 ac3c
000002c0: 7eb1 8f3d 3a1a 833c fc07 32bc f40b 103e
000002d0: 36a9 a8bd 3354 b8bd cf85 1f3e d8e4 953d
000002e0: 442d 0f3d 62f6 953c 1151 3ebe 3107 75bd
000002f0: 8952 0ebd bf70 1bbe 66c9 0d3e edc8 8d3d
00000300: a7bc 7c3a b046 4cbd 1ec4 d1bc 4ca1 a93d
00000310: 9ebc 1e3c a4e4 853d 0a2c 123e 915d 063d
00000320: e9c3 8dbd 117c 4cbd 72d1 90bd 14ed d0bd
00000330: d87d 9cbd 5dbd 2c3c 9dbc 94bd c39d 19ba
00000340: cbe9 0f3e c730 dc3d 6333 983d bdf6 653c
00000350: 74c9 d4bd c66f a3bd 8611 a6bc cfd6 673d
00000360: e1e8 24be 2ed1 c6bd 6391 25be d7d3 9bbd
00000370: 7efe ab3d 953f f2bd dff3 af3d 6f06 6cbc
00000380: 66ff 6b3c 0162 313e d632 52bd 6635 3d3d
00000390: d27a adbc 7f5f 533d c91a fa3c d843 203d
000003a0: b50b 65bd 262d e1bd 9de2 a43d b969 cf3d
000003b0: 6009 b4bd 7288 a5bd ed25 e3bb 9709 9bbc
000003c0: ed80 0cbe b222 c4bb 72c6 923d a300 913d
000003d0: 440b fb3d 3c1c ea3c c7f6 f4bd 7d62 84bc
000003e0: fcdb 9a3d 9aa9 1cbd 8662 9abd a1b0 3c3e
000003f0: 0111 513d 3e23 37be a1ca c23d da3a 8c3d
-0.07375038 -0.062969774 0.20499046 0.16596995 0.19488817 0.12272687 -0.06474048 0.17801242
0.25468728 -0.078894004 -0.07716771 0.0995125 0.24884655 0.067123905 0.15516394 -0.17411664
0.22402456 -0.18017876 0.048065655 0.200294 0.15837172 0.18998505 0.08376879 -0.05820433
-0.11077974 0.14253931 0.06592558 0.42366424 0.0475827 0.2150249 0.14366885 0.11581093
0.13550836 0.28041312 -0.024745122 -0.085446246 -0.0059823105 0.01781923 0.041340947 0.23239146
0.19822274 0.25090593 0.23303324 0.068600185 0.06095814 -0.12186494 0.35145685 -0.07706669
0.25822106 0.1934748 -0.06383085 0.09404645 -0.06869373 0.28155348 0.16631928 -0.006939361
0.046749774 0.17016725 0.46429023 0.24779913 0.12284707 -0.025286648 0.039162103 -0.25253502
0.07854853 -0.0681536 0.22865422 0.058443088 0.20611407 0.19531687 0.06697216 0.3891655
0.050893176 0.081285305 0.18072996 0.12783438 0.02938411 -0.026002498 0.09819577 -0.057974685
0.19991806 0.15014338 0.1224219 -0.0070424215 0.028478889 0.1403171 0.11077958 -0.030188391
0.26553184 0.17351358 0.15480225 0.38193852 0.09037439 0.058102 0.21493879 0.17563158
0.08869589 0.3563526 0.074481055 0.1323354 -0.03870448 0.07945713 0.046603166 0.3369505
0.04685988 0.10892383 0.18395211 0.17118846 0.22879094 0.11704374 0.30152696 0.20424706
0.29757175 0.28157854 -0.0036130273 -0.00011038171 -0.0017849886 0.2937623 0.29866284 0.07592057
0.16656256 0.010709762 0.43947074 0.069634944 0.117946886 0.12741221 0.36038888 -0.076041505
0.09326791 -0.08695164 -0.21205379 -0.008073082 -0.15608469 -0.18067361 0.02023948 -0.31454155
0.06998669 0.17747281 0.10584025 0.11168005 -0.12344371 -0.11613902 -0.042241964 0.10574448
-0.09742818 -0.008524897 0.11542957 0.30324236 0.010161634 -0.10366818 0.029101092 -0.047607683
0.05091437 -0.073586114 -0.1950643 -0.27250856 -0.064148 -0.09811843 -0.20181833 0.1638385
-0.030993162 0.10207561 0.0102846315 0.14904498 0.035699554 -0.08848392 0.26458684 -0.025580207
0.17767984 0.08613885 -0.07130768 -0.061022777 0.026641773 0.21253006 -0.15024781 0.021081371
0.07016276 0.016003717 -0.010866161 0.1406706 -0.082353994 -0.09000435 0.15578388 0.07319039
0.034955278 0.018305961 -0.18585612 -0.05982131 -0.03474668 -0.15179728 0.13846359 0.06923089
0.00096411485 -0.0498721 -0.025606211 0.08282718 0.0096885245 0.0653775 0.14274612 0.032804076
-0.069221325 -0.049923006 -0.070711985 -0.10201469 -0.0764119 0.010543195 -0.07262538 -0.0005859995
0.14054029 0.10751491 0.07431676 0.014035878 -0.10389987 -0.079803035 -0.020272028 0.05660134
-0.16104461 -0.097078666 -0.16168742 -0.076087646 0.0839815 -0.118285336 0.085914366 -0.014405831
0.014404153 0.17322542 -0.051318012 0.046193503 -0.02117673 0.051604744 0.03053035 0.0391272
-0.055919368 -0.109949395 0.080510356 0.10127587 -0.08790851 -0.080826655 -0.0069320113 -0.018925471
-0.13721056 -0.0059855813 0.07166757 0.070801996 0.12258008 0.028577916 -0.119611315 -0.016160244
0.0756149 -0.038247682 -0.07538323 0.18426754 0.051041607 -0.17884538 0.09511305 0.068471625
