rock_paper_scissors_model.onnx (onnx, 383212 bytes, 20 tensors)

batchnorm1.weight f4 [20]
1.0203663 1.1260941 1.0944179 1.0404404 0.8760464 1.1796815 0.8816757 1.0335994
0.9369398 1.0938711 0.93638104 1.0226797 0.6625196 1.0905796 0.88710344 1.0709316
0.9306336 0.95350367 0.78155595 0.8371789
00000000: 5d9b 823f da23 903f e315 8c3f 272d 853f
00000010: 9444 603f ceff 963f 80b5 613f fc4c 843f
00000020: 49db 6f3f f803 8c3f abb6 6f3f 2be7 823f
00000030: e29a 293f 1d98 8b3f 3619 633f 4914 893f
00000040: 013e 6e3f d118 743f 0d14 483f 5b51 563f

batchnorm1.bias f4 [20]
-0.050929606 -0.2779409 0.09512989 -0.04728599 0.066532575 0.075115964 0.009816445 -0.1482416
0.104510516 0.16707966 0.07983332 0.17316675 -0.1052656 0.0025188685 0.27288154 -0.011201726
-0.14761111 0.010577282 -0.1292942 -0.015364475
00000000: 909b 50bd 454e 8ebe 76d3 c23d f4ae 41bd
00000010: 3b42 883d 66d6 993d 28d5 203c a5cc 17be
00000020: 9c09 d63d ee16 2b3e a77f a33d a052 313e
00000030: 7e95 d7bd 9a13 253b 21b7 8b3e 7287 37bc
00000040: 5e27 17be 564c 2d3c b365 04be 47bb 7bbc

batchnorm1.running_mean f4 [20]
-0.0018030332 0.009878384 0.015446334 0.01450592 0.013494512 0.014561183 0.013769562 0.011944613
0.013897826 0.012549807 0.011829273 0.012251513 0.012444824 0.011689185 0.013092375 0.013403468
0.014053503 0.013084163 0.013919681 0.013152112
00000000: c153 ecba f2d8 213c 9f12 7d3c 3daa 6d3c
00000010: 1618 5d3c 0792 6e3c bb99 613c 57b3 433c
00000020: b5b3 633c b59d 4d3c 91cf 413c 92ba 483c
00000030: 60e5 4b3c ff83 3f3c 6781 563c 389a 5b3c
00000040: aa40 663c f55e 563c 600f 643c f57b 573c

batchnorm1.running_var f4 [20]
0.008743186 0.016091011 0.020929415 0.023585618 0.024783947 0.026445685 0.02697793 0.027575586
0.027442023 0.027116075 0.026803484 0.026665714 0.026651094 0.02665971 0.026830725 0.027188692
0.027154075 0.027346678 0.027218333 0.027525729
00000000: 943f 0f3c 4cd1 833c 2a74 ab3c a036 c13c
00000010: b407 cb3c 9fa4 d83c d200 dd3c 32e6 e13c
00000020: 18ce e03c 8822 de3c fb92 db3c 0e72 da3c
00000030: 6553 da3c 7765 da3c 1ccc db3c d2ba de3c
00000040: 3972 de3c 2406 e03c fbf8 de3c a37d e13c

batchnorm2.weight f4 [64]
0.883428 1.079871 0.90946937 0.9776546 0.9079689 0.9467067 0.8675237 0.97990745
1.0513988 0.9550997 1.0617862 1.2135644 0.9131991 0.93217576 0.8818695 0.9070243
1.009045 1.0925145 1.0019338 1.0479473 1.0905241 1.1578645 0.9707523 1.0342293
0.985033 0.9930947 0.9556504 0.974787 1.0605057 1.1410058 1.0319557 1.0801386
1.0427952 0.9850712 0.9614434 1.0678034 0.9162359 0.9706492 0.94247764 1.1434375
1.02881 0.8820007 0.9379451 1.0024332 1.0310394 0.9175214 0.99739826 1.0542439
1.0755585 1.0479518 1.00845 1.0313185 0.8348446 0.92123085 0.948066 0.93366873
1.1840448 0.9442402 0.89432687 0.94894147 1.1323563 1.05401 1.0054897 1.0611972
00000000: 5628 623f 3739 8a3f fcd2 683f 9247 7a3f
00000010: a670 683f 5f5b 723f 0916 5e3f 37db 7a3f
00000020: 3c94 863f 6a81 743f 9ce8 873f 1456 9b3f
00000030: 6bc7 693f 12a3 6e3f 33c2 613f bf32 683f
00000040: 6328 813f 84d7 8b3f 5e3f 803f 2323 863f
00000050: 4b96 8b3f e734 943f 3983 783f a061 843f
00000060: 1f2b 7c3f 743b 7e3f 81a5 743f a48b 793f
00000070: a7be 873f 7a0c 923f 2017 843f fb41 8a3f
00000080: 507a 853f a02d 7c3f 2821 763f c8ad 883f
00000090: 708e 6a3f 777c 783f 3746 713f 295c 923f
000000a0: 0cb0 833f ccca 613f 2c1d 703f bb4f 803f
000000b0: 19f9 833f afe2 6a3f 7e55 7f3f 77f1 863f
000000c0: e7ab 893f 4923 863f e414 813f 3f02 843f
000000d0: 60b8 553f c9d5 6b3f 74b4 723f ea04 6f3f
000000e0: c88e 973f bab9 713f 9bf2 643f d4ed 723f
000000f0: 0df1 903f cde9 863f e3b3 803f 4fd5 873f

batchnorm2.bias f4 [64]
-0.06175841 0.16664729 -0.010730593 0.07541489 -0.004054984 0.079649575 0.05124044 -0.11489488
0.0773224 0.059648294 0.128957 -0.054984897 -0.01225709 -0.010090243 0.0035207295 0.05743225
-0.07810194 0.05982613 0.05570998 -0.013072911 0.05095531 0.048415393 0.025888957 0.13722557
-0.035159726 0.09178302 0.12228242 0.022393528 0.12246766 0.01438896 0.07275648 0.07584634
0.11225572 0.08458499 0.06906437 -0.07558073 -0.052046873 -0.011532571 0.19436441 0.06542414
0.052583758 -0.08940191 -0.15138543 -0.0068039014 0.0869475 -0.035291053 -0.05173488 -0.02317982
0.027961662 -0.013369229 -0.05189572 -0.012268714 -0.04153258 0.028597606 -0.046277113 0.023356995
0.16104145 -0.0842964 0.009827967 -0.11881398 0.0981542 -0.0028831232 -0.12974164 0.0005538506
00000000: 63f6 7cbd 96a5 2a3e 5fcf 2fbc 1f73 9a3d
00000010: acdf 84bb 511f a33d 7fe1 513d 024e ebbd
00000020: 355b 9e3d c551 743d 4e0d 043e d837 61bd
00000030: f6d1 48bc 8c51 25bc 0abc 663b 143e 6b3d
00000040: e9f3 9fbd 3e0c 753d 2630 643d c32f 56bc
00000050: 84b6 503d 384f 463d 1415 d43c dc84 0c3e
00000060: a503 10bd bcf8 bb3d 356f fa3d a272 b73c
00000070: 53d0 fa3d acbf 6b3c 5901 953d 5355 9b3d
00000080: 54e6 e53d e53a ad3d 9f71 8d3d 12ca 9abd
00000090: 1a2f 55bd 1cf3 3cbc 7707 473e 17fd 853d
000000a0: 1162 573d 5918 b7bd c804 1bbe 43f3 debb
000000b0: 8811 b23d 5a8d 10bd f4e7 53bd 9be3 bdbc
000000c0: db0f e53c 9c0a 5bbc 9b90 54bd b702 49bc
000000d0: 111e 2abd 8745 ea3c 128d 3dbd 2b57 bf3c
000000e0: 0de8 243e 97a3 acbd 7b05 213c be54 f3bd
000000f0: 1205 c93d c8f2 3cbb feda 04be 4930 113a

batchnorm2.running_mean f4 [64]
-0.3083316 0.6782181 -0.46686852 0.24150209 0.35334095 0.4808762 -0.8226697 -0.3423158
-0.113488086 -0.80707073 0.45682654 -0.07180326 0.3261104 0.003995478 -0.3416782 0.38746977
-0.11935122 0.058694966 0.41943243 0.38766524 0.19410051 -0.32615826 0.88649726 0.89809436
0.06628717 0.66529965 0.037345134 0.16852307 0.33431065 -0.07935901 0.6768826 0.2169618
-0.09096366 0.21332176 0.53484 -0.5481419 -0.22701868 -0.5166099 0.30053586 0.65864056
-0.70493114 0.1873971 0.9072851 0.6970938 0.16678882 -0.5383771 0.7191 0.39455202
-0.85568815 0.5342028 -0.3705422 -0.6742467 -0.16087262 -0.093875416 0.7447626 0.77667177
0.35083106 -0.73344404 -0.23676765 -0.42902276 0.12776268 -0.21813744 0.3769649 -0.33535123
00000000: a4dd 9dbe b49f 2d3f 6409 efbe 534c 773e
00000010: 1be9 b43e 6835 f63e 7b9a 52bf 0444 afbe
00000020: 716c e8bd 309c 4ebf 2be5 e93e 960d 93bd
00000030: f1f7 a63e 80ec 823b 72f0 aebe 7062 c63e
00000040: 6a6e f4bd 226a 703d d9bf d63e 0f7c c63e
00000050: 49c2 463e 37fe a6be 7cf1 623f 83e9 653f
00000060: 91c1 873d 1451 2a3f 36f7 183d 5091 2c3e
00000070: c42a ab3e fa86 a2bd 2e48 2d3f 3c2b 5e3e
00000080: 284b babd 0571 5a3e 46eb 083f 0753 0cbf
00000090: 9677 68be 8c40 04bf d6df 993e ab9c 283f
000000a0: 5e76 34bf 06e5 3f3e d643 683f bd74 323f
000000b0: b0ca 2a3e 15d3 09bf f016 383f b902 ca3e
000000c0: 610e 5bbf 84c1 083f b5b7 bdbe 6f9b 2cbf
000000d0: cbbb 24be c141 c0bd c3a8 3e3f f6d3 463f
000000e0: 21a0 b33e fdc2 3bbf 3873 72be dfa8 dbbe
000000f0: 38d4 023e 6c5f 5fbe 8b01 c13e 28b3 abbe

batchnorm2.running_var f4 [64]
0.46174854 0.25949952 0.57340616 0.7493959 0.108997375 0.2413127 0.03384737 0.7254732
0.40263623 0.09671412 0.43874592 0.64672136 0.2630966 0.69865906 0.29579693 0.20915219
0.19115812 0.7102036 0.57318074 0.21569532 0.51372766 0.7210984 0.042634536 0.036763005
0.7269917 0.08556995 0.51287156 0.38284943 0.6294594 0.7613937 0.28902304 0.71859473
0.3954611 0.6246349 0.53081995 0.39282832 0.14085762 0.31430337 0.089851715 0.19094482
0.23780148 0.2828843 0.031330306 0.2758822 0.61598873 0.2564544 0.1833628 0.5778572
0.04270336 0.51061094 0.045318287 0.2081243 0.2099523 0.45960373 0.12724912 0.100242905
0.6736364 0.2466329 0.52720207 0.25783968 0.69515926 0.2652556 0.49304253 0.675881
00000000: 4e6a ec3e 1fdd 843e bfca 123f 69d8 3f3f
00000010: 043a df3d ad1a 773e 8aa3 0a3d 9db8 393f
00000020: 5626 ce3e 0d12 c63d 4ea3 e03e 888f 253f
00000030: 99b4 863e 52db 323f b272 973e fe2b 563e
00000040: f4be 433e e7cf 353f f9bb 123f 3cdf 5c3e
00000050: a883 033f e899 383f 8da1 2e3d ce94 163d
00000060: 211c 3a3f 4c3f af3d 8d4b 033f d704 c43e
00000070: 4024 213f b3ea 423f d4fa 933e d3f5 373f
00000080: e179 ca3e 13e8 1f3f d1e3 073f cb20 c93e
00000090: fb3c 103e 5fec a03e 2d04 b83d 0a87 433e
000000a0: 3b82 733e 36d6 903e 3554 003d 6f40 8d3e
000000b0: 70b1 1d3f fe4d 833e 75c3 3b3e 73ee 133f
000000c0: b8e9 2e3d 66b7 023f ab9f 393d 891e 553e
000000d0: bcfd 563e 2e51 eb3e 984d 023e 274c cd3d
000000e0: 6f73 2c3f 568d 7c3e b7f6 063f 9003 843e
000000f0: f5f5 313f 95cf 873e 1270 fc3e 8a06 2d3f

fc1.weight f4 [64, 64]
-0.0024721457 -0.11073512 0.18147399 0.07020594 0.093459584 -0.042826258 0.141377 -0.13291125
0.044574503 0.06902484 -0.066365115 0.10945366 0.10029171 0.077701904 -0.09011761 -0.17491296
0.008516886 -0.09556621 -0.05262996 -0.22573338 0.016839687 0.1140671 -0.15137406 -0.120647244
0.07767897 -0.13851517 0.020554593 -0.049476292 0.091868095 0.18777265 -0.018893637 -0.004264399
-0.08755653 -0.058120508 -0.08347148 -0.042449698 -0.006180019 -0.06624734 0.06173408 0.015272107
-0.103466175 0.06401778 -0.111698255 -0.025154699 0.041190043 -0.013171092 -0.14213338 0.08650762
0.13896844 0.114988565 0.19824187 -3.1160424e-05 0.017354501 0.008698483 -0.025777962 0.04243186
0.08804457 -0.010261442 -0.044443138 0.07092635 0.039546363 0.24756193 -0.05072879 -0.036479298
-0.15659735 0.05785473 -0.012471727 0.057219468 -0.13007745 -0.04903333 -0.02268904 0.12987018
0.16720696 -0.12045423 -0.06293155 0.014883755 -0.10083422 0.18891925 0.0729729 -0.040329993
-0.14122747 0.16347405 -0.25066298 -0.13732553 -0.1182854 -0.174345 0.038837373 -0.026573684
-0.16247682 -0.062624715 -0.00054751354 0.06036384 0.024639228 -0.1112449 -0.09686111 -0.060599077
-0.23100351 0.123735376 0.14128076 -0.049927335 0.20592456 -0.031558026 -0.13444045 -0.013152005
-0.027959747 -0.0325488 0.07827092 0.073461294 0.025978765 -0.06860809 0.042550527 0.1271525
0.16639493 -0.009577044 -0.024561621 -0.009132931 -0.17410815 0.11458105 -0.15117785 0.011590491
-0.011859095 -0.09056806 -0.1063965 0.05943704 -0.07911186 -0.066672504 -0.13140795 0.08222884
-0.11724286 -0.020197235 -0.07435745 0.087474726 -0.15724519 -0.02513177 -0.22622086 0.03851817
0.01616345 0.09823894 0.05604983 0.086579554 -0.18283238 -0.0074361227 -0.038550854 0.0883465
-0.08908223 0.15515672 -0.009989412 -0.037981328 0.08622427 0.015461369 -0.14028524 0.28274256
0.07403192 0.13966978 0.10456175 -0.029493807 0.12148739 -0.20586759 0.07246392 0.10075338
0.1137727 0.062958285 0.05645702 -0.15303418 0.045520723 0.08613299 -0.03501854 -0.045075797
-0.026748784 0.015388219 -0.026822051 -0.090869546 0.24770816 -0.06266749 -0.18115081 0.13527094
0.055234443 -0.090830736 0.046828654 -0.03174486 0.07184143 0.22159255 0.027029227 0.010405498
0.11002951 -0.07737262 0.030086178 -0.048515867 0.08444935 0.057948936 -0.20984109 0.04107039
0.082108416 -0.11661814 0.053469602 -0.13491379 -0.022902016 0.066472515 -0.068152495 0.08545824
-0.041745342 -0.048663426 0.14852564 -0.009927202 0.028306687 0.0745619 0.04952088 0.013822064
0.13202755 -0.015810596 0.11501335 0.022904344 0.2798176 -0.044552654 0.06352469 -0.1163771
0.15023887 -0.037068766 -0.10249941 -0.03963239 0.044323094 -0.09057854 0.04980279 0.19537313
-0.1588203 0.16061239 0.10355839 -0.03847973 0.0908869 -0.14762034 -0.0981922 -0.15379685
0.13156164 0.099146344 -0.04191063 0.1495319 0.017273001 -0.015200954 0.17447911 0.14925629
-0.06583842 0.2848361 0.13566184 -0.003991559 -0.01087493 -0.002419843 0.0067892442 0.15799028
0.016095536 0.119982526 -0.0518793 0.02145871 0.22142541 0.014486269 -0.06695411 0.11977577
00000000: b903 22bb 18c9 e2bd 51d4 393e 22c8 8f3d
00000010: bd67 bf3d 966a 2fbd 22c5 103e e319 08be
00000020: c193 363d e55c 8d3d 6fea 87bd 3e29 e03d
00000030: bd65 cd3d 2d22 9f3d 958f b8bd 621c 33be
00000040: 698a 0b3c 38b8 c3bd 8392 57bd a726 67be
00000050: 62f3 893c 039c e93d cd01 1bbe e715 f7bd
00000060: 2716 9f3d ecd6 0dbe 1b62 a83c a7a7 4abd
00000070: 5725 bc3d 7947 403e d4c6 9abc 5fbc 8bbb
00000080: d750 b3bd c50f 6ebd 18f3 aabd bcdf 2dbd
00000090: c281 cabb afac 87bd e0dc 7c3d dc37 7a3c
000000a0: 13e6 d3bd c11b 833d 0ec2 e4bd 3a11 cebc
000000b0: e4b6 283d 90cb 57bc 6a8b 11be e82a b13d
000000c0: be4d 0e3e 207f eb3d ebff 4a3e 40b2 02b8
000000d0: 072b 8e3c 1584 0e3c 4e2c d3bc 08cd 2d3d
000000e0: b650 b43d 9b1f 28bc 020a 36bd d641 913d
000000f0: 5efb 213d e080 7d3e fec8 4fbd 516b 15bd
00000100: 0e5b 20be 15f9 6c3d 3756 4cbc f65e 6a3d
00000110: 0633 05be 2cd7 48bd 5ede b9bc b0fc 043e
00000120: 4d38 2b3e b5b0 f6bd 42e2 80bd feda 733c
00000130: 2c82 cebd 0c74 413e d172 953d 1031 25bd
00000140: ef9d 10be be65 273e e656 80be 109f 0cbe
00000150: 9e3f f2bd 7f87 32be f013 1f3d 0eb1 d9bc
00000160: 5360 26be 6341 80bd 0387 0fba 1340 773d
00000170: 35d8 c93c 5ed4 e3bd 1e5f c6bd bd36 78bd
00000180: 2f8c 6cbe f968 fd3d e7ab 103e 9b80 4cbd
00000190: e3dd 523e fd42 01bd c2aa 09be 827b 57bc
000001a0: d70b e5bc e451 05bd 814c a03d e072 963d
000001b0: 6bd1 d43c 6682 8cbd 7649 2e3d 4434 023e
000001c0: 6f63 2a3e 09e9 1cbc 7435 c9bc 4aa2 15bc
000001d0: 6849 32be 78a9 ea3d 5ece 1abe 0be6 3d3c
000001e0: a64c 42bc bf7b b9bd 68e6 d9bd 4174 733d
000001f0: 6605 a2bd 988b 88bd ce8f 06be 9867 a83d
00000200: 061d f0bd ac74 a5bc b848 98bd f325 b33d
00000210: e204 21be 24e1 cdbc 71a6 67be 3bc5 1d3d
00000220: 3669 843c 7f31 c93d 8294 653d 9f50 b13d
00000230: 6938 3bbe b8aa f3bb 80e7 1dbd 03ef b43d
00000240: bf70 b6bd 67e1 1e3e a1aa 23bc 4f92 1bbd
00000250: 5a96 b03d af51 7d3c efa6 0fbe a2c3 903e
00000260: 0c9e 973d 9805 0f3e 7924 d63d ff9c f1bc
00000270: 61ce f83d f4ce 52be f767 943d ca57 ce3d
00000280: a901 e93d 46f0 803d 7a3f 673d feb4 1cbe
00000290: f073 3a3d 7e66 b03d 9a6f 0fbd 66a1 38bd
000002a0: 4420 dbbc de1e 7c3c ebb9 dbbc d019 babd
000002b0: 35a7 7d3e d057 80bd 997f 39be 7784 0a3e
000002c0: 833d 623d 7705 babd 67cf 3f3d e606 02bd
000002d0: 9a21 933d 28e9 623e 666c dd3c d27b 2a3c
000002e0: 2757 e13d 8975 9ebd 4a77 f63c 93b8 46bd
000002f0: c8f3 ac3d dd5b 6d3d 95e0 56be 6d39 283d
00000300: 7528 a83d 7ed5 eebd f102 5b3d d726 0abe
00000310: 029d bbbc be22 883d 8993 8bbd bb04 af3d
00000320: 2afd 2abd 4d53 47bd 1b17 183e b4a5 22bc
00000330: 6de3 e73c e9b3 983d 68d6 4a3d f075 623c
00000340: 3b32 073e 3985 81bc 1f8c eb3d e4a1 bb3c
00000350: 4144 8f3e d87c 36bd 3c19 823d 1e57 eebd
00000360: 38d8 193e 6bd5 17bd 36eb d1bd 9355 22bd
00000370: 228c 353d 3e81 b9bd 03fe 4b3d e50f 483e
00000380: caa1 22be 9377 243e 6c16 d43d ec9c 1dbd
00000390: e922 ba3d c929 17be fe18 c9bd ec7c 1dbe
000003a0: 18b8 063e 3d0d cb3d 7baa 2bbd e41e 193e
000003b0: 1c80 8d3c 6c0d 79bc a7aa 323e a4d6 183e
000003c0: 4bd6 86bd 0ad6 913e f0ea 0a3e a0cb 82bb
000003d0: c32c 32bc 3b96 1ebb 4f78 de3b 34c8 213e
000003e0: c9da 833c 66b9 f53d 647f 54bd 2dca af3c
000003f0: 58bd 623e d157 6d3c 3d1f 89bd 004d f53d

fc1.bias f4 [64]
0.004669815 -0.031149 0.032980874 0.07240633 0.029538179 -0.06901669 -0.15754105 0.05198842
-0.05586423 -0.19953807 -0.050659515 0.122394525 -0.10791468 -0.068982266 -0.026115065 0.038269285
0.06752311 -0.10028981 0.09241637 -0.1449678 0.035045803 -0.0642617 -0.058633506 -0.18273392
0.11600492 0.058499333 -0.08656749 0.07183642 -0.28334284 -0.13701925 -0.123973496 0.15543622
0.15915418 -0.13673101 -0.052715976 -0.12551706 -0.1682227 -0.20901188 0.022703428 -0.06318345
0.06484165 -0.052668024 -0.18737848 -0.09711489 -0.03622877 0.09496213 -0.064598545 0.05172382
0.03142917 -0.104237914 -0.054301463 -0.03966262 -0.09847313 0.10278422 -0.17327902 0.118603624
-0.018600473 -0.11501819 -0.0076705427 -0.18005608 -0.18550937 -0.10260033 -0.013677839 -0.12643954
00000000: 3f05 993b 302c ffbc f416 073d c549 943d
00000010: 0dfa f13c 9f58 8dbd 7152 21be cff1 543d
00000020: e4d1 64bd b553 4cbe 5a80 4fbd fba9 fa3d
00000030: 5f02 ddbd 9346 8dbd 43ef d5bc 41c0 1c3d
00000040: 8e49 8a3d be64 cdbd cb44 bd3d 7072 14be
00000050: 308c 0f3d a39b 83bd b029 70bd 9a1e 3bbe
00000060: fd93 ed3d ff9c 6f3d 4c4a b1bd f91e 933d
00000070: 5012 91be c64e 0cbe d1e5 fdbd ac2a 1f3e
00000080: 50f9 223e 3703 0cbe b5ec 57bd 8b87 00be
00000090: 9242 2cbe 3607 56be 8afc b93c 5366 81bd
000000a0: b3cb 843d 6dba 57bd 25e0 3fbe 2ce4 c6bd
000000b0: 9e64 14bd 817b c23d 3e4c 84bd 5bdc 533d
000000c0: e0bb 003d b07a d5bd 366b 5ebd 4575 22bd
000000d0: 48ac c9bd 8880 d23d 0e70 31be 75e6 f23d
000000e0: 0560 98bc a88e ebbd 2d59 fbbb 9f60 38be
000000f0: 2bf6 3dbe 1f20 d2bd 0419 60bc 5e79 01be

fc2.weight f4 [32, 64]
0.15508454 0.07704099 0.0023479124 0.21969697 0.1380323 -0.16867177 -0.08242368 0.1296143
0.06610049 0.06791638 -0.05268945 0.088239715 -0.17106178 0.045035258 0.039231807 0.079915434
-0.03937152 -0.054709874 -0.08261136 0.045343753 -0.23632455 0.00055261696 0.14203614 -0.021126308
-0.032290567 0.14009455 0.110232234 0.04513043 -0.03567769 -0.011792412 -0.06218235 -0.03453385
0.019623194 0.15094532 0.21515064 0.09087716 -0.1597533 0.038099054 0.18334593 0.09812886
0.118885584 -0.052891005 0.030145206 0.060056288 -0.08033489 0.17990485 0.027779121 -0.0104993805
-0.008068578 0.019964289 -0.0066466364 -0.016020717 -0.0044301366 0.019064132 -0.121344335 0.067776024
0.035962414 0.049528368 0.082139306 0.053101756 -0.075393274 -0.068534255 -0.045711245 -0.08369786
0.15362713 0.031766534 -0.13045073 -0.1354457 0.042501483 0.028128143 -0.036377504 0.0032232376
-0.18774913 0.04070617 -0.05562673 -0.15404844 0.093027644 -0.050931036 0.0063994126 -0.033067055
0.089223206 0.14180301 0.06693352 -0.027801573 -0.14331439 -0.114186265 -0.20595536 -0.056761038
0.06202791 -0.04005156 -0.09711934 -0.102013394 -0.00802306 -0.020184409 -0.038295668 -0.14436342
0.14783669 -0.020719396 -0.18822557 -0.026626531 0.18789253 0.03405844 -0.023814734 -0.02579583
0.046458203 -0.06760762 0.13245349 0.12895526 0.03198036 0.08265311 0.09446488 0.031306136
-0.11913418 -0.104488485 -0.10748368 -0.110795245 -0.21793696 -0.061448205 0.15834093 -0.029308973
-0.048140522 -0.0797168 -0.08523439 -0.10519716 0.044290658 -0.095778376 -0.034787882 -0.08268508
-0.029574405 -0.046867903 -0.109866664 0.02986531 -0.011728679 -0.02519539 -0.11919146 -0.105433606
-0.08524417 0.074712895 0.076697744 -0.21193437 -0.12904 -0.1439335 -0.043320395 -0.073768966
-0.17588651 -0.14226955 -0.09922794 -0.10627659 -0.04629827 0.00062094885 -0.06005508 -0.08923373
-0.18961433 0.09025458 -0.068863936 0.079258814 0.04334026 0.15177518 0.1763484 0.03848554
-0.20532125 -0.058501408 0.0017655627 -0.061768644 0.094418816 0.05259877 -0.06272309 0.069745876
-0.19250405 0.07226147 -0.065190285 -0.1351537 -0.14909242 -0.04581149 0.027865915 0.013323541
-0.17924517 0.07987832 -0.22092442 -0.14250295 0.1430544 0.117601536 -0.006636114 0.16082479
0.10304758 0.12310533 0.096113905 -0.12664388 0.013123909 0.09307522 0.13593897 0.13518037
0.10720429 0.014040384 0.09256995 -0.004138083 -0.089705095 -0.13316676 0.070422 0.037176125
0.12261268 0.026062079 -0.08368166 0.12259798 -0.16410604 0.038336966 -0.08647819 -0.16805819
-0.054016016 -0.07155396 0.104625985 -0.12506665 -0.15270475 -0.018107938 0.14661045 -0.063440986
0.09886181 0.124937154 0.024617363 -0.010904586 -0.004912358 -0.03438592 -0.16860305 0.027317975
-0.1295255 -0.016291378 -0.12994121 0.06988984 -0.121515036 0.035252076 -0.032299317 -0.02240876
0.14208913 0.020971159 -0.08631081 0.067288324 -0.060019817 -0.03626166 -0.15212074 -0.06783445
-0.03842508 -0.05510144 0.022673337 -0.06265325 -0.0699485 -0.15955628 -0.15101553 -0.12026664
0.07554893 0.09994963 -0.007801478 0.12704676 -0.028515197 -0.0070870356 -0.11325785 -0.06996796
00000000: 7bce 1e3e abc7 9d3d 6fdf 193b 3ef8 603e
00000010: 5758 0d3e 4bb8 2cbe bfcd a8bd 9cb9 043e
00000020: b25f 873d be17 8b3d e5d0 57bd 06b7 b43d
00000030: d22a 2fbe e476 383d 88b1 203d b4aa a33d
00000040: 0844 21bd 7617 60bd 2530 a9bd 5fba 393d
00000050: 10ff 71be 7fdd 103a ec71 113e 1411 adbc
00000060: 1d43 04bd f274 0f3e 70c1 e13d b0da 383d
00000070: c522 12bd f634 41bc ebb2 7ebd 5e73 0dbd
00000080: d2c0 a03c 6991 1a3e 7350 5c3e ce1d ba3d
00000090: 5e96 23be c10d 1c3d 09bf 3b3e c9f7 c83d
000000a0: 497a f33d 3da4 58bd 14f3 f63c 95fd 753d
000000b0: 9e86 a4bd fa38 383e 0a91 e33c 9805 2cbc
000000c0: 1232 04bc 268c a33c 07cc d9bb e13d 83bc
000000d0: ae2a 91bb 622c 9c3c 6183 f8bd 28ce 8a3d
000000e0: 534d 133d 42de 4a3d a738 a83d 3a81 593d
000000f0: ca67 9abd b05b 8cbd b73b 3bbd c969 abbd
00000100: 6e50 1d3e a01d 023d e094 05be 47b2 0abe
00000110: 0916 2e3d fe6c e63c 9400 15bd f43c 533b
00000120: 4f41 40be 83bb 263d dbd8 63bd e0be 1dbe
00000130: 4785 be3d 109d 50bd 2ab2 d13b 5271 07bd
00000140: a8ba b63d cf34 113e 7114 893d 20c0 e3bc
00000150: 02c1 12be 7dda e9bd f6e5 52be 437e 68bd
00000160: fa10 7e3d 1b0d 24bd 81e6 c6bd 66ec d0bd
00000170: 2773 03bc c659 a5bc ebdb 1cbd 01d4 13be
00000180: 8062 173e b9bb a9bc 34be 40be e21f dabc
00000190: e666 403e dd80 0b3d 1e17 c3bc c751 d3bc
000001a0: f54a 3e3d dd75 8abd e3a1 073e d90c 043e
000001b0: d7fd 023d 0946 a93d ce76 c13d dd3a 003d
000001c0: 9ffc f3bd 0ffe d5bd 6720 dcbd 9ee8 e2bd
000001d0: de2a 5fbe 1db1 7bbd 2024 223e 5f19 f0bc
000001e0: ff2e 45bd 9042 a3bd 5e8f aebd 9c71 d7bd
000001f0: 1f6a 353d 7427 c4bd bd7d 0ebd cc56 a9bd
00000200: 0646 f2bc 8ff8 3fbd c601 e1bd 18a8 f43c
00000210: a529 40bc 9066 cebc a71a f4bd 93ed d7bd
00000220: 7f94 aebd 1303 993d b513 9d3d 5305 59be
00000230: 1023 04be 4e63 13be ba70 31bd 2f14 97bd
00000240: 981b 34be 1caf 11be 0538 cbbd 8aa7 d9bd
00000250: 41a3 3dbd 2cc7 223a 51fc 75bd 2dc0 b6bd
00000260: 422a 42be 65d7 b83d 8908 8dbd 7252 a23d
00000270: 8e85 313d f46a 1b3e ad94 343e 03a3 1d3d
00000280: bc3f 52be 2c9f 6fbd 746a e73a 1e01 7dbd
00000290: a75e c13d cf71 573d f774 80bd edd6 8e3d
000002a0: c81f 45be d2fd 933d 7c82 85bd bb65 0abe
000002b0: afab 18be d4a4 3bbd 0f47 e43c fb4a 5a3c
000002c0: 0c8c 37be 3f97 a33d 033a 62be 4bec 11be
000002d0: da7c 123e 13d9 f03d c273 d9bb 41af 243e
000002e0: 9c0a d33d a61e fc3d 5ed7 c43d efae 01be
000002f0: aa05 573c 399e be3d 9633 0b3e b96c 0a3e
00000300: ec8d db3d a409 663c 5095 bd3d c298 87bb
00000310: 4eb7 b7bd de5c 08be 6939 903d fe45 183d
00000320: 5b1c fb3d 2480 d53c 4a61 abbd a614 fb3d
00000330: 6a0b 28be 3907 1d3d 7a1b b1bd 7217 2cbe
00000340: e63f 5dbd e28a 92bd 2646 d63d 7911 00be
00000350: a25e 1cbe 1957 94bc 0d21 163e 59ed 81bd
00000360: 1078 ca3d 0ddf ff3d 5aaa c93c 26a9 32bc
00000370: d8f7 a0bb 40d8 0cbd 47a6 2cbe f2c9 df3c
00000380: 55a2 04be 7f75 85bc 4f0f 05be 6822 8f3d
00000390: e0dc f8bd 7b64 103d 4a4c 04bd 9392 b7bc
000003a0: d07f 113e b5cb ab3c b9c3 b0bd 76ce 893d
000003b0: 57d7 75bd 1b87 14bd 8ac5 1bbe caec 8abd
000003c0: 9e63 1dbd 0cb2 61bd 6fbd b93c 5950 80bd
000003d0: 2941 8fbd b962 23be d1a3 1abe 5b4e f6bd
000003e0: 66b9 9a3d 64b2 cc3d 8aa3 ffbb 8c18 023e
000003f0: b498 e9bc 5d3a e8bb bbf3 e7bd 5d4b 8fbd

fc2.bias f4 [32]
0.049792446 -0.0255141 0.04420466 -0.043734424 0.0071569895 0.07669685 -0.18360804 -0.022617567
0.08572802 -0.053614944 -0.01688142 -0.049140166 -0.13613315 -0.13341497 -0.20921546 0.012500372
-0.17823923 -0.02929461 0.0055980566 0.10073736 -0.09832106 -0.13460322 -0.015879905 -0.030586082
0.065662175 0.0061597726 -0.104223266 0.11203485 -0.12921755 0.039850082 0.041191686 -0.01534722
00000000: 2af3 4b3d f202 d1bc f20f 353d de22 33bd
00000010: 2e85 ea3b 3d13 9d3d bf03 3cbe 7a48 b9bc
00000020: 2c92 af3d 589b 5bbd e74a 8abc 3347 49bd
00000030: 7d66 0bbe ef9d 08be 943c 56be 5cce 4c3c
00000040: 5884 36be 40fb efbc e76f b73b 644f ce3d
00000050: 8d5c c9bd 6dd5 09be 9316 82bc aa8f fabc
00000060: e479 863d ebd7 c93b 0273 d5bd 8772 e53d
00000070: 9b51 04be d739 233d 9db8 283d e872 7bbc

fc3.weight f4 [3, 32]
0.04896913 -0.14285228 -0.06334006 0.008757285 0.10515811 -0.11991452 -0.14546248 0.064743534
0.18618536 -0.044527665 0.16819237 -0.0021870038 -0.020336496 0.09264005 -0.022764051 0.040003184
0.06587797 0.09105354 0.19294184 0.025247011 0.12982497 0.06656961 -0.17246594 -0.009835674
-0.043114226 0.08160415 -0.037822686 0.01647211 -0.20563842 -0.15627931 -0.26354346 -0.1156606
-0.14363998 -0.16834971 0.17643331 -0.14874744 0.09046768 -0.16235298 -0.07247773 -0.09068709
-0.122088194 -0.02313311 0.017260622 0.03224943 0.1372432 -0.05255352 0.21599716 -0.108456865
0.16113307 -0.11524534 -0.067032285 0.33030182 -0.056967974 0.1868303 -0.05965297 0.07681213
-0.06494608 -0.069262296 0.15529351 -0.16092345 0.09166796 0.0010989866 -0.1475315 0.09458834
-0.15230249 0.1258202 -0.18168063 -0.14802216 0.09384803 -0.1223555 -0.015757382 0.14986451
-0.04030448 0.06196957 0.10389934 -0.1140551 0.24338982 -0.034253035 -0.13957949 0.15301749
0.06297019 0.15380484 -0.042450037 -0.15609471 -0.019823544 -0.09151441 -0.10746146 0.10649274
-0.1701547 0.13285828 0.1969597 -0.02749505 -0.1820578 0.09547497 0.030783445 -0.08435995
00000000: db93 483d de47 12be 6fb8 81bd b77a 0f3c
00000010: 235d d73d be95 f5bd 1ef4 14be 4298 843d
00000020: 60a7 3e3e a462 36bd 9f3a 2c3e d653 0fbb
00000030: b998 a6bc 11ba bd3d ad7b babc 61da 233d
00000040: 07eb 863d 477a ba3d 8c92 453e d2d2 ce3c
00000050: d6f0 043e a655 883d e99a 30be cf25 21bc
00000060: 8b98 30bd 1420 a73d f6eb 1abd 85f0 863c
00000070: e192 52be af07 20be 2bef 86be 77df ecbd
00000080: 5c16 13be de63 2cbe efaa 343e 4051 18be
00000090: 1e47 b93d dc3f 26be 346f 94bd 27ba b9bd
000000a0: 6009 fabd a681 bdbc 2666 8d3c fa17 043d
000000b0: 7b89 0c3e 5c42 57bd 5c2e 5d3e a21e debd
000000c0: 1100 253e c005 ecbd 3948 89bd 521d a93e
000000d0: 4057 69bd 7150 3f3e ac56 74bd ae4f 9d3d
000000e0: 7302 85bd 64d9 8dbd 4305 1f3e 1ec9 24be
000000f0: 69bc bb3d df0b 903a 7f12 17be 88b7 c13d
00000100: 2ff5 1bbe 03d7 003e 7d0a 3abe 1f93 17be
00000110: 6533 c03d 8595 fabd a015 81bc 1576 193e
00000120: 4f16 25bd ced3 7d3d 2dc9 d43d b895 e9bd
00000130: 2e3b 793e e94c 0cbd eded 0ebe 9eb0 1c3e
00000140: 84f6 803d 047f 1d3e 17e0 2dbd 4bd7 1fbe
00000150: fc64 a2bc e86b bbbd c114 dcbd de18 da3d
00000160: 093d 2ebe 000c 083e ceaf 493e 4d3d e1bc
00000170: 5c6d 3abe 6288 c33d 902d fc3c e9c4 acbd

fc3.bias f4 [3]
-0.07794456 0.052431237 0.03154738
00000000: 66a1 9fbd 23c2 563d d337 013d

onnx::GRU_210 f4 [1, 384, 2]
0.29249883 -0.016517065 -0.03351253 -0.12239673 0.23281866 -0.27561805 -0.11758304 -0.17044936
0.045866374 0.007843684 0.10494176 0.0994594 0.21888798 0.09663839 0.2183218 -0.028147696
-0.050027538 -0.030057875 -0.11891327 -0.12913947 -0.05480787 0.0155438455 -0.08300249 0.035288285
-0.000107451124 -0.011874557 0.08478856 0.08197482 -0.1613021 -0.112667784 -0.13645405 0.100690655
0.045501985 0.09994996 -0.008726067 -0.34851718 -0.18572105 -0.07449165 -0.07617394 -0.16329262
-0.25422168 0.06906691 -0.1227379 -0.06290156 -0.033606824 0.013858203 0.0636397 0.19150631
0.122912 -0.19143626 0.057781305 0.013201768 0.030197788 -0.077107295 0.20273246 -0.03480974
0.13252594 -0.15453301 -0.082437314 -0.23121734 0.025213001 -0.033149138 0.23824632 -0.18204747
0.06890376 -0.16273504 -0.023897344 -0.05611893 -0.17568403 -0.1360249 -0.18308625 0.005009304
-0.09343606 0.06515754 0.0020069554 0.19752856 -0.10296504 -0.004454138 0.0066103195 -0.07921871
-0.23015815 -0.09946164 0.074195646 0.028671969 -0.052572478 0.1422615 -0.03781136 -0.045278583
0.10152847 0.2198819 -0.07458013 -0.094534434 -0.08924536 0.014111306 -0.26838183 -0.18403402
0.089559145 -0.098180994 0.08296548 0.062139887 0.04068669 0.040292595 -0.006904987 -0.16333261
-0.08854317 0.19543177 0.102061585 -0.21505308 0.10735726 0.076521955 0.007188847 -0.19258882
0.10270699 0.3221839 -0.12235486 0.13303055 0.156135 0.07495701 -0.020265311 -0.029809378
0.030984523 0.30053347 -0.26831576 -0.0597486 -0.07509235 -0.06165605 -0.08530995 -0.2920657
-0.03164751 -0.20288295 0.04193712 0.19409 -0.018998887 -0.25379902 -0.32605842 -0.13785017
-0.27799663 -0.19614865 0.11508214 -0.27925217 0.08030703 -0.21402875 0.2064447 -0.09310604
-0.09878455 -0.097313315 0.1197435 -0.2323553 -0.117590405 0.17319553 9.000942e-05 -0.17272596
-0.14095077 -0.087307155 0.17656486 0.12443705 -0.12448788 0.08352836 -0.1847312 0.0578724
-0.101630285 -0.05862123 0.046872582 0.09609082 0.09197774 0.0376467 -0.18183175 -0.19342606
0.03031007 -0.28146425 -0.17633471 -0.13466007 -0.14284582 -0.12384703 0.106015325 -0.10190271
-0.052866656 -0.020475794 -0.056858227 -0.0070476807 0.007333795 -0.23066445 -0.113649 -0.14120716
0.037492216 -0.24199148 0.045428813 -0.20017497 0.12517732 0.31491482 -0.09316664 -0.15303609
0.13299605 -0.022008117 0.20867139 0.025404362 -0.134269 -0.23437268 -0.1546174 0.14497264
0.038559675 -0.083532736 -0.07328314 -0.1820837 -0.04787308 0.09832827 -0.0668575 -0.052458845
0.026382383 0.06913007 -0.14414552 -0.0895459 -0.029405417 -0.13758314 -0.0046364125 -0.25700784
0.012237642 -0.307874 0.15303344 -0.10769905 -0.3588647 -0.16565801 -0.008179997 -0.05916615
0.19441758 -0.15498218 -0.07307578 0.036927607 0.15840584 0.23312338 0.13162312 -0.08924184
0.07012465 -0.049199667 -0.04491739 -0.085746355 0.17100014 0.13059852 0.11171164 0.0068300087
-0.2076874 -0.050295103 -0.07032761 -0.21351704 0.44828722 -0.069769725 0.07285131 0.019942343
0.014271479 -0.11574831 0.03371777 0.023077007 -0.008950675 -0.053645544 0.056355406 0.030593462
00000000: 68c2 953e cc4e 87bc 6f44 09bd 23ab fabd
00000010: 0468 6e3e cf1d 8dbe 60cf f0bd 478a 2ebe
00000020: 61de 3b3d cc82 003c b5eb d63d 5fb1 cb3d
00000030: 2c24 603e 59ea c53d c08f 5f3e ff95 e6bc
00000040: ade9 4cbd ef3b f6bc cd88 f3bd 233d 04be
00000050: 387e 60bd 9dab 7e3c 36fd a9bd 738a 103d
00000060: 6257 e1b8 808d 42bc a0a5 ad3d 6ae2 a73d
00000070: 612c 25be 5ebe e6bd 9cba 0bbe e736 ce3d
00000080: 4a60 3a3d 91b2 cc3d c7f7 0ebc d870 b2be
00000090: a92d 3ebe 148f 98bd 1501 9cbd 2e36 27be
000000a0: 5829 82be f472 8d3d 025e fbbd 88d2 80bd
000000b0: 4fa7 09bd 840d 633c 8855 823d 3b1a 443e
000000c0: 49b9 fb3d de07 44be 17ac 6c3d 3a4c 583c
000000d0: 5a61 f73c 6eea 9dbd 1999 4f3e a894 0ebd
000000e0: e1b4 073e e73d 1ebe e5d4 a8bd 3dc4 6cbe
000000f0: 7f8b ce3c 64c7 07bd d8f6 733e a76a 3abe
00000100: 6a1d 8d3d 04a4 26be 5dc4 c3bc f7dc 65bd
00000110: 84e6 33be 1d4a 0bbe f67a 3bbe 1625 a43b
00000120: 685b bfbd 5171 853d 2087 033b ed44 4a3e
00000130: 56df d2bd 05f4 91bb 619b d83b 6b3d a2bd
00000140: 94ae 6bbe 8bb2 cbbd e3f3 973d 7ae1 ea3c
00000150: 3d56 57bd 00ad 113e 16e0 1abd 0976 39bd
00000160: 29ee cf3d b928 613e 78bd 98bd 459b c1bd
00000170: 45c6 b6bd 1b33 673c 5869 89be 6a73 3cbe
00000180: c96a b73d 1e13 c9bd cee9 a93d 6586 7e3d
00000190: 16a7 263d d909 253d 3b43 e2bb aa40 27be
000001a0: 1f56 b5bd 441f 483e aa05 d13d e036 5cbe
000001b0: 20de db3d 8bb7 9c3d 6b90 eb3b 0136 45be
000001c0: 0b58 d23d 4af5 a43e 2f95 fabd 2939 083e
000001d0: dae1 1f3e 1083 993d 7003 a6bc cc32 f4bc
000001e0: 41d3 fd3c 86df 993e af60 89be f3ba 74bd
000001f0: 05ca 99bd 0e8b 7cbd fcb6 aebd a389 95be
00000200: d2a0 01bd 8cc0 4fbe 42c6 2b3d 87bf 463e
00000210: 8ea3 9bbc f2f1 81be 21f1 a6be 9828 0dbe
00000220: 9355 8ebe 31db 48be 2fb0 eb3d 24fa 8ebe
00000230: 0378 a43d 5a2a 5bbe 3d66 533e 61ae bebd
00000240: 8e4f cabd 344c c7bd 153c f53d 8cee 6dbe
00000250: 3dd3 f0bd 2b5a 313e 70c3 bc38 13df 30be
00000260: 6655 10be 18ce b2bd 6bcd 343e dad8 fe3d
00000270: 80f3 febd eb10 ab3d 2d2a 3dbe 9c0b 6d3d
00000280: 8a23 d0bd d11c 70bd 77fd 3f3d 44cb c43d
00000290: d35e bc3d 6d33 1a3d 1a32 3abe 7b11 46be
000002a0: d34c f83c 151c 90be 1691 34be 54e4 09be
000002b0: 2d46 12be 83a3 fdbd 901e d93d 5eb2 d0bd
000002c0: b58a 58bd dabc a7bc 2ce4 68bd 3bf0 e6bb
000002d0: 5550 f03b 4d33 6cbe cfc0 e8bd 9c98 10be
000002e0: 7091 193d 9dcc 77be 9013 3a3d abfa 4cbe
000002f0: 7c2e 003e 843c a13e 27ce bebd 7eb5 1cbe
00000300: 1e30 083e 5e4a b4bc f4ad 553e cf1c d03c
00000310: d07d 09be 64ff 6fbe 0654 1ebe b573 143e
00000320: c0f0 1d3d 3613 abbd 7915 96bd 2674 3abe
00000330: 9016 44bd 5560 c93d 96ec 88bd 16df 56bd
00000340: de1f d83c 1194 8d3d e29a 13be d763 b7bd
00000350: a1e3 f0bc 98e2 0cbe 0ced 97bb 8896 83be
00000360: 6480 483c a9a1 9dbe ccb4 1c3e 5291 dcbd
00000370: 1dbd b7be 41a2 29be 6505 06bc 3458 72bd
00000380: 6715 473e a6b3 1ebe c1a8 95bd 6741 173d
00000390: 2435 223e e5b7 6e3e 36c8 063e 6dc4 b6bd
000003a0: 839d 8f3d 9785 49bd 4cfb 37bd c99b afbd
000003b0: a91a 2f3e 9ebb 053e 13c9 e43d 44ce df3b
000003c0: 01ac 54be 3d02 4ebd ec07 90bd 36a4 5abe
000003d0: e785 e53e 6ee3 8ebd 1133 953d 205e a33c
000003e0: ecd2 693c 730d edbd a51b 0a3d fe0b bd3c
000003f0: daa5 12bc 6ebb 5bbd edd4 663d 249f fa3c

onnx::GRU_211 f4 [1, 384, 128]
-0.0026788323 -0.042685688 0.27007264 -0.089346625 0.14548998 -0.07569335 -0.1660342 -0.0403696
-0.12888607 -0.11890135 -0.14659242 0.08768553 0.20425576 -0.17437421 0.17414871 0.1047245
-0.15496477 -0.06291289 0.11087885 0.11124906 0.09857419 0.1716691 -0.04434377 -0.12809424
0.0612249 0.15058829 -0.17841654 -0.083239056 0.042700563 0.105590895 0.039329153 0.104032844
0.047719397 -0.044265453 -0.20805982 0.24833477 0.06670581 -0.11464099 0.17813414 -0.18668164
0.16279973 0.11307331 -8.9782814e-05 0.1163441 0.1487349 0.10390684 -0.06774031 -0.24089147
-0.14075388 -0.053513706 0.033740006 0.049189262 -0.056152936 -0.08802712 0.09925607 0.13826527
-0.1609783 0.02534854 0.28807673 -0.022789076 0.09897998 0.14876714 0.30030197 -0.20007917
0.19545463 0.15021478 0.19951642 -0.08957011 -0.21016961 0.082412094 0.016786149 -0.047670256
-0.051206805 -0.006204844 0.08970825 0.151083 0.16356315 -0.07344284 0.07378405 -0.03625322
-0.06175317 -0.18205985 -0.036454476 0.16368568 -0.00075403997 0.13765144 -0.25874823 -0.13402271
-0.20287749 -0.121099554 -0.10960065 -0.07056144 0.09675259 -0.13713329 -0.13829157 -0.05353034
0.10734218 -0.058726788 -0.18878198 0.13930863 0.0887788 0.1336784 0.04933826 -0.08399024
-0.049001515 -0.15434685 0.18485704 0.15398966 -0.3151164 0.05544158 0.036593486 0.11313475
0.28539303 -0.073837556 0.13935901 0.11120473 -0.10797873 0.17894502 -0.08781816 0.043026563
0.10291489 0.04131352 0.09807043 0.15127052 -0.031063706 0.00095902116 0.2876711 0.057831462
0.08506671 -0.057594795 -0.08596849 0.009938114 -0.16274315 -0.05150227 0.12582245 -0.009099779
0.07010081 0.093311094 0.03480302 -0.24860208 -0.07059894 0.17800952 -0.24095069 -0.0036896667
0.04619977 0.12335027 -0.11270874 0.06972227 0.110834606 -0.20750578 0.0057133147 -0.017011154
0.23550357 -0.096501306 -0.0035261516 0.2506139 -0.011202605 0.011787544 0.2322728 0.09751753
-0.1519297 -0.01370412 -0.061826784 0.00077290187 -0.061785724 0.16709611 -0.07545909 0.15917505
-0.044372823 -0.07278282 0.13021603 -0.04025872 -0.12922075 -0.11331695 0.2550793 0.22976813
0.11644446 -0.010630938 -0.013924492 0.034981977 -0.07866537 -0.06098442 -0.13701618 0.05191748
0.1293809 0.011274756 -0.16465563 0.0527876 0.16898993 -0.059552282 -0.07975243 -0.11104465
0.06599765 0.07523685 -0.11566644 0.080352575 0.11369163 0.106377766 0.08791037 0.12980114
0.0432339 -0.0009384443 -0.12103287 -0.29449254 -0.09962518 0.09042167 0.0313619 0.0027247043
0.051594652 0.20166168 -0.050770737 -0.13319843 -0.046902306 0.056695886 0.05745153 0.072029784
0.2220951 0.17938416 0.165452 0.035276886 0.067192435 -0.07082959 0.040345978 -0.10647982
-0.14578237 0.098260105 0.1274295 -0.019538289 0.05807925 -0.17578013 0.018101383 -0.039209884
0.21077062 0.097731024 -0.166161 -0.17744164 0.2619898 0.053669542 -0.08364024 -0.019751618
-0.054466598 -0.22079615 0.08561873 -0.05769311 0.08749155 -0.15268758 0.06901865 -0.085221715
-0.12774527 -0.07364646 -0.10638305 0.0171506 0.08914581 0.05380169 -0.017087348 -0.07669613
00000000: 598f 2fbb 30d7 2ebd f646 8a3e 5dfb b6bd
00000010: 53fb 143e 1d05 9bbd df04 2abe 985a 25bd
00000020: b6fa 03be 8d82 f3bd 531c 16be 7994 b33d
00000030: 6c28 513e 278f 32be 0a54 323e cc79 d63d
00000040: 16af 1ebe 79d8 80bd 7314 e33d 8cd6 e33d
00000050: 44e1 c93d 06ca 2f3e d0a1 35bd 232b 03be
00000060: f6c6 7a3d d133 1a3e d3b2 36be 3d79 aabd
00000070: c9e6 2e3d 0a40 d83d 9b17 213d 2c0f d53d
00000080: 6a75 433d b14f 35bd a20d 55be 784b 7e3e
00000090: 0e9d 883d e5c8 eabd cc68 363e 7929 3fbe
000000a0: f9b4 263e fb92 e73d c849 bcb8 d145 ee3d
000000b0: f64d 183e 1ccd d43d 6fbb 8abd 41ac 76be
000000c0: c921 10be 3031 5bbd f632 0a3d ae7a 493d
000000d0: 9f00 66bd 9047 b4bd c446 cb3d 6995 0d3e
000000e0: 7fd7 24be bea7 cf3c cb7e 933e 28b0 babc
000000f0: 04b6 ca3d 6a56 183e 2ec1 993e 8ee1 4cbe
00000100: 4225 483e e7d1 193e 084e 4c3e 8970 b7bd
00000110: b436 57be acc7 a83d 1b83 893c e341 43bd
00000120: 3abe 51bd 0152 cbbb f5b8 b73d 80b5 1a3e
00000130: 197d 273e 3369 96bd 181c 973d 427e 14bd
00000140: e4f0 7cbd e66d 3abe 4a51 15bd 389d 273e
00000150: c4aa 45ba 80f4 0c3e a67a 84be 403d 09be
00000160: 1ebf 4fbe 0b03 f8bd 4e76 e0bd 8482 90bd
00000170: 3926 c63d ab6c 0cbe 4e9c 0dbe a142 5bbd
00000180: 38d6 db3d 808b 70bd 1050 41be eca6 0e3e
00000190: a9d1 b53d fee2 083e ea16 4a3d 1303 acbd
000001a0: d0b5 48bd 1a0d 1ebe 2a4b 3d3e 77af 1d3e
000001b0: f056 a1be b616 633d 0de3 153d 31b3 e73d
000001c0: 091f 923e 2538 97bd 21b4 0e3e 4ebf e33d
000001d0: f423 ddbd 5d3d 373e 02da b3bd 9f3c 303d
000001e0: 0bc5 d23d 5e38 293d 26d9 c83d a9e6 1a3e
000001f0: 5079 febc d266 7b3a a049 933e afe0 6c3d
00000200: 7537 ae3d 85e8 6bbd 3f10 b0bd 79d3 223c
00000210: 24a6 26be 0bf4 52bd 9ad7 003e 3d17 15bc
00000220: 0391 8f3d e319 bf3d 9d8d 0e3d 8b91 7ebe
00000230: 2d96 90bd 2148 363e c7bb 76be 56ce 71bb
00000240: f83b 3d3d 119f fc3d d7d3 e6bd 8dca 8e3d
00000250: 41fd e23d 657c 54be c236 bb3b fa5a 8bbc
00000260: d927 713e 7aa2 c5bd 0217 67bb 7750 803e
00000270: 228b 37bc 8b20 413c ecd8 6d3e 45b7 c73d
00000280: 7693 1bbe 3f87 60bc 153e 7dbd 919c 4a3a
00000290: 0713 7dbd 3e1b 2b3e 4c8a 9abd c9fe 223e
000002a0: 47c0 35bd 290f 95bd 5a57 053e 54e6 24bd
000002b0: 7252 04be b812 e8bd c199 823e 5648 6b3e
000002c0: 6f7a ee3d 632d 2ebc 8d23 64bc 4349 0f3d
000002d0: 4f1b a1bd cdca 79bd f84d 0cbe 6ca7 543d
000002e0: 6d7c 043e c1b9 383c 7c9b 28be cf37 583d
000002f0: b20b 2d3e 18ed 73bd 3e55 a3bd 616b e3bd
00000300: c729 873d c715 9a3d 87e2 ecbd e48f a43d
00000310: 28d7 e83d 96dc d93d 5a0a b43d 97ea 043e
00000320: 0816 313d ee01 76ba 15e0 f7bd bac7 96be
00000330: 4908 ccbd ff2e b93d 5675 003d f490 323b
00000340: ea54 533d 6680 4e3e faf4 4fbd 2b65 08be
00000350: a21c 40bd f239 683d 4c52 6b3d 5a84 933d
00000360: e66c 633e 7bb0 373e 406c 293e 7f7e 103d
00000370: 309c 893d 1b0f 91bd d341 253d 1812 dabd
00000380: f947 15be 983c c93d e17c 023e c30e a0bc
00000390: 82e4 6d3d b5ff 33be 5a49 943c 8b9a 20bd
000003a0: 41d4 573e 3427 c83d 1c26 2abe 43b3 35be
000003b0: 8723 863e 98d4 5b3d 934b abbd 25ce a1bc
000003c0: 5e18 5fbd 6318 62be df58 af3d 9c4f 6cbd
000003d0: c52e b33d 225a 1cbe a659 8d3d b988 aebd
000003e0: a8cf 02be f5d3 96bd 5bdf d9bd 6a7f 8c3c
000003f0: 1492 b63d 295f 5c3d c4fa 8bbc dc12 9dbd

onnx::GRU_212 f4 [1, 768]
-0.0470471 -0.09107181 -0.0038933624 -0.05048809 -0.026632147 0.03870018 0.09521257 0.018848542
-0.18306468 -0.31064254 0.074585296 0.09554871 0.0046886085 0.066926755 -0.15726765 -0.010852904
0.17019263 -0.046721898 -0.15223213 -0.020310963 -0.050526366 -0.003503832 -0.054305915 0.15058453
0.073151484 -0.19232188 0.0030090595 0.17102279 -0.033087984 -0.09641086 0.009289139 -0.016423704
-0.08946416 -0.041075062 -0.16599944 -0.042037327 -0.10004889 -0.10624941 -0.21864903 -0.013744165
-0.3014909 0.13545005 0.031429075 0.07151339 0.08339468 0.030932134 0.19493414 -0.18150994
0.045613047 -0.047022108 0.052510306 0.029669067 0.079124026 -0.0492946 -0.06146604 0.057882365
0.09560068 -0.022550924 -0.11412698 0.035867803 0.17822695 -0.21628536 -0.21988262 -0.112595424
0.084099956 0.12047316 -0.061916586 -0.21468864 -0.27208415 -0.10789651 0.04212997 -0.09222822
0.029373486 0.009802706 0.033545095 -0.100317344 -0.2724963 0.05851033 -0.10982526 -0.053327646
-0.15663175 0.12182619 0.13794722 -0.092109025 0.009066717 -0.18492918 -0.12790707 -0.02413813
-0.06839362 0.009179102 -0.1639925 -0.1025487 -0.10967815 -0.044961322 0.19160156 -0.07414593
-0.061478555 0.06950668 -0.2215212 -0.07156211 -0.15326974 -0.1445822 -0.091103494 -0.09988546
0.030640936 -0.09230291 -0.20712021 -0.14005224 -0.25956863 0.0002677656 -0.31794217 -0.080256395
-0.14141457 0.007076223 0.11249318 -0.18461344 -0.14217836 0.08422952 0.23224197 -0.04756914
-0.14603813 -0.08442486 0.06433224 -0.06489904 -0.053580098 0.08213931 -0.116369106 0.059009165
-0.036727533 -0.08541961 -0.2627073 -0.0017448943 -0.024946023 -0.18448102 -0.3031105 -0.10571965
0.026727378 0.054206092 -0.069077976 -0.07452757 -0.045032896 -0.11809591 -0.060248397 -0.2729812
-0.11220408 -0.04781631 -0.050317835 -0.054982074 -0.13001789 0.030001866 -0.12103871 0.009513656
-0.018774899 -0.063207366 -0.069524854 -0.06513256 -0.14188062 -0.221896 -0.087110676 -0.11812644
-0.15699369 -0.09978035 -0.01724041 -0.24684599 -0.120551094 -0.13825257 0.0719303 -0.114708014
-0.038112614 -0.008335833 -0.063141406 -0.17991382 -0.264405 -0.18400888 -0.048852853 -0.017132265
-0.030646963 -0.03666432 -0.19020267 -0.2635699 -0.08177065 -0.1298823 -0.0714136 -0.076589584
-0.1433384 -0.18259557 -0.16541104 -0.063106395 -0.11177592 -0.057669364 -0.039480418 -0.2379344
-0.13824788 -0.15506324 -0.0407639 -0.05379041 -0.18176438 -0.09505824 -0.14738855 -0.14166602
-0.014346546 -0.13710324 0.04883523 -0.15611494 -0.021720722 -0.1160132 -0.0918717 -0.10381532
-0.026036266 -0.13523607 -0.20049383 -0.056513622 -0.06954791 -0.11535812 -0.0290951 -0.019076314
-0.044098973 -0.10139909 -0.1517505 -0.11947876 -0.048164878 -0.08915179 -0.16720933 -0.13284817
-0.15297912 0.018962106 -0.02046952 -0.1888089 -0.117845304 -0.10406192 0.060459998 -0.035612587
-0.013965482 -0.15873687 0.034594312 0.10943162 0.016059926 0.018326923 -0.11250603 -0.032242846
-0.015475461 -0.1383519 -0.11168552 -0.07196846 0.053716112 0.011815151 -0.09965332 0.004105384
-0.050434884 -0.15862305 0.094099015 0.078515604 0.027786644 -0.06341217 0.062906265 -0.05356239
00000000: 76b4 40bd db83 babd c827 7fbb 99cc 4ebd
00000010: a92b dabc 1484 1e3d cffe c23d 4268 9a3c
00000020: 4f75 3bbe 8a0c 9fbe 2dc0 983d 0baf c33d
00000030: e6a2 993b e510 893d c50a 21be 61d0 31bc
00000040: fa46 2e3e 765f 3fbd bde2 1bbe 2d63 a6bc
00000050: bcf4 4ebd 8ca0 65bb e16f 5ebd d532 1a3e
00000060: 72d0 953d 07f0 44be a433 453b 9920 2f3e
00000070: 4487 07bd 0f73 c5bd 7931 183c 018b 86bc
00000080: fc38 b7bd 533e 28bd c2fb 29be 552f 2cbd
00000090: 6fe6 ccbd 4a99 d9bd 88e5 5fbe 352f 61bc
000000a0: 045d 9abe 6bb3 0a3e c6bb 003d 9d75 923d
000000b0: d4ca aa3d 6365 fd3c d19c 473e bedd 39be
000000c0: bfd4 3a3d 419a 40bd 0c15 573d 8b0c f33c
000000d0: c70b a23d 22e9 49bd d0c3 7bbd 0f16 6d3d
000000e0: 4aca c33d b7bc b8bc 68bb e9bd 1eea 123d
000000f0: 2081 363e e979 5dbe e928 61be 6e98 e6bd
00000100: 993c ac3d a2ba f63d 3f9c 7dbd 57d7 5bbe
00000110: 9d4e 8bbe d8f8 dcbd 7a90 2c3d 26e2 bcbd
00000120: aaa0 f03c 879b 203c 9566 093d 2e73 cdbd
00000130: a384 8bbe 87a8 6f3d 11ec e0bd 176e 5abd
00000140: 1364 20be 0280 f93d 0942 0d3e a8a3 bcbd
00000150: 918c 143c 135e 3dbe 12fa 02be 54bd c5bc
00000160: f411 8cbd f263 163c a6ed 27be 0e05 d2bd
00000170: f09e e0bd 5d29 38bd 3333 443e d2d9 97bd
00000180: f0d0 7bbd 8559 8e3d 74d6 62be 288f 92bd
00000190: bef2 1cbe 5b0d 14be 7894 babd c090 ccbd
000001a0: b302 fb3c 4f09 bdbd 5217 54be db69 0fbe
000001b0: 2ee6 84be e462 8c39 51c9 a2be 775d a4bd
000001c0: fbce 10be a9df e73b d362 e63d 4e0b 3dbe
000001d0: 3497 11be 8780 ac3d d7d0 6d3e dcd7 42bd
000001e0: 058b 15be f1e6 acbd 9fc0 833d cae9 84bd
000001f0: ce76 5bbd a838 a83d ed52 eebd 98b3 713d
00000200: 9c6f 16bd 7af0 aebd 9281 86be f0b4 e4ba
00000210: 9a5b ccbc 98e8 3cbe 4d31 9bbe 8b83 d8bd
00000220: 60f3 da3c 3507 5e3d c178 8dbd e9a1 98bd
00000230: 6a74 38bd 45dc f1bd 06c7 76bd 31c4 8bbe
00000240: 41cb e5bd 09db 43bd 131a 4ebd e234 61bd
00000250: 6923 05be 79c6 f53c 25e3 f7bd 2adf 1b3c
00000260: d1cd 99bc dd72 81bd 0c63 8ebd 3864 85bd
00000270: 2749 11be b438 63be 1567 b2bd 46ec f1bd
00000280: f4c2 20be a459 ccbd c33b 8dbc 32c5 7cbe
00000290: 7ee3 f6bd 1592 0dbe 3150 933d 09ec eabd
000002a0: f91b 1cbd 0593 08bc 4850 81bd 543b 38be
000002b0: 1860 87be d36c 3cbe ee19 48bd f758 8cbc
000002c0: 570f fbbc 532d 16bd 7dc4 42be a2f2 86be
000002d0: 5f77 a7bd deff 04be 4b41 92bd 00db 9cbd
000002e0: 4dc7 12be 55fa 3abe 8361 29be ed3d 81bd
000002f0: c6ea e4bd b636 6cbd 38b6 21bd 13a5 73be
00000300: da90 0dbe e6c8 1ebe 0cf8 26bd 5553 5cbd
00000310: 7120 3abe e5ad c2bd 06ed 16be e610 11be
00000320: c60d 6bbc cb64 0cbe 7307 483d 98dc 1fbe
00000330: a8ef b1bc 5498 edbd 3b27 bcbd 209d d4bd
00000340: 024a d5bc 537b 0abe 414e 4dbe d47a 67bd
00000350: 226f 8ebd e140 ecbd d958 eebc ee45 9cbc
00000360: 20a1 34bd 53aa cfbd 7c64 1bbe 48b1 f4bd
00000370: 8948 45bd 3795 b6bd ec38 2bbe 5a09 08be
00000380: 8fa6 1cbe 6b56 9b3c b2af a7bc 1f57 41be
00000390: e158 f1bd 6a1e d5bd e7a4 773d 81de 11bd
000003a0: 7acf 64bc eb8b 22be c4b2 0d3d af1d e03d
000003b0: 1b90 833c 5822 963c 9069 e6bd 1311 04bd
000003c0: ca8c 7dbc 1fac 0dbe 61bb e4bd 3364 93bd
000003d0: 6d05 5c3d 5694 413c 0a17 ccbd 7586 863b
000003e0: cf94 4ebd 156e 22be fcb6 c03d cacc a03d
000003f0: d1a0 e33c 3dde 81bd 00d5 803d 3d64 5bbd
