rock_paper_scissors_model.onnx (onnx, 500316 bytes, 20 tensors)

batchnorm1.weight f4 [20]
000000 b6 32 75 3f be d3 84 3f 69 9a 7d 3f 92 4f 79 3f
       0.95780504 1.0377119 0.99063736 0.9738704
000010 15 f9 6f 3f fe f3 80 3f 61 a8 5b 3f c4 34 5c 3f
       0.93739444 1.007446 0.858038 0.86018014
000020 d7 b3 71 3f 56 f7 60 3f 3f 49 56 3f 03 91 66 3f
       0.9441504 0.87877405 0.83705515 0.9006502
000030 bc 19 7c 3f 8d b1 87 3f 2d 70 7e 3f 92 6b 69 3f
       0.9847677 1.0601059 0.99389917 0.91179764
000040 e4 a2 83 3f 45 de 6f 3f 4b 5e 80 3f 20 83 55 3f
       1.0284085 0.9369853 1.0028776 0.83403206

batchnorm1.bias f4 [20]
000000 10 53 16 3d 19 22 1e 3d dd 85 4e bd 08 28 1f bc
       0.03670031 0.038606737 -0.05042063 -0.009714134
000010 13 6a be bc 90 e1 15 3e a3 07 66 bc 1f 0b 10 3e
       -0.02324394 0.14636827 -0.014039907 0.14066742
000020 3d 0a d7 3d 4f 1c ef 3d a3 c2 01 3e c7 5a 20 3e
       0.105 0.11675321 0.12671904 0.15659629
000030 3f 1f da 3b 20 13 82 3c 37 07 4d bd 63 67 b3 bc
       0.006656557 0.01587826 -0.05005571 -0.021899885
000040 a5 24 38 bd be d9 09 be 95 40 ac bd d3 db 28 3c
       -0.044956822 -0.13461968 -0.084107555 0.010306316

batchnorm1.running_mean f4 [20]
000000 cb 1c bc 3a 87 51 0f 3b 09 ce 17 3b f0 4b fb 3a
       0.0014351843 0.0021868662 0.0023163578 0.0019172411
000010 d6 1a eb 3a 50 4b cd 3a eb ee c3 3a 6a 2f c5 3a
       0.0017937075 0.0015662704 0.0014948522 0.0015044038
000020 5d a4 e9 3a 8c 85 e8 3a a0 fc f2 3a d5 63 e6 3a
       0.0017825473 0.0017739995 0.0018538423 0.001757736
000030 f2 51 df 3a ab e3 df 3a 0a 50 e1 3a b2 99 d5 3a
       0.0017037971 0.00170814 0.0017189991 0.0016296415
000040 9e 80 f1 3a 08 83 11 3b e5 30 17 3b 9c d8 14 3b
       0.0018425172 0.0022203345 0.0023069915 0.0022712117

batchnorm1.running_var f4 [20]
000000 e6 92 73 3a 3d 9c cf 3a 4e e0 f6 3a 66 88 0d 3b
       0.0009291604 0.0015839409 0.0018835159 0.0021596192
000010 84 3e 1a 3b 4c ed 20 3b 84 d0 1e 3b 04 3d 22 3b
       0.0023535797 0.0024555502 0.0024233172 0.0024755606
000020 e1 48 25 3b e2 7c 28 3b 4d ad 2a 3b b3 f7 2b 3b
       0.0025220441 0.0025709202 0.0026043237 0.002624017
000030 dc 61 32 3b a0 21 34 3b 65 e8 31 3b c3 8e 33 3b
       0.0027218973 0.0027485862 0.0027146575 0.0027398325
000040 9c 07 36 3b eb 5e 38 3b 84 71 40 3b 59 da 42 3b
       0.0027775532 0.0028132747 0.0029364536 0.0029732196

batchnorm2.weight f4 [64]
000000 ae 03 79 3f e9 59 7e 3f 07 ad 76 3f 00 e7 77 3f
       0.9727124 0.9935594 0.9635777 0.96836853
000010 c2 6f 72 3f e2 b4 6b 3f 3c 65 91 3f 9a b7 7b 3f
       0.9470178 0.9207288 1.1359019 0.9832703
000020 7c b3 80 3f aa a7 80 3f 0c 0f 7e 3f 50 e4 83 3f
       1.0054774 1.0051167 0.9924171 1.030405
000030 5a d7 84 3f c1 59 79 3f a5 7e 82 3f 6b 72 80 3f
       1.037822 0.9740258 1.0194899 1.0034918
000040 7e b9 81 3f f2 5c 7a 3f 08 28 8d 3f 15 8f 7c 3f
       1.0134733 0.97798073 1.1027842 0.98655826
000050 f5 aa 7c 3f cc 77 82 3f 27 7a 85 3f 12 a3 6d 3f
       0.9869836 1.0192809 1.0427903 0.9282695
000060 8e dc 7f 3f 9f 33 7b 3f 2f 22 95 3f ae 62 82 3f
       0.99945915 0.9812564 1.1651057 1.0186365
000070 2b c4 80 3f 07 ba 8d 3f eb e5 80 3f aa 4b 70 3f
       1.0059866 1.1072396 1.0070165 0.93865454
000080 f1 67 69 3f 65 84 77 3f ea a1 83 3f 80 47 86 3f
       0.91174227 0.96686393 1.0283787 1.049057
000090 5b bf 7c 3f 0c 3e 83 3f a6 76 7e 3f c9 b0 82 3f
       0.98729485 1.025331 0.99399793 1.02102
0000a0 63 ec 6d 3f d9 0e 79 3f 79 3d 77 3f 6c 47 85 3f
       0.9293882 0.9728828 0.96578175 1.0412421
0000b0 60 71 73 3f 6f be 69 3f fd 3a 72 3f 46 83 82 3f
       0.9509487 0.91306204 0.9462126 1.0196311
0000c0 55 64 82 3f b7 4b 81 3f b9 76 59 3f 45 6f 86 3f
       1.0186869 1.0101231 0.8494678 1.0502707
0000d0 7c 26 75 3f 5d f8 72 3f b8 bf 88 3f d4 9c 75 3f
       0.9576185 0.9491022 1.0683508 0.95942426
0000e0 7d f3 76 3f 56 21 88 3f 6c ec 8d 3f 96 93 6f 3f
       0.96465284 1.0635173 1.1087775 0.93584573
0000f0 c0 b4 73 3f 00 9f 7f 3f cd 57 6f 3f 26 b5 74 3f
       0.9519768 0.9985199 0.9349335 0.9558891

batchnorm2.bias f4 [64]
000000 a1 14 bc 3d d9 1a f3 bd d3 2d 93 3d 7e d8 60 3d
       0.09183622 -0.11870355 0.07186475 0.054893963
000010 78 4e 1d be 42 e4 44 bc 10 ba 9e bd 52 91 0a bd
       -0.15361965 -0.0120173115 -0.07750332 -0.033829994
000020 a5 87 d5 3b bb 39 58 bd e6 df 92 3d a9 10 1c bd
       0.006516414 -0.05278943 0.071716115 -0.038101826
000030 a9 09 ae 3c 57 1d fe bd be 4b ec 3a 45 3a 3a bd
       0.02124484 -0.1240794 0.0018027944 -0.045465726
000040 95 14 be 3d a3 9e 15 be 6b a7 87 bd 11 4f da 3d
       0.092812695 -0.14611296 -0.06623729 0.10659612
000050 82 61 86 bd 28 13 40 bd 38 f3 e7 bd 56 ba 79 bc
       -0.06561567 -0.04689327 -0.11325687 -0.01524218
000060 e1 f5 44 bd 4d 38 3f bd 4c 81 95 3d 8c c2 03 be
       -0.04808605 -0.046684552 0.07300052 -0.12867182
000070 2f ce 91 3d 66 0c 02 be b1 9f 4e bd 75 d3 37 bd
       0.071194045 -0.12700042 -0.050445262 -0.044879396
000080 4a 0c a8 3d 18 5e 13 3e ba e4 3b be 35 c8 1f be
       0.08205469 0.14391363 -0.18348971 -0.15603717
000090 61 b9 e9 3d d8 f7 57 3c d0 67 9c 3d 47 1f 44 bd
       0.11412311 0.013181649 0.07636988 -0.04788139
0000a0 3d c9 5e 3d 5c 82 18 bc 44 ba 1d bd 51 11 e8 3b
       0.054391135 -0.009308424 -0.038507715 0.0070821424
0000b0 86 12 1e 3e cb 12 6e 3c 42 8f 14 bd 81 45 62 3c
       0.15436754 0.014530848 -0.036269434 0.013810516
0000c0 8c d7 bc 3d 88 c6 69 3d 6c 09 8e 3c ea 58 fc bc
       0.092208 0.0570741 0.017338477 -0.030804116
0000d0 55 dc 62 3d a3 94 00 bd de 23 7d bc a5 90 c1 bd
       0.055385906 -0.03139175 -0.015450446 -0.09451417
0000e0 44 dd b3 bb 87 bb bf 3c 3e b4 ab 3d 6f 6b 14 3c
       -0.0054890234 0.02340485 0.08383988 0.009058817
0000f0 5c 98 3c 3d e9 c1 fb bb be b9 69 bc 18 d2 d0 bd
       0.04604374 -0.007683028 -0.014265476 -0.10196322

batchnorm2.running_mean f4 [64]
000000 37 04 c7 3d 96 12 db be ff 43 f9 be 6e 35 28 bf
       0.09717601 -0.42787617 -0.4868469 -0.6570653
000010 c5 86 75 be fb db 04 be 04 25 ea be 24 f8 93 be
       -0.23977192 -0.12974541 -0.45731366 -0.28900254
000020 24 b1 41 3b 9e f9 55 be fa 54 02 3e 36 f0 ca 3e
       0.0029555047 -0.20896003 0.12727728 0.3963639
000030 ac e3 e3 3e fa e2 be 3e 16 ef 8e 3e 70 1c ee be
       0.44509637 0.37282544 0.27916783 -0.4650607
000040 ec a9 e1 3e b1 9e 37 3d 9b c6 f9 bd c0 a3 6b be
       0.44074953 0.044829074 -0.12196084 -0.23011684
000050 f1 5b c5 3e 2d 50 70 bd dc 73 f9 3e e6 98 28 be
       0.38546708 -0.05867021 0.48721206 -0.16464576
000060 40 20 d6 3e f2 72 b8 3e 6d 2c c5 3c e3 7f b7 3d
       0.4182148 0.36025196 0.024069035 0.08959939
000070 6b 4c 9a 3e ea 39 34 bd 0d d3 11 3e 80 06 21 3e
       0.30136427 -0.044000544 0.14240666 0.15725136
000080 3e 80 01 be 32 79 c2 3d 1c 96 e0 be 88 73 47 3e
       -0.12646577 0.094957724 -0.43864524 0.19477665
000090 48 4b e4 3e a7 c8 f3 bd dd ee 93 3c 14 be a3 3e
       0.44588685 -0.11903506 0.018058235 0.31980956
0000a0 2b bc a8 3e df 65 7f 3e 22 6b 50 3e 31 ce 71 bd
       0.3295606 0.24941204 0.20353368 -0.05903453
0000b0 be 6f 4c be 11 84 bd 3e f4 1a e1 bb ed f3 8b 3c
       -0.19964501 0.3701482 -0.006869668 0.017084086
0000c0 0a e9 e3 3e 85 4e 09 3e d8 64 51 3e 67 49 25 be
       0.44513732 0.13408859 0.20448625 -0.16141282
0000d0 b8 ee 46 3d 51 61 e3 3e d0 d1 17 ba 54 af b7 3c
       0.048567504 0.44410184 -0.00057914574 0.02242247
0000e0 f8 d1 ae be aa 9c 84 3e d8 96 a6 3e 66 38 ac 3d
       -0.34144568 0.25900775 0.3253696 0.08409195
0000f0 bf 1c 23 3f 52 f1 2c 3e 35 47 79 bd cd d8 0f 3e
       0.6371574 0.16888931 -0.060858924 0.14047547

batchnorm2.running_var f4 [64]
000000 85 b6 5a 3d db 7e 41 3e ad f5 5e 3e 08 cf 1f 3e
       0.05339672 0.18896048 0.21773405 0.1560632
000010 e1 5a 3f 3e ef 7f 94 3d 2b 7e 76 3e 1f ba a7 3d
       0.18687011 0.07250964 0.24071567 0.08189797
000020 bc 92 5d 3e f7 eb c4 3d 9c 79 b9 3d 75 b8 2f 3e
       0.21638006 0.09615319 0.09056398 0.17160209
000030 03 76 36 3e 29 c0 5b 3e 3a 50 40 3e 0d 7d d1 3d
       0.17818455 0.21460022 0.18780604 0.1022893
000040 9e c1 f4 3d f5 5e 44 3d 2e e3 84 3d 69 41 8f 3e
       0.11950992 0.04794212 0.064886436 0.2797959
000050 94 4f d3 3d 1a 77 a6 3d ea 19 ba 3d 64 5c b4 3d
       0.10317913 0.081281856 0.09086974 0.088066846
000060 bf 8c ed 3d 36 ea 93 3d f6 81 06 3e aa fb 5f 3c
       0.11599111 0.072224066 0.13135514 0.013670841
000070 80 f2 bc 3d df 44 f9 3d ff 56 3e 3d 41 e8 90 3d
       0.09225941 0.12171339 0.046469685 0.07075549
000080 47 9c eb 3d 3a 4c 2e 3e d7 8d fa 3d 54 88 af 3d
       0.11504417 0.17021266 0.12234085 0.085709244
000090 99 92 5c 3e 90 08 7d 3d c6 31 61 3d f9 64 f5 3d
       0.21540298 0.061775744 0.05497911 0.1198215
0000a0 7c a4 be 3d 84 68 2d 3e c1 48 bb 3d 3c b8 2f 3d
       0.09308717 0.16934401 0.09144736 0.04290031
0000b0 04 0a fc 3d 61 87 0d 3e eb 8a 86 3d f3 20 8c 3d
       0.12306598 0.13821174 0.06569465 0.06842222
0000c0 c7 c6 07 3e 2e cd 7a 3e 1f 5a 93 3d 8e 83 07 3e
       0.13259421 0.24492332 0.071949236 0.13233778
0000d0 cc 63 59 3d e7 74 05 3e f3 7a 16 3d a6 7a 25 3d
       0.05307369 0.13032876 0.036738347 0.04040017
0000e0 36 d9 ed 3d 87 00 70 3d 04 ae 2f 3e 58 e0 c0 3d
       0.11613695 0.058594253 0.17156225 0.0941779
0000f0 03 4e 11 3e 6f f1 d8 3d 7e 6d 16 3d bf e4 3e 3d
       0.14189915 0.10592925 0.036725514 0.046604868

fc1.weight f4 [64, 64]
000000 ec 13 12 3d 4e 55 b5 bc 59 4e d7 3d 3c 4e d0 3d
       0.03566353 -0.022135403 0.105129905 0.10171172
000010 eb c2 8c bd 56 6b 01 3e ab 2b d7 3d 58 83 83 3d
       -0.06873115 0.12638602 0.10506376 0.06421536
000020 c5 9d 42 3e 93 6a 24 be f1 23 ed 3c 27 ac d8 3d
       0.19005497 -0.1605628 0.028947802 0.105797105
000030 bf e1 83 bd 43 cd a4 bd d0 3a 17 be bb b8 fd bd
       -0.06439542 -0.08046963 -0.14768529 -0.1238875
000040 eb 8e 13 be 65 18 04 be cf 49 56 be 51 0b 1d 3d
       -0.14409988 -0.12899931 -0.20926593 0.03834087
000050 ef 5e 3d bd 52 a8 03 3c 22 c9 3d bd ee 79 00 3d
       -0.046233114 0.008035736 -0.046334393 0.03136628
000060 1e 55 c2 3d e6 5b 32 ba 1f c9 e7 bc 76 6f 78 3b
       0.09488891 -0.0006803855 -0.028294144 0.0037908233
000070 13 cb 99 3d 6b 46 49 bd 5a 78 3c bc d1 65 91 bd
       0.075094365 -0.04913942 -0.011503303 -0.07099498
000080 02 bc 29 3c 33 d0 0e 3d 0c c0 ef 3d b3 13 12 3e
       0.010359766 0.034866523 0.11706552 0.14265327
000090 eb 18 21 bc c8 74 0d be f7 d5 42 bd b6 4c 13 3c
       -0.009832601 -0.1381408 -0.047567334 0.008990457
0000a0 fd 8a 11 3e 6a 63 6c bd 3e a0 c5 3c bd 0b 1b be
       0.14213176 -0.057711996 0.024124261 -0.15141197
0000b0 e0 75 0c 3e 0b 3a 64 bd 3f 06 04 be 6d e0 9a 3d
       0.1371684 -0.055719417 -0.12893008 0.07562337
0000c0 1c 53 2d 3e 3a eb b4 3c 86 11 9c bd 6c 01 00 be
       0.16926235 0.022084821 -0.0762053 -0.12500542
0000d0 6f 4d f7 3d 31 ac 7f 3d d0 50 09 3d 1a 94 8d bd
       0.12075316 0.062420074 0.033524334 -0.06913014
0000e0 28 b5 b6 bd bf 62 39 3d 45 5f 3f 3e f6 a0 9b bc
       -0.089212716 0.045260187 0.18688686 -0.01899765
0000f0 68 5f 00 be a7 ff a2 bd bf 21 9a 3d 44 23 97 3d
       -0.12536395 -0.07958918 0.07525968 0.07379773
000100 51 10 90 bd 03 65 46 3a 9d 2f 3b be bb e7 6a 3d
       -0.07034362 0.00075681525 -0.18279882 0.0573499
000110 0d 38 ae bc ab a8 c4 3d f6 fe ec 3d d8 36 48 3d
       -0.021266961 0.09602483 0.115720674 0.048880428
000120 d5 32 47 be a2 04 88 3d f1 7e cd 3d c6 42 7f 3d
       -0.19452985 0.06641509 0.10033978 0.06231954
000130 b3 1e 1b 3d 80 6d 85 3d cf ba b6 bd 41 cc 53 3c
       0.037871074 0.06515026 -0.0892235 0.012927116
000140 8b cf a5 bc 65 69 cf 3d 19 26 a6 3c e9 d0 d6 bd
       -0.020240566 0.10127524 0.020281838 -0.10489065
000150 a9 8d df bd a9 73 9e bd f7 a4 41 3e 8f f3 61 bc
       -0.109156914 -0.07736904 0.18910585 -0.013790979
000160 35 f8 4c bb 5a e1 d2 3b 56 bc 2c bd c0 20 1a 3e
       -0.0031275873 0.0064355554 -0.0421718 0.15051556
000170 39 a3 16 be ea c6 a4 bd 84 31 8f bd 8a 70 db 3d
       -0.14710702 -0.08045752 -0.06991866 0.107148245
000180 4d 2c 03 bd 39 85 a3 3d a9 2c 84 3d 8c 16 08 be
       -0.03202467 0.079843946 0.06453831 -0.13289851
000190 15 78 9b 3d da 9e 2a 3e 4e 80 10 be c3 f6 46 3c
       0.07591263 0.1666216 -0.14111444 0.0121437935
0001a0 69 bd aa bd 2b 06 a7 3d 4c 6c c4 bc a1 48 37 3d
       -0.08336908 0.08155473 -0.023977421 0.044747
0001b0 73 dd ba bd fc 69 1c be 3c 42 49 3d 64 0f 99 3d
       -0.09124269 -0.15274805 0.04913543 0.07473639
0001c0 51 24 b3 3b 46 24 ba bd b1 d1 f4 bd ce 82 37 3e
       0.0054669757 -0.0908895 -0.11954058 0.17920992
0001d0 e7 01 37 be b5 33 d7 bd 27 62 6d 3d 5b 6a 5e bc
       -0.1787182 -0.10507909 0.057954933 -0.013575162
0001e0 a3 79 03 3c 63 0d 80 be fd 33 c5 3c b0 44 f5 bd
       0.008024606 -0.25010213 0.024072642 -0.11975992
0001f0 ec 3e f7 bd f2 a9 e9 bc c8 9d 87 bc 5c a7 72 3d
       -0.12072548 -0.028523419 -0.016554728 0.059241638
000200 87 b2 69 3c 49 0b cd 3d a0 79 a3 bc 4b d6 3a be
       0.014263756 0.10011918 -0.019955456 -0.18245809
000210 ac db 52 3c 9c 56 03 bd e0 e5 0a 3d 81 c1 1a be
       0.012869757 -0.03206502 0.033910632 -0.15112878
000220 92 b8 64 3c 87 97 e6 bc f2 ff 27 3d 4f 5f 0c be
       0.013960021 -0.028148426 0.041015573 -0.13708232
000230 a9 34 02 3a 7c 32 3f 3d 4c 0b 10 bb 6e 86 1f 3d
       0.00049669534 0.046679005 -0.002197939 0.03894656
000240 65 c9 ec 3c eb 71 66 3d dd f2 c1 bd 7f 8e 89 3c
       0.028904626 0.056260984 -0.094701506 0.01679158
000250 8b 5f e2 bc 59 16 ed 3d 46 95 23 3c 56 9e 36 3d
       -0.027633449 0.11576528 0.00998432 0.044584595
000260 52 22 0c bc 6c 87 3a 3e 7b d5 bf bd cc 36 1b bd
       -0.0085531045 0.18215722 -0.0936689 -0.037894055
000270 5a 24 9e bd 06 88 ed 3c dc e0 31 bd db 1c d8 3c
       -0.07721777 0.028995525 -0.043427333 0.026380947
000280 a6 1a 4d 3d f3 93 76 bd b4 64 21 bd 89 62 4a 3d
       0.050074242 -0.06019969 -0.03940268 0.049410377
000290 38 da cc bd 40 d2 b2 bd 90 9c b0 3b 10 de 14 3e
       -0.100025594 -0.08731508 0.0053897575 0.14537835
0002a0 9a 85 78 3c 4d 81 dd 3d 7c 73 52 bd ab 47 19 be
       0.015168572 0.10815678 -0.051379666 -0.14968745
0002b0 55 ee b2 3d 99 8e 2a 3e 7b b5 41 bd bc f5 0d 3c
       0.087368645 0.16655959 -0.047292214 0.008664545
0002c0 97 39 d8 bd 76 69 94 bd 69 cd 3f bc 51 6e 84 bd
       -0.105578594 -0.072466776 -0.011706688 -0.06466354
0002d0 b7 10 0f bc 3b 57 62 bd 9c c9 0c bd 7e f4 d1 b9
       -0.0087320125 -0.05525897 -0.034371957 -0.00040045747
0002e0 de 3a 53 3c 70 e9 1f 3e ba a6 00 be 04 b0 0a 3e
       0.012892453 0.15616393 -0.12563601 0.13543707
0002f0 c3 92 d2 3d fb ae ce bd da 42 9c 3d 15 0e 0d 3e
       0.10281899 -0.100919686 0.076299384 0.13774903
000300 22 3c 28 3d f8 2b 8e 3d d6 07 75 3d e3 b7 b0 3d
       0.041072972 0.0694198 0.059821926 0.086288236
000310 96 c4 c9 3d 98 df b2 3d 58 00 ed 3d 0e 40 66 3c
       0.09851949 0.087340534 0.11572331 0.014053358
000320 6d ed f7 3d 35 01 1c 3c 9e 6a 1b be 9f b7 49 3d
       0.12105832 0.009521772 -0.1517739 0.04924738
000330 01 64 7e 3d c8 6e 1f 3e dd 22 4b bd 0b 74 a9 bc
       0.06210709 0.15569603 -0.049593795 -0.020685216
000340 bb 47 36 be 67 9e cf 3d 84 d3 17 3e 64 c6 8e 3d
       -0.178008 0.10137635 0.1482678 0.06971434
000350 70 f8 db 3d 66 b8 66 3d e1 d0 22 be 8a 33 e4 b9
       0.10740745 0.0563282 -0.15899993 -0.00043525948
000360 c5 d3 bc 3d a3 b9 a5 3d 3a 83 af bd e2 21 69 bd
       0.09220079 0.08092048 -0.08569951 -0.05691708
000370 82 df 27 be b2 00 63 bd 6d 68 02 3c a6 35 83 bc
       -0.16393855 -0.055420585 0.007959467 -0.016016793
000380 43 2f 1b bd fc 38 1d be 3f 3a 74 bc e2 2d 2b 3e
       -0.03788687 -0.15353769 -0.014906465 0.16716722
000390 5b 11 53 be 31 85 5e bd d9 89 2d 3e 69 48 e9 3d
       -0.2061209 -0.05432624 0.16947116 0.11390764
0003a0 2c 70 e0 3d da fe 48 be 36 63 33 bd 2b b5 92 bd
       0.10958895 -0.19628468 -0.043795787 -0.07163461
0003b0 ac ad f9 3c 83 2a 03 3d b5 c3 81 bd 4c c6 e0 3d
       0.030478321 0.032022964 -0.06336156 0.10975322
0003c0 87 4e c1 bd 05 d9 42 bd d4 68 62 3d b9 26 b7 bc
       -0.09438806 -0.047570247 0.055275753 -0.022357332
0003d0 e5 76 30 bd f1 a1 bb 3c 4d a0 5d be 05 6c 78 bd
       -0.043082137 0.022904368 -0.21643181 -0.06064989
0003e0 da 6b 27 be 4c 36 bd bc 4e b0 20 be ad 62 c0 3d
       -0.16349736 -0.02309718 -0.15692255 0.09393821
0003f0 d7 95 96 3d 91 33 73 3d f5 92 8f ba b5 d9 b6 bd
       0.073527984 0.05937535 -0.0010953831 -0.08928243

fc1.bias f4 [64]
000000 e1 07 a4 bd 28 30 a7 3d 8c 61 de bd f6 3c de bc
       -0.08009315 0.08163482 -0.10858449 -0.027128678
000010 9c 3c 2a 3d 16 f4 45 be f3 2b fa bd 15 cb 94 bb
       0.041561708 -0.19331393 -0.12215414 -0.004540811
000020 e3 99 a5 bd eb fb 58 be 6c 2a 6f 3d 97 cc 0e 3e
       -0.08085992 -0.21189849 0.058390066 0.13945232
000030 95 d4 4f bd 12 0e c2 bd bb c9 83 bd 99 33 e5 ba
       -0.050739843 -0.0947534 -0.064349614 -0.0017486691
000040 80 65 80 3e 9d 43 41 3d fb 15 a6 ba ab 03 e4 3c
       0.25077438 0.04718362 -0.0012671346 0.02783378
000050 60 d0 83 be 5b d6 48 be de 9b 48 bd b9 9e f3 3b
       -0.25744915 -0.1961302 -0.04897677 0.0074346927
000060 bb 41 0f 3d 68 4c 2e be 83 8d c2 bd 39 75 15 3d
       0.034974795 -0.17021334 -0.094996475 0.036488745
000070 7e 97 ca 3b 44 73 44 bb 54 b3 10 be 50 7d 99 3d
       0.00618261 -0.002997593 -0.14130908 0.074946046
000080 a6 03 30 3e 6c cb 80 be 61 83 4c 3e ac 11 ac 3c
       0.17188892 -0.251552 0.19971992 0.02100452
000090 32 7a 46 bd 64 9a 4d be 00 45 16 be af 99 77 bd
       -0.04845638 -0.20078427 -0.14674759 -0.0604493
0000a0 76 d0 8e bd 4f 7f 77 be 8a bc 7c bb 78 0e f6 3d
       -0.069733545 -0.24169658 -0.0038564526 0.120144784
0000b0 02 c1 39 be 72 d1 b7 3c 7b 18 6f bc 6c cb a8 bd
       -0.18140033 0.022438738 -0.014593239 -0.08241925
0000c0 76 61 4e bd 34 38 6c bd 8c 1e 98 3d cc b1 3c be
       -0.050385915 -0.057670787 0.07427701 -0.18427199
0000d0 12 e9 f5 3d ab 01 8f bc e7 73 31 bd 44 02 cf bd
       0.12007345 -0.01745685 -0.043323424 -0.10107854
0000e0 1e a7 79 3c c3 ca 01 3d 22 f4 40 be bb 8e 78 bc
       0.015237598 0.03168751 -0.1884313 -0.015170748
0000f0 42 d5 62 3d f4 f9 06 be 3a c9 19 3d 43 b0 6a 3c
       0.05537916 -0.13181287 0.03754542 0.014324251

fc2.weight f4 [32, 64]
000000 c9 e2 31 3c 83 c6 9d bd 2a 49 6e 3d e1 a0 b3 bd
       0.010857292 -0.07703879 0.058175243 -0.087709196
000010 0d 8d d3 bd e9 fd f7 b9 81 0e 8c 3b 97 b4 54 3d
       -0.10329638 -0.0004730069 0.00427419 0.051930036
000020 cb 4f 17 bd fb b7 0d be ab 0b 9f 3d fb 10 dd bd
       -0.03694133 -0.13839714 0.07765897 -0.107942544
000030 6a f7 0a 3d a5 d9 b5 3c 4e fe 6a 3d bb fc a7 bd
       0.03392736 0.022198508 0.05737143 -0.082025014
000040 92 ff b5 3c 84 37 ae bd 41 cb 01 be 70 5f 0d bd
       0.022216592 -0.085066825 -0.12675191 -0.034514844
000050 a9 6a 8a bc 16 a7 d7 3c 6a 86 bd bd 5d 5c c2 bd
       -0.016896563 0.02632479 -0.09254153 -0.09490273
000060 bb db e0 bd 77 f7 d1 b9 cb a1 c1 bd 14 d3 67 3c
       -0.1097941 -0.00040047962 -0.09454688 0.014149446
000070 de d8 f4 3d 79 09 99 bd 85 37 65 3d ba ac 44 3d
       0.11955427 -0.0747251 0.05596115 0.048016287
000080 67 b5 86 3c 83 9d 6c 3d 68 66 ef bd c5 a0 cf bc
       0.016443921 0.057767402 -0.11689454 -0.025345216
000090 eb 9c b0 bd 81 e2 11 be 8c cb 8d bd 7d 1d 7c bd
       -0.0862368 -0.1424656 -0.06923589 -0.06155156
0000a0 a6 a7 ae bc cb 16 92 bd 20 36 a9 bd f9 6c 0d be
       -0.021320175 -0.07133254 -0.08262277 -0.13811101
0000b0 eb 35 6d bd e9 5c a4 3b 87 38 0b be cb 84 04 bc
       -0.05791275 0.0050159586 -0.13595782 -0.008088301
0000c0 d3 4f 02 bd a8 23 2d bd c1 5a e0 3c 6e 1d 03 bd
       -0.031814408 -0.042270333 0.027387025 -0.03201049
0000d0 d9 96 5a bc 3e f2 82 3c 39 dd 79 bc 4b 15 ad bd
       -0.013341629 0.01598465 -0.0152504975 -0.08451327
0000e0 48 92 8f bd 1f 41 82 3d 3b c9 c8 3d 06 88 f8 bd
       -0.07010323 0.06360077 0.09804007 -0.121353194
0000f0 d6 17 b7 3d 00 54 56 3c 6c 85 bb 3c c5 de 0e be
       0.08940093 0.013081551 0.022890769 -0.13952167
000100 50 ba ad bd 1a 04 59 bd 77 35 55 3d f2 96 b1 bd
       -0.08482802 -0.052982427 0.05205294 -0.08671369
000110 bf 49 f2 bc 57 05 bd 3d 1a ac 2f 3e 24 8e 7e 3c
       -0.02957618 0.09229534 0.17155495 0.015536819
000120 0c a0 0d be b5 2c 4d bd f6 2d ee 3d d7 b5 83 3c
       -0.13830584 -0.050091464 0.1162986 0.016077919
000130 9e e8 c8 3c f4 e1 25 be 77 e6 ee 3d 2b f5 22 bd
       0.024524983 -0.16199476 0.116650514 -0.03978459
000140 0b 74 11 3d 10 e4 ed bb 60 15 e0 3d 8e eb cb 3d
       0.035511058 -0.007259853 0.10941577 0.09957038
000150 a0 74 93 bd 1e 54 56 3d 65 a9 d7 bd ac da a1 3d
       -0.07199979 0.052326314 -0.10530356 0.079030365
000160 e9 b8 ea bd 38 2d fb 3d b8 b3 93 bc 9a 4f b4 bd
       -0.1146105 0.12264484 -0.018030033 -0.08804245
000170 5c f6 cb 3d d7 67 a1 3d 22 7a 13 be 8b 63 8f bd
       0.09959099 0.07881134 -0.14402059 -0.07001408
000180 9e a7 12 be 6a fb a2 bd 9d b5 4b 3d f9 ab 22 3c
       -0.14321753 -0.0795811 0.049733747 0.009928697
000190 c3 71 97 3c 5a 8e 8b bd 3e fb 93 3d c6 25 e4 bc
       0.018486863 -0.06814261 0.07225655 -0.027850043
0001a0 a1 0b d9 3d 82 92 69 bc 22 f8 f0 3d 24 e4 bb 3d
       0.10597921 -0.014256122 0.117660776 0.09174374
0001b0 79 13 f6 3d d4 c9 ba bd a9 7f 0b 3e ad 22 c4 3d
       0.12015433 -0.09120527 0.13622917 0.095769264
0001c0 46 18 0d 3e d1 3c bc bd c5 93 94 3d 7c 67 0b 3d
       0.13778791 -0.09191287 0.07254747 0.034034237
0001d0 fc be ef 3b 98 39 0d be 0e 09 a2 3d ed 84 e3 bd
       0.0073164683 -0.13791502 0.07911883 -0.11109338
0001e0 63 e9 34 be ed 70 6f 3c b9 6c 3a bd 52 8a c0 bc
       -0.17667155 0.014614326 -0.045513842 -0.023503456
0001f0 fb 19 de ba e4 b6 b2 3c 63 29 8a bd de b6 ab 3d
       -0.0016944999 0.021815725 -0.06746175 0.083844885
000200 62 e5 88 bd 4a 0c 5b 3d 3c 54 12 be 54 07 7b bd
       -0.06684376 0.053478517 -0.14289945 -0.061286286
000210 3a 58 b5 bd 60 c0 77 3d 2e b5 70 be 2c 8c a9 bd
       -0.088547185 0.060486197 -0.23506615 -0.08278689
000220 38 ce b1 3d e3 33 08 3d 26 8d 31 be fc 3f 11 be
       0.08681911 0.033252608 -0.17339 -0.14184564
000230 03 db 15 3c f6 38 ff bb 03 b1 6e 3c 09 61 28 bd
       0.009146455 -0.0077887727 0.01456857 -0.041108165
000240 57 88 75 bd c0 90 d8 bd 76 aa 96 bd 5c c0 a0 bd
       -0.059944477 -0.10574484 -0.073567316 -0.0784919
000250 cc 93 38 bd 9d 34 f7 3d ac 35 ec bd b8 32 38 bd
       -0.045062825 0.12070582 -0.115336746 -0.044970244
000260 39 72 d1 bd 50 cd 25 be 71 6e 9a bd 6a d9 f6 bd
       -0.10226864 -0.16191602 -0.07540596 -0.12053187
000270 a2 e4 ae bc b2 f1 f5 bd 23 51 63 3c 4e d8 aa 3d
       -0.021349255 -0.1200899 0.013874325 0.08342038
000280 b6 73 9b 3d a2 16 64 3d db 79 39 be 37 e8 3b bd
       0.075904295 0.055685647 -0.1811289 -0.045875754
000290 d7 20 fb 3d 0f 93 e8 3b b1 18 d6 3c ef 14 80 3b
       0.12262123 0.007097609 0.02613482 0.0039087455
0002a0 e8 ba 38 be 52 8e be bd 34 b5 12 bd 35 e1 4d bc
       -0.18040049 -0.09304489 -0.03581734 -0.012565901
0002b0 7a a4 f1 bd d3 e5 45 bb f4 38 76 bd 8c b4 18 3d
       -0.117989495 -0.00301968 -0.06011291 0.037281558
0002c0 93 a1 c0 bd da 43 2d be 8b fd df bd 8f bf 2a be
       -0.09405818 -0.16920415 -0.10937031 -0.16674636
0002d0 74 93 ee bd a5 95 bb bc f0 19 a2 bd 19 bf 9b bc
       -0.11649218 -0.022898505 -0.079151034 -0.01901202
0002e0 15 a9 6e 3d 2a ee 4a 3d 05 bb 08 bd 33 f5 06 be
       0.058266718 0.049543537 -0.03338148 -0.13179474
0002f0 ff e7 0a be 83 d2 3d 3d 05 91 a8 bc b8 07 12 bd
       -0.13565062 0.046343338 -0.020576963 -0.035651892
000300 38 52 59 bd 81 64 c2 3d 78 cd dc 3d bc 16 a9 3d
       -0.053056926 0.09491826 0.107813776 0.08256289
000310 db c4 09 bc 52 52 b9 3d 9c f5 b9 bc 5f d1 43 3d
       -0.00840875 0.090489045 -0.022700123 0.047807094
000320 c3 32 e2 bd 1d 98 a4 bd 7d 03 22 be e7 2e 16 3c
       -0.11044838 -0.08036826 -0.15821643 0.009166456
000330 0a 77 05 be 40 85 09 3d 7f b9 b8 bd 8b 8b bf bd
       -0.13033691 0.033574343 -0.090197556 -0.093527876
000340 86 e2 af 3c 35 ee d4 3d b7 62 62 bd a3 76 bf bd
       0.02147032 0.10396997 -0.055269923 -0.093488
000350 6a 20 66 bc e3 ee 9e 3d bd 92 50 bd 12 dd ad bb
       -0.014045814 0.07760408 -0.05092119 -0.0053058947
000360 d6 9b 42 bd b4 36 75 bd c9 b6 80 3d 97 1c 09 bd
       -0.047511898 -0.059866622 0.062848635 -0.03347453
000370 94 fe b4 3b 95 8e 85 bd ce 81 5a bd 99 2e 42 bd
       0.005523512 -0.06521336 -0.053346448 -0.04740772
000380 7d 53 9c bd 6c e8 b8 bc 1c 92 99 bc 06 f0 a9 bb
       -0.076331116 -0.022571765 -0.018746428 -0.0051860837
000390 3e 07 98 bd da 76 81 3d 6e 8a 9e bd 88 70 e7 3b
       -0.07423256 0.06321497 -0.07741247 0.0070629753
0003a0 78 3e cc 3c d1 09 83 bd ab 88 55 bc 90 0e a2 bc
       0.024932131 -0.06398357 -0.013033072 -0.019782335
0003b0 f9 fd e7 bd 1b b7 a3 bd a5 c4 2a bd e9 56 bb 3d
       -0.11327738 -0.07993909 -0.04169144 0.09147436
0003c0 bb da 47 3b 3e 8d 14 3d b1 92 b2 3d a9 fd de 3c
       0.0030495364 0.03626751 0.087193854 0.027220564
0003d0 63 d6 84 bd 30 60 fa bc 5e d5 f0 3d 99 cd 81 3d
       -0.064862035 -0.030563444 0.117594466 0.06338043
0003e0 5e 8a 8f bd 39 34 d6 bc b4 09 cb bd 5a 3d c8 bd
       -0.07008813 -0.026147949 -0.0991396 -0.09777327
0003f0 4d 8d e0 bd 57 9a 1e bd 20 c4 12 be e6 b6 f3 3c
       -0.10964451 -0.03872141 -0.14332628 0.029750299

fc2.bias f4 [32]
000000 f8 46 24 bd 91 f8 38 bd 82 84 e2 bd 9d 4e c8 bd
       -0.040106744 -0.045158926 -0.1106043 -0.09780619
000010 12 bd bb 3d 02 63 cc bd 83 e4 60 bc 49 c7 27 be
       0.09166922 -0.09979822 -0.013726356 -0.16384615
000020 57 9d ca bd 26 be b7 bd 4b 56 d7 bd dd 20 34 3e
       -0.098932914 -0.08971815 -0.10514506 0.17590661
000030 83 c4 82 bc 1f a8 83 bd 2d 94 f2 3d db d0 c9 3d
       -0.015962845 -0.06428551 0.118446685 0.09854289
000040 d8 d4 08 3d bb 4c 3e bd c8 0f 7f 3d 58 fa a4 bd
       0.03340611 -0.046459895 0.06227091 -0.08055562
000050 a5 df 71 bb d6 a9 3f 3c f8 18 6f 3d e3 c0 b8 3d
       -0.0036906984 0.011698207 0.05837342 0.09021165
000060 f5 63 08 3e 1c 7f 46 bd 56 ce ed bd cf 25 ad 3d
       0.1331938 -0.048461065 -0.11611621 0.08454477
000070 25 c8 66 be 17 c9 d5 bc b4 a4 2d 3d 72 b2 03 be
       -0.22537287 -0.026096864 0.0423934 -0.1286104

fc3.weight f4 [3, 32]
000000 d9 d6 49 3d e8 f4 71 3d db 8e 37 bd 1c a6 8b 3d
       0.04927716 0.05907145 -0.044813972 0.06818792
000010 19 1d f9 bd 7a f9 92 3d 59 36 aa 3c dc fe 27 be
       -0.12163753 0.0717649 0.020777868 -0.16405815
000020 2e 3c 1e be 68 4f 55 3e e3 17 ef 3d 46 b4 e1 bc
       -0.15452644 0.20831072 0.11674478 -0.027551781
000030 c2 c4 bd bd 15 97 a6 3b 0a 81 c7 bd 3e ff 07 bc
       -0.09266044 0.0050839284 -0.09741409 -0.008300601
000040 76 9d d8 bc 6f f7 99 3d 7a 39 c4 3d b3 cd 9d 3c
       -0.02644227 0.07517897 0.09581275 0.019263124
000050 a1 98 e9 3c 19 5a f3 3c 7c 38 74 3d ef 37 92 3d
       0.028515162 0.029706048 0.05962418 0.07139575
000060 70 de 1a 3e f8 23 ef bd 14 a8 c5 bd f4 73 fe bd
       0.15123916 -0.11676782 -0.09651199 -0.1242446
000070 4b ee 32 be bb 5c f6 bd 1b 87 24 3e b3 0a e6 3d
       -0.17473714 -0.12029406 0.16067164 0.112325095
000080 07 2c cb 3c af c4 e0 3d b9 29 5c 3c 90 ac 08 3c
       0.024801267 0.109750144 0.013437682 0.008341923
000090 af 21 35 3d 9a dd 82 3e 6d d0 0e be f7 51 ba bd
       0.044221576 0.25559694 -0.13946696 -0.09097665
0000a0 42 56 8b 3d 68 18 2b bd c4 2d 11 3e 0c 64 7f 3d
       0.06803562 -0.041771322 0.14177614 0.06235127
0000b0 75 90 4d be 38 66 f8 bd de e9 05 3e 5f 1c 33 bd
       -0.20074637 -0.12128872 0.13077495 -0.04372823
0000c0 c3 2a 5c 3d a3 59 86 bd 4f 8f de bd a4 8b e8 3d
       0.05375172 -0.065600656 -0.10867178 0.11354759
0000d0 dd 8e 30 bd f1 c8 37 be ed d6 0f be 2d 16 0f be
       -0.043104995 -0.17947747 -0.14046831 -0.13973303
0000e0 11 66 fd bd 9c 78 cb 3d 24 22 92 bc 71 1a 86 3d
       -0.12372983 0.09935114 -0.017838545 0.06548012
0000f0 1b 55 ea bd f0 1b f9 3d b2 2b a8 3d b1 28 b4 3d
       -0.11442014 0.12163532 0.08211459 0.08796824
000100 9d 55 3a 3d 38 2a 6e bb 2c 57 44 3d e2 b2 60 3d
       0.045491803 -0.0036341082 0.047934696 0.054858096
000110 98 6d 94 bd ad 8b 63 3c 46 d7 75 3d d7 5b 12 3e
       -0.07247466 0.013888282 0.060019754 0.14292847
000120 15 a3 a9 3c 7d 72 b1 3d f7 26 97 bd 51 9d 72 3e
       0.020707646 0.08664415 -0.07380479 0.23692824
000130 7b 85 33 3e 2f 70 8c bd 6c d8 2d be 34 e6 32 3e
       0.17531388 -0.06857335 -0.1697709 0.17470628
000140 59 64 04 3e fd 4c 7a bd 28 70 44 be 58 4b a5 bd
       0.12928905 -0.061108578 -0.19183409 -0.08071011
000150 e0 30 0b 3e 91 e0 1c bd 82 dc 11 3e 1b ec 20 3c
       0.13592863 -0.0383001 0.14244273 0.009821917
000160 68 b9 2e be 71 87 85 39 f5 79 4e 3d e3 fb 1e 3e
       -0.17062914 0.00025468649 0.050409276 0.15525775
000170 8d 6c 09 bd 73 7d 59 be 9c 1d 15 be 37 c8 25 bd
       -0.033550788 -0.21239261 -0.14562076 -0.040474143

fc3.bias f4 [3]
000000 fa e1 e4 3c 2f 36 75 3c 91 df b7 3d
       0.027939785 0.014966532 0.08978189

onnx::LSTM_209 f4 [1, 512, 2]
000000 d9 ad 23 bd 34 66 f8 bd 14 e4 7e be e9 22 16 be
       -0.039960716 -0.12128869 -0.24891692 -0.14661755
000010 f2 f0 e4 bc 75 f5 04 be 68 db fb bc d1 92 ff bc
       -0.027946923 -0.1298426 -0.03074427 -0.031197937
000020 1d a5 f8 bd f4 f5 af bd 69 a9 7a 3d ac 8f 25 be
       -0.12140868 -0.08591834 0.06119672 -0.16168088
000030 9c 5a 1f be 28 c6 26 be 6c d6 b7 bc 0d a3 0d 3e
       -0.15561908 -0.16286528 -0.022441112 0.1383173
000040 4a 63 03 3e 92 fc 26 3e fa ab 25 be 07 9c 42 be
       0.12830845 0.16307285 -0.16178885 -0.19004832
000050 32 9f fc bd f3 09 c5 bd 2f f4 c5 bd dd 0f 8b bd
       -0.123350516 -0.09621038 -0.09665715 -0.06790135
000060 9c 02 43 3d 20 4c ae 3d 44 fe 06 bc 62 6e a1 3c
       0.04760991 0.085106134 -0.008239333 0.019705955
000070 9d 4b fa bd 6a f5 95 be 0a 55 8b 3d 87 12 56 bd
       -0.12221453 -0.292888 0.06803329 -0.052263763
000080 f4 d9 6f 3d 18 70 a7 3c 96 5f 5e 3d 18 57 6e bd
       0.058557466 0.020439193 0.054290377 -0.058188528
000090 4a 5b cd 3c 39 44 5d 3e ee d1 56 3d 27 61 d0 3d
       0.025067944 0.21608056 0.0524463 0.1017478
0000a0 31 0e 89 3d 11 6b b1 3d 2f a5 5d 3d bd 1c db 39
       0.0669216 0.086629994 0.05411261 0.00041792347
0000b0 68 3d b7 3d 67 ee d2 bd ab a8 ac 3c 0d 60 3c 3e
       0.08947259 -0.10299378 0.02107652 0.18396015
0000c0 ac f8 34 be 5d f6 0f be f8 89 0b 3d e2 11 eb 3d
       -0.17672986 -0.14058824 0.034067124 0.1147802
0000d0 ae ba 90 bd 84 e5 3d bd 39 2e 5a 3d 8e c2 78 3d
       -0.07066856 -0.04636146 0.053266738 0.060732417
0000e0 b0 87 ae 3d 44 e6 1f be 63 89 da bd c2 f5 38 bd
       0.08521974 -0.15615183 -0.10670736 -0.045156248
0000f0 ea a5 6b 3c c4 74 81 bd f9 b1 68 3d fc 09 58 3c
       0.014382819 -0.063210994 0.056810353 0.013185974
000100 c8 50 7b bd 4a 1e fc bd 23 76 d7 bd 86 e5 d2 bd
       -0.061356336 -0.12310465 -0.1052058 -0.10297684
000110 be 51 11 bc 8d 5e d6 bd 9d 5c 8f be d7 5c 35 bd
       -0.0088695865 -0.10467253 -0.28000346 -0.044277992
000120 6a ba c6 bd 89 0f b9 bd de 10 de bc 3c 84 de bd
       -0.097035244 -0.09036166 -0.027107652 -0.108650655
000130 a0 6a 08 bd 2e 94 69 3d 2f 3d 0e 3d 3e f0 0f 3d
       -0.03330481 0.05702608 0.034726318 0.035141222
000140 4d 86 f8 bc 24 4d 19 3d e0 c1 bc bd 8b 80 44 3c
       -0.030337477 0.037427083 -0.09216666 0.011993538
000150 65 a7 a7 bd 50 5f 8f 3d 2b 42 cc bd 04 3a 1c be
       -0.08186225 0.07000601 -0.09973558 -0.15256506
000160 dd 53 eb bd d4 7e 42 3d 25 9f 94 bd be 5c 3a be
       -0.11490605 0.047484234 -0.07256917 -0.18199441
000170 d7 da 00 be 02 f5 88 bd 95 93 45 be 3e ed 27 3a
       -0.12583481 -0.066873565 -0.1929458 0.0006405896
000180 90 42 95 3c 34 0a b1 bd 6c 56 cf 3d bb 97 14 be
       0.018220216 -0.08644524 0.101239055 -0.14511006
000190 0f 65 39 be d3 cd fb bd f1 54 7f be 67 01 27 bd
       -0.18104957 -0.12295117 -0.24934746 -0.04077282
0001a0 40 ea a6 3d 09 8d b2 bd a2 5f 61 be b2 cb e8 3d
       0.081501484 -0.087183066 -0.22009137 0.11366977
0001b0 10 54 13 bd 6d e2 90 3d 27 b1 ef bd c1 d8 6f be
       -0.03596884 0.07074437 -0.11703711 -0.23422529
0001c0 d2 d7 ae be 82 e0 31 bd 3f de 47 3c 96 40 86 3d
       -0.34149033 -0.043426998 0.012198984 0.065552875
0001d0 83 17 68 3d 3c 88 ad bc 75 62 b5 bc e3 f6 12 be
       0.056663048 -0.021183126 -0.022141675 -0.14351992
0001e0 6b 0b 8c bd f0 aa 97 3d 54 bc 3e 3d d6 a6 17 3d
       -0.06838115 0.074056506 0.046566322 0.03702434
0001f0 82 4f 67 3d 20 23 90 bd 79 1a 27 bd e1 d4 51 3c
       0.05647231 -0.070379496 -0.04079673 0.012807102
000200 fb 29 48 3d 73 d2 5c 3d c2 1c 62 3d 5d af 8a 3d
       0.04886816 0.053911638 0.055203207 0.06771729
000210 2a 19 61 3d 41 22 b2 3d 72 3f 3c be 48 c4 8a bd
       0.05495564 0.0869794 -0.18383577 -0.06775719
000220 4e 1c 8b ba 12 df f9 3d dd 5b df 3c 28 dd bc b9
       -0.0010613294 0.122007504 0.027265484 -0.00036022929
000230 a4 93 a4 ba ae 53 b5 bc e0 ec b5 bc e8 56 ba bc
       -0.0012556207 -0.022134628 -0.022207677 -0.022746518
000240 a4 7e c5 bc 07 39 03 bd b5 3e 07 be e2 85 92 bd
       -0.024108239 -0.032036807 -0.13207515 -0.07154442
000250 f8 6b 4b bd 95 71 d8 bd d6 f0 17 3e dc 3e 0e 3e
       -0.049663514 -0.10568539 0.14837965 0.13891166
000260 20 25 90 3d 25 a4 7f 3d 2c 5e 14 bc 6c ed d6 bb
       0.07038331 0.0624124 -0.009055655 -0.0065590646
000270 1b cf 1a be ef 4c 42 be e5 94 f8 bd eb 05 ad bd
       -0.15118067 -0.1897466 -0.121377744 -0.084483944
000280 44 e8 ae bc 58 06 e1 bc 44 58 ff ba a1 27 19 be
       -0.021350987 -0.027468845 -0.0019481261 -0.14956523
000290 6b c3 d7 bd 48 55 3c be 50 b9 9c bd 6d 0c e1 3c
       -0.1053532 -0.18391907 -0.07652533 0.027471745
0002a0 a2 af 75 bd c4 2d 92 bd b8 d5 55 3d f6 50 13 bd
       -0.05998195 -0.07137635 0.05220577 -0.035965882
0002b0 ff 43 87 bd e4 eb 8b bd c2 73 ae bd 3a d1 4c 3c
       -0.06604766 -0.06832102 -0.08518173 0.012501055
0002c0 6b a2 9e bd ef ee b5 bd 00 d2 fe 3c fa 7a 97 bc
       -0.077458225 -0.088834636 0.031105995 -0.018491257
0002d0 7c a9 c2 3d d7 bd 8e 3d 18 64 b9 bc 0d 4e 6f bd
       0.09504983 0.06969803 -0.022630736 -0.058424044
0002e0 5e e8 e9 3d 39 6e 50 3d 10 ff 60 3c c6 a4 db bd
       0.11421274 0.050886367 0.013732687 -0.107247874
0002f0 b5 db c4 bd b4 b3 91 3d 5c f4 cf bd ea 5e db 3b
       -0.09612218 0.07114354 -0.1015403 0.0066946642
000300 aa 1e 3d be d1 99 4f bd 84 a3 52 be 14 44 08 bd
       -0.18468729 -0.0506838 -0.20570189 -0.03326805
000310 02 f9 17 be 46 80 2d bd 3a d9 2b bc 6f b9 c2 bd
       -0.14841083 -0.04235866 -0.010488803 -0.09508025
000320 b6 31 bd bd 22 bc 7c be e9 04 45 bb 56 e6 26 bd
       -0.09237997 -0.24681142 -0.003006274 -0.04074701
000330 be a6 c2 bd 95 2f ae 3d 71 92 85 3d bf eb 14 3e
       -0.0950446 0.08505169 0.06522072 0.14543055
000340 6d da a5 bd d9 31 91 bc a7 b6 f0 3b 11 9c 94 3c
       -0.08098302 -0.017723965 0.0073459926 0.018140825
000350 f6 b9 4f be 5c d2 58 3e 47 74 d1 bc 1c f1 36 be
       -0.20285782 0.21173996 -0.02556814 -0.17865413
000360 e7 74 2b 3c 2a d3 ff 3b bc 6b f5 bd 96 45 72 bc
       0.010464883 0.007807155 -0.11983439 -0.014787098
000370 6c d3 e0 3d d2 97 97 ba a6 a2 ff bd 14 68 d9 bc
       0.109778255 -0.0011565632 -0.124821946 -0.026538886
000380 a8 32 b1 be 50 8b 24 be 42 e6 2b bc 52 41 34 be
       -0.3460896 -0.16068769 -0.010491909 -0.17603043
000390 27 1c 49 3d 43 ad 20 bd 29 a7 b3 3c 57 09 b5 3c
       0.049099114 -0.039227735 0.021930294 0.02209918
0003a0 08 78 4d 3d 46 5b b2 3d b5 7d 9a 3c 16 57 9c 3d
       0.0501633 0.08708815 0.01885877 0.07633798
0003b0 54 a2 49 bd ad b4 1e bb e5 9d 1c bd 16 89 43 bc
       -0.049227074 -0.0024216578 -0.038236517 -0.011934539
0003c0 98 00 95 bb 81 92 15 bc 9c 10 67 3d 7f ce 6d bb
       -0.00454719 -0.009129168 0.056412324 -0.0036286411
0003d0 49 50 c5 3c 58 42 13 3d b6 b5 6e be 49 68 88 3c
       0.024086135 0.035951942 -0.23311505 0.01665129
0003e0 95 34 0a be 00 b6 9e bc c5 1b d4 bd ad 7d e1 bc
       -0.13496621 -0.019373894 -0.10356859 -0.027525747
0003f0 ce e1 fc bd 84 70 e5 3b 5b af 76 bd cd e8 ba bb
       -0.12347756 0.0070019383 -0.060225826 -0.0057040215

onnx::LSTM_210 f4 [1, 512, 128]
000000 41 41 fc 3c 8a 4f 2d bd 12 78 ed 3d 43 39 98 bc
       0.030792834 -0.042312182 0.11595167 -0.018581992
000010 7b 7b 8f bd f9 1d 9a 3c b2 d8 a3 3d 61 3d 3a bd
       -0.07005974 0.01881312 0.08000316 -0.04546869
000020 c4 c9 ad bc fb c1 3d bd 2a 7c dc bc 7d 64 85 3c
       -0.021214373 -0.046327572 -0.026914675 0.016283268
000030 f0 45 cf 3d d6 71 23 be c6 b6 49 3d 7e 63 46 bc
       0.101207614 -0.15961394 0.049246572 -0.012108682
000040 1a 16 6c 3d d8 41 00 3e b0 ae 92 3d a6 10 4f bd
       0.057638265 0.12525117 0.07162225 -0.050552987
000050 15 e4 c2 3d 31 64 10 3c 6b 67 7e bd 02 0b f1 3d
       0.095161594 0.00881295 -0.062110346 0.11769678
000060 4b 54 16 3d f3 28 02 be 0a 55 4d 3d 4d e9 cc 3d
       0.03670148 -0.12710933 0.050129928 0.10005436
000070 4e 25 11 bd 3b 4c d5 bd 97 d3 a4 3d ea 2d 18 be
       -0.035435967 -0.104149304 0.0804817 -0.14861265
000080 b6 f3 02 bd 92 df f3 b8 4e 46 50 bc 72 f1 7c 3d
       -0.031970702 -0.00011628786 -0.012712074 0.061753698
000090 c1 99 3a bd 0a c8 95 bd 22 8f 75 bd de b5 8c bd
       -0.045556787 -0.07313545 -0.059950955 -0.06870626
0000a0 97 18 d8 3d 76 a4 5b 3c fd dd ce 3c 17 53 c9 bd
       0.10551565 0.01340591 0.025252337 -0.09830301
0000b0 33 c8 af bd 2b 9f 9e 3d 5b 62 05 3c dd 96 13 3d
       -0.08583107 0.07745203 0.008141126 0.036032546
0000c0 07 a6 40 3c eb 32 c2 3d 00 a8 17 bd 66 40 9e 3d
       0.011758334 0.09482368 -0.03702545 0.07727127
0000d0 9f a2 32 bd f3 e8 95 3c 0a 66 94 bd b7 72 1f bd
       -0.04361212 0.018299555 -0.07246025 -0.03892776
0000e0 13 89 da 3d ed c1 83 bd d3 94 63 bb bf 0c 51 bc
       0.10670676 -0.06433473 -0.0034726157 -0.012759387
0000f0 1b 89 8a bb 11 47 22 3e 44 d1 77 3d a7 f8 86 3d
       -0.00422777 0.15847422 0.060502306 0.065903954
000100 18 3e 94 bd cf 10 0f 3e b5 97 ce 3b 5f ec 92 3d
       -0.07238406 0.13971256 0.006304706 0.071739905
000110 65 a0 af 3d d3 ab cb 3d 94 38 24 3d bc f0 b9 bd
       0.08575515 0.09944882 0.04009302 -0.090791196
000120 b8 ad a3 3c ce cf ec 3d 8a 3e 6d 3c cd f1 4e 3c
       0.019980296 0.11563073 0.0144802425 0.012630892
000130 d0 79 ad bd 74 f1 fd 3b f9 47 e0 3d c6 c7 29 3d
       -0.084704995 0.0077497307 0.10951228 0.041450284
000140 8f 0e 84 3d c6 70 35 3d c9 31 26 3d ee e0 6d bc
       0.06448089 0.044297002 0.040574823 -0.014518959
000150 9c 10 93 bc b7 5c 2d bd 7e 8b 0c 3d 19 25 e6 bd
       -0.017952256 -0.042324748 0.034312718 -0.112375446
000160 98 32 19 bd a2 08 f3 bd 4d 20 71 bd 70 f7 38 3d
       -0.037401766 -0.11866881 -0.058868695 0.04515785
000170 43 b9 f0 bd 2e 86 1d bc 19 44 fb bd e6 60 70 3c
       -0.11754086 -0.00961451 -0.12268848 0.01467154
000180 f5 bf 2a bd a2 1f 12 bd 45 49 8c bd 24 80 b2 bc
       -0.04168697 -0.0356747 -0.068499126 -0.021789618
000190 2c d6 8d bd d2 74 a4 3d d8 03 0d bd 4f b7 b4 bd
       -0.06925616 0.08030094 -0.034427494 -0.08824026
0001a0 4f 3e fd 3c 8a 9e 1e 3e a2 24 fb bd 27 f4 d5 bd
       0.0309135 0.15490165 -0.122628465 -0.10446959
0001b0 de 65 9f 3d 6a 4e 14 3e 41 2a 1e bd c2 38 d5 bd
       0.077831015 0.14483038 -0.038614515 -0.10411216
0001c0 d1 31 8e 3d e6 18 96 3d 3a 37 79 bb cc 0c 18 bc
       0.069430955 0.07328968 -0.0038027302 -0.009280395
0001d0 d5 2d 14 3d f2 f2 15 be 19 b5 95 bd 82 f6 a9 bd
       0.03617652 -0.14643458 -0.07309932 -0.08298971
0001e0 73 4b a2 3d 99 48 08 be 6b 91 83 bd b7 62 58 3d
       0.07924547 -0.13308944 -0.06424221 0.052828517
0001f0 75 32 85 3c ac d8 8e bc a8 40 a8 bd 4d ca 43 bd
       0.016259411 -0.017437302 -0.08215457 -0.04780035
000200 16 df 84 3d 7d 5e 0f bd cc 68 60 3e 33 8c 3a 3d
       0.06487863 -0.03500222 0.21914977 0.04554386
000210 ca 45 cd 3d 11 44 d1 bd 93 f1 54 ba 8a 51 3c 3e
       0.10023077 -0.10218061 -0.00081231556 0.1839048
000220 38 61 05 3d d7 d8 1a 3b 5f 08 c0 bd 38 b9 fc bd
       0.03256342 0.0023627782 -0.09376597 -0.12340015
000230 7b 75 df bd c1 13 98 3d ff 53 1b 3e 24 27 93 3d
       -0.109110795 0.07425643 0.1516876 0.071852
000240 ec b7 88 bd 3a 2e 0d 3c e2 ad 31 bd 05 a3 1b 3e
       -0.06675705 0.008616978 -0.04337872 0.15198906
000250 f8 30 b7 3a 1e 6f 83 bd 1d 84 25 3d 62 ff 30 bd
       0.0013976386 -0.06417678 0.040409196 -0.043212302
000260 5f 62 82 3c 70 59 fd 3d f9 18 ae bc 2a a8 8d bd
       0.015916048 0.123705745 -0.021252142 -0.069168404
000270 7a 61 8a bd ee 9e dd b9 64 e1 55 3b 47 2f 10 3d
       -0.067568734 -0.00042270817 0.0032635564 0.035201337
000280 b2 cd 16 bd 09 5c 73 bd c3 bf a8 3d 56 45 fb 3d
       -0.03681726 -0.059413943 0.08239701 0.12269084
000290 bd 7f b5 3b 44 6c 92 bc e2 f4 a8 bd 9b 45 46 3c
       0.005538909 -0.01787389 -0.08249833 0.012101556
0002a0 6b d9 35 bd 5c c7 50 3b a2 e4 6b bd b1 f4 b9 3d
       -0.0443968 0.0031857109 -0.057591088 0.09079874
0002b0 18 1a 2f 3e d9 63 02 3d 9e 18 7a bd a2 69 1f 3e
       0.17099798 0.031833503 -0.061058633 0.1556764
0002c0 c9 50 a4 3d e3 1b d6 3d 28 c0 3b 3c 25 53 20 be
       0.08023221 0.10454538 0.011459388 -0.15656717
0002d0 7e b0 97 bd 10 d4 59 bd be f8 17 3d 26 fa 02 3e
       -0.0740671 -0.053180754 0.037102453 0.12790737
0002e0 1d 6b cd 3c b3 3b 59 3d a3 d2 39 3e 27 10 08 3e
       0.02507549 0.05303545 0.18146758 0.13287412
0002f0 b8 a7 55 bd 1b 45 e5 bd 8d ee 3c bc b4 8b e1 3d
       -0.052161902 -0.111948214 -0.011531484 0.110129744
000300 6a 5a 28 be de c7 e5 bc e8 4a ce bd 0a 2e 7c 3d
       -0.1644074 -0.028049406 -0.10072881 0.061567344
000310 f2 14 6d 3d 84 30 46 bd 9d 6d 06 3c ed d0 4c 3c
       0.057881303 -0.04838611 0.008204845 0.012500984
000320 29 7e 8e 3d d0 1b f7 3c ea 3f e9 bc 58 35 ea bc
       0.06957657 0.03016463 -0.02847286 -0.02858989
000330 f6 42 af bd 66 ea 6a bc 66 aa 5b 3e ad ee ad bc
       -0.08557694 -0.0143381115 0.2145172 -0.021231974
000340 82 cd f8 3d b9 7a 88 3c 71 c8 98 3d 82 cb 98 3d
       0.121485725 0.016660081 0.07460106 0.07460691
000350 07 9c 78 3d 1b ab 12 3e a1 19 a8 3d df 78 ad 3d
       0.060695674 0.14323084 0.08208013 0.0847032
000360 c3 7f 99 bd 3b ea 80 bd e1 ec 20 3d b3 e2 21 be
       -0.07495072 -0.06294676 0.039288405 -0.15809135
000370 82 25 25 3e 15 4a 03 3e 74 66 c8 bd 96 13 3e be
       0.1612759 0.12821229 -0.097851664 -0.18562159
000380 bd d6 a3 bc a0 f6 bf bb 25 4c 2e bd ca 3e e7 bd
       -0.019999856 -0.0058582574 -0.042553086 -0.11291273
000390 d7 5c 62 bd 8c b5 13 3d 26 ef 18 3d e3 e0 60 bd
       -0.05526432 0.03606181 0.037337445 -0.05490197
0003a0 3c ca 46 3c a2 5b 87 3d d2 a5 65 3e 55 4b 2d bd
       0.012133177 0.066092744 0.22426537 -0.04230817
0003b0 32 30 c1 bd 65 be 06 bd 14 f3 a1 3d ea 61 7e bc
       -0.09433021 -0.032896418 0.079076916 -0.015526274
0003c0 e6 f1 0d be 5b e6 89 3d f0 04 01 3e 9a 61 a4 bd
       -0.13861808 0.0673339 0.1259954 -0.080264285
0003d0 7e 7b ab bd 21 1b 89 bd 00 1b 86 bc 87 1e bb bd
       -0.08373164 -0.066946276 -0.016370296 -0.09136682
0003e0 59 9e 8f 3d 98 57 1b bd e6 39 15 3d dd 44 0e be
       0.07012624 -0.037925333 0.03643217 -0.13893457
0003f0 d1 f9 05 bd a4 45 14 bd 27 51 85 bc f0 9e fc bd
       -0.032708947 -0.036199227 -0.016274048 -0.123350024

onnx::LSTM_211 f4 [1, 1024]
000000 44 d8 13 be 01 22 50 bb 4c f7 ac bd ce 41 87 bd
       -0.14437968 -0.003175855 -0.08445606 -0.06604348
000010 b7 33 06 be f2 65 07 be 97 61 f3 bb 09 21 d3 bd
       -0.13105665 -0.13222483 -0.007427405 -0.10309035
000020 49 d5 fd bc a7 84 db bd 74 35 f2 ba eb 4e d3 bc
       -0.030985491 -0.10718661 -0.0018479065 -0.025794467
000030 1d f8 f9 3d e3 c1 f4 ba e2 15 92 3c 02 62 51 be
       0.12205527 -0.0018673505 0.0178327 -0.20447543
000040 f8 f3 74 3d 43 c6 5e 3d ef 02 8a 3d a3 7f c6 3b
       0.05980298 0.054388296 0.06738841 0.006057696
000050 b0 46 c4 bc 25 ab 15 bd b2 63 00 bb 9c 7d 43 3d
       -0.023959488 -0.03654017 -0.0019590673 0.047727212
000060 a1 f2 13 bd 67 85 73 bd 43 2e 16 bb db 4f fe bd
       -0.03612006 -0.059453394 -0.0022915758 -0.12417575
000070 6c 9d 8e bc 4e fe 30 3b 8e 5a 83 bd b3 d2 37 bd
       -0.017409049 0.0027007046 -0.06413756 -0.044878673
000080 3f 3d 45 bd b5 66 af bd 2f 63 b2 bd d7 3e d2 bd
       -0.048154112 -0.08564512 -0.08710324 -0.10265892
000090 3e 3b 2b bd e8 af a0 bd c4 13 8d bd 90 1d bc ba
       -0.041804545 -0.078460515 -0.068885356 -0.0014352072
0000a0 45 a2 89 3b b3 e6 07 be 07 70 0e be 41 38 82 bd
       0.0042002522 -0.13271599 -0.13909923 -0.06358386
0000b0 9a 04 a3 bd f7 e9 35 be 15 df c5 bd 4f 65 8f 3d
       -0.07959862 -0.17765032 -0.0966169 0.07001745
0000c0 24 ba 63 bd 72 4d a5 bd d5 96 0f be 73 b6 95 bc
       -0.05559744 -0.08071412 -0.14022382 -0.018275475
0000d0 e4 e7 ff bd 34 aa c5 bd 2f f8 f5 3c 8f 63 f5 bd
       -0.124954015 -0.09651604 0.03002557 -0.1198188
0000e0 68 a5 0e be d4 64 71 bd 2a cc 23 be 97 62 cc 3b
       -0.13930285 -0.058934048 -0.15995851 0.0062373388
0000f0 4c 29 0a 3c ff 0c 07 3c 28 f8 e3 bd ab af 98 bd
       0.0084326975 0.008242845 -0.111313164 -0.07455381
000100 0b 1e e3 bd c5 47 c7 bd f2 77 a8 bb c8 84 dd bd
       -0.110897146 -0.09730486 -0.0051412517 -0.10816342
000110 8d 44 d4 bc 57 01 de bd 99 e6 82 3d d4 6b 21 bd
       -0.025911594 -0.10840099 0.06391639 -0.039409474
000120 02 71 f3 bc 31 b4 b5 bd 1a 39 0f be f0 86 87 3d
       -0.029716972 -0.088722594 -0.13986626 0.06617534
000130 af 19 78 bd d0 48 4f bd 56 b3 84 bd c3 3f 9a bc
       -0.06057137 -0.05060655 -0.06479518 -0.018829232
000140 73 d1 1c 3d 59 6c 81 bd f2 d6 27 be 6c de b6 bd
       0.038285684 -0.06319494 -0.16390589 -0.08929142
000150 88 c6 8b bd f3 2f 42 bd 89 c0 5b 3d e5 0c 47 3d
       -0.06824976 -0.04740901 0.053650413 0.04859628
000160 54 e1 b8 bc 26 30 c7 3b ea 18 69 3d 50 ee a9 bd
       -0.022568382 0.006078738 0.056908526 -0.082974076
000170 80 c8 e4 bd d6 a6 21 bd 90 5b 93 3d 9f af a8 3d
       -0.11171055 -0.039465748 0.071951985 0.08236622
000180 4f 79 01 bd e3 17 95 3c 06 a0 f2 3c 42 07 45 3d
       -0.03160983 0.018199867 0.02961732 0.048102625
000190 e0 b9 d7 bd 54 8f 27 3c 25 a4 40 3d da 40 e0 3d
       -0.105335 0.010227043 0.04703154 0.109498695
0001a0 d7 02 96 bd ad 91 29 3d eb e9 54 3e d7 9d 0b be
       -0.073247604 0.041398693 0.20792358 -0.1363443
0001b0 ba 0e a7 3d f2 f5 1f 3d 7a d3 64 3c ee 97 83 bd
       0.08157106 0.03905291 0.013966436 -0.06425463
0001c0 34 be 36 be 3a b1 11 be 18 05 1a 3e 93 a3 85 bd
       -0.17845994 -0.14227763 0.15041006 -0.0652534
0001d0 25 1e 69 bd f0 a3 81 3d 9e d4 7d 3c f0 39 20 be
       -0.056913514 0.06330097 0.015492586 -0.15647101
0001e0 58 49 d0 bd 2d 46 7b 3d fa 96 bf bd d9 5b 0d be
       -0.10170239 0.06134622 -0.09354968 -0.13804568
0001f0 c8 40 fd 39 c9 fa 1f 3c ff c9 53 bd 3b 44 1f bc
       0.00048304186 0.009764382 -0.05170631 -0.009720857
000200 d8 ec 39 bd 07 a1 3b 3d 4f fc 5d bd 61 a1 09 be
       -0.045391887 0.045807865 -0.0541957 -0.13440467
000210 47 2a 86 bc 5b 74 01 be 7f fd 1e be a4 ea b9 bd
       -0.016377581 -0.12642042 -0.15526389 -0.09077957
000220 18 4e 19 bd c7 a3 c3 3c cc 04 17 3d d1 d3 1d be
       -0.03742799 0.023881806 0.03686981 -0.15412833
000230 ce 16 c2 3d e8 96 7d 3a db 88 d9 3c 25 48 8a bd
       0.09477006 0.0009673671 0.026554516 -0.06752042
000240 af 5f 67 bd 56 62 90 3d 21 55 fe 3d 53 1c 1b bd
       -0.056487735 0.07050006 0.12418581 -0.03786881
000250 e5 cf 1b 3c 4f 8c dd bd cd 5c b5 3d f3 b6 fb bb
       0.009510015 -0.10817777 0.08855591 -0.0076817214
000260 09 49 0e be 54 67 2f 3d ca 19 c6 3c 1d 35 ce bd
       -0.13895048 0.04282315 0.024182219 -0.10068724
000270 28 ca ed 3b 9c 73 fb bd 7a 53 78 3d 16 05 56 3c
       0.007256765 -0.1227791 0.060626484 0.013062736
000280 ef 9b f9 bd 92 f1 dc 3c bb 9b 8c 3d f8 db 10 3b
       -0.12187945 0.026970658 0.06865641 0.0022103768
000290 bc dd b8 bd 30 ff 83 bd 7d 67 d5 bc 36 46 2c bd
       -0.090266675 -0.064451575 -0.026050324 -0.042059146
0002a0 20 ca 2d bd 01 f1 f5 bc 5a 84 98 bd d5 5b 71 bc
       -0.04242909 -0.030022146 -0.07447119 -0.014731367
0002b0 a6 4a 9d bd d4 1f ac bd 84 32 97 bd 22 61 09 3d
       -0.07680254 -0.08404508 -0.07382682 0.0335399
0002c0 a9 a6 02 be e1 8e 5b bb 1b 2b eb bd af 41 0d be
       -0.12758888 -0.003350191 -0.11482831 -0.13794588
0002d0 6c 9a c1 bd a7 df 68 3d 55 1b a9 3d 9b e4 68 be
       -0.09453282 0.056853916 0.08257166 -0.22743456
0002e0 76 f3 d9 bd 44 cf c1 3b 82 ed b8 3c d3 27 2f bd
       -0.106421396 0.0059146006 0.02257419 -0.04276259
0002f0 78 e1 00 bc 8e a4 bb 3d 7f 93 24 3d 6b fb 04 bd
       -0.007866256 0.09162246 0.040179726 -0.032466333
000300 b3 8a 5f 3c 00 1d d9 bc e8 2e c1 bd 46 28 09 be
       0.013643908 -0.026503086 -0.09432775 -0.1339427
000310 39 b4 c1 bc d1 ee 1c be d9 19 7a bd b5 9c 21 bb
       -0.023645507 -0.15325476 -0.061059806 -0.0024660055
000320 bd fa 80 bc 86 e1 b7 bc 53 72 cd bd e6 11 05 3e
       -0.015744561 -0.022446405 -0.10031571 0.12995109
000330 85 a1 ee bc d1 c7 f3 bc e4 08 5f 3d 4e e0 90 ba
       -0.029129753 -0.029758366 0.054451838 -0.0011053176
000340 41 cc cb 3c 24 e7 ae 3a 5e b1 22 be ab 91 60 3c
       0.02487767 0.0013344032 -0.15887973 0.013706605
000350 d8 7d 10 be a3 cd b1 bd 0a 06 7b bd e4 b6 96 bc
       -0.14110506 -0.086818 -0.061285056 -0.018397756
000360 29 b6 44 bd 79 1a 42 3c b8 f1 9e 3c 59 22 22 bd
       -0.048025284 0.011847132 0.01940237 -0.039583538
000370 01 f0 51 3c ea 47 e5 bd 1a b0 9f 3c 38 9d a1 3c
       0.012813569 -0.11195357 0.019493151 0.019728288
000380 91 8b de bd 0d a8 53 39 67 a1 38 3c 3c 9e fe 3c
       -0.10866464 0.00020185132 0.01126895 0.031081311
000390 21 45 2e be ea e3 15 3d 5a f7 44 3d 04 85 57 3d
       -0.17018558 0.03659431 0.048087455 0.052617088
0003a0 53 0e d8 bd 43 57 ee bd 0a 18 2e 3e 7c 9e 0f be
       -0.10549607 -0.116377376 0.17001358 -0.140253
0003b0 d9 4e 6a 3c 9f 54 0c bd 2d 12 b7 3c 3b b1 dd bc
       0.014301025 -0.03426039 0.022347534 -0.02706205
0003c0 b8 26 77 bd 4e 1b 42 bd c5 67 5c 3d 58 d5 b8 bd
       -0.06033966 -0.04738932 0.0538099 -0.09025067
0003d0 07 27 c7 bc 12 71 e8 bc 94 31 fd bd fd aa 2a be
       -0.024310602 -0.028374229 -0.12362972 -0.1666679
0003e0 dc a5 0d bd 82 1d 82 bd 57 6b 0b be 9d c9 f0 bc
       -0.034582004 -0.063532844 -0.13615166 -0.029393012
0003f0 80 48 ae bb 6f 3c 0a be 51 41 15 bd ca a4 da bd
       -0.0053187013 -0.13499616 -0.036439244 -0.10675962
