rock_paper_scissors_model.onnx (onnx, 500316 bytes, 20 tensors)

batchnorm1.weight f4 [20]
0	0x3f4438c0	0.76649094
1	0x3f5073a9	0.81426483
2	0x3f729cea	0.9477068
3	0x3f5f6a27	0.8727135
4	0x3f692ce5	0.9108413
5	0x3f576b0c	0.84147716
6	0x3f6fcdff	0.936737
7	0x3f56a49b	0.8384492
8	0x3f818e62	1.0121577
9	0x3f81146a	1.0084355
10	0x3f7ad7d5	0.97985584
11	0x3f68fc4f	0.9100999
12	0x3f7000e1	0.9375134
13	0x3f80b220	1.005436
14	0x3f901278	1.1255636
15	0x3f72fbb7	0.94915336
16	0x3f911e7a	1.1337426
17	0x3f3e4e07	0.7433781
18	0x3f790f01	0.9728852
19	0x3f6783c4	0.90435433

batchnorm1.bias f4 [20]
0	0xbe155908	-0.14584744
1	0xbe6647fc	-0.22488397
2	0xbd4ea39e	-0.050449006
3	0xbdea6fad	-0.11447082
4	0xbe0b2bd7	-0.13590942
5	0xbbb2e30b	-0.0054591945
6	0xbddd9ff2	-0.10821523
7	0xbd6e260e	-0.05814176
8	0xbe0e01cf	-0.13867877
9	0xbdbcd4ac	-0.092202514
10	0xbe170b95	-0.14750512
11	0x3cf05ae1	0.02934021
12	0xbccde78e	-0.025134828
13	0xbe158366	-0.14600906
14	0xbd8f2f76	-0.06991474
15	0xbda35dd5	-0.079768814
16	0xbdaf4dfa	-0.08559795
17	0xbd4ffb47	-0.050776746
18	0x3e1c2b7e	0.15250966
19	0xbca28c8c	-0.019842409

batchnorm1.running_mean f4 [20]
0	0x39fc3fe5	0.0004811279
1	0x394dd09a	0.00019628034
2	0x39041699	0.00012596919
3	0x39b32cca	0.0003417491
4	0x3a1085b7	0.0005513089
5	0x3a28e3e1	0.0006442648
6	0x3a265077	0.00063443877
7	0x3a1371e8	0.00056245783
8	0x39fa2265	0.00047709342
9	0x39b3e294	0.00034310354
10	0x39ade884	0.0003317037
11	0x39c1fad6	0.00036998716
12	0x3981f2e7	0.00024785774
13	0x399e7137	0.0003022046
14	0x3961e42c	0.00021542673
15	0x399c331f	0.00029792727
16	0x39439773	0.00018653068
17	0x399f075f	0.00030332335
18	0x39b15d78	0.0003382971
19	0x398e3d05	0.00027129814

batchnorm1.running_var f4 [20]
0	0x3a536a1c	0.0008064823
1	0x3aa280a2	0.0012397955
2	0x3ac42854	0.0014965632
3	0x3ad4bf49	0.0016231324
4	0x3ad59214	0.0016294145
5	0x3ade34df	0.0016953013
6	0x3adf0b3c	0.0017016898
7	0x3ad8c520	0.001653824
8	0x3ade06a7	0.0016939238
9	0x3adc28b0	0.0016796794
10	0x3ae27245	0.0017276487
11	0x3ae60ff2	0.001755236
12	0x3ae3ad3a	0.0017370351
13	0x3ae3dadf	0.0017383954
14	0x3ae61085	0.0017552531
15	0x3ae73990	0.0017641056
16	0x3aed5cc9	0.0018109317
17	0x3aeb66db	0.001795973
18	0x3aea7a92	0.0017889312
19	0x3ae6ce56	0.00176091

batchnorm2.weight f4 [64]
0	0x3f76fddb	0.964811
1	0x3f78dbf4	0.9721062
2	0x3f86ecb9	1.0540992
3	0x3f83510e	1.0259111
4	0x3f85327a	1.0406029
5	0x3f777c12	0.9667369
6	0x3f6ca624	0.9244101
7	0x3f70a9ac	0.940089
8	0x3f7a7416	0.97833383
9	0x3f76eabf	0.96451944
10	0x3f663d51	0.8993731
11	0x3f8edeb8	1.1161718
12	0x3f7fe73d	0.99962217
13	0x3f81855f	1.0118827
14	0x3f800f57	1.0004681
15	0x3f7f5ae2	0.9974805
16	0x3f6d460c	0.9268501
17	0x3f722690	0.9459009
18	0x3f7f82de	0.9980906
19	0x3f78b01d	0.9714373
20	0x3f7f442d	0.99713403
21	0x3f884489	1.0645915
22	0x3f71063c	0.9415014
23	0x3f7a8821	0.97863966
24	0x3f8d3483	1.103165
25	0x3f85c6d6	1.0451305
26	0x3f8044fd	1.0021054
27	0x3f7a0b03	0.9767305
28	0x3f7a9a59	0.97891766
29	0x3f58fac7	0.84757656
30	0x3f86ba4e	1.0525606
31	0x3f7c5605	0.98568755
32	0x3f896c2a	1.0736134
33	0x3f81f0a1	1.0151559
34	0x3f6e8c5b	0.93182915
35	0x3f6b5973	0.91933364
36	0x3f8cc953	1.0998939
37	0x3f7fc651	0.9991198
38	0x3f6f903b	0.93579453
39	0x3f8047bc	1.0021892
40	0x3f6ed5d7	0.93295044
41	0x3f79978a	0.97496855
42	0x3f8184d1	1.0118657
43	0x3f83ea52	1.0305884
44	0x3f82b821	1.0212442
45	0x3f7a9d37	0.9789614
46	0x3f771558	0.9651694
47	0x3f7b0112	0.9804851
48	0x3f7f059e	0.99617946
49	0x3f71bb20	0.94426155
50	0x3f836344	1.0264668
51	0x3f82a886	1.0207679
52	0x3f84f471	1.0387098
53	0x3f7a1ef9	0.9770351
54	0x3f653ea6	0.8954872
55	0x3f765264	0.9621947
56	0x3f918241	1.1367875
57	0x3f7b1dc4	0.98092294
58	0x3f6efd20	0.9335499
59	0x3f853d8c	1.0409408
60	0x3f7e0a5a	0.99234545
61	0x3f8b8ad0	1.0901737
62	0x3f7ae023	0.97998255
63	0x3f805d99	1.0028564

batchnorm2.bias f4 [64]
0	0xbd95ecd9	-0.07320566
1	0x3c25fe0e	0.010131372
2	0x3d1b5b6c	0.037928984
3	0x3dc8f6cd	0.098126985
4	0xbd00f525	-0.031483788
5	0xbd80f55d	-0.06296799
6	0xbc098cbd	-0.008395371
7	0x3d989a9f	0.07451367
8	0xbe1407a9	-0.14456047
9	0x3cb825fb	0.022479048
10	0x3cedda6c	0.029034816
11	0x3dc76930	0.0973686
12	0x3dda4ba8	0.106589615
13	0x3d86ac4c	0.06575832
14	0xbb956efe	-0.0045603504
15	0x3d9eba06	0.07750325
16	0xbd11ad39	-0.03556559
17	0xbd5ed9d8	-0.05440697
18	0xbc16f7bd	-0.009214339
19	0x3e2d6458	0.1693281
20	0xbbee4a77	-0.0072720605
21	0xbdfe4e3a	-0.12417264
22	0xbd116804	-0.035499588
23	0xbc204e32	-0.009784268
24	0x3c88e55c	0.01671093
25	0xbc81e97b	-0.015858402
26	0xbde9fb8b	-0.11424931
27	0x3dd02ac8	0.1016441
28	0x3d3b1e72	0.04568333
29	0xbd8bd85e	-0.06828378
30	0x3daa2450	0.08307707
31	0x3d17d73f	0.03707051
32	0x3d6846b1	0.05670804
33	0x3da92302	0.0825863
34	0xbc8caf66	-0.01717348
35	0xbd30b57c	-0.043141827
36	0x3cc0765e	0.023493942
37	0x3c7dde0a	0.015494833
38	0x3df3df34	0.11907807
39	0xbd7e1194	-0.062028483
40	0x3ce70706	0.028201591
41	0xbd450b53	-0.048106503
42	0xbcfab198	-0.030602261
43	0xbde6170f	-0.11234867
44	0x3d5265bc	0.051366553
45	0x3d1ef73f	0.03881001
46	0x3d95e7d2	0.07319607
47	0xbe17530f	-0.14777778
48	0x3ccf3e60	0.025298297
49	0x3d405e0f	0.0469647
50	0xbdd99f31	-0.106260665
51	0xbc8ad930	-0.016949266
52	0x39ce75fd	0.0003937929
53	0x3c66d026	0.014087712
54	0x3d7ad396	0.06123694
55	0x3ca718fd	0.020397658
56	0xbc0bdd01	-0.008536578
57	0xbaadd521	-0.001326237
58	0xbd993cc0	-0.0748229
59	0x3d717691	0.058950964
60	0x3d7fcab4	0.062449172
61	0x3dc61900	0.09672737
62	0x3d73a48a	0.05948309
63	0xbbf60c29	-0.007508774

batchnorm2.running_mean f4 [64]
0	0x3e20e430	0.15712047
1	0x3e1ea6da	0.15493336
2	0xbe98d5d6	-0.29850644
3	0xbde96ce7	-0.113977246
4	0xbe057d17	-0.13035999
5	0xbe8471ea	-0.2586816
6	0x3c9812ca	0.018563647
7	0xbdb62429	-0.08893616
8	0xbd1b1143	-0.03785826
9	0xbe241e74	-0.16027242
10	0xbe72f94e	-0.23727915
11	0x3d95c05a	0.07312079
12	0xbead4a65	-0.3384582
13	0x3ee41f7c	0.4455527
14	0xbe601c8e	-0.21885893
15	0x3ed710b1	0.42004922
16	0x3e37d454	0.1795209
17	0xbea4107a	-0.3204382
18	0x3c4f6e6d	0.012660605
19	0x3d2f8455	0.04285081
20	0xbd92b1ba	-0.07162805
21	0xbd5e073f	-0.05420613
22	0x3dbaca44	0.0912061
23	0xbda2e3e0	-0.0795362
24	0x3d7c11b0	0.061540306
25	0x3ea9376d	0.330501
26	0xbeac441e	-0.3364572
27	0x3ec605f1	0.38676408
28	0x3ed359e1	0.4127951
29	0xbddfadcc	-0.10921821
30	0x3e19f622	0.15035298
31	0xbe781e8d	-0.24230404
32	0xbe29853d	-0.16554733
33	0xbea24ffe	-0.31701654
34	0xbe7ad336	-0.24494633
35	0xbee911c1	-0.45521358
36	0xbd28f6a2	-0.041250832
37	0xbedb935a	-0.42885858
38	0x3ef0df23	0.4704524
39	0xbeaa5c43	-0.33273515
40	0xbb9df9a1	-0.004821018
41	0xbe766cff	-0.24065016
42	0x3d1043c3	0.035220873
43	0x3e570dab	0.21001308
44	0xbd8f2829	-0.06990082
45	0x3ce83b16	0.028348487
46	0xbe11e98d	-0.14249249
47	0xbeae2263	-0.3401061
48	0xbed53cdf	-0.41648003
49	0x3e2874e6	0.16450843
50	0xbe3e21f8	-0.18567646
51	0x3edb6407	0.42849752
52	0x3ea9a5d6	0.33134335
53	0x3ea474ee	0.3212046
54	0xbe2b7d9b	-0.16747133
55	0x3efb01ea	0.49024898
56	0x3ef2f69a	0.47453767
57	0x3ef50897	0.47858116
58	0x3df461da	0.11932726
59	0xbdf917a5	-0.12162713
60	0x3deeab47	0.11653762
61	0xbde8cf54	-0.1136767
62	0xbe3fa574	-0.18715459
63	0x3e6c7c10	0.23094201

batchnorm2.running_var f4 [64]
0	0x3d958bf2	0.07302083
1	0x3d80ea1c	0.06294653
2	0x3e9d3a22	0.30708414
3	0x3dd817ca	0.105514124
4	0x3e610a85	0.21976669
5	0x3da7d2b2	0.08194484
6	0x3e013f57	0.12621818
7	0x3dfba614	0.12287536
8	0x3db87bb1	0.09007967
9	0x3e57bdfe	0.2106857
10	0x3ec943f7	0.39309666
11	0x3e60eaed	0.21964617
12	0x3ded53a8	0.11588222
13	0x3e2c1d4f	0.16808055
14	0x3def0422	0.1167071
15	0x3d9a9200	0.075473785
16	0x3d9d6dcd	0.076869585
17	0x3e68ce36	0.22734913
18	0x3e79043d	0.24318023
19	0x3dc1aed6	0.094571754
20	0x3d76143c	0.06007789
21	0x3e355d6b	0.17711417
22	0x3d984f02	0.074369445
23	0x3e1b39ed	0.15158816
24	0x3df966a3	0.121777795
25	0x3e283a7e	0.16428563
26	0x3d95104e	0.072785005
27	0x3e586ea3	0.21135955
28	0x3e3850e2	0.17999604
29	0x3e8c769f	0.2743425
30	0x3e247841	0.16061498
31	0x3df552ef	0.11978709
32	0x3d8254bb	0.06363817
33	0x3e1cb6bd	0.15304084
34	0x3dfb05d2	0.122569695
35	0x3e21300b	0.15740983
36	0x3dbf50b3	0.09341564
37	0x3e24065e	0.16018054
38	0x3dd0e202	0.101993576
39	0x3daaf000	0.083465576
40	0x3d338549	0.043828283
41	0x3da8d7a8	0.08244258
42	0x3dc0b82b	0.09410127
43	0x3e475f5f	0.19469975
44	0x3e0644c4	0.1311217
45	0x3e4673f9	0.19380178
46	0x3dd6f2d7	0.10495537
47	0x3ddd2a81	0.107991226
48	0x3e9adc5d	0.3024625
49	0x3db141bb	0.08655115
50	0x3d698ce2	0.057019122
51	0x3e26f6be	0.16305062
52	0x3e903a9d	0.28169718
53	0x3e10315f	0.14081334
54	0x3d857855	0.06517092
55	0x3e116f57	0.14202629
56	0x3e5d9761	0.21639778
57	0x3e1e7261	0.1547332
58	0x3d06e7f1	0.03293604
59	0x3ed053ee	0.40689033
60	0x3d395a3c	0.04525207
61	0x3db90733	0.09034576
62	0x3e202b68	0.15641558
63	0x3dfc9e1a	0.12334843

fc1.weight f4 [64, 64]
0	0x3d0ebd1f	0.03484833
1	0x3d2277af	0.03966492
2	0xbd84d22e	-0.06485401
3	0xbe28df16	-0.1649135
4	0x3df9c7ff	0.12196349
5	0x3dd4189b	0.103562556
6	0x3dff1224	0.12454632
7	0xbde7c0fb	-0.11316105
8	0xbdee6c09	-0.116417
9	0xbdaecb01	-0.08534814
10	0x3d31ae14	0.043378904
11	0x3e00b781	0.12570001
12	0xbdbd70de	-0.09250043
13	0x3c1535f5	0.009107103
14	0xbdd14ce9	-0.102197476
15	0xbd5eab16	-0.05436238
16	0xbe0646a2	-0.13112882
17	0xbdf31937	-0.11870044
18	0xbcbd3c19	-0.023099946
19	0xbcb7bc10	-0.022428542
20	0xbe3bfa6a	-0.18357244
21	0x3d29262b	0.041296165
22	0xbe3bdf32	-0.18346861
23	0xbdff5cb3	-0.12468853
24	0xbbe5de77	-0.0070150453
25	0x3d1aa9c8	0.037759572
26	0xbce1c0fe	-0.027557846
27	0x3d16b6e1	0.0367955
28	0x3b82f6e5	0.0039967173
29	0x3dd235e5	0.10264186
30	0xbd1ee686	-0.038794063
31	0x3cb9b579	0.02266954
32	0xbe0354a2	-0.12825254
33	0x3e03374c	0.12814063
34	0x3dfe9366	0.12430458
35	0xbd8df3c4	-0.0693126
36	0xbce3a8fa	-0.027790535
37	0xbc974c22	-0.01846892
38	0x3cb0838f	0.021547107
39	0xbdcf3380	-0.10117245
40	0xbdbefc96	-0.09325521
41	0xbe1aebe3	-0.15129046
42	0xbe3fb489	-0.18721212
43	0xbbc0ba1a	-0.00588156
44	0x3d16a5ba	0.036779143
45	0xbd9b2741	-0.075758465
46	0x3dc2531a	0.094885066
47	0xbd1dbc28	-0.038509518
48	0x3c8e2266	0.017350387
49	0x3da101ef	0.07861697
50	0xbd009d9e	-0.031400315
51	0xbd33d1aa	-0.043901123
52	0x3d22c1cf	0.03973561
53	0xbda84dc6	-0.08217959
54	0xbd836e0e	-0.06417476
55	0xbd87facf	-0.06639635
56	0x3ce8ad6d	0.028403008
57	0x3e1679db	0.14694922
58	0xbd9c634a	-0.076361254
59	0xbd4abf4a	-0.049498834
60	0x3d3a5548	0.045491487
61	0x3c49116b	0.012272219
62	0xbcb0bbff	-0.021574019
63	0x3d639551	0.05556232
64	0x3c06132f	0.008183285
65	0xbdf381ce	-0.11889993
66	0x3dcf4453	0.10120454
67	0x3be2dbae	0.0069231605
68	0xbad0351f	-0.0015884972
69	0x3c4ad6db	0.012380327
70	0xbdceaf3a	-0.100920156
71	0x3c07a516	0.008279106
72	0x3dad54ad	0.08463416
73	0x3d0d9b99	0.034572218
74	0x3dedd91e	0.116136774
75	0xbc53a554	-0.012917835
76	0xbd3bcf36	-0.04585191
77	0x3d707360	0.05870378
78	0x3e2c3580	0.16817284
79	0xbda80e0e	-0.08205806
80	0xbdc4e3b4	-0.096137434
81	0x3d9aa848	0.07551628
82	0x3df4085c	0.11915657
83	0xbda9985f	-0.082810156
84	0xbc722d76	-0.014781347
85	0x3d02b606	0.031911872
86	0xbcd18dde	-0.025580343
87	0x3d4a2b0c	0.04935746
88	0xbd1182b1	-0.035525028
89	0xbe00f4a1	-0.12593319
90	0xbd2c90e7	-0.042130377
91	0xbd9f043e	-0.07764481
92	0xbe118b55	-0.14213307
93	0xbd9e2d02	-0.07723428
94	0xbd8f3e3b	-0.069942914
95	0xbdf8107c	-0.12112519
96	0xbd90fb30	-0.0707916
97	0x3d873600	0.066020966
98	0xbccf81fc	-0.025330536
99	0x3e0187aa	0.12649408
100	0x3e06368d	0.13106747
101	0xbcba1b91	-0.022718223
102	0x3b590645	0.003311531
103	0x3dad7d25	0.08471135
104	0x3d736b5f	0.05942857
105	0x3dc4cb4a	0.09609087
106	0xbd0a4cfa	-0.033764817
107	0xbdd9a76d	-0.10627637
108	0x3cf75595	0.030192176
109	0xbd375023	-0.04475416
110	0x3d73b8da	0.05950246
111	0xbd6e4feb	-0.058181684
112	0xbe5a0837	-0.21292196
113	0x3d498904	0.049202934
114	0xbddeb794	-0.108748585
115	0xbdba09cd	-0.090839006
116	0x3d09e9ca	0.033670224
117	0xbd9ec799	-0.07752914
118	0x3dcc0e58	0.09963673
119	0xbce80aca	-0.028325457
120	0xbda86203	-0.08221819
121	0xbddaae92	-0.10677828
122	0x3de9d28b	0.11417111
123	0xbe1ec5a3	-0.1550508
124	0xbe51336e	-0.20429775
125	0xbd892fb2	-0.0669855
126	0xbe10a93e	-0.14127061
127	0xbd99b114	-0.07504478
128	0x3dccfc82	0.100090995
129	0xbe0cd30f	-0.13752387
130	0x3da9c943	0.08290341
131	0xbda2f8f5	-0.07957641
132	0xbc5e19d5	-0.0135559635
133	0x3da5653c	0.080759495
134	0xbd04a300	-0.03238201
135	0xbddcf225	-0.10788373
136	0x3da1b8d0	0.07896578
137	0xbd79bf85	-0.060973663
138	0x3d35e9e1	0.044412497
139	0x3ce347a4	0.027744122
140	0xbdcd0b7a	-0.100119546
141	0xbe2e481e	-0.17019698
142	0x3ddac8cd	0.10682831
143	0xbd07b047	-0.033127096
144	0xb8292208	-4.0324434e-05
145	0xbc750bc3	-0.0149564175
146	0xbb808619	-0.0039222357
147	0xbdc3f700	-0.09568596
148	0x3d64a135	0.0558178
149	0x3e0d0310	0.137707
150	0x3d8165e1	0.0631826
151	0x3dc72698	0.09724158
152	0xbd5a5dd4	-0.053312138
153	0x3d6efedb	0.058348518
154	0x3dd27958	0.10277051
155	0x3d675181	0.056474213
156	0xbdf21187	-0.11819749
157	0x3c531643	0.012883726
158	0xbe1dd2f0	-0.15412498
159	0x3bb82e8d	0.0056207837
160	0xbe22ca9b	-0.158976
161	0xbd1e4bf7	-0.038646664
162	0xbe030a44	-0.12796885
163	0x3deccba2	0.115622774
164	0xbc7c2b6c	-0.015391212
165	0xbdb0e357	-0.08637112
166	0xbd5e307f	-0.05424547
167	0x3cfdb1b9	0.030968534
168	0x3d0002d9	0.031252716
169	0xbc8b8c82	-0.017034773
170	0xbd3224b0	-0.04349202
171	0xbd8c0ac6	-0.06837992
172	0xbbf1a386	-0.00737423
173	0x3c9af0cd	0.01891365
174	0x3a603efe	0.00085543084
175	0x3e19bd49	0.15013613
176	0x3e426552	0.18983963
177	0xbd1cf701	-0.0383215
178	0x3d2e3ff8	0.042541474
179	0x3df4954e	0.1194254
180	0xbd276590	-0.040868342
181	0xbd6d066f	-0.057867464
182	0xbd1594e4	-0.036518946
183	0xbe0560dd	-0.13025232
184	0xbd3407e4	-0.043952838
185	0x3d423d3b	0.047421675
186	0xbd57e578	-0.052709073
187	0xbd92f7f1	-0.07176197
188	0xbe3eef5c	-0.18645996
189	0xbda1e0a4	-0.07904175
190	0xbdff952a	-0.12479623
191	0x3c557050	0.013027266
192	0x3ddc37b4	0.10752812
193	0x3c4b0e1c	0.012393501
194	0x3e157f89	0.14599432
195	0x3ddaf968	0.10692102
196	0x3d15bf9e	0.036559694
197	0xbc8ae2a9	-0.016953783
198	0xbbb92541	-0.005650193
199	0xbdebc35f	-0.115118735
200	0x3dba3d43	0.09093716
201	0x3df57f52	0.11987175
202	0x3df701d6	0.12060897
203	0x3e652393	0.22376852
204	0xbe3f7d39	-0.18700112
205	0xbe026858	-0.12735116
206	0xbd0939db	-0.03350244
207	0x3daeb90a	0.08531387
208	0x3e3d0936	0.18460545
209	0x3de43f73	0.111449145
210	0x3db03168	0.086031735
211	0xbcc25bda	-0.023725439
212	0xbd1305d3	-0.035894226
213	0x3e50f1f1	0.20404793
214	0xbe0165a2	-0.12636426
215	0x3d897ef1	0.06713665
216	0xbe2a4869	-0.16629185
217	0xbd0d8d95	-0.03455885
218	0xbd3ec9a7	-0.04657903
219	0x3c61a9a5	0.013773357
220	0xbd74cc4b	-0.05976514
221	0x3d844519	0.06458492
222	0xbe29d414	-0.16584808
223	0xbe01c5dc	-0.12673134
224	0xbdd9a633	-0.10627403
225	0xbc1a78a5	-0.009428178
226	0x3dc50c1f	0.096214525
227	0xbd43bcdf	-0.047787543
228	0x3e5d0401	0.21583559
229	0x3ccf0b9c	0.02527409
230	0xbddcda9b	-0.10783883
231	0xbd5a0a70	-0.05323261
232	0x3e0a6149	0.13513674
233	0x3d791c81	0.0608182
234	0xbe0b9039	-0.13629235
235	0xbd7da019	-0.06192026
236	0xbddb8ac3	-0.10719826
237	0x3c43c0ec	0.011947852
238	0x3db16c7c	0.0866327
239	0x3d8690a9	0.065705605
240	0xbda51729	-0.08061058
241	0x3d109466	0.035297774
242	0xbdd6d6e9	-0.104902096
243	0xbd93d800	-0.07218933
244	0x3d312978	0.04325244
245	0x3dd93f63	0.10607793
246	0x3d8dfefe	0.069334015
247	0xbd976ad2	-0.07393421
248	0x3e3239c1	0.17404844
249	0x3d2614dd	0.04054724
250	0x3dbde8f9	0.09272952
251	0xbe2f99d4	-0.17148525
252	0xbd94cf34	-0.07266083
253	0xbcba5a21	-0.022748055
254	0xbdd773d7	-0.105201416
255	0x3d6b4a14	0.057443693

fc1.bias f4 [64]
0	0x3de27320	0.110571146
1	0xbbc91ad6	-0.0061372323
2	0xbe5a1cc6	-0.21300039
3	0x3cd0f682	0.02550817
4	0xbbb4514a	-0.0055028545
5	0x3d2b311a	0.041794874
6	0x3cfc2591	0.030779632
7	0xbe15e8d6	-0.14639601
8	0x3dc0450a	0.09388168
9	0xbe390715	-0.18069108
10	0xbccce39a	-0.025010873
11	0x3d553a98	0.052057832
12	0x3dd3043e	0.103035435
13	0x3cc32a00	0.023823738
14	0x3d8936ed	0.066999294
15	0xbdadc5ec	-0.08485016
16	0xbc89f0e6	-0.016838502
17	0xbd8626ad	-0.065503456
18	0xbe186fa1	-0.14886333
19	0xbe033f85	-0.128172
20	0xbdada317	-0.084783725
21	0xbe055f71	-0.1302469
22	0xbe4c3573	-0.19942264
23	0x3dacdf5e	0.084410414
24	0x3da9f375	0.08298389
25	0x3db04206	0.08606343
26	0x3e1f2e45	0.15544994
27	0x3d1a4b9c	0.037669763
28	0xbb9d7bdc	-0.004806025
29	0x3d80030b	0.062505804
30	0xbda81bd6	-0.08208434
31	0x3e04c57b	0.12965958
32	0xbd547284	-0.051867023
33	0x3d8d7809	0.069076605
34	0xbe03d1d8	-0.12873018
35	0x3b7ced86	0.0038593723
36	0xbdc12f53	-0.094328545
37	0xbd08a474	-0.03335996
38	0xbdacbe15	-0.08434693
39	0xbdaee0c4	-0.085389644
40	0xbe4cc5a0	-0.19997263
41	0x3d2a85d1	0.041631524
42	0x3da2d132	0.07950057
43	0xbe2f82e7	-0.17139779
44	0xbdf49b29	-0.11943657
45	0x3d18788f	0.03722435
46	0x3c73f12f	0.014889046
47	0xbdf1a26e	-0.11798559
48	0xbd1f0e57	-0.038832035
49	0xbcf2355e	-0.029566463
50	0xbe120dc8	-0.1426307
51	0xbdfa2c6b	-0.12215503
52	0xbe19bbbb	-0.1501302
53	0x3da6c80d	0.081436254
54	0xbe0e9cf1	-0.13927056
55	0xbd30a5b6	-0.043126784
56	0x3bc39b15	0.005969415
57	0xbd339ac6	-0.043848775
58	0x3c0638eb	0.008192281
59	0x3e6082bd	0.21924873
60	0xbc310962	-0.01080546
61	0xbd3b3a73	-0.04571004
62	0xbe115597	-0.14192806
63	0x3d390996	0.045175157

fc2.weight f4 [32, 64]
0	0xba39c09c	-0.0007085891
1	0xbd660fe5	-0.056167502
2	0xbcd040f7	-0.025421603
3	0xbdd6ed5b	-0.10494491
4	0x3d999408	0.07498938
5	0x3b1e9d66	0.0024202703
6	0xbd04c110	-0.03241068
7	0x3dac8219	0.08423252
8	0xbd5e4fa2	-0.054275163
9	0x3e07acfb	0.1324958
10	0x3d6ffcc3	0.05859066
11	0x3d620026	0.055175923
12	0x3cc00f83	0.023444897
13	0x3cd24087	0.025665535
14	0xbd066f26	-0.032820843
15	0x3e03572c	0.12826222
16	0x3cd630b6	0.026146274
17	0x3e0bd647	0.13655959
18	0xbd8f3a8c	-0.06993589
19	0x3e204482	0.15651134
20	0xbdb624cb	-0.088937365
21	0x3d2b700b	0.0418549
22	0x3d00fc94	0.031490877
23	0x3d102e12	0.035200186
24	0xbdc87ef1	-0.09789837
25	0x3e2c1b4e	0.16807291
26	0x3b26aa56	0.0025431118
27	0x3cc5c978	0.02414392
28	0x3c3bbcc0	0.011458576
29	0x3d4c329c	0.049852952
30	0xbdf099f9	-0.11748118
31	0xbe128c2a	-0.14311281
32	0xbdc2283e	-0.09480332
33	0xbe57f20c	-0.21088427
34	0x3d81400d	0.06311045
35	0x3e48d174	0.1961115
36	0x3e019500	0.12654495
37	0x3de29d4b	0.110651575
38	0x3d5279d4	0.051385716
39	0xbcf8f547	-0.030390395
40	0xbcddb173	-0.027062153
41	0x3dbf5f3e	0.09344338
42	0x3d4b0c3a	0.049572207
43	0x3e2f7247	0.17133437
44	0x3d1780e8	0.03698817
45	0x3d3bbcc4	0.045834318
46	0x3cf98798	0.030460164
47	0xbdfecd4c	-0.12441501
48	0xbdded151	-0.10879768
49	0x3da91249	0.08255441
50	0x3ce9ca3c	0.028538816
51	0xbd02a2f9	-0.031893704
52	0xbe2ef8eb	-0.17087142
53	0x3d5fa3cf	0.05459958
54	0x3e4f7d87	0.20262729
55	0xbe1ada71	-0.15122391
56	0x3d390f92	0.045180865
57	0x3e038aca	0.12845913
58	0x3dec7951	0.11546577
59	0xbda7625a	-0.08173056
60	0xbb4438e3	-0.0029941134
61	0xbd95e4c9	-0.07319028
62	0xbd4f0a62	-0.05054701
63	0xbbd4ae85	-0.006490531
64	0x3c8e5c35	0.017377952
65	0xbc860840	-0.016361356
66	0xbd4fe192	-0.05075223
67	0x3dae8443	0.08521321
68	0xbce5d551	-0.028055819
69	0x3d4a401d	0.04937755
70	0xbd5d4d39	-0.054028723
71	0x3d80d422	0.06290461
72	0xbe28fe1f	-0.1650319
73	0x3ceff4c1	0.029291512
74	0xbce9a69a	-0.028521825
75	0xbdfb19de	-0.12260793
76	0xbe00f61e	-0.12593886
77	0x3d725771	0.059165422
78	0xbd93383b	-0.071884595
79	0xbd0f36df	-0.03496444
80	0x3e1b0cc5	0.1514159
81	0xbdbd516b	-0.09244045
82	0xbdee2064	-0.11627272
83	0xbdfb2cab	-0.12264379
84	0xbe0cdaf5	-0.137554
85	0x3d8770cc	0.06613311
86	0xbc106e53	-0.008815366
87	0xbe1381a7	-0.14404927
88	0xbd9da5f3	-0.07697668
89	0xbdb603a7	-0.088874154
90	0xbd91364e	-0.07090436
91	0xbbbee166	-0.0058252094
92	0xbd3a6084	-0.0455022
93	0xbdfec091	-0.12439073
94	0xbdc0a624	-0.09406689
95	0x3d4cdc85	0.05001499
96	0x3d9bf94d	0.0761591
97	0xbe2469c2	-0.16055968
98	0xbda2eebc	-0.07955691
99	0xbd4ea863	-0.050453555
100	0x3d426c4f	0.047466572
101	0xbcd04839	-0.025425063
102	0xbab78197	-0.0014000413
103	0xbe017a10	-0.1264422
104	0x3d2411ba	0.040055968
105	0xbd5c2eef	-0.053755697
106	0x3d95366d	0.072857715
107	0x3de179a6	0.11009531
108	0x3d9cb8a6	0.076524064
109	0x3d5b872d	0.05359571
110	0x3d4fa325	0.050692696
111	0xbde49c98	-0.111626804
112	0x3dc363c7	0.095405154
113	0xbb346246	-0.0027524396
114	0xbd4ecbfd	-0.050487507
115	0x3df53ad0	0.11974108
116	0xbe1afeae	-0.15136215
117	0xbdab0041	-0.08349658
118	0xbda70a2a	-0.081562355
119	0xbcaf322f	-0.021386234
120	0xbd5d406f	-0.054016527
121	0xbde980b8	-0.11401504
122	0x3bb6a3e4	0.0055737365
123	0x3dcd076b	0.100111805
124	0xbe1e788d	-0.15475674
125	0xbe339ab6	-0.17539486
126	0xbd1093cf	-0.03529721
127	0xbc966b2d	-0.018361652
128	0xbe096af0	-0.134197
129	0x3c624099	0.013809347
130	0xbdfc2f75	-0.12313739
131	0xbdb1fa59	-0.08690328
132	0x3d2617e1	0.040550116
133	0xbdd474a0	-0.10373807
134	0xbe05bf65	-0.13061292
135	0xbe137f90	-0.1440413
136	0xbdc48eaa	-0.095975235
137	0xbd769d32	-0.060208507
138	0xbe11fc5e	-0.14256427
139	0xbd9c7d75	-0.076411165
140	0xbdc85ac7	-0.097829394
141	0xbe055959	-0.13022365
142	0xbd36f63b	-0.044668417
143	0x3dbce6dd	0.09223721
144	0xbde10473	-0.10987177
145	0x3c5ac7e4	0.013353322
146	0xbce2a8b3	-0.027668333
147	0x3cd033c5	0.02541531
148	0xbd1eeb02	-0.03879834
149	0xbe112e0e	-0.14177725
150	0xbe1c8143	-0.15283684
151	0x3ba6657e	0.005078017
152	0xbd9b2010	-0.07574475
153	0x3d81c484	0.063363105
154	0xbddf3294	-0.10898319
155	0x3d77213f	0.06033444
156	0xbc0d94eb	-0.008641462
157	0xbda5c158	-0.08093518
158	0x3d8f007d	0.06982515
159	0xbdc078c1	-0.09398032
160	0x3d82de09	0.06390006
161	0xbaa55e26	-0.0012616559
162	0x3cbd29e8	0.023091272
163	0x3dbb77b9	0.09153695
164	0x3b3f0a7b	0.0029150534
165	0x3d2df165	0.04246654
166	0x3db577c8	0.08860737
167	0xbda88400	-0.08228302
168	0x3c44e0cd	0.012016487
169	0xbc61476b	-0.0137499375
170	0x3d65d313	0.0561095
171	0xbcdf3a64	-0.027249523
172	0xbcd31174	-0.025765158
173	0xbd1cd157	-0.03828558
174	0x3d047e62	0.03234709
175	0xbddb7d3f	-0.10717248
176	0xbc82bfef	-0.015960662
177	0xbde35a3a	-0.11101194
178	0x3d9f622c	0.07782397
179	0xbe04548b	-0.12922876
180	0xbdb748c5	-0.089494266
181	0xbc3e278b	-0.0116061075
182	0xbe062a09	-0.13101973
183	0xbd990551	-0.07471717
184	0x3bfd842d	0.007736704
185	0xbd89a15e	-0.067202315
186	0xbdd418d9	-0.10356302
187	0xbb11c779	-0.002224414
188	0x3d62e883	0.05539752
189	0x3c72798d	0.014799488
190	0x3ca6ed9a	0.02037697
191	0xbd4befb3	-0.049789142
192	0xbd8a0c52	-0.06740631
193	0xbdca01d5	-0.09863631
194	0x3d12ea5f	0.035868045
195	0xbd37e592	-0.04489667
196	0x3d001835	0.031273086
197	0x3da9d6fc	0.08292958
198	0xbd3d8acc	-0.046274945
199	0x3d99dcbf	0.07512807
200	0xbd8ee883	-0.06977942
201	0x3df2c448	0.11853844
202	0xbded4b33	-0.11586609
203	0xbd530d30	-0.05152625
204	0xbe0a16fd	-0.13485332
205	0xbdb22d8e	-0.08700095
206	0xbbf2155e	-0.007387801
207	0xbd28c32a	-0.041201748
208	0xbdadd872	-0.08488549
209	0x3c42fa4b	0.011900495
210	0xbda62961	-0.08113361
211	0x3da877cb	0.08225974
212	0x3d00e9a3	0.031472813
213	0x3b372950	0.0027948208
214	0x35af3900	1.3055105e-06
215	0xbd061d35	-0.032742698
216	0xbe0de6fc	-0.13857645
217	0x3d15cb2f	0.036570724
218	0xbe16aae0	-0.14713621
219	0xbdae51b8	-0.0851168
220	0xbde2e867	-0.110794835
221	0x3cd5b5b3	0.026087618
222	0xbdf3a981	-0.11897565
223	0x3cc2358f	0.02370718
224	0xbdf4ff38	-0.119627416
225	0xbda8e52e	-0.082468376
226	0x3dc844b0	0.09778726
227	0x3af53e4c	0.0018710583
228	0xbdb5c3b4	-0.08875218
229	0xbd08ff2d	-0.03344648
230	0x3d198aed	0.037486006
231	0xbdaee867	-0.08540421
232	0x3d145d18	0.036221594
233	0x3d82c8af	0.063859336
234	0xbddb915b	-0.10721084
235	0x3e112745	0.14175136
236	0xbe0004a4	-0.1250177
237	0x3cb66c18	0.02226834
238	0xbd9ec4d9	-0.077523895
239	0x3d39f7bb	0.04540227
240	0xbc225cea	-0.009909848
241	0xbd5aadb0	-0.053388298
242	0x3e03d9ae	0.12876007
243	0xbdb20421	-0.08692194
244	0x3ce7c563	0.028292364
245	0x3dca18c6	0.098680064
246	0xbe0af045	-0.13568218
247	0xbe102275	-0.14075644
248	0xbc8f153f	-0.017466186
249	0x3d886e47	0.06661659
250	0xbe0f5c7c	-0.14000124
251	0x3da493bd	0.08035991
252	0xbde74ddb	-0.112941466
253	0x3c6a50d4	0.0143014975
254	0x3d46937c	0.048480496
255	0xbe0e3804	-0.13888556

fc2.bias f4 [32]
0	0xbb54f567	-0.0032494904
1	0x3cb73267	0.0223629
2	0xbe14f459	-0.14546336
3	0xbd4010c2	-0.04689098
4	0x3d929eef	0.071592204
5	0xbd0f4dad	-0.034986187
6	0xbd35d5d6	-0.044393383
7	0xbdd7171f	-0.10502457
8	0x3ceebf44	0.029143937
9	0xbcd6b258	-0.026208088
10	0xbd911222	-0.07083537
11	0xbdc759f3	-0.09733953
12	0xbe1771e5	-0.14789541
13	0xbb86d4be	-0.0041147163
14	0xbe13cc86	-0.14433488
15	0xbd7fa59f	-0.062413808
16	0x3df90431	0.121590026
17	0x3d1cf986	0.0383239
18	0x3db1ad34	0.08675614
19	0xbd6af567	-0.05736294
20	0xbca280dd	-0.019836837
21	0x3cdd3ecc	0.027007483
22	0xbe066555	-0.13124593
23	0x3d0bf9a9	0.03417364
24	0x3e0fa399	0.14027251
25	0xbcde3647	-0.02712549
26	0x3de57a7c	0.11205003
27	0x3e447ba4	0.1918779
28	0xbe12db6d	-0.14341517
29	0xbdb6f327	-0.089330964
30	0xbdf21373	-0.11820116
31	0xbdc8b0bb	-0.09799334

fc3.weight f4 [3, 32]
0	0x3e6676e6	0.22506294
1	0x3d4adde0	0.049528003
2	0xbd3009ee	-0.04297822
3	0x3d8d8fb8	0.06912178
4	0x3da00acf	0.078145616
5	0x3e1c1b3b	0.15244763
6	0x3df058e2	0.11735703
7	0xbd2cfeb3	-0.042235088
8	0xbdfb7cb5	-0.12279645
9	0xbbcdcd76	-0.0062805964
10	0xbe15de3b	-0.14635555
11	0x3d62224c	0.05520849
12	0xbdf83d5d	-0.12121079
13	0x3d193eaa	0.037413277
14	0xbe17e69d	-0.14834066
15	0xbd99328e	-0.07480346
16	0x3e33d48c	0.17561549
17	0xbdb7a11e	-0.089662775
18	0x3d26c3a6	0.04071393
19	0x3e3d85c6	0.18508062
20	0x3e080ae2	0.13285401
21	0xbdde38f5	-0.108507074
22	0xbe0134f1	-0.12617852
23	0xbda5a201	-0.080875404
24	0x3d8bf165	0.06833152
25	0xbda04de0	-0.078273535
26	0xbdf22c9a	-0.11824913
27	0xbe2785bd	-0.16359611
28	0x3e1d831b	0.15382044
29	0xbddaa723	-0.1067641
30	0xbdbb3dc0	-0.09142637
31	0x3d26ec14	0.040752485
32	0xbc8f57cb	-0.017497918
33	0xbcacb034	-0.021080114
34	0xbcd615e2	-0.026133481
35	0xbdaf4c8c	-0.08559522
36	0xbd18ddca	-0.03732089
37	0xbe44d0c4	-0.19220263
38	0x3d7d160b	0.0617886
39	0xbd7b5a2a	-0.061365284
40	0xbd47d048	-0.048782617
41	0x3d89ab04	0.06722072
42	0x3df061fb	0.11737438
43	0x3d188627	0.037237313
44	0x3d7cb249	0.061693463
45	0xbdd79f7f	-0.10528468
46	0x3d90a4b9	0.07062668
47	0xbdb796ad	-0.08964286
48	0xbd34dfce	-0.04415875
49	0x3d0a2b35	0.03373261
50	0x3d14ee5a	0.036360122
51	0x3d6bea49	0.05759648
52	0x3e0be3b4	0.1366108
53	0x3de6f61b	0.1127741
54	0x3d76188b	0.060082
55	0xbdc2285d	-0.09480355
56	0x3b836548	0.0040098764
57	0x3b82818d	0.003982729
58	0x3e3a9972	0.18222597
59	0x3db5d96b	0.0887936
60	0xbdabe689	-0.083935805
61	0xbdaf3bc7	-0.085563235
62	0xbc61a33d	-0.013771829
63	0xbe246944	-0.1605578
64	0xbbe3a9f6	-0.006947751
65	0x3d81b60b	0.0633355
66	0xbd295a98	-0.041346163
67	0xbe1a2a60	-0.15055227
68	0xbe5025aa	-0.20326868
69	0xbe2993ca	-0.16560283
70	0x3db68b61	0.08913303
71	0x3d472a6b	0.048624437
72	0x3d8298f2	0.06376828
73	0x3cee54d4	0.029093184
74	0x3d6307b6	0.055427276
75	0x3e31e66d	0.17373057
76	0xbe316b47	-0.1732608
77	0xbcae1f40	-0.021255136
78	0x3df10f12	0.117704526
79	0xbdab2e23	-0.08358409
80	0xbccb9234	-0.024849989
81	0x3d980a39	0.07423825
82	0x3e0a6192	0.13513783
83	0x3e20aaad	0.15690108
84	0xbe1e1068	-0.15435946
85	0xbbe70304	-0.00704992
86	0x3e18218a	0.14856544
87	0xbc90b980	-0.017666578
88	0x3e3ea2a0	0.18616724
89	0x3de3de3e	0.11126374
90	0xbe1b4540	-0.15163136
91	0x3e8f0824	0.27935898
92	0xbd12b755	-0.03581937
93	0xbb964217	-0.0045855152
94	0x3e39786f	0.18112348
95	0x3e28b816	0.16476473

fc3.bias f4 [3]
0	0x3d9bf3b2	0.076148406
1	0xbbce0307	-0.006286982
2	0xbdd77aca	-0.10521467

onnx::LSTM_209 f4 [1, 512, 2]
0	0x3c95faa3	0.01830799
1	0x3dd773a1	0.10520101
2	0xbd500a67	-0.05079117
3	0xbdd01e43	-0.10162022
4	0xbcef9c92	-0.029249463
5	0xbc82d8ac	-0.015972458
6	0xbdaa82cf	-0.08325731
7	0xbe21f4a6	-0.15815982
8	0xbdd43bbe	-0.103629574
9	0xbe86c39f	-0.26321122
10	0xbc9b3723	-0.01894719
11	0xbcde0aae	-0.027104702
12	0xbe038625	-0.12844141
13	0x3ba5b8cc	0.00505743
14	0xbb928178	-0.0044710003
15	0x3e1d4c5e	0.15361163
16	0xbd881634	-0.0664486
17	0xbd51dd89	-0.051236663
18	0xbc3460ef	-0.011009439
19	0xbdb71040	-0.08938646
20	0x3cefb298	0.029259965
21	0x3cc6f6d8	0.024287626
22	0x3e061d41	0.13097097
23	0x3c8f8738	0.017520532
24	0x3d248c89	0.040173087
25	0xbd6d2bab	-0.057902973
26	0xbd6198d4	-0.05507739
27	0xbd335f3c	-0.043791994
28	0x3b9f6a03	0.0048649325
29	0x3d1cbdf7	0.038267102
30	0xbe39f1d4	-0.18158656
31	0xbde7282c	-0.11286959
32	0x3d948b15	0.0725309
33	0xbd96de3b	-0.07366606
34	0xbe6e9798	-0.23300016
35	0xbcbc6df1	-0.023001643
36	0x3d8906a3	0.06690719
37	0x3e020667	0.12697755
38	0xbe0176f3	-0.12643032
39	0x3d1cd478	0.038288563
40	0xbb7a0fa5	-0.0038156298
41	0xbde68e3c	-0.11257598
42	0x3cb499b2	0.022045944
43	0x3beccbd0	0.007226445
44	0xbd8fc905	-0.07020763
45	0xbe19b2c6	-0.15009603
46	0xbd76f3b7	-0.06029102
47	0xbc9fd721	-0.019511761
48	0x3c84ab5a	0.016194988
49	0x3d7a175c	0.061057433
50	0xbdcb3d84	-0.099238425
51	0x3d9fea3b	0.07808348
52	0xbdd5f670	-0.10447395
53	0xbc913276	-0.017724257
54	0x3d8ac690	0.06776154
55	0x3de2e6b3	0.11079159
56	0xbe583b84	-0.21116453
57	0x3d4b91d4	0.04969962
58	0x3d12dfd4	0.03585799
59	0xbd943f77	-0.072386675
60	0xbdda353e	-0.106546864
61	0x3d2dba3b	0.04241393
62	0xbd37d41a	-0.04488001
63	0xbd016b91	-0.031596724
64	0xbe2f71ff	-0.1713333
65	0x3d2b486f	0.041817125
66	0x3c9bf6f2	0.019038651
67	0xbd19dc1a	-0.03756342
68	0x3d0359a0	0.032067895
69	0xbdd99635	-0.10624353
70	0x3de023ba	0.10944314
71	0xbd915f92	-0.07098307
72	0xbcbf1a65	-0.023328016
73	0x3da00456	0.07813327
74	0x3d2765e0	0.04086864
75	0xbdb1a9c3	-0.086749576
76	0xbe6c1d8f	-0.2305815
77	0xbd45370b	-0.048148196
78	0x3b982276	0.00464278
79	0x3cab8906	0.020939361
80	0xbe19d829	-0.15023865
81	0xbc8ead8c	-0.017416738
82	0xbe0d7924	-0.13815743
83	0x3d6a987d	0.05727433
84	0xbe191b4b	-0.14951818
85	0x3b548f92	0.0032434207
86	0xbdfddcaf	-0.12395608
87	0xbe69233d	-0.22767349
88	0xbe222c8d	-0.15837307
89	0xbdd77e99	-0.105221935
90	0x3dd1168b	0.10209378
91	0xbd1f8dc5	-0.03895356
92	0xbde6b2c1	-0.11264563
93	0x3d3db5d4	0.046315983
94	0xbd152792	-0.03641469
95	0x3e5ea3dd	0.21742196
96	0xbd041088	-0.032242328
97	0xbbee8392	-0.007278868
98	0xbe148550	-0.1450398
99	0xbc984888	-0.018589273
100	0xbdd59a3e	-0.1042981
101	0xbdec275c	-0.11530945
102	0xbdbc1e85	-0.09185509
103	0xbe1ecdaf	-0.1550815
104	0xbd8c26b3	-0.06843319
105	0x3c8af548	0.016962662
106	0xbca8c823	-0.020603245
107	0x3dc035e6	0.0938528
108	0xbde4e987	-0.11177354
109	0xbe2fb7ca	-0.17159954
110	0xbd0c6afb	-0.034281712
111	0xbd8c65d5	-0.068553604
112	0xbd94f20c	-0.07272729
113	0x3d922ec0	0.07137823
114	0xbdff7454	-0.1247336
115	0xbd4b20b6	-0.049591742
116	0xbd9eb00c	-0.07748422
117	0xbd4dea47	-0.050272252
118	0xbc8ecd79	-0.017431961
119	0xbdccfe5b	-0.10009452
120	0xbdcd6193	-0.100283764
121	0xbce79e0a	-0.028273601
122	0xbd78a270	-0.060701787
123	0xbdcc8cd8	-0.09987801
124	0xbd6bbaca	-0.057551183
125	0xbd7074c5	-0.05870511
126	0xbba7684e	-0.0051088696
127	0xbd063b6f	-0.032771524
128	0xbd7f602f	-0.062347587
129	0xbd016a76	-0.03159567
130	0xbe2a1861	-0.16610862
131	0xbe0e0578	-0.13869274
132	0xbcae06d8	-0.021243498
133	0x3b6ec429	0.0036432839
134	0x3d89f011	0.06735242
135	0xbd81d964	-0.06340292
136	0xbe4273e1	-0.18989517
137	0xbd915a46	-0.070972964
138	0xbe4813e6	-0.1953884
139	0xbdace83b	-0.08442732
140	0x3e26886e	0.16262981
141	0x3e37c7c5	0.179473
142	0xbe265ffd	-0.16247554
143	0xbdce54ee	-0.10074793
144	0xbe37ff8b	-0.17968576
145	0xbdbb4be4	-0.09145334
146	0xbd5df50d	-0.054188777
147	0xbdba5093	-0.090973996
148	0xbe46103a	-0.19342127
149	0xbdc4106f	-0.09573447
150	0x3c36007e	0.011108516
151	0xbdfc28c7	-0.12312465
152	0xbd592750	-0.053016007
153	0x3d840bf4	0.064475924
154	0xbdbd501e	-0.09243797
155	0xbd3ff262	-0.046862014
156	0xbb85e37e	-0.004085957
157	0xbe0f4d59	-0.1399435
158	0x3e3cfede	0.18456599
159	0x3e1cb409	0.15303053
160	0xbd9a9195	-0.07547299
161	0xbbdc865d	-0.0067298845
162	0xbe132b32	-0.14371946
163	0xbd0ad29f	-0.03389227
164	0xbbb603a4	-0.005554633
165	0xbdc309fb	-0.09523388
166	0xbb96f46b	-0.0046067736
167	0xbda67237	-0.081272535
168	0x3baad9bf	0.0052139456
169	0xbd57b40c	-0.05266194
170	0xbb3b480e	-0.0028576883
171	0xbd1bb987	-0.03801873
172	0xbcf4b60d	-0.029871965
173	0x3c675925	0.014120375
174	0xbddad5db	-0.10685321
175	0xbd4f6731	-0.05063552
176	0xbdd4d7ca	-0.10392721
177	0x3dc76176	0.09735386
178	0x3d938aec	0.072042316
179	0x3e59d084	0.21270949
180	0x3d9cef49	0.076628275
181	0xbda068b8	-0.078324735
182	0xbe4efb7a	-0.20213118
183	0x3d83d70d	0.06437502
184	0x3d0b0c6c	0.033947393
185	0x3e2c1404	0.1680451
186	0x3c589813	0.013219851
187	0xbd064e66	-0.03278961
188	0xbbc2a1bd	-0.005939691
189	0xbd8cbeb1	-0.06872309
190	0xbd75f8d9	-0.060051773
191	0x3d67fd2f	0.05663794
192	0xbe01c884	-0.12674147
193	0xbe1d7e50	-0.15380216
194	0xbdc95f88	-0.09832674
195	0xbdfa7abb	-0.1223044
196	0x3d78fd6d	0.06078856
197	0x3dae5c9f	0.0851376
198	0xbd9d6608	-0.076854765
199	0x3d341952	0.04396946
200	0xbc07b636	-0.008283189
201	0x3d3f5476	0.046711408
202	0xbe4d5f52	-0.20055893
203	0xbddb5702	-0.10709955
204	0xbdbd0b74	-0.092307
205	0xbd95f5a1	-0.073222406
206	0x3c73ec04	0.0148878135
207	0xbd731240	-0.059343576
208	0xbdabdc8a	-0.08391674
209	0xbd967530	-0.073465705
210	0xbd8f7afd	-0.0700588
211	0x3be7847a	0.007065353
212	0xbd8dc82e	-0.06922947
213	0x3d9832e6	0.07431583
214	0xbdd939d9	-0.10606737
215	0x3d05c5e9	0.032659445
216	0x3da34eca	0.07974012
217	0xbe96d8d5	-0.29462305
218	0xbe4fe300	-0.20301437
219	0x3d8de1e3	0.0692785
220	0xb9bfe4bd	-0.00036600782
221	0xbd37fc5c	-0.044918403
222	0xbdd73a97	-0.10509222
223	0xbd98f7c9	-0.07469136
224	0xbdba81fa	-0.09106822
225	0xbde1dd2a	-0.11028512
226	0xbe0fb32d	-0.14033194
227	0xbe206590	-0.15663743
228	0xbddfb077	-0.1092233
229	0xbdb25dc3	-0.0870929
230	0x3d9115ea	0.07084258
231	0xbd36ffe1	-0.04467762
232	0xbd3bc0da	-0.045838214
233	0xbd3d12a1	-0.046160344
234	0xbe2b1bdc	-0.16709846
235	0xbd922956	-0.071367905
236	0xbde7f40e	-0.113258466
237	0xbd34ec39	-0.044170592
238	0xbe0c833a	-0.13721934
239	0xbe1f5d05	-0.15562828
240	0xbe271e35	-0.16320117
241	0xbdde7f38	-0.10864109
242	0x3d824d26	0.06362371
243	0x3d3474f0	0.044056833
244	0x3cca961f	0.024729786
245	0x3d6c3046	0.057663225
246	0xbd579cb8	-0.052639693
247	0x3a107777	0.0005510966
248	0xbc124b0b	-0.008929024
249	0xbe285645	-0.16439159
250	0x3d8580fd	0.06518743
251	0x3d917212	0.07101835
252	0xbdecd6eb	-0.1156443
253	0x3e3c651f	0.1839795
254	0xbc7aad64	-0.015300129
255	0xbd8384a2	-0.06421782

onnx::LSTM_210 f4 [1, 512, 128]
0	0xbc9d93c8	-0.019235507
1	0x3d2a2978	0.041543454
2	0xbd46455e	-0.048405997
3	0xbd10bc82	-0.035336025
4	0x3ca87b50	0.020566612
5	0xbb2a4d43	-0.0025985993
6	0x3dd359c7	0.10319858
7	0xbd44527e	-0.047930233
8	0x3ccaae5d	0.024741346
9	0xbdc5fe45	-0.09667639
10	0x3e3a7db5	0.18212016
11	0x3bacfd3e	0.0052792123
12	0xbe16d2e4	-0.14728886
13	0x3dfabf42	0.12243511
14	0xbe10ec01	-0.14152528
15	0x3d01e928	0.031716496
16	0xbd6f5337	-0.05842897
17	0x3dcfb87e	0.10142611
18	0x3c1030aa	0.008800665
19	0xbe0494bd	-0.12947364
20	0x3daafd04	0.0834904
21	0x3dd9c337	0.106329374
22	0x3e1272e8	0.14301646
23	0x3d34bca3	0.04412521
24	0x3b9a89af	0.00471612
25	0x3e01c15e	0.1267142
26	0xbda7d8c0	-0.08195639
27	0xbe1f67e6	-0.15566978
28	0x3d3a06d4	0.045416668
29	0x3d54a455	0.05191453
30	0x3b398456	0.0028307638
31	0x3de72868	0.11287004
32	0x3d3ceb4d	0.046122838
33	0xbde9a72c	-0.11408839
34	0xbd795664	-0.060873404
35	0xbd7de998	-0.06199035
36	0x3d62b549	0.05534867
37	0xbd13d139	-0.036088202
38	0xbd8e055a	-0.069346145
39	0x3bf976b7	0.007613029
40	0x3e27d254	0.16388828
41	0xbd4af1d7	-0.049547043
42	0xbc873af7	-0.016507609
43	0x3e0a5e88	0.13512623
44	0xbdded5b0	-0.108806014
45	0xbcc92377	-0.024553044
46	0x3db29cdf	0.08721327
47	0x3d2bbb8e	0.041926913
48	0x3db62493	0.08893695
49	0xbd8596e2	-0.06522919
50	0xbd83e351	-0.064398415
51	0x3dff98be	0.12480305
52	0x3d853a59	0.065052696
53	0x3cb730c0	0.022362113
54	0xbc9f5e66	-0.019454192
55	0x3d3b3a86	0.04571011
56	0x3d7464a1	0.05966628
57	0xbe04aecb	-0.12957303
58	0x3d5be874	0.05368848
59	0xbe133a0b	-0.1437761
60	0x3cc50dbb	0.024054399
61	0xbd39722f	-0.04527491
62	0x3d98ae16	0.07455079
63	0xbdae0812	-0.08497633
64	0x3c887a18	0.016659781
65	0xbe04b138	-0.12958229
66	0xbdb64783	-0.089003585
67	0xb9475b60	-0.00019012159
68	0x3c2a8a8d	0.01040901
69	0x3bf8e70e	0.0075959032
70	0xbd423014	-0.047409132
71	0xbab0439d	-0.0013447885
72	0x3e23b876	0.15988335
73	0x3c3908e1	0.011293621
74	0x3dd84339	0.10559697
75	0x3d6eb51c	0.058278188
76	0xbdc9db3e	-0.0985627
77	0x3d3b6f0e	0.045760207
78	0x3d71dcbc	0.0590484
79	0xbdd88088	-0.105713904
80	0x3e11949c	0.14216846
81	0x3d3c9fb1	0.04605073
82	0x3db2fb92	0.087393895
83	0xbcf3aa34	-0.029744245
84	0x3bdbde0f	0.006709821
85	0x3e15a644	0.14614207
86	0x3d16b0db	0.036789756
87	0xbdaf78fc	-0.08567998
88	0xbd12de72	-0.03585667
89	0x3cb92d66	0.022604655
90	0x3ccaa589	0.024737136
91	0x3daf20a8	0.085511506
92	0x3e1e6f8d	0.15472241
93	0xbbdb44bf	-0.006691545
94	0x3de3e6e6	0.11128025
95	0x3de15c5b	0.110039435
96	0xbceaa450	-0.028642803
97	0xbe0b4ffe	-0.13604733
98	0xbd4e3b32	-0.05034942
99	0xbdae321d	-0.08505652
100	0x3df7cf9d	0.12100146
101	0x3b175889	0.0023093543
102	0xbbe09398	-0.006853532
103	0x3ad0cfe8	0.0015931102
104	0xba1c15c7	-0.0005954173
105	0x3e2bc7a1	0.16775371
106	0x3e02117d	0.12701984
107	0x3d8e595e	0.06950639
108	0x3e0b43d0	0.13600087
109	0xbdfef922	-0.12449862
110	0x3d9e188d	0.077195264
111	0x3de6fa81	0.112782486
112	0x3d89bab6	0.067250654
113	0xbd12aa63	-0.035807025
114	0x3d63c11d	0.05560409
115	0xbcaf733d	-0.021417255
116	0x3d0c0a85	0.03418972
117	0xbdf2e018	-0.11859149
118	0x3d7c0810	0.061531126
119	0x3b9fdb3a	0.0048784288
120	0xbd239348	-0.03993538
121	0xbd81df14	-0.06341377
122	0x3d51472f	0.051093277
123	0xbd537536	-0.051625453
124	0xbe0d0212	-0.13770321
125	0x3cc15627	0.023600651
126	0xbcd660ee	-0.026169267
127	0x3c72d530	0.014821336
128	0xbdebf854	-0.11521974
129	0x3d3f6512	0.046727248
130	0xbd9b430d	-0.07581148
131	0x3db55158	0.08853406
132	0xba28fe65	-0.0006446599
133	0xbd8edff4	-0.069763094
134	0x3d9e5027	0.077301316
135	0x3dca2a01	0.09871293
136	0xbdf0336f	-0.1172856
137	0xbca25071	-0.019813748
138	0x3d420180	0.04736471
139	0xbd9e1f42	-0.07720806
140	0xbc41ec13	-0.01183607
141	0xbd229b47	-0.039698865
142	0xbe206c9c	-0.15666431
143	0xbd4db724	-0.050223485
144	0xbd91c213	-0.07117095
145	0x3e064f78	0.13116252
146	0xbd6dc47f	-0.05804872
147	0xbdc12cd4	-0.094323784
148	0x3cca5efb	0.024703493
149	0xbd029efc	-0.0318899
150	0xbd847a09	-0.06468589
151	0x3e01b982	0.12668422
152	0x3d86c6d5	0.06580893
153	0x3daba8f1	0.083818324
154	0x3c900616	0.017581027
155	0xbd9cab18	-0.07649821
156	0x3d4ab073	0.04948468
157	0x3d955864	0.0729225
158	0x3c994a2c	0.018712126
159	0x3e042ebe	0.12908456
160	0xbd0e0c9c	-0.034679994
161	0xbdc4866b	-0.09595951
162	0xbdc400c9	-0.09570462
163	0x3d8675f7	0.06565469
164	0x3c580f12	0.013187187
165	0xbb88b77e	-0.0041722646
166	0xbe08fdee	-0.13378116
167	0x3d26eeeb	0.040755194
168	0xbd4cd0dd	-0.050003875
169	0xbe16eda3	-0.14739089
170	0xbdd73d14	-0.105096966
171	0x3db02fbf	0.08602857
172	0xbdd223ad	-0.10260711
173	0x3c83bd23	0.016081398
174	0x3db798a3	0.0896466
175	0x3debfec6	0.115232036
176	0xbbd3ad3d	-0.0064598606
177	0x3d1d4c91	0.038403098
178	0x3da2a9f0	0.07942569
179	0x3d27a91a	0.040932752
180	0x3d16ae96	0.036787592
181	0xbd9510dc	-0.07278606
182	0xbdc3b912	-0.09556784
183	0x3d3cf843	0.0461352
184	0xbcc8be72	-0.024504874
185	0xbdae15c6	-0.08500247
186	0xbdb7cccb	-0.08974608
187	0x3c6cd416	0.014454862
188	0x3e0ec7bf	0.13943385
189	0xbd0b123a	-0.03395293
190	0xbcf2065f	-0.029544054
191	0xbd7d8f74	-0.061904386
192	0x3c8ad3c0	0.016946673
193	0x3d33786e	0.043816023
194	0xbc27f29d	-0.010250715
195	0x3da62235	0.08111993
196	0x3da5377c	0.080672234
197	0xbe3cabc3	-0.18424897
198	0x3cceed5e	0.02525967
199	0xbdaa1b93	-0.083060406
200	0xba61120c	-0.0008585758
201	0xbd12958f	-0.03578716
202	0x3dc5804a	0.0964361
203	0x3c9bd88a	0.019024152
204	0x3df1b61a	0.11802311
205	0x3de52c34	0.11190072
206	0x3cf6f222	0.030144755
207	0x3d0d0b85	0.034434814
208	0x3e34623e	0.17615601
209	0x3d50f87e	0.05101823
210	0x3dc45c2d	0.09587894
211	0x3d01c21b	0.031679254
212	0x3e1c29e2	0.15250352
213	0xbd048012	-0.0323487
214	0xbc93ab07	-0.018025888
215	0x3dcd9423	0.100380205
216	0x3dfeabc3	0.12435105
217	0xbcc9fa1a	-0.02465539
218	0xbdaaaf9d	-0.08334277
219	0x3e4622f1	0.19349267
220	0xbd688da1	-0.056775693
221	0x3c0881f0	0.008331761
222	0x3da3a4cc	0.07990417
223	0xbddf2e70	-0.10897529
224	0xbcc16b2a	-0.02361067
225	0xbdbf4fd5	-0.093413986
226	0xbc7c675e	-0.015405504
227	0xbe09cb8d	-0.13456555
228	0xbc125582	-0.008931519
229	0xbe36c3fe	-0.17848203
230	0xbdd332a6	-0.10312395
231	0xbe235aac	-0.15952557
232	0x3d179543	0.03700758
233	0x3dab9f6e	0.08380018
234	0xbdc5dc38	-0.09661144
235	0x3d7e2c32	0.062053867
236	0x3d87ea1c	0.0663645
237	0x3db123a2	0.086493745
238	0xbd00ed31	-0.031476203
239	0xbd414501	-0.047184948
240	0x3d20125e	0.039080016
241	0xbd98fe11	-0.07470334
242	0x3daae6c7	0.083447985
243	0x3d84b97f	0.06480693
244	0x3dd822e2	0.10553528
245	0xbdf61750	-0.12016165
246	0x3e07ee50	0.13274503
247	0x3ddddbbc	0.10832927
248	0x3d08d948	0.03341034
249	0x3c79a18e	0.015236272
250	0x3c5154d0	0.0127765685
251	0xbd10e893	-0.03537805
252	0xbda79571	-0.081828006
253	0x3dc0c288	0.09412104
254	0x3bdfe667	0.006832886
255	0xbdf11294	-0.117711216

onnx::LSTM_211 f4 [1, 1024]
0	0xbb1e94b1	-0.0024197514
1	0x3da52441	0.080635555
2	0x3c8773be	0.016534682
3	0xbe4396ee	-0.19100544
4	0xbdb30824	-0.08741787
5	0xbd80c9ab	-0.06288465
6	0xbe05b8e1	-0.13058807
7	0x3e035d72	0.12828615
8	0xbd216355	-0.03940137
9	0xbd0f8f9b	-0.035049062
10	0xbd4b71c4	-0.049669042
11	0x3e056de4	0.13030201
12	0xbd276b4d	-0.040873814
13	0x3e1c945b	0.15290968
14	0xbcd4b439	-0.025964843
15	0xbd6d5bee	-0.057949
16	0xbdb3b436	-0.08774607
17	0xbd54a8fc	-0.05191897
18	0xbd1944f4	-0.037419274
19	0xbb9ee9fc	-0.0048496705
20	0xbe39018c	-0.18066996
21	0x3c099bd4	0.008398969
22	0xbe280726	-0.16408977
23	0xbd2ff41e	-0.042957418
24	0xbc9c8aee	-0.019109216
25	0x3b73c85f	0.0037198288
26	0xbdb7ad63	-0.08968618
27	0x3de82858	0.1133582
28	0xbdcb7858	-0.09935063
29	0xbd1f832d	-0.03894346
30	0xbe04716b	-0.1293389
31	0xbcdf47a2	-0.027255837
32	0xbc1baefd	-0.00950217
33	0xbd9a31de	-0.07529043
34	0x38484630	4.7749083e-05
35	0x3c074f8b	0.008258711
36	0xbd8e07d1	-0.069350846
37	0x3cb76b93	0.022390163
38	0xbd448cb9	-0.047985766
39	0xbd9d2705	-0.07673458
40	0xbd41878a	-0.0472484
41	0xbdb56b62	-0.08858372
42	0xb9fffb0f	-0.00048824443
43	0xbd2cfa98	-0.042231172
44	0xbdf41856	-0.11918704
45	0xbddc5742	-0.107588306
46	0xbd3acc84	-0.045605198
47	0xbd54ed94	-0.051984385
48	0xbdf43217	-0.119236164
49	0xbdcdc49c	-0.10047266
50	0xbd31295c	-0.043252334
51	0x3d4b4149	0.049622808
52	0x3d807a5d	0.06273339
53	0x3d3740d3	0.044739556
54	0xbd964f43	-0.07339337
55	0xbcccc09f	-0.024994193
56	0xbd9e63e9	-0.077339
57	0x3caa666c	0.020800792
58	0xbcfa8ce1	-0.030584754
59	0xbd387879	-0.045036767
60	0xbe3dbe64	-0.1852966
61	0xbe336bfd	-0.17521663
62	0xbdf3437f	-0.11878108
63	0xbbe09fab	-0.0068549714
64	0xbd455f82	-0.048186786
65	0xbd656bb0	-0.056010902
66	0xbd125197	-0.03572234
67	0x3cd5eee9	0.026114898
68	0xbd3f82b0	-0.046755493
69	0xbd9a122f	-0.075229995
70	0x3d5d4209	0.054018054
71	0xbd10aa46	-0.035318635
72	0xbe3b589a	-0.18295518
73	0xbd919646	-0.071087405
74	0x3d454d24	0.04816927
75	0xbd4081f0	-0.046998918
76	0x3d69e842	0.057106264
77	0xbd98a7f9	-0.07453913
78	0xbbbc20a3	-0.0057411953
79	0x3dc3f379	0.09567923
80	0xbd5c68e2	-0.05381096
81	0xbc7b94d8	-0.015355311
82	0x3d28fddc	0.041257724
83	0x3cc7f14d	0.024407053
84	0xbd836afe	-0.064168915
85	0x3d8a4831	0.06752051
86	0xbb62821b	-0.0034562412
87	0xbd819904	-0.063280135
88	0xba8215ce	-0.0009924711
89	0x3d76b550	0.060231507
90	0x3c1708ee	0.009218438
91	0xbd2ace66	-0.041700743
92	0x3c5e0141	0.013550104
93	0xbe243a3a	-0.16037837
94	0xbdae6825	-0.08515958
95	0xbe0758ec	-0.13217515
96	0xbda2d4f4	-0.07950774
97	0xbc90aa5b	-0.017659357
98	0x3e0ff07e	0.14056584
99	0xbdabaa85	-0.083821334
100	0xbd1fafed	-0.038986135
101	0xbdc99c23	-0.09844234
102	0xbddbc382	-0.107306495
103	0xbd7b3efe	-0.06133937
104	0xbc80ac65	-0.015707204
105	0xbd89e51d	-0.06733153
106	0xbd4d2c5e	-0.05009114
107	0xbda26892	-0.079301015
108	0xbdf782b6	-0.12085478
109	0xbd68234d	-0.05667429
110	0x3d06f6bf	0.03295016
111	0xbcb6a348	-0.022294655
112	0xbd7b2f44	-0.061324373
113	0xbbed51db	-0.007242424
114	0xbe056af0	-0.13029075
115	0x3d8c3dc3	0.068477176
116	0xbdbe95c9	-0.09305913
117	0xbdd427f2	-0.103591815
118	0x3cab2483	0.020891434
119	0xbe299670	-0.16561294
120	0xbd71f8d8	-0.059075207
121	0xbb5a206c	-0.0033283485
122	0x3d1cbf19	0.038268182
123	0x3b1d718a	0.0024023973
124	0xbbfe8c97	-0.0077682245
125	0xbdf45651	-0.11930526
126	0xbd028537	-0.031865325
127	0xbdd0ce46	-0.101955935
128	0xbdb7da13	-0.08977141
129	0x3ce6b186	0.028160822
130	0xbcea2ca0	-0.028585732
131	0xbdeb0dbb	-0.11477228
132	0xbcc81559	-0.024424242
133	0x3c4a691f	0.012354164
134	0xbc96991d	-0.018383557
135	0x3de91494	0.11380878
136	0x3b6b8529	0.0035937524
137	0xbe140def	-0.1445844
138	0x3c7ada4d	0.015310836
139	0x3dfcd76b	0.12345775
140	0x3cbe39e3	0.023220962
141	0x3dbed8f6	0.09318726
142	0xbd04eef5	-0.03245445
143	0xbd7fd0ae	-0.06245487
144	0x3d41119b	0.04713593
145	0xbe3ace45	-0.18242748
146	0xbc8e8abe	-0.017400142
147	0x3d2080b2	0.039185233
148	0xbd0bf102	-0.03416539
149	0x3e29fe56	0.16600928
150	0xbe408324	-0.18800026
151	0xbe33ffd6	-0.17578062
152	0xbcebdc03	-0.028791433
153	0xbdf0bc79	-0.11754698
154	0xbdc146b1	-0.094373114
155	0x3d1228a6	0.035683297
156	0xbe1621ca	-0.14661327
157	0xbe11826a	-0.14209905
158	0xbce90701	-0.028445723
159	0xbd6b166c	-0.05739443
160	0xbd2f9d59	-0.042874668
161	0xbda4d5fc	-0.08048627
162	0x3bc10c33	0.005891347
163	0x3d1c1f0c	0.038115546
164	0xbd508b74	-0.050914243
165	0x3dbc4590	0.091929555
166	0x3d83e8f3	0.06440916
167	0xbcf7956e	-0.03022262
168	0x3c9d79b7	0.019223077
169	0xbd366ff9	-0.04454038
170	0xbd117254	-0.035509422
171	0x3d08870a	0.03333191
172	0xbd1b7fa8	-0.03796354
173	0x3d5d1420	0.05397427
174	0x3c97fcb0	0.018553108
175	0x3d449ea9	0.048002873
176	0x3d3975cd	0.04527836
177	0xbd6fd345	-0.05855109
178	0xbe23ba42	-0.1598902
179	0x3d855300	0.065099716
180	0xbb98e89f	-0.0046664025
181	0xbd7a4289	-0.06109861
182	0xbdffa7bd	-0.124831654
183	0xb8b95c32	-8.83866e-05
184	0x3d4d0518	0.050053686
185	0xbceeb666	-0.029139709
186	0xbca8f5a1	-0.020624937
187	0xbe0c0398	-0.13673246
188	0xbce07c17	-0.02740292
189	0xbe4b4bd7	-0.1985315
190	0x3c3b5dbe	0.011435924
191	0xbce9a528	-0.028521135
192	0x3d5da5a6	0.054113053
193	0xbdb03fb2	-0.08605899
194	0xbc8ac2b7	-0.01693855
195	0xbbeac466	-0.007164526
196	0xbd0633f1	-0.03276438
197	0xbd9685dc	-0.073497504
198	0x3d3e5252	0.046465226
199	0xbc4ad448	-0.012379713
200	0xbdc3bb7f	-0.095572464
201	0xbde045de	-0.10950826
202	0x3d3a2b2f	0.04545134
203	0xbd5f7898	-0.054558367
204	0x3d897801	0.06712342
205	0xbe237dd9	-0.15965976
206	0xbb8ad852	-0.004237213
207	0xbc1a32e0	-0.009411544
208	0x3ca4c1ea	0.020111997
209	0xbdee10e6	-0.11624317
210	0x3d96e95f	0.07368731
211	0x3ddb2621	0.10700632
212	0xbda3c733	-0.079969786
213	0xbd51d9b3	-0.051233005
214	0x3d4ca673	0.049963426
215	0x3b739c8c	0.0037172167
216	0xbd79d8ce	-0.060997777
217	0x3d626f3e	0.05528187
218	0xbd6308c3	-0.055428278
219	0xbe369e29	-0.17833771
220	0x3c693325	0.014233385
221	0xbcfa6bf8	-0.030569062
222	0xbe0a948b	-0.13533227
223	0xbdb281f3	-0.08716192
224	0xbd4a63bd	-0.049411524
225	0xbcca64cc	-0.024706267
226	0x3da4a573	0.080393694
227	0xb9ea3908	-0.0004467445
228	0x3a39574e	0.00070701994
229	0xbd641d17	-0.055691805
230	0x3ce56d66	0.028006267
231	0xbd4af213	-0.049547266
232	0xbdee5b22	-0.11638476
233	0xbd26b566	-0.04070034
234	0xbd315266	-0.043291472
235	0x3aa37d52	0.0012473261
236	0x3c316ca9	0.010829129
237	0x3d166baa	0.03672377
238	0x3e051b54	0.12998706
239	0xbd6db24f	-0.058031376
240	0xbd30a0b3	-0.043122005
241	0xbe160fd7	-0.1465448
242	0xbd05d08c	-0.03266959
243	0xbd9fe33e	-0.07807015
244	0xbdd44a82	-0.10365774
245	0xbc7226ee	-0.014779789
246	0xbd930ffa	-0.07180782
247	0xbd24d0df	-0.040238257
248	0x3c418b13	0.011812943
249	0x3bfc9015	0.0077076056
250	0xbd7fa6ff	-0.06241512
251	0xbd8ff4a9	-0.07029087
252	0xbd4a8de1	-0.049451713
253	0xbdf1de74	-0.11810008
254	0xbd6bd7d5	-0.05757888
255	0x3c503492	0.012707846
