rock_paper_scissors_model.onnx (onnx, 481656 bytes, 14 tensors)

norm2.weight f4 [128]
00000000: 7ea7 813f 3778 813f 70d5 833f 9126 803f
00000010: 1a2e 863f 09de 813f a383 823f 2127 803f
00000020: b80c 853f 6487 803f 584a 823f 9772 7e3f
00000030: 8ca4 813f d2b7 843f fb94 813f 8d5b 823f
00000040: 1937 793f 058d 823f 301c 833f 8afc 813f
00000050: 16af 823f 5b94 873f 0f88 853f b6c7 823f
00000060: 0aad 823f 5396 833f b159 833f cf3e 883f
00000070: fa27 893f 1d7d 7f3f b5d4 7f3f 69ce 823f
00000080: 537a 843f 068f 803f b8cf 833f 191e 803f
00000090: ecc3 7f3f 3596 7f3f 7bb9 803f 2656 883f
000000a0: f462 803f 6883 7e3f 1aa3 833f 0d6d 823f
000000b0: b62b 853f d68d 843f 6f3d 813f a5c5 833f
000000c0: 70b1 7d3f 5f3e 803f 05b6 843f 4a57 823f
000000d0: 99ad 833f 9dd9 843f 3de0 853f 3990 813f
000000e0: 5953 853f a435 843f dc30 823f b6d1 823f
000000f0: ce4e 803f 4568 7e3f 528f 813f ad3e 853f
00000100: 922d 803f 0736 813f aae1 843f 0181 833f
00000110: 7400 863f 3142 823f 4ff5 833f d547 853f
00000120: 7f96 813f 8133 833f 82c5 833f 9f21 843f
00000130: 0529 823f d0bc 833f a4dc 863f 4428 853f
00000140: 452f 833f a7e1 823f b1b6 823f 49dd 803f
00000150: 1b9c 7f3f f5d6 823f 8a9c 843f ff5a 863f
00000160: 5fb4 803f 3481 833f 0190 833f 10e5 803f
00000170: a3e0 813f 5302 833f aad3 853f 54d2 803f
00000180: d422 833f 6227 823f bd2c 7f3f 918a 813f
00000190: f8fc 833f c629 803f 03e9 833f c7f9 823f
000001a0: afcf 803f 58a2 833f 66fe 803f f69e 833f
000001b0: da1a 823f e19b 823f a812 813f c6ee 813f
000001c0: 318b 813f e0be 7c3f c63c 823f 416e 833f
000001d0: 4819 7f3f f53d 863f 7095 823f ecae 823f
000001e0: 1f75 833f f46c 823f cbf8 7f3f df86 823f
000001f0: ca10 803f 712f 853f 2910 823f d677 803f
1.012924 1.0114812 1.0299511 1.001177 1.0482819 1.0145885 1.0196422 1.0011941
1.0394506 1.0041318 1.0178938 0.993936 1.0128341 1.0368598 1.012359 1.0184189
0.973497 1.0199286 1.0242977 1.0155194 1.0209682 1.059215 1.0432147 1.0217197
1.0209057 1.028025 1.0261747 1.0644168 1.0715325 0.9980028 0.9993394 1.0219241
1.034983 1.0043647 1.0297766 1.0009185 0.9990833 0.9983857 1.0056604 1.065129
1.0030198 0.9941926 1.028415 1.018953 1.0403965 1.0355785 1.0096873 1.0294691
0.99098873 1.0019034 1.0368048 1.0182889 1.0287353 1.037891 1.0459057 1.0122138
1.0416061 1.032887 1.0171161 1.0220249 1.0024049 0.9937785 1.0121863 1.0409752
1.0013907 1.0094613 1.0381367 1.0273744 1.0468888 1.017645 1.0309237 1.0412546
1.0124053 1.0250093 1.029465 1.032276 1.0168768 1.0291996 1.0536084 1.0402913
1.02488 1.0225114 1.0212003 1.0067531 0.99847573 1.022185 1.0360272 1.049652
1.0055045 1.0273805 1.0278322 1.0069904 1.0146679 1.0235084 1.045522 1.0064187
1.0245004 1.0168269 0.9967764 1.0120412 1.0311575 1.0012748 1.0305485 1.0232476
1.006338 1.0283918 1.0077636 1.0282886 1.0164444 1.020382 1.0083818 1.0150993
1.0120603 0.9872875 1.0174797 1.0268022 0.9964795 1.0487658 1.0201855 1.0209632
1.0270118 1.01895 0.99989 1.0197409 1.0005124 1.0405103 1.0161182 1.0036571

norm2.bias f4 [128]
00000000: cfbd b8b9 5f6c bbbb a382 b33b 36f7 2c3a
00000010: 63b3 51bb bb45 acbb 5cf2 d8bb b5cb 14bc
00000020: 06d2 f63b c144 903c 5665 a33a 754f 543c
00000030: 7c4a 013b 6f6c bd3b da69 dd3b c407 9a3c
00000040: 3b91 56bc a209 67bb dde9 efba 0310 abbb
00000050: e169 9a3b 39e7 5dbc c97d dd3b c13d 2b3c
00000060: 57f2 48bb 1e02 0a3b d41c 49bb ff00 92bc
00000070: 464e 0a3c 8302 18bb d108 f1ba 9874 79bc
00000080: 494d 5f3b 48e2 923a c4c7 133c 9cbe 23bc
00000090: 6587 c8bb 1202 32b9 3ac8 81bc 6f45 92bb
000000a0: 8c6e 543c 2a6f 213c f03a 233b 9f05 363b
000000b0: 6129 acba 2f2e 19bc 587e 56bb a1f0 adbb
000000c0: 7af0 3ebc 4535 9f3c 9854 6bbc efac 35bc
000000d0: 62e6 833b be10 7e3a 0c77 a3bc ee32 b6bb
000000e0: 042d e7bb 2568 853c f504 fdbb 5c34 97ba
000000f0: a2a1 10bc e0d7 413c 7ddf 43bc 76a1 113c
00000100: c4d8 c1bc 7f43 b8ba 16b9 9a3c cbba 99bb
00000110: fed6 263c 60c0 95bb 3969 6ebc 3b1c a8bb
00000120: 550b 873c b42c e63a 0aa1 323b 988f f93a
00000130: 5e89 b8ba ae9f 63bc ef49 45bc ae3b f13b
00000140: 6d90 afbb 2509 063a b71d 5c3c 2abd d2bb
00000150: ed19 bdbb dbc7 bdbb af63 2fbc 6810 24bc
00000160: bc2a d3bb 904a 093b 9854 3dbb 1314 aa3c
00000170: c6bc 0d3c 594a 23bc 58c0 893a 26e7 4b3b
00000180: 7533 0e3c 9495 c33b ff4e b13b dbf7 81bb
00000190: 52bd 99bb 2d06 0c3c ccb3 ffbb 3528 1439
000001a0: ae5d 803b f6a8 f9bb 9a5c 62ba ddc8 523c
000001b0: 7bd1 133c d4c0 04bc 862b 93bb a5fd aa3b
000001c0: b5b4 dcbb d5c3 143c 07a8 003c c364 e9bb
000001d0: 705c 303c f46f 60b7 b7ea 123c 438d 9f3b
000001e0: f7a9 c43b 80bf 3abc 564c 283c a11c 96bb
000001f0: f2da 813c 30ac ebbb 1063 adbc a3d8 dabb
-0.00035236633 -0.005719706 0.0054782196 0.00065981166 -0.0031997792 -0.005257336 -0.0066206884 -0.009081771
0.007532361 0.01761091 0.0012466114 0.012958397 0.0019728234 0.0057807486 0.0067570033 0.018802531
-0.013096149 -0.0035253544 -0.001830395 -0.0052204146 0.004712329 -0.013543897 0.0067593795 0.010451735
-0.0030662024 0.002105839 -0.003068735 -0.01782274 0.008441513 -0.0023194856 -0.0018389468 -0.015225552
0.0034073165 0.0011206353 0.009019796 -0.009994175 -0.006119656 -0.00016976174 -0.015842546 -0.0044638435
0.01296581 0.009853164 0.0024906956 0.0027774347 -0.001313489 -0.00934939 -0.0032729115 -0.005308226
-0.011654014 0.01943458 -0.01436343 -0.011088594 0.0040252665 0.0009691826 -0.019954227 -0.0055602705
-0.007054927 0.016285012 -0.007721538 -0.001153599 -0.008827599 0.011831254 -0.011955139 0.008888593
-0.023662932 -0.0014058201 0.018887084 -0.004691457 0.010183094 -0.004570052 -0.014551454 -0.0051303185
0.016484896 0.001756093 0.0027256631 0.0019039987 -0.0014079025 -0.013893051 -0.012041553 0.0073618507
-0.005357793 0.0005113057 0.013434819 -0.0064312415 -0.005770913 -0.005791647 -0.010704919 -0.010013677
-0.0064443033 0.0020948984 -0.0028889533 0.020761525 0.008650964 -0.009966456 0.0010509593 0.0031113117
0.0086792605 0.005968759 0.0054110284 -0.0039663143 -0.004691758 0.008546394 -0.007803416 0.00014129358
0.0039174175 -0.0076190187 -0.00086350145 0.012865272 0.009022112 -0.008102614 -0.0044912724 0.005218225
-0.006735409 0.009079893 0.007852561 -0.0071226074 0.010764226 -1.3377507e-05 0.008967093 0.0048691346
0.0060017067 -0.011398196 0.010272106 -0.0045810496 0.015851472 -0.007192157 -0.0211654 -0.006678657

norm3.weight f4 [64]
00000000: 23be 7e3f 3385 803f e585 803f 90bf 833f
00000010: 1fec 813f 3e9b 7f3f 4afc 7e3f ee37 863f
00000020: 56a7 793f 92e5 823f f8a9 7d3f 0ed4 7f3f
00000030: 7907 843f 0b68 803f 00fd 773f eba6 813f
00000040: 08c4 813f c17d 803f 9d70 803f b096 813f
00000050: 8e52 813f df73 7f3f d259 803f 49ed 773f
00000060: 32fd 773f eabe 813f d486 813f 15ca 7c3f
00000070: af69 7d3f 16cb 803f ab6e 803f 6500 783f
00000080: 94bf 803f de7c 7e3f 4e25 7f3f 390d 793f
00000090: 8859 803f 68a8 7c3f 6d59 813f 9023 7a3f
000000a0: cc07 823f 15f4 823f c422 823f 34ea 873f
000000b0: da0c 7a3f 5ec0 7c3f c0f8 803f 626e 7f3f
000000c0: 4547 813f 79be 7f3f 1bfd 7c3f c27c 803f
000000d0: c274 7a3f f598 803f f739 863f 7961 7a3f
000000e0: 2ad5 7b3f a8f5 7f3f e879 833f 007a 853f
000000f0: e3ee 7a3f 58c5 7d3f edfb 7d3f b5be 843f
0.99508876 1.0040649 1.0040861 1.0292835 1.0150183 0.99846256 0.9960371 1.0485818
0.9752096 1.0226309 0.99087477 0.99932945 1.031478 1.0031751 0.9687042 1.0129064
1.0137949 1.0038377 1.0034367 1.0124111 1.0103319 0.9978618 1.0027411 0.96846443
0.9687072 1.0136387 1.0119271 0.9874585 0.98989385 1.0061977 1.0033773 0.968756
1.0058465 0.9940928 0.996663 0.972858 1.0027323 0.9869447 1.0105416 0.97710514
1.015863 1.0230738 1.016686 1.0618348 0.9767586 0.9873103 1.0075912 0.99777806
1.0099875 0.99900013 0.9882371 1.0038073 0.9783441 1.0046679 1.048644 0.9780498
0.9837214 0.99984217 1.0271578 1.0427856 0.9802076 0.9912925 0.99212533 1.0370699

norm3.bias f4 [64]
00000000: 3d5c a3ba efd6 9cbc b9ad 5abb 0194 043c
00000010: 1eba 633c 5b8f 4f3c 4468 853c 99f2 a33b
00000020: b1c6 a8bc 3552 48bb 5973 18bc 8593 a23b
00000030: 6ab5 06bb f03d 3ebc 16da c5bc 0fd5 8f3c
00000040: c269 1a3c ae13 7a3c 9c99 a4bc 0707 173c
00000050: c983 f63b d977 9c3c c6d3 a8bb 051a 02bd
00000060: 12bc dd3c be2e 55bc e960 30bc 9171 c7bb
00000070: 63c2 d7bc 0ebd 3a3c 366a e8bc 286b 323c
00000080: 73d9 663c 46c7 403c f3a7 53bc 214b be3c
00000090: a614 90bc aeae ef3b 35c9 8fbc b74c a1bc
000000a0: 192e 0fbc 3305 0cbc 17f6 72ba 08ca 90bb
000000b0: ae4a 70bc 811b bf3c 6652 9938 6229 9abc
000000c0: 6740 8f3c d01d fe3b efc3 30bc 4d6b 343c
000000d0: eabb 02bc 0207 313b 5d27 753c 3915 70bc
000000e0: 9cc8 15bc aa57 6c3c a3f8 35bc 96a4 0cbc
000000f0: d12e a73c 73a4 3abc faf9 53bc 73fb a6bb
-0.0012463402 -0.019145457 -0.0033367707 0.0080919275 0.013899354 0.012668456 0.01628507 0.005003285
-0.020602556 -0.0030566577 -0.009304845 0.0049614334 -0.0020554909 -0.011611447 -0.024151843 0.017557649
0.009424629 0.015263481 -0.020092778 0.009217984 0.0075230342 0.019100117 -0.0051521985 -0.031763095
0.027067218 -0.0130116325 -0.010765293 -0.006086536 -0.026337808 0.011397613 -0.028370958 0.010889806
0.01408993 0.0117662605 -0.01291846 0.023229184 -0.017587971 0.0073145246 -0.017551998 -0.0196899
-0.008739018 -0.008546161 -0.00092682376 -0.0044186153 -0.0146662425 0.023328545 7.3109564e-05 -0.018818561
0.017486764 0.007755019 -0.010788902 0.011011911 -0.0079793725 0.0027012234 0.014962998 -0.014653497
-0.009142067 0.014425198 -0.011106643 -0.008584162 0.020408066 -0.011391747 -0.012938017 -0.005095893

fc1.weight f4 [16, 64]
00000000: 2073 ae3d abed 88bd 868d 5c3c f17f cbbd
00000010: b6ac 993d 6e59 923c 16c4 b83d ea8c cabd
00000020: 481e 0cbe 2a8a b2bd 7cae 7c3d c228 0bbc
00000030: e5b0 5b3d 9d3a acbc e96a 043d 138b a8bb
00000040: e7df 2abd 8cb8 7abd e6d4 8e3c 0548 463d
00000050: 930e a63c 7cd9 49bc 1552 773d 1779 b3bd
00000060: fa4f 663d 62fd eebc cfcc 02bb d405 d23d
00000070: be61 003e 036d 6d3b 013b f53d 6fe1 7c3c
00000080: 697d 013e e56c 973d 56d2 01bd a432 dcbc
00000090: a281 ba3d 7e39 ad3d f468 e13d 9f1e d4ba
000000a0: 6bd5 4a3d 6b17 7c3d 8f67 023d bc3e 6abd
000000b0: 88e2 843d 4dff 5a3d d385 ccbd 198d 97bd
000000c0: 5d9b bbbd 64e6 b7bd 27c6 9c3d 071d 72bc
000000d0: 8577 4cbd 3cca d83d 4f48 533d 124f 543d
000000e0: bbfa 17bd 23a6 bf3d 5cdc 1abd 0b21 803c
000000f0: 86c4 e4bd 0034 e5bd 512e fabc c582 4e3c
00000100: 062f efbd b35c e3bd bba8 a23d 7d37 5abd
00000110: a60d 793d 91eb d33d cf56 4a3d 24b0 67bc
00000120: 8e1c d23c 070e 07bc 42da 0a3d c151 01be
00000130: 0e44 ccbc 05ed 513d ec3d 323b 54f7 ee3d
00000140: 9d4d d0bd 6cf9 f6bc 391b fcbd e5e2 d0bd
00000150: 6c4a dd3d acbc fa3d 67cf 903d 44ed bdbd
00000160: d7db 8bbd c846 05be 22cc 0e3e 14c8 e33d
00000170: 5b5d dfbd baf2 c4bd 5613 cf3d 78a0 8abd
00000180: a771 ab3d 1583 a2bd 24e8 b1bc c4bd bcbd
00000190: 788c 153e e234 da3d 9f6e b13d 2351 823d
000001a0: 272f ed3a 00f7 e23d 9a7e 42bd cbdc d03c
000001b0: 8b80 bebd 1df6 2fbd e996 823d d3ae 253d
000001c0: 763b b8bd 101b 2bbc 853b d5bd d341 033d
000001d0: 840b 20bd a31f 05bd 6d90 9cbd 6660 543d
000001e0: 7d2e d83d c394 97bd 66c8 ca3d 48de a7bd
000001f0: 2a2e d53d 103c 413d 7af8 d4bd bd90 90bd
00000200: 9e9c 86bd 0e30 25bb 95db cd3d 4873 6e3c
00000210: 7904 cabc ab8f 633d dbbe 873d e3b0 9dbc
00000220: b05b 7fbd 9e62 87ba a039 2abd 8592 ecbd
00000230: 0159 efbd 1288 3abd 85f0 e6bd 0c6a e53d
00000240: 6e14 3c3d 35f7 00bd 7ac4 aebd 8847 2abc
00000250: 0eb8 abbd 119b aebc 9909 eebd 12c5 72bd
00000260: a150 81bc 9f11 9cbd 0670 873d 7d8a ca3d
00000270: 440a 91bd 9548 afbd e2ff 6cbd c675 07bd
00000280: 30fd adbd 6b3a 89bd cfc4 b13d 47a4 cd3d
00000290: e993 ef3d 2eeb 11bd a7ed 2cbd c63b aa3d
000002a0: 1c36 a6bd 2c95 df3b e879 b83c f20e f53d
000002b0: e5ef 813d 4adb c83d f766 ff3c eac0 b93b
000002c0: aa9b 9e3b 7c41 60bd 0923 eabd c2d7 b3bd
000002d0: 7067 11bc 8fd2 733c 37ef 96bd b221 1dbc
000002e0: ecdd d1bd 273a 99bd d35a c2bb 789e 7e3d
000002f0: d3e5 9f3d c85a 03be 34f6 93bd d8ea 6a3d
00000300: 4070 83bd 1bc8 46bc 7149 cb3d 32b6 86bd
00000310: 7171 da3d a63d a23d 478b 29bd 656f 19be
00000320: 5d31 8d3d 4a51 b43a 0c28 9d3d fc9b f73c
00000330: c91c d13d b13b d3bd 1831 25bd f91c 9abd
00000340: ff66 dbbc cfcb cb3d 4d9e fdbb d18b cdbd
00000350: d59a 68bd 2d62 8d3d 63a9 01be 4a7a 9b3b
00000360: 16b3 1bbc f7d4 b9bd defc c9bb ecb4 ebbd
00000370: 04e7 9bbd 87cd 69bd ac6b 4abd a4b1 eabd
00000380: b158 48ba fa6e c9bd 02c3 01bd 23dd d63d
00000390: 0e3b a7bc 3e43 05be 8fbf ca3d 7314 b0bd
000003a0: 480b 13be 50a9 2d3d d66f 2a3c e4bc b4bc
000003b0: a35d bc3d 55c2 873c 9dd4 79bd 4791 743c
000003c0: c288 a83d 9a62 41bd 9449 073d bdc0 c5bd
000003d0: 1e4b c9bd 417c 9f3d dcc2 8c3d 855a cebd
000003e0: 7646 d1bd ed3f e93d 4c2f c33b 8c8c 03be
000003f0: c92c a3bd dd77 24bd 87c5 ce3d d8cb a6bd
0.08518052 -0.066859566 0.013461476 -0.09936512 0.07503645 0.017864909 0.090217754 -0.098901585
-0.13683426 -0.08717759 0.06168984 -0.008493604 0.053635497 -0.021024043 0.03232852 -0.005143532
-0.041717436 -0.061211154 0.017435502 0.048408527 0.020270621 -0.012319919 0.060381014 -0.087633304
0.056228615 -0.029173557 -0.0019958501 0.10255018 0.12537286 0.0036228306 0.11974145 0.015434607
0.12645496 0.07393817 -0.031694733 -0.026879616 0.09106757 0.084582314 0.11006346 -0.0016183442
0.049519937 0.06154577 0.031837042 -0.057188734 0.0648852 0.05346613 -0.099864624 -0.07399959
-0.091604926 -0.089794904 0.07654982 -0.0147774285 -0.04991867 0.10585448 0.05158263 0.05183322
-0.03710435 0.0935786 -0.037807807 0.015640756 -0.11170296 -0.11191559 -0.030539664 0.01260442
-0.11678891 -0.11101665 0.07942339 -0.053275574 0.06080403 0.10347665 0.049399193 -0.014141116
0.025648382 -0.0082430905 0.033899553 -0.12628843 -0.024934795 0.05125143 0.0027197553 0.11668268
-0.101710536 -0.03014823 -0.1230988 -0.10199527 0.108052105 0.122430176 0.07070809 -0.092737705
-0.068290405 -0.13015282 0.13945058 0.11122146 -0.10906478 -0.09616609 0.1011111 -0.06768888
0.08371287 -0.07935158 -0.021717139 -0.092158824 0.14604366 0.10654618 0.086636774 0.06363132
0.0018095718 0.11082268 -0.047484018 0.025495907 -0.093018614 -0.04295932 0.0637644 0.04044993
-0.08995716 -0.010443464 -0.10411743 0.032045197 -0.039073482 -0.032500874 -0.076447345 0.051849745
0.10555742 -0.07401421 0.09901504 -0.08196694 0.10409196 0.04717642 -0.10398956 -0.07058857
-0.06572841 -0.0025205645 0.100516476 0.014553852 -0.024660336 0.055556934 0.066282 -0.019249385
-0.0623433 -0.0010329073 -0.04155886 -0.11551384 -0.11686898 -0.045539923 -0.11276344 0.112018675
0.04591792 -0.031485755 -0.08533569 -0.010393031 -0.08384715 -0.021314176 -0.11622924 -0.059269972
-0.015785517 -0.076205485 0.06613164 0.09889696 -0.07082036 -0.08558766 -0.057861216 -0.033071302
-0.08495557 -0.067005955 0.086801164 0.10041099 0.116981335 -0.035624675 -0.04221883 0.08312182
-0.08115789 0.0068232026 0.022519067 0.11965741 0.063445844 0.09807451 0.031177027 0.005668749
0.004840334 -0.05474995 -0.11432464 -0.08781387 -0.008874759 0.014881744 -0.07369845 -0.009590553
-0.10247406 -0.07481795 -0.0059312372 0.062162846 0.07807507 -0.12827599 -0.07224694 0.05735287
-0.06417894 -0.01213267 0.09926117 -0.0657772 0.106661685 0.07921915 -0.04139259 -0.149839
0.06894181 0.0013757136 0.07673654 0.030225746 0.102105685 -0.103141196 -0.040330023 -0.07525057
-0.02678251 0.09950983 -0.007739818 -0.100364335 -0.056788284 0.06903491 -0.12662272 0.0047448026
-0.009503147 -0.09073823 -0.0061641773 -0.115091175 -0.07612422 -0.05708077 -0.04941909 -0.114596635
-0.00076426106 -0.0983562 -0.031680115 0.10491397 -0.020413902 -0.13013932 0.09899818 -0.085976504
-0.14359772 0.042397797 0.01040264 -0.022062726 0.09197547 0.016572157 -0.06099378 0.014927215
0.082292095 -0.047213174 0.033029154 -0.096559025 -0.098287806 0.077873714 0.06873104 -0.10075859
-0.102185175 0.11389146 0.005956566 -0.12846583 -0.079675265 -0.040153373 0.10096269 -0.08144349

fc1.bias f4 [16]
00000000: 2d69 003e 1932 1f3d e7ae a8bd 0d3a a13d
00000010: 323f c7bc 8a77 853c 9760 af3d d9a7 9cbd
00000020: 427c d53d 2bde 763d 5542 93bd a0ab db3d
00000030: 3ce7 f33d 6874 be3d 794e 87bb 74c4 933c
0.12540121 0.038866136 -0.08236485 0.078724004 -0.024322126 0.016292352 0.08563345 -0.07649202
0.10424091 0.06027047 -0.07190386 0.10726094 0.11909339 0.092995465 -0.0041292277 0.018038012

fc2.weight f4 [3, 16]
00000000: 26f4 3ebd 4407 62be 3a49 66bd 2a54 04bd
00000010: 7d35 bc3b ca86 3cbe 1bf8 493e 50de 63be
00000020: 5a7e fa3d b4ff c23d 1115 1ebd d6b2 13be
00000030: feb2 c7bd 0356 25bc 2012 1c3e 78c3 10be
00000040: 11a7 e03d 5a71 4d3e 367d b23c 9b9f 2b3e
00000050: 141c 38be 7ba3 243e b121 613e 6fc5 ffbd
00000060: 2131 08be a0b6 c03d 1722 6cbe 09cb 8bbd
00000070: 35b4 53be 0965 6cbe 8e09 7a3e 394b 95bd
00000080: 9137 7dbd 0a9b 36be 5faf a0ba 3873 dabd
00000090: 1f83 82be 5bc1 7a3e 700d 263d 2fd8 89bd
000000a0: 3570 0b3d 2193 283e 97ba 8f3d 9271 153e
000000b0: afa0 ae3d 4229 253e 8658 f63d 0a56 2fbe
-0.046619557 -0.22073084 -0.056222178 -0.032306828 0.005743681 -0.18410793 0.19723551 -0.22252774
0.12231131 0.09521428 -0.03859431 -0.14423689 -0.09750937 -0.010091308 0.15241289 -0.14137065
0.109693654 0.20062771 0.02178822 0.16760103 -0.17979461 0.16077988 0.21985509 -0.12488829
-0.13299991 0.09409833 -0.23059879 -0.06825835 -0.20674212 -0.23085417 0.24417707 -0.07289738
-0.06182057 -0.1783258 -0.0012259296 -0.106665075 -0.25490662 0.24487822 0.04054016 -0.06730687
0.034042556 0.16462375 0.07018011 0.14594105 0.08526742 0.1612902 0.12028603 -0.17122665

fc2.bias f4 [3]
00000000: 2d07 c9bd 7865 46be b881 98bc
-0.09815822 -0.19374645 -0.018616542

onnx::LSTM_205 f4 [1, 512, 3]
00000000: 0701 85bd 9e90 d8bc bd2b 1c3d a5c8 df3d
00000010: 4d05 103d c5db 28be e38e b4bd 8aab 56bd
00000020: a8ee 693d 725c 9a3d 426b 653d c3b6 6f3c
00000030: 32f9 ae3d 4ac9 9d3d ad53 7ebd cdcb 66bd
00000040: 36e3 11bd 4bc8 a3bd 77f7 e93d a1e0 d9bc
00000050: 3cf6 a4bd d934 afbc e320 613c 0021 c1bb
00000060: c023 7e3d 119c 073e 0f75 d93d a316 20bd
00000070: faf4 f8bc 2d14 0abd e691 a8bd 2b6c 94bd
00000080: 4fad 7dbd c8f2 de3c 4414 a63d e35e 8c3d
00000090: 06e4 68bc c2ec 383d 174d 9cbd ca62 e23d
000000a0: 2e4d 10bd 3b89 ee3d 53a2 053d 727f 93bc
000000b0: 84a1 d03c 9e42 b6bd c8e9 8ebd 50d0 703d
000000c0: 203f 81bc ede3 a43d f6a8 893c bda4 733d
000000d0: dde9 04bd e050 123c 9936 a43c a305 38bd
000000e0: 234f b3bd 5b98 b13d bae9 023d d434 76bd
000000f0: f9da 9b3d 9aac 2b3e 4164 4bbd 3921 a8bd
00000100: d090 353e 1c43 463d a6ef 28bc 1adc 8fbb
00000110: 1780 8d3d 5028 b23c 5a35 923c e0a7 f2bc
00000120: c98f 733d 0e3f 2b3d 1c9f af3d 078b 6f3d
00000130: dbb3 d7bd e7cc 79bc bee9 653c c05d 3c3d
00000140: 25f0 a1bd 6fa3 5f3e 764a 5f3c 340d d33d
00000150: e469 2b3d 37bd c73d 0a00 713d ed99 0ebd
00000160: 3ba6 57bd 9aac c6bd 60e6 e3bd 69d4 79bc
00000170: 521a c93c 8f46 9aba 6240 3cbd 02bb 743d
00000180: fdbe e03d 8be1 a53d 28f3 7a3d 9fa4 cc3b
00000190: 0ab6 193d fd44 1fbe f583 1abd 28e6 b43d
000001a0: 9a85 babc 163f acbd 865e a3bd 4964 373d
000001b0: c710 49bc d383 a6bd e6a3 353d 86a8 f43c
000001c0: 4274 43bc 7399 10bd 70d1 4c3d ea14 7e3d
000001d0: f9ca 86bd 0e4d 7abc d3ef d03d 7ef0 ad3d
000001e0: a71a 083d ec33 2abd 356f 8ebd bed3 9a3c
000001f0: 32b9 4c3d 35f6 2e3d f4d1 e83d fd29 6d3d
00000200: 6cd1 4d3d 16ff 683c d50f 0f3d 84bf e2bc
00000210: b571 753d 2391 0ebd 1e2f 1cbd f886 353d
00000220: 8a74 c0ba e247 583d 43b0 8fbd 2fa3 7c3c
00000230: 25f0 93bd e2a1 1f3d 36da ce3d 2534 e63d
00000240: a1da 1bbd eca4 ad3c ca97 14be f793 0fbc
00000250: 384d a8bc 4942 a1bd e881 0a3d 4998 c83d
00000260: a412 c33d 161e 6c3d cf85 1d3d dc8b 3abd
00000270: a793 003e f933 d2bc d816 d43c 9859 dabd
00000280: e976 223d 70ec db3d 206d 933d f7a2 d23d
00000290: 2785 503d 23d2 ed3c b9e0 c03c 9aaa 8e3d
000002a0: c75e 94bd 423c ba3d ca59 fa3d 7f84 533c
000002b0: 604b c23b f0a9 aebd 2695 1cbc 1e5d 153d
000002c0: baa8 643c 0f90 86bd 957c e3bc 5a7b 013e
000002d0: 6f0e 9a3b acab 793d ac50 58bd e9ea debd
000002e0: 912b 76bc 4f9b b7bd 057a b53d 87ee df3c
000002f0: 67af 6a3c 4053 c73b a787 cc3d 8f77 0f3d
00000300: b50f c6bd a312 d3ba 48f0 94bd d422 123d
00000310: 35dc 813b 8f76 c2bd 7f31 1a3d 624d 5a3d
00000320: 7940 003d 21ff 91bd 4b06 033e 4e38 69bd
00000330: a1cb 9c3d afce 213e 1a5d 8a3d 6e5e 7a3d
00000340: 87d7 813d 1fd9 8c3d d225 b53d 08e1 d63d
00000350: 2ebf ad3c 29f7 15bd 992b 1b3d c42e 9cbd
00000360: a521 8e3c 35f9 3abd 6ec1 b83d acb9 c2bc
00000370: 9e1f 433d 82db b6bd dced 21bd d649 0dbd
00000380: 636f b03d 0aae d73c 73b1 563d 00ff 0fbd
00000390: f7da 77bc 69f1 733d 5f13 b5bd 22a2 0a3d
000003a0: ed9b 0a3d 6939 3d3d 6aa8 1c3d 577f 673c
000003b0: f7ed fe3c da3e 3f3d d27c 36bd bdd1 f63d
000003c0: 47cd 50bd 38b2 b73d be79 2e3c 66e3 81bd
000003d0: f7be 8e3d 81a9 ba3d 5026 46bd 6c71 8a3c
000003e0: 2793 333e bdd1 b5bd 2232 db3d 8fed 723d
000003f0: 661c 683d 76b0 7ebd 72c5 3c3d 82dc 0b3b
-0.064943366 -0.026436146 0.03812765 0.10926942 0.035161305 -0.16490085 -0.08816316 -0.052409686
0.057112366 0.07537164 0.056010492 0.014630976 0.08543624 0.077044085 -0.06209152 -0.056346703
-0.035617076 -0.07997187 0.11424153 -0.02659637 -0.08054778 -0.021387504 0.013740751 -0.0058938265
0.062045813 0.13243128 0.1061803 -0.039084088 -0.030390251 -0.033710647 -0.08230953 -0.07247194
-0.061932858 0.027215376 0.08109334 0.06854036 -0.014214521 0.045147665 -0.07631891 0.11053999
-0.035229854 0.116472684 0.032625508 -0.018005107 0.025467642 -0.08899425 -0.06978184 0.058792412
-0.01577717 0.08051286 0.0168042 0.05948328 -0.032449592 0.008930415 0.020045565 -0.04492725
-0.087553285 0.086716376 0.03196118 -0.060108975 0.07610125 0.16765061 -0.049656156 -0.08209462
0.17731023 0.048403844 -0.010311043 -0.004390252 0.06909197 0.021747738 0.017847706 -0.029621065
0.059463296 0.04180818 0.085752696 0.058482196 -0.105323516 -0.015246606 0.014032779 0.045987844
-0.07907132 0.21839689 0.013628593 0.10305253 0.041849032 0.09752887 0.058837928 -0.034814764
-0.052648764 -0.0970089 -0.11127925 -0.015248396 0.024548683 -0.0011770296 -0.045959838 0.059748657
0.10973928 0.080996595 0.061267048 0.0062452103 0.03752712 -0.1555366 -0.0377235 0.08832961
-0.022768784 -0.0841047 -0.07977013 0.044773374 -0.012272066 -0.08130612 0.04434576 0.029865514
-0.0119295735 -0.03530259 0.050004423 0.062031664 -0.06581683 -0.01527716 0.10201993 0.08493136
0.033228543 -0.041553423 -0.06954805 0.018899795 0.049981304 0.04271527 0.113681704 0.05790137
0.05024855 0.0142209735 0.034927208 -0.027679212 0.059922893 -0.034806382 -0.038130872 0.04431817
-0.0014683169 0.052802928 -0.07016041 0.015419765 -0.07223538 0.038972743 0.10100214 0.112404145
-0.038050298 0.021196805 -0.14511028 -0.008763305 -0.020544633 -0.07873971 0.033815295 0.09794671
0.0952504 0.05764588 0.038457688 -0.045543537 0.12556325 -0.025659548 0.025889799 -0.1066162
0.039664183 0.10738456 0.07198548 0.10284989 0.050908234 0.029030865 0.023544656 0.069661334
-0.0724464 0.090935245 0.12224157 0.0129100075 0.0059293956 -0.08528507 -0.009557044 0.036465757
0.013956243 -0.06570446 -0.027769366 0.12644711 0.0047014276 0.060954735 -0.05281131 -0.10884649
-0.0150250355 -0.0896517 0.08861164 0.027335418 0.014324046 0.006082922 0.09986811 0.03502613
-0.09670965 -0.0016103577 -0.072723925 0.035677746 0.0039630183 -0.094952695 0.03764486 0.053296454
0.031311486 -0.0712874 0.1279537 -0.056938462 0.07656027 0.158015 0.06756039 0.06112521
0.06339937 0.0687735 0.08845104 0.1049214 0.021209326 -0.036612663 0.037883375 -0.07626107
0.017350027 -0.04564782 0.09021269 -0.023770176 0.047637574 -0.089285865 -0.03953348 -0.034494244
0.08614995 0.026328105 0.052415323 -0.035155296 -0.015127889 0.0595564 -0.08841585 0.03384603
0.03384011 0.04619733 0.03824655 0.014129481 0.03111933 0.0466908 -0.04455263 0.12051723
-0.050977018 0.089695394 0.010649143 -0.06342201 0.069700174 0.091143616 -0.04837638 0.016899787
0.17536603 -0.08877895 0.107029215 0.059308585 0.056667708 -0.062180005 0.046086736 0.002134115

onnx::LSTM_206 f4 [1, 512, 128]
00000000: c099 533d fca6 95bc ac1a 9dbc 3b12 d8bc
00000010: fa58 5c3d ae06 d0bd 91f7 f1bd b82c 9cbc
00000020: 6228 8f3d b26f acbd d5fe 32bd 7076 e03d
00000030: e142 68bd b88f 54bd a0ab 59bd a20f b0bd
00000040: 16f0 33bc 6655 c13d aba9 29be 75ca 593d
00000050: d517 093d 0424 fe3d e056 d7bd 4425 633a
00000060: 948b e8bc 7a65 54bb e3d5 febd a126 963d
00000070: 65f8 163c e84f f6bc 3cca 7d3c fe2b 6bbd
00000080: 0193 04be 3b3a 3f3d 1c0e af3d 701c b53d
00000090: 611c e13d fc0c 1c3d e053 28bd e497 1b3c
000000a0: 2ec6 31bd 4192 9fbd 252b b53c 47f5 22bd
000000b0: 0e4d 62bd 3433 debd f443 083e 2757 24bc
000000c0: 28e8 03bd e3be 1b3d a841 81bd ca7d 113e
000000d0: a542 13bc 2b24 13bd 12ad 2b3e 8f94 b3bd
000000e0: ba72 80bd 41b7 ddbd 0eef 363d a798 783c
000000f0: 7dd0 ff3c 3dc5 223d 2da7 ca3b 3217 363d
00000100: 1110 4fbd 399a 83bd 359c f73c ce4f d9bb
00000110: 6574 283d b5cf 55bd aecc 1ebb 85d9 9cbd
00000120: bfab d2bd 5129 bd3b e822 eebd cd8d 8dbd
00000130: 0913 62bc 84a4 0c3d 9f9c d2bc f8e9 133e
00000140: db9d 7b3c abf1 e8bc 36df adbd cb03 af3d
00000150: 0e73 9fbd 5638 8abc ed30 a83d 5171 80bd
00000160: 4a9c 0bbd ce91 5d3d 7801 1f3c 3e27 0fbd
00000170: a1d5 7ebd 954e 42bd 9f37 993d 0515 1e3d
00000180: 50e6 933d 376a 21bc fcfb 1c3d 819b 8f3d
00000190: 3b40 efbd 9b23 8a3d 0130 ab3c d8d5 82bc
000001a0: bffc 0e3c 955c 8b3d 1152 0bbd 631e d1bd
000001b0: 746f fc3b 33e0 b0bc 902e db3c 448f bfbd
000001c0: 7b23 0f3d 7203 debd 2e40 da3b f7e7 0f3d
000001d0: fc0f 37bd 2ddb 0abd d7b5 193d c8ea c8bd
000001e0: dce0 163d 2e41 203d 8528 263d d3e9 633d
000001f0: 5c42 893c 2648 c03d 35b2 813d 673c a43c
00000200: 3e79 8fbd fa0d 95bd d6a2 4ebd be87 203d
00000210: 4902 d7bc 96b8 55bd 45aa 243c 3d40 cebc
00000220: 0b5a 993d 1025 78bd 4335 3f3d 72af 5dbb
00000230: cd9d f6bb 954f a83d 8d89 863d 95a9 a33d
00000240: 836c d8bd 782f afbd 3132 86bd 2685 043d
00000250: bffb 11bd 90c7 54bd 5e9a 79bb 177c 3d3d
00000260: b7a2 abbd b522 083d 6f20 ad3c 27a8 51bd
00000270: 3a3f 5c3c 0e6c 9fbd dc9a 063e 37df 083d
00000280: d24c c3bd 273e 013d 694b b53d d111 8abc
00000290: 2a4e 743d 051b da3d 7fed 8fbd c72b c73d
000002a0: 82db 63bc e8f5 2cbd 7586 ad3a 57f4 9b3d
000002b0: 024a 50bd 7877 00bd 3edb 733d 28fb edbd
000002c0: 1ffb bbbd bad7 87bd 2822 863c 32ca 0e3d
000002d0: 8909 a8bd 9445 743d 34e3 b53c 19d8 693c
000002e0: a304 f73d 1d1d 533d cbf7 24bb 00c1 ebbd
000002f0: be37 50bd 0ab1 6c3b ca86 8d3d 9d7f 0fbe
00000300: db26 b33c d52f 2f3d 5cc9 71bd dadc acbd
00000310: ec7f 23bc 20d4 20bd 37ed 3bbd b0b4 bbbc
00000320: cbff dd3d b6dc 53bd 06df af3d 5576 15bc
00000330: 22e3 2b3d 59dc d3bd 3239 85bd 6f86 04bd
00000340: b5c8 a9bd 2c78 ae3d bf10 2e3e 8cf0 5abd
00000350: 81a9 0b3d 2ded 9b3d 16f0 a2bd 8aa1 97bd
00000360: 9844 25bd b01c 933d cc67 a53c 6907 af3c
00000370: 0183 613d 0bab 7d3d 9511 9ebd ba33 703d
00000380: e3e4 323d 8de0 e5bc c7bd 6bbd e383 c23d
00000390: 4d3c 8f3a ef39 2dbd a9d2 aabc 90fd 8d3c
000003a0: 44c6 c63c f3f6 b23c c296 8dbd 258d 01bd
000003b0: 3a97 96bd a289 acbd f50f 34be dc15 ca3c
000003c0: 2043 b3bd e0cd 813d 1277 ae3d 65e8 c93c
000003d0: ec72 86bd 8455 27bc 98e0 ee3d 9ab1 3fbd
000003e0: 19cd aabb 9894 69bd 2648 07bd 158d ecbc
000003f0: cdab 50bd 1297 f4bd 5398 56bd f35d 353d
0.0516603 -0.0182681 -0.019177757 -0.02637588 0.053795792 -0.10157524 -0.11814798 -0.019064292
0.06990124 -0.08419742 -0.043700058 0.1096009 -0.056704406 -0.051894873 -0.05314219 -0.08596732
-0.010982534 0.094401166 -0.1656863 0.053171594 0.033469994 0.12409213 -0.10514617 0.0008664916
-0.028386869 -0.0032409118 -0.124431394 0.07331587 0.009214495 -0.0300674 0.015490111 -0.057415
-0.12946703 0.046686392 0.08547613 0.08843315 0.10991741 0.03809832 -0.041095614 0.009496663
-0.04340189 -0.077915676 0.0221153 -0.039784696 -0.055249266 -0.1084961 0.13307172 -0.010030544
-0.032203823 0.03802384 -0.06311351 0.14208141 -0.008988057 -0.035923164 0.1676524 -0.0876857
-0.06271882 -0.108259685 0.044661574 0.015173114 0.031227345 0.039738882 0.0061844797 0.044455715
-0.05055243 -0.064259 0.030225853 -0.006631828 0.041126627 -0.052200038 -0.0024230885 -0.07658676
-0.10286664 0.0057727476 -0.116277516 -0.06911812 -0.013798484 0.03433658 -0.025709448 0.14444721
0.01535746 -0.028435549 -0.0848984 0.08545645 -0.07785617 -0.016872566 0.08212457 -0.062716134
-0.034084596 0.05409413 0.00970494 -0.034949534 -0.06221545 -0.047438223 0.07481312 0.038594265
0.07221663 -0.009851984 0.03832625 0.07012082 -0.11682173 0.067450725 0.020896913 -0.01597111
0.008727252 0.06804768 -0.03401381 -0.10210874 0.007703716 -0.021591282 0.026755601 -0.093534976
0.034945946 -0.10840501 0.006660483 0.03513333 -0.04469298 -0.03390043 0.03752693 -0.09810406
0.036835536 0.03912466 0.040565986 0.055642914 0.016755275 0.09388761 0.063328184 0.020048333
-0.07005547 -0.072780564 -0.05044826 0.039191954 -0.026246207 -0.052177988 0.010050361 -0.025177116
0.074878775 -0.06058222 0.046681654 -0.0033826497 -0.0075261355 0.08218304 0.065692045 0.079913296
-0.10567572 -0.08553976 -0.06552542 0.032353543 -0.035640474 -0.05194813 -0.0038086395 0.04626092
-0.08380645 0.033236224 0.02113363 -0.051185753 0.013442809 -0.07784282 0.13145012 0.033416
-0.09536137 0.031553414 0.08852274 -0.016854199 0.059644856 0.10649685 -0.07027721 0.09725147
-0.013907315 -0.042226702 0.0013238924 0.076149635 -0.05085183 -0.031363934 0.059535258 -0.1162017
-0.09178757 -0.066329435 0.016373709 0.034860797 -0.08204944 0.059636667 0.022203065 0.014272713
0.12061431 0.051541436 -0.002517211 -0.11511421 -0.05083441 0.0036116266 0.069104746 -0.14013524
0.021869114 0.042770226 -0.059029922 -0.084405616 -0.009979229 -0.0392648 -0.045880523 -0.022913307
0.10839804 -0.05172416 0.0858746 -0.009122451 0.041964658 -0.10344762 -0.0650505 -0.03235477
-0.08290235 0.08519015 0.16998576 -0.05345206 0.0340972 0.07613597 -0.07955949 -0.07403858
-0.04034862 0.07183206 0.020191096 0.021365838 0.055056576 0.061930697 -0.07718197 0.05864308
0.043675315 -0.028061176 -0.057554033 0.09497812 0.0010928005 -0.042291578 -0.020852404 0.017332822
0.024264462 0.02184627 -0.069135204 -0.031628747 -0.07353063 -0.08424689 -0.17584212 0.024668626
-0.087530375 0.06338096 0.085188046 0.024646947 -0.06564888 -0.01021326 0.116639316 -0.046800233
-0.005212438 -0.057026476 -0.03302779 -0.028875867 -0.050945092 -0.11942877 -0.05239136 0.04427905

onnx::LSTM_207 f4 [1, 1024]
00000000: 64e4 783d 5308 2a3d dd05 22bd 7424 d63d
00000010: b119 a53d 70af 82bb ec51 7d3d e4e4 a8bd
00000020: 46a7 15bd 4e00 39bc f94a 81bd 75db 013d
00000030: e112 aa3d 29ff d53d 0f49 043d e53d 7d3d
00000040: 75d9 b0bc 1be6 97bd a8cd 81bd 3754 233d
00000050: c544 753d 1e64 823d da22 d53c dfc4 15bb
00000060: 6ffa b3bd 48c9 b33d 2e8d 8e3d 81a5 8f3d
00000070: 16e2 b53d a34e 363d 9aaf 53bd 41c0 29bc
00000080: 5b1b 803c d096 2d3a bac5 603d 02f4 28bd
00000090: 1862 2ebd 39fa 583d 6daa 513d 2109 163e
000000a0: 2eb6 9e3d 32fa 583c 0d2f c73d 42bd fc3c
000000b0: 3f84 b63d 4a70 1ebc dc62 d53b bff4 d93d
000000c0: d884 67bd b74d 833d fb34 cd3d 4446 4dbc
000000d0: 7413 bebc dbb6 bd3d 1ea5 493d b357 35bd
000000e0: f4ec 65bd af6d ddbc adb5 e33c fc65 c2bc
000000f0: 4109 993d ff5c 2fbd fed1 833d 523a 2fbd
00000100: d113 1b3d 0d8f 46bd f295 863c 9ac0 78bd
00000110: b3e5 e03c c320 603d 54bd a83d 2e4a 63ba
00000120: 6481 1ebd 7e4d c4bc 6c6d fe3d 69ae e13c
00000130: 5119 383d 3c1b fabc af16 e33d 0836 17bc
00000140: 519d a03b 706c cc3c 7b3a 44bd 9674 92bd
00000150: 9db5 193b b9f8 a23c d31d df3d 6ea4 a63d
00000160: 1538 7abd 0c86 4dbd 59c8 053c 65e2 acbd
00000170: 7d5c 8c3c d9c6 a1bd 04a5 2a3d e35f a23d
00000180: de26 e3ba 1eba 1e3d 0df0 183c 498e 96bd
00000190: b42a 173d f206 2abd 16f4 0dbd e1c3 ae3d
000001a0: 2f2d bc3b 4617 40bd 8f79 4e3c d08a 1cbd
000001b0: 39d1 92bd 41e3 5a3d 387b 753d 26d7 8d3d
000001c0: 8c94 603d 9b37 b63c 0b11 a0bb 6b28 bbbc
000001d0: 8b53 a4bd 2ef8 c13d 92f4 723d 05b3 a53b
000001e0: 7e9b 98bd d24d 9a3c c5d0 8fbd 0163 96bd
000001f0: 8fc4 d33b 89c5 da3d 1f3b 81bd fb85 afbc
00000200: d896 903c 0a92 9bbc cde8 ba3d 28fe ab3c
00000210: c9da 283d f401 553d ed83 8cbd 13ec ea3c
00000220: 48e4 2ebc a770 a73d eb19 8bbd 9556 9c3b
00000230: 06b1 d43c 2f07 803d 32d1 acbd f3d5 2d3d
00000240: d59e 53bd 534a 8cbd c634 f9ba 5929 ce3b
00000250: 0e22 c33c f9a7 503c 3b26 57bc a0d8 9abd
00000260: 9d2a 653d 8023 d7bb 485c 1fbd 4eca b43d
00000270: b820 ab3d 2517 3ebd b3a3 133d e8ec 073d
00000280: 9c39 d03d 7d7c 9a3d 5910 5f3d 1376 90bd
00000290: 8472 3939 e4fa 263d ed1a 69bd 84d4 6f3d
000002a0: af76 ca3b bbc1 d13a 214a c83d 6456 713d
000002b0: 1c69 a13d 3ed4 75bc d76e a03d 04b6 abbb
000002c0: 5e86 883d ce7c c53d 78db 3abd b922 cb3d
000002d0: 279c 8fbc 513d a23d 3ed0 af3c 5bba 983d
000002e0: e04d 19bd d734 81bb 9129 0e3d b748 87bd
000002f0: 0cd8 a1bd 6d4b 40bd 51ee 953d 4d95 35bc
00000300: abbc 8e3d e614 a63c aca1 aebb c836 853d
00000310: 13cd 36bc a28e 28bd a88d 1a3d 6a08 9d3c
00000320: 47c6 a0bc dbc5 d23c 0cf8 0e3d 49bf e23d
00000330: ec63 51bd 3cd7 c03d 549b 953b b3f1 c33d
00000340: b2ae 15bd 6fff a73d d54d 84bd c030 713d
00000350: 065f 953c f7fd 143d 8b96 edbc 8643 313d
00000360: 80ca 8b3d 9b89 a03d 186b 0f3d d0e3 8a3d
00000370: 8c7a 30bd 6ddc b53d f1b5 47bd 2623 c4bb
00000380: f2fa 04ba eb36 573d ffcf ba3d 2dc7 323d
00000390: e93f d93c 9871 5f3d f1ee 153d cfab dc3d
000003a0: 4204 9ebd 17a5 8e3d 47a0 003d 26ad 863d
000003b0: 0e15 c63d d691 123d 35da e93d 9ac0 eebc
000003c0: 3e4c 793c 2211 0c3d a27c b43c c25b 79bb
000003d0: 61b0 bbbd 0675 1a3c 53e7 3abd 9826 123d
000003e0: 1378 a33d b07f 43bd ffa3 4cbd be62 40bc
000003f0: b718 d33b 5c21 533d 5d73 093d d321 513d
0.060764685 0.041511845 -0.039556373 0.10456172 0.08061541 -0.003988199 0.061845705 -0.082467824
-0.036536478 -0.011291577 -0.06313128 0.03170343 0.08304382 0.104490586 0.032296237 0.061826605
-0.021588067 -0.07416936 -0.06338054 0.039875235 0.059880037 0.06366752 0.026017595 -0.002285294
-0.08788001 0.08778626 0.06960522 0.07013989 0.08881013 0.044508588 -0.05168114 -0.010360778
0.015638044 0.0006621899 0.054876067 -0.04124833 -0.04257402 0.052973006 0.05118792 0.1465192
0.07749592 0.013243245 0.09725771 0.030851964 0.08911943 -0.0096703265 0.006512029 0.10642385
-0.056523174 0.06411307 0.10019871 -0.01252896 -0.023202635 0.092633925 0.049229734 -0.04427309
-0.05613418 -0.02702984 0.02779659 -0.02373027 0.07472468 -0.042813297 0.06436537 -0.042780228
0.037860695 -0.048476268 0.016428921 -0.060730554 0.02745328 0.054718744 0.082392365 -0.00086704164
-0.038697615 -0.023962732 0.12423214 0.027548986 0.04494602 -0.030530564 0.11088311 -0.009229191
0.004901566 0.02495405 -0.047907334 -0.07151143 0.0023454197 0.01989399 0.108943604 0.08136831
-0.06108864 -0.050176665 0.008165442 -0.08441619 0.017133946 -0.07899255 0.041661277 0.07928445
-0.0017330309 0.038751714 0.009334576 -0.073513575 0.03690596 -0.04151053 -0.034656607 0.08533455
0.005742691 -0.046897195 0.012602224 -0.03821832 -0.07168812 0.053439382 0.059931964 0.06925802
0.054829165 0.022243312 -0.004884844 -0.022846421 -0.08023747 0.09471165 0.05931527 0.005056741
-0.07451533 0.018835936 -0.070222415 -0.07343102 0.0064626406 0.10682208 -0.063101046 -0.021426192
0.017650053 -0.018990535 0.091264345 0.020995215 0.041224275 0.052003816 -0.068611 0.028677022
-0.010674544 0.081757836 -0.06792053 0.0047710636 0.025963318 0.0625137 -0.08438338 0.042440366
-0.051665146 -0.06850114 -0.001901292 0.00629155 0.02381995 0.01273536 -0.013131673 -0.07560849
0.055948842 -0.006565511 -0.038906366 0.08827649 0.0835585 -0.04640879 0.036044788 0.033184916
0.10167238 0.075432755 0.05445895 -0.07053771 0.00017685635 0.04076661 -0.056910444 0.05855228
0.006178699 0.0016003171 0.09779764 0.05892028 0.07881376 -0.015004216 0.07833641 -0.005240204
0.066662535 0.09642945 -0.045619458 0.09918732 -0.017530514 0.079218514 0.021461602 0.074574195
-0.037427783 -0.0039430666 0.03470761 -0.06605666 -0.07902536 -0.04694693 0.07320846 -0.011082959
0.06969579 0.020273637 -0.0053293314 0.06504589 -0.011157292 -0.04115165 0.03773275 0.019169051
-0.019625796 0.02572911 0.034904525 0.11071641 -0.051120684 0.09416053 0.0045656357 0.09567585
-0.036543556 0.08203017 -0.06460158 0.058884382 0.018233787 0.036375012 -0.029002449 0.043277286
0.06825733 0.07838746 0.035014242 0.06781733 -0.04308562 0.088799335 -0.048757497 -0.0059856353
-0.0005072794 0.05254261 0.09121703 0.04364698 0.026519733 0.05455169 0.036604825 0.107749574
-0.07715656 0.06965082 0.031402852 0.06575994 0.096719846 0.03578361 0.11418573 -0.029144574
0.015215931 0.034196027 0.022032086 -0.0038049077 -0.09164501 0.009427315 -0.045630764 0.035681337
0.07981887 -0.047729194 -0.049961086 -0.011742292 0.006442155 0.051545486 0.033557285 0.051057648

onnx::LSTM_227 f4 [1, 256, 128]
00000000: f13d 373c 6395 c63d 8058 41bd 4301 b13d
00000010: 06a0 7b3d c24f 5b3d aadd 3abd 7736 8a3d
00000020: 6e1f d7bd 0647 24bd b3c2 06be 424c 93bd
00000030: 6bc0 c63b 9729 ff3d 40e3 643d 6385 73bc
00000040: 231e c4bd b4dc 21bd c6ff c7bd 177d fc3d
00000050: d796 c43d a753 28be 4761 c93c fcdd 9cbd
00000060: f563 ad3d b980 2d3d ca4e e83d 5df7 8abb
00000070: 1759 05be c213 05bc 06d8 af3c b312 cd3d
00000080: dec7 b93d 7a70 e3bd 335c e83c 80b6 99bd
00000090: 864a fabd eb9e df3d 3f7e ffbd 5a57 e53d
000000a0: 1134 85bd 4960 7cbd 943c a2ba 2dcd 33bd
000000b0: 7445 ef3d 319e 093e a8bd a03d 0b6b 14bd
000000c0: 9893 723d 0e34 06bd 63d7 d23d 27b9 603d
000000d0: 7be8 0dbd 2496 01bd d07a 9fbd c728 c93c
000000e0: 98c8 bb3d b9ac 8cbd 2d7b 2bbe 6d2e 40bd
000000f0: 3905 f8bc eb9c 06bc 16c0 bdbd 26fa 043c
00000100: a8aa b0bc f503 fbbc ea69 e9bc de02 98bc
00000110: e966 433d 7797 16bd d8b3 b0bd ad37 9f3d
00000120: e31a 4dbd 4a58 583d f67b 4cbd 54ec 0fbe
00000130: 9df9 c33d a356 0abd 82d2 cd3c 4508 01be
00000140: a17d 993d f2f0 443d 796d 113e c963 c8bb
00000150: fd5b 77bd 7acc cc3d c721 bdba 1f0d cd3d
00000160: 45a8 5fbb 0eba ccbd 71ae 753b 4adc af3d
00000170: 3475 d0bd a2b7 1c3c 1944 16be 757d 843c
00000180: e04f 11bd 882d a43d cd26 c53d ba13 8f3d
00000190: 91fd a93d eec2 ff3c e166 88bb a1f9 973c
000001a0: 46a6 a03d 7d09 ac3d 38ae 80bd 6c53 a33d
000001b0: fcc0 d7bd 4110 c33d 66e6 1f3d 5b1e c9bd
000001c0: 30f8 9abc 1063 073d 57b3 e43d 2bea c7bd
000001d0: e515 d1b9 ba65 ed3c 2e27 0f3d 0d97 1d3d
000001e0: 5ae6 c3bd de52 953d dea3 22bb f24e 99bd
000001f0: 933a debd 6de0 c7bd 5a95 ea3d 8f54 9a3d
00000200: b249 d2bc 6f60 073d 81cf e0bc 11fd 4a3d
00000210: 29d0 0f3e 6d94 84bd c90b 8c3d 46eb 8c3d
00000220: e06a b03d 1be4 71bd fa7b 0f3d dac6 ec3d
00000230: 7281 5cbd 3456 733d d688 b5bd 0349 bdbb
00000240: 1942 ef3d 02f9 e93d f1ce f6bd 9598 e0bd
00000250: eb07 563c b948 193d 27b7 123d ff87 563d
00000260: 55e7 e5bd 2a08 fdbd ce85 05be 3e1e ba3d
00000270: ce6b 0f3e 2940 18bc 392f 603d 5e01 f2bd
00000280: 140d 9fbd f376 e6bd c8b4 283d 95f4 debc
00000290: 77a1 80bd f05d 8e3d d970 de3c 28f3 69bd
000002a0: 8b9f b2bd 85c9 b33d e91f 213c f370 6d3d
000002b0: 40e8 753d 886b 25bd 67a1 ec3d 39ec 983c
000002c0: e347 0cbe 6fbb 353b 169a f53d 7334 143e
000002d0: a212 fabd 7411 b03c 494f 57bc c33c e63b
000002e0: 3b1a 0f3a 9516 eabd e154 e43d a382 f4bd
000002f0: a104 f4bc 7d05 b3bd 7910 d33d 0652 563d
00000300: cede eb3b 68ce be3d 41aa 373d 8218 5e3c
00000310: e892 35bd aa15 c3bd 8e9c d23d b8a6 ba3c
00000320: d482 f13d 694d 56bd aa52 e9bc ff0a 86bd
00000330: 9aac bdbc 6491 e73d 2df5 b33c ab72 b83d
00000340: 2456 f0bd a813 ae3d f83e ec3d d58a 9cbd
00000350: f38b 663c 11ba 9abd 968d 56bd b617 02bd
00000360: 9e4f 8dbc 2b54 dabc b7af f9bd e2dd 81bc
00000370: 5d9b 343d aa65 4fb9 746e 9ebd 6218 823d
00000380: 6f2d 033e d8b3 94bd 120e bebd 3e95 6f3d
00000390: f2c8 f6bd 95d2 b5bc 4546 e33c 5db7 eebd
000003a0: d72a aabd 3f8b eebd 3192 303d c522 eb3c
000003b0: 888b 5f3d 9c4b f4bd 9d03 413d be55 0ebc
000003c0: b12c b2bd eabb b03b 4da7 1cbd bd95 e23c
000003d0: dc2e 903d 0666 96bc d346 003c ec5e bf3d
000003e0: bef0 ef3b bcba 50bd c97d 9a3d 5096 61bd
000003f0: 1c15 03bd 959f 2a3d 76db 1cbd 02b4 b3bd
0.011184202 0.09696462 -0.04720354 0.08642819 0.061431907 0.05354286 -0.04562155 0.067486696
-0.105040416 -0.040106796 -0.1316021 -0.071922794 0.0060654185 0.124591045 0.055880785 -0.014863345
-0.095760606 -0.03951712 -0.09765582 0.123285465 0.09599083 -0.16438161 0.024582518 -0.07659528
0.08466331 0.042359088 0.11343153 -0.004240914 -0.13022266 -0.008122386 0.021465313 0.10013332
0.09071325 -0.111054376 0.028364277 -0.07505512 -0.122212455 0.10918983 -0.124752514 0.111983016
-0.065040715 -0.061615262 -0.0012377673 -0.043896843 0.11683169 0.13439251 0.07848674 -0.036234897
0.059222788 -0.032764487 0.10294988 0.054864075 -0.03464554 -0.031637326 -0.077870965 0.024555577
0.091691196 -0.06868882 -0.16746207 -0.046919275 -0.030275928 -0.008216123 -0.09265153 0.008116281
-0.02156575 -0.030641535 -0.028492887 -0.018556055 0.047705565 -0.036765542 -0.086280525 0.07774291
-0.05007447 0.052818574 -0.049922906 -0.14054996 0.09569094 -0.03377403 0.025124792 -0.12600811
0.07494665 0.048081346 0.14201917 -0.006115411 -0.06039046 0.09999938 -0.0014429622 0.10012268
-0.0034127396 -0.099964246 0.0037488008 0.08586939 -0.10178605 0.009565266 -0.14674415 0.016173104
-0.035476565 0.08016497 0.09626541 0.069861844 0.08300317 0.03122088 -0.0041626547 0.01855165
0.07844214 0.08400247 -0.062832296 0.07974896 -0.10534856 0.095245846 0.039038084 -0.09820243
-0.018917173 0.033053458 0.11167019 -0.09761461 -0.000398799 0.028979171 0.034949474 0.03847413
-0.095654204 0.07291196 -0.002481691 -0.07485761 -0.10851016 -0.09759603 0.11454268 0.075356595
-0.025669906 0.03305095 -0.027442696 0.04955775 0.1404425 -0.064736225 0.06838185 0.06880812
0.08614135 -0.05905543 0.035030343 0.115613654 -0.053834386 0.05940838 -0.0886399 -0.005776526
0.11682529 0.114244476 -0.1205119 -0.10966603 0.013063411 0.03742287 0.0358192 0.05237579
-0.11225764 -0.12355073 -0.13039324 0.090877995 0.14005968 -0.009292641 0.054732535 -0.11816667
-0.07766166 -0.112531565 0.04118803 -0.027216235 -0.06280797 0.06951511 0.02715342 -0.057116657
-0.08721837 0.08778671 0.009834268 0.057969045 0.060035944 -0.040385753 0.115542226 0.018667327
-0.13699298 0.0027730127 0.1199228 0.14473133 -0.12210585 0.021492697 -0.013141462 0.0070262863
0.0005458926 -0.114300884 0.11149002 -0.119389795 -0.029787363 -0.08741281 0.10305876 0.052324317
0.0071981912 0.093167126 0.0448401 0.013555648 -0.044329554 -0.095256165 0.10283767 0.022784576
0.117925316 -0.052319918 -0.0284818 -0.06545066 -0.023153592 0.11307028 0.021967495 0.09006246
-0.1173518 0.08499843 0.11535448 -0.076436676 0.014071452 -0.075550206 -0.05238112 -0.031760894
-0.017249878 -0.026651463 -0.12191718 -0.015852872 0.04409348 -0.00019778931 -0.07735911 0.06352307
0.128103 -0.07260865 -0.092800274 0.058491938 -0.12050046 -0.02219514 0.027743468 -0.116560675
-0.08308952 -0.11647653 0.04310817 0.028703103 0.054576427 -0.11928484 0.047122587 -0.008687435
-0.086999305 0.005393495 -0.038245488 0.027659291 0.07040188 -0.018359195 0.007829386 0.09344277
0.0073224 -0.050959334 0.07543523 -0.05507499 -0.032002553 0.041656096 -0.03829523 -0.08774568

onnx::LSTM_228 f4 [1, 256, 64]
00000000: 0e21 723c d060 8b3a aac3 c9bd bc9f 923d
00000010: f7bc fbbc a91f bdbd 6a8d cebd 7c21 d13d
00000020: 8551 c83d dfcf 3a3d 4183 4fbd 026f 1f3d
00000030: b38d adbc 3622 e33d 8dcd 983d 512b bc3d
00000040: 028c 313d 8857 bdbc 15c4 bebd 3dfa a83c
00000050: 2979 a43d 9767 2dbd c526 e8bd 4288 0a3d
00000060: 5b14 b0bd 78ec b33d fabf b63d 6e18 05bd
00000070: 62c3 d63d 495a d1bc b05e d3bd 76f0 e5bd
00000080: 165f 3b3d 6bda b0bd a4c8 2abd 8ab8 f73d
00000090: cf56 66bd 7b62 993d a824 afbd eb7a a33d
000000a0: a13d 6abd 082b 82bc 348d 8ebd 388a a8bd
000000b0: 8711 8bbc 9dd5 b1bd 6185 803c e44d ca3d
000000c0: fb46 41bd a554 793c 4e35 c1bd d193 80bd
000000d0: e622 393d e705 203c e34c a03d 067b fabc
000000e0: d211 ec3d 38dc e33c dc84 6c3d 0fb9 cebd
000000f0: 081a 993d 4b6f 0abe 5c95 933d a769 ff3d
00000100: c6bf 06bc 248c ddbc 7f77 47bd 47c8 dbbd
00000110: 3918 d73d 6899 d23d 63ff 78bd e8ae cebd
00000120: 2731 f73c d1bc bcbd 44f7 12bd b74a efbc
00000130: b603 9a3c 49f4 a5bd a12b c43d e1ce 9bbc
00000140: 8bdc dabc 8fd7 733d 40e0 243d f65b 4d3d
00000150: f439 443d a246 b3bd b1e3 b53d 1248 2fbb
00000160: 739c 8c3c 927a 8e3b 3747 5b3c 1f7c b4bd
00000170: b299 a23d a817 d8bd 6aba 2ebd 506f 27bc
00000180: 3827 98bd d1cf 21bd 107a bb3d ce0d b3bd
00000190: 004c b63d f72f 5a3c 4733 53bc 551d c43d
000001a0: 7b47 673b 7e0e d1bd e8e1 323d ad4a cdbd
000001b0: 1c93 c73c f020 973d 249f 523d 662d 763d
000001c0: 8fbf c8bd fe92 bdbd cb3a 16bc fe5b 573d
000001d0: ef76 fe3d 7ad4 be3c bb0e 1b3d a007 8cbc
000001e0: eb59 b2bd 9f64 9cbb 16be 9e3d 2431 f73c
000001f0: 68aa eb3c ffd2 03be b1f5 733d 5570 8ebc
00000200: 603b 98ba a3f6 72bd 5785 ba3d 7584 79bd
00000210: dd4a c63b e0f9 cb3d 7369 aebd 8acc c0bd
00000220: 1626 fbba 6fcd b93d 9ed7 a43c 9d2f 8e3d
00000230: c3ac eb3d 32a9 3bbd b95e ccbd 5299 0bbe
00000240: 770f 083e 9157 f53d 385f b83c 3dc5 e43b
00000250: df26 133d 734c c83d 2b46 433d 2c47 efbd
00000260: d52f df3d 42c3 f63c 77bd 6cbd ff82 bb3d
00000270: 1014 84bc 59d4 1f3c 07ce b43d ba07 08be
00000280: f448 073d 7261 aabd 0202 a0bd 67f8 bfbd
00000290: 70a9 85bd b438 7fbc 98e1 a5bd 366a 5d3d
000002a0: f9f8 5dbd 7b01 79bd e4ce cbbd c33e 493d
000002b0: 18f5 393c d8e5 11bc 4ba6 89bd 2c95 0cbd
000002c0: 9737 bb3d 0bab 7ebd ef5f 543d 5b89 b2bc
000002d0: f311 bf3d 62b4 7abb 4ecc 3a3d 5338 e73d
000002e0: 4511 573c c4d9 52bd 2af2 013e 82fb 11be
000002f0: 1734 6ebd 15a6 de3d 401f 673c f002 aebd
00000300: 87d8 d1bd 5b60 c9bd b66e fabd e3f6 9fbd
00000310: bfdb cc3d 84a8 22bc 76e0 8bbd c07c 8abd
00000320: f3df 41bd facd ebbc bb32 01bd 72fd ba3d
00000330: 0aab 04bd 026e ebbd 6665 ec3d b71c e9bd
00000340: 0cef 9dbd b55b c73d 3dcf d53d d8e1 f7bd
00000350: 23f9 cbbd 84a0 523d faa4 363c 31be bfbd
00000360: 5481 d2bc 3f4a 303a c086 d13d bb4b d3bd
00000370: e2c3 0abe d983 a4bc d673 77bd eb18 5c3d
00000380: 477d 93bd 90fd 103d 2258 113c 2e1a 073d
00000390: 15b4 54bc 7660 b13d 6aa8 c63d 5d3a d13d
000003a0: 5502 bf3d 3e25 eb3d 6c17 f8bd 674a 84bd
000003b0: bfa2 013d 8484 b0bd 97c2 7cbd 5248 2b3d
000003c0: ffa1 c5bd 256d 11bb 8ef4 be3d 18df e43d
000003d0: 16df 06be 8daf a9bd 60f1 d7bd c9e0 613d
000003e0: e812 9abd 0426 e43d 5f8f 35bd fd86 7fbd
000003f0: c449 11bc 090d b53d c548 13be bd98 5e3d
0.014778389 0.0010633711 -0.09851773 0.07159373 -0.030729754 -0.09234554 -0.10085566 0.10211465
0.097811736 0.045608398 -0.050662283 0.038924225 -0.021185732 0.110905096 0.07461081 0.091879494
0.043346412 -0.023113027 -0.093147434 0.020627135 0.08030922 -0.04233512 -0.1133552 0.03382135
-0.085976325 0.08785337 0.089233354 -0.032494 0.10486485 -0.025555747 -0.103207946 -0.11227505
0.045744978 -0.0863541 -0.041695252 0.12095745 -0.05623513 0.07489487 -0.085519135 0.07982429
-0.05718768 -0.01588966 -0.06960526 -0.08229488 -0.016976131 -0.086833216 0.0156886 0.09878138
-0.047186833 0.015217935 -0.09433995 -0.06278194 0.045199297 0.009767032 0.07827165 -0.03057624
0.115268365 0.02781497 0.057743892 -0.10093891 0.07475668 -0.13519017 0.072062224 0.124713235
-0.008224433 -0.027044363 -0.048697945 -0.10731559 0.10502667 0.10283166 -0.06079043 -0.100919545
0.030174805 -0.09215701 -0.035880342 -0.029210432 0.018800598 -0.08103234 0.09578634 -0.019019546
-0.026716491 0.059531745 0.040252924 0.05013653 0.04790683 -0.087537065 0.08881319 -0.0026745838
0.017164445 0.0043481076 0.013383678 -0.08812737 0.07939471 -0.10551387 -0.042658247 -0.01021941
-0.074293554 -0.03950483 0.09154141 -0.087428674 0.089012146 0.0133171 -0.012890643 0.09575907
0.0035290408 -0.10207842 0.043672472 -0.10024009 0.02436214 0.07379329 0.0514213 0.06010189
-0.09802162 -0.09256552 -0.009169291 0.052577965 0.124250285 0.023294676 0.037855845 -0.01709348
-0.08708557 -0.004772737 0.077511 0.0301748 0.02876778 -0.12873457 0.05956048 -0.017387548
-0.0011614375 -0.059317242 0.09107464 -0.060917336 0.006051405 0.09959769 -0.085162066 -0.09414013
-0.0019161131 0.090723865 0.020122346 0.06942675 0.11507561 -0.045815654 -0.099790044 -0.13632706
0.1328715 0.119795926 0.022506341 0.0069815204 0.035925742 0.097802065 0.04767434 -0.11683497
0.10897795 0.030122403 -0.057797875 0.09155845 -0.016122848 0.0097552175 0.08828359 -0.13284197
0.033028558 -0.083193675 -0.07812883 -0.09373551 -0.06526458 -0.015577484 -0.08099669 0.05405637
-0.054192517 -0.060792428 -0.09951571 0.04913212 0.011349939 -0.008904897 -0.06721171 -0.03432195
0.09141462 -0.062174838 0.051849302 -0.021794012 0.093295954 -0.003825449 0.045604996 0.1129004
0.013126676 -0.05147721 0.12690035 -0.14256099 -0.058155145 0.108715214 0.014106572 -0.08496654
-0.102463774 -0.098328315 -0.12228148 -0.07810762 0.10002851 -0.009927873 -0.06829922 -0.067620754
-0.047332715 -0.02878474 -0.03154252 0.09130372 -0.032389678 -0.11495592 0.11542778 -0.1138243
-0.0771161 0.097342886 0.10439918 -0.12103623 -0.099596284 0.05142261 0.011147732 -0.09362448
-0.025696434 0.0006724931 0.1023078 -0.10317179 -0.13551286 -0.020082401 -0.060413204 0.0537347
-0.07201629 0.035398066 0.00887111 0.03298395 -0.012982388 0.086609766 0.09700091 0.1021621
0.09326617 0.11481713 -0.12113842 -0.064595036 0.031649347 -0.08619025 -0.061709013 0.041817017
-0.09650039 -0.00221903 0.09323989 0.11175364 -0.13171038 -0.08285437 -0.105440855 0.055146012
-0.07523137 0.111400634 -0.044326182 -0.062384594 -0.008867685 0.08840377 -0.14383228 0.05434488
