rock_paper_scissors_model.onnx (onnx, 501220 bytes, 20 tensors)

batchnorm2.weight f4 [64]
000000 1e cf 7a 3f e1 38 84 3f a5 bb 84 3f 7f d3 76 3f
       0.97972286 1.0329858 1.0369765 0.9641647
000010 ef ad 83 3f 7a 1c 73 3f ae 7b 78 3f e9 14 75 3f
       1.0287455 0.94965327 0.9706372 0.9573503
000020 d9 1e 88 3f 8c d2 80 3f 37 c3 72 3f 5b 85 76 3f
       1.0634414 1.0064254 0.94829124 0.96297234
000030 51 74 81 3f 98 7c 83 3f 2e c5 73 3f 22 1b 7c 3f
       1.0113622 1.0272398 0.9522275 0.984789
000040 86 b6 79 3f c8 2b 67 3f 20 36 7c 3f 47 63 72 3f
       0.97544134 0.9030118 0.9852009 0.94682735
000050 97 a2 78 3f 11 6b 78 3f 8d a7 86 3f dc 2b 85 3f
       0.9712309 0.9703837 1.0519882 1.040401
000060 3c e8 6c 3f 6c 59 87 3f 80 e4 77 3f bf fc 7c 3f
       0.9254186 1.0574164 0.9683304 0.9882316
000070 2b 8f 86 3f a0 7b 81 3f 03 6b 78 3f 6e 9b 7f 3f
       1.0512441 1.0115852 0.97038287 0.9984654
000080 94 dd 7a 3f 19 95 83 3f 07 e8 7a 3f af 28 78 3f
       0.9799435 1.0279876 0.98010296 0.9693708
000090 24 2a 86 3f 16 a9 77 3f ae 08 7e 3f 80 a5 83 3f
       1.048161 0.9674238 0.99231994 1.0284882
0000a0 19 a0 88 3f 4f 6f 7b 3f 03 3b 83 3f 65 e8 81 3f
       1.0673858 0.9821672 1.0252384 1.0149046
0000b0 5e 09 7b 3f 31 e6 82 3f 65 2f 81 3f 84 0c 8b 3f
       0.9806117 1.0226499 1.0092589 1.0863194
0000c0 60 86 80 3f bc 1f 80 3f d4 24 83 3f 7d 07 67 3f
       1.0041008 1.0009685 1.0245614 0.902458
0000d0 d9 dc 87 3f 68 a0 88 3f ad a3 75 3f d1 f7 5b 3f
       1.0614272 1.0673952 0.95952874 0.8592501
0000e0 72 68 7d 3f 80 58 87 3f 60 06 8c 3f ce 78 81 3f
       0.98987496 1.0573883 1.0939445 1.0114992
0000f0 97 21 83 3f 88 bd 85 3f eb b6 7f 3f 4c ac 79 3f
       1.0244626 1.0448465 0.99888486 0.9752853

batchnorm2.bias f4 [64]
000000 8d 6f dd bd 73 44 b3 b9 de d0 7a bd 11 2e 7b 3c
       -0.10812292 -0.0003419254 -0.061234348 0.015330807
000010 8b 08 b6 bc 08 36 cb bd b6 47 6a 3d 38 98 35 3c
       -0.02222087 -0.09922415 0.057197295 0.011083655
000020 e1 bf 04 3e 2c e5 1f 3d 09 cd 1a bd 39 1c 5a 3d
       0.12963821 0.039036915 -0.037793193 0.05324957
000030 99 96 c8 bc 1b 3b 8d bc 9c 14 bc bd c5 57 af 3c
       -0.024485873 -0.017240098 -0.091836184 0.021404156
000040 a4 2f 19 3d be 95 aa bb b1 2e 27 bd 58 ed 05 3d
       0.03739895 -0.005205839 -0.040816013 0.03269705
000050 5e 11 a0 3d ba 4b b2 3d 9b 25 8a 3d da 90 d8 bc
       0.078158125 0.0870585 0.06745454 -0.026436258
000060 2e e2 ca 3c 9b 7c 9e bc 26 40 bc 3d af 6a e5 ba
       0.024766054 -0.019346526 0.09191923 -0.0017503108
000070 ea e5 3f bc e8 32 87 3d 02 8c 4b bc 84 18 a3 bd
       -0.011712531 0.066015065 -0.012423517 -0.0796366
000080 65 7f 97 3c c2 20 86 bd 0a 75 b2 3c 18 88 e1 3d
       0.018493364 -0.06549217 0.021784324 0.11012286
000090 2a f3 8f bd 5a 14 0f 3d 7a 51 d9 bc af d0 3b bd
       -0.07028802 0.03493152 -0.026528109 -0.045853313
0000a0 c1 c0 92 bb 76 aa 89 bd 41 2b c6 3c 62 cc 91 bd
       -0.0044785445 -0.06721966 0.024190547 -0.07119061
0000b0 ce 66 8a 3b 23 1c 2e bd 39 42 1d bd 81 a3 d0 3d
       0.004223681 -0.042507302 -0.038393233 0.10187436
0000c0 68 87 db 3c fe 07 c1 bd 62 af 47 bd 89 17 b6 bc
       0.026797965 -0.094253525 -0.048751242 -0.02222802
0000d0 9c 36 36 bd 06 a9 07 bd bc 7d 4e bd 3e d6 b8 bd
       -0.044485673 -0.033120178 -0.05041288 -0.090252385
0000e0 59 ad 31 3c 96 1c 76 bd 82 2c 39 bd d1 8a 30 bc
       0.010844552 -0.060085855 -0.04520846 -0.010775284
0000f0 a4 31 e5 3b 6a 69 8b 3d c3 5e 04 3e 9c cd a2 3b
       0.006994443 0.068072155 0.12926774 0.004968358

batchnorm2.running_mean f4 [64]
000000 7f b0 8f be 9d 1f 72 3d e2 5b de bd c9 54 94 bd
       -0.28064343 0.05911218 -0.10857369 -0.07242734
000010 48 b3 3b 3e 94 b9 f4 3c 06 95 4c 3d f6 85 31 bd
       0.18330109 0.029873647 0.049946807 -0.043340646
000020 26 89 dd bd 1b 67 4c 3e 52 11 24 bd fa 0f 2a bb
       -0.108171746 0.19961207 -0.04005558 -0.0025949464
000030 e2 e3 12 be 2c b4 97 3e bb ae 84 3c 58 b2 05 3e
       -0.14344743 0.29629648 0.0161966 0.13056314
000040 eb fa 8c be ba d7 04 3f 30 85 39 bd 4e 7c c4 be
       -0.27535185 0.5189167 -0.045293033 -0.38376087
000050 72 c2 2d be 90 85 00 bd 34 81 76 3c 4d 26 70 3d
       -0.16968706 -0.031377375 0.015045453 0.058630276
000060 e9 1d 8e bb 2a 90 aa bd c3 71 4c 3e 14 e2 3c 3e
       -0.0043370617 -0.08328278 0.19965272 0.18445617
000070 21 2d 97 3e ab a9 06 3e 78 62 73 3e b6 10 65 be
       0.29526618 0.1315066 0.23768032 -0.22369656
000080 9d 39 ae bd e9 5c 26 be 95 62 81 3d 4c eb 9d bd
       -0.085070826 -0.1624638 0.06317631 -0.07710895
000090 ab fd fb 3d dd 90 3a 3e e3 ad c3 3d fe 83 67 bd
       0.12304243 0.18219323 0.09554651 -0.056522362
0000a0 b2 8e c4 3e be 34 2a 3e ce fb 10 bd fd a3 c7 bd
       0.38390118 0.16621682 -0.03539639 -0.09748075
0000b0 3a 2e 6e 3e dc f7 27 3d 5c b4 a0 bb 9e bc a9 3d
       0.23259822 0.04100786 -0.004904313 0.08287929
0000c0 4a 8c ab bd f2 e5 9b bc 14 06 5a 3d 25 e8 77 be
       -0.083763674 -0.019030545 0.053228453 -0.2420965
0000d0 11 f0 ca bd 2e b5 2e bd 1e a1 c3 be c5 03 0c 3c
       -0.0990907 -0.042653255 -0.3820886 0.008545821
0000e0 84 ac 28 be 4a f9 96 bc e8 45 bb bc f4 e4 a0 bd
       -0.1647206 -0.018429417 -0.022860482 -0.07856169
0000f0 7e e2 58 3e 54 ce cd 3d 43 12 0a 3d d8 13 8d 3e
       0.2118015 0.100491196 0.033708822 0.27554202

batchnorm2.running_var f4 [64]
000000 fd 50 52 3b 73 c8 03 3b 8e 6d 65 3a 9b c9 13 3a
       0.003209173 0.002010849 0.00087519817 0.00056376465
000010 47 a2 ca 3a 3b 69 21 3a 64 d6 d7 3a 87 b2 2d 3a
       0.0015459739 0.0006157343 0.0016467092 0.0006626029
000020 a4 6f 9c 3a f8 07 2e 3b b0 c6 d6 3a 73 da cf 3a
       0.0011935127 0.0026555043 0.0016386118 0.001585795
000030 91 00 fa 3a 21 4c 6b 3a 96 bb 52 3a 03 82 94 3b
       0.0019073655 0.00089758827 0.0008038817 0.0045321
000040 6d 24 70 3a a1 e2 62 3c 66 e8 20 3b fd 06 91 3b
       0.00091607013 0.013847978 0.0024552583 0.004425882
000050 76 58 43 3a ef 96 e6 3a bc bb 6c 3b 87 13 2f 3a
       0.00074518414 0.0017592589 0.003612264 0.000667863
000060 73 7f 3b 39 45 a4 1a 3b 65 e9 9d 3a f1 e1 5b 3a
       0.00017881188 0.0023596447 0.0012047706 0.0008387855
000070 2a 83 23 3b 73 e0 c6 3a b3 05 01 3b ad a2 6a 3a
       0.0024950006 0.0015173092 0.0019687235 0.0008950632
000080 02 31 8b 3a 3a df c0 3a b6 a0 91 3a c9 dc 0a 3a
       0.0010619464 0.0014714964 0.0011110518 0.0005297182
000090 c5 7e 3b 3b ff f0 41 3b b6 83 2d 3a ca bd f4 3a
       0.0028609496 0.0029593108 0.0006619053 0.0018672284
0000a0 c8 0c 4a 3b 13 86 5e 3b 7a 2d 0f 3b 0e eb a7 3a
       0.0030830372 0.0033954426 0.0021847175 0.0012811141
0000b0 b1 aa e5 3b 0b 0f d4 3a b1 0c 91 3a ef b5 d8 3b
       0.0070088734 0.00161788 0.0011066404 0.006613485
0000c0 f8 7d 67 3b 6a f4 2f 39 85 c1 f6 39 31 fd 46 3b
       0.0035322886 0.00016780352 0.0004706496 0.0030363316
0000d0 19 9e a0 3b cb 5d 16 3a 26 d9 b1 3b 28 c1 08 3a
       0.004901659 0.0005736022 0.0054274974 0.0005216771
0000e0 99 75 ce 3a 74 27 43 3b be 9c 9f 3a fe cc 0e 3b
       0.00157516 0.0029778155 0.001217745 0.0021789665
0000f0 d0 80 1d 3b 5b f0 77 3a de b4 05 3b d7 3e 45 3b
       0.0024033077 0.0009458118 0.0020401995 0.003009727

fc1.weight f4 [64, 64]
000000 17 05 5b 3d 22 3e b0 3c ff f3 ee 3c d5 6b 2e 3d
       0.05347165 0.021514002 0.02916908 0.042583305
000010 ad 4c e2 bd c1 4d 2e 3e ad ce 76 bc f5 55 9b bc
       -0.11049781 0.17021848 -0.015063924 -0.018961886
000020 27 ea b4 bd 78 da 10 3c 20 a4 e0 3d be d5 6a 3d
       -0.088337235 0.0088411495 0.10968804 0.057332747
000030 ae cb 7a 3d 60 7d 8e 3c 16 84 e9 3d ba b2 86 3d
       0.0612294 0.017393768 0.114021465 0.06577058
000040 8d ef 3b 3d b4 c3 81 3d 31 ae 14 be 82 5b 0f 3b
       0.04588275 0.063361555 -0.14519574 0.0021874611
000050 fa 1b 19 bd c9 28 bd bd 0d fb 3e bc 8b d5 02 3e
       -0.037380196 -0.09236295 -0.011656535 0.12776773
000060 94 49 10 3c 76 a2 5a 3d ca 72 fa bd b8 36 35 be
       0.008806605 0.05337759 -0.122289255 -0.17696655
000070 9a 5f 99 3d eb 00 25 3e 0e 67 01 3d 72 b7 ce bd
       0.07488938 0.16113631 0.03159242 -0.10093583
000080 a6 9f 5e 3d 5d d8 4a bd 06 28 a5 3d dc 8b 00 3e
       0.05435147 -0.049522746 0.080642745 0.12553352
000090 b1 84 9d bd c7 73 1d 3d 36 cc 8e 3d 25 db 0d be
       -0.076913245 0.038440492 0.06972544 -0.13853128
0000a0 c4 ab b6 3c b7 e9 cb 3d a3 2f 58 bd e4 f1 07 bd
       0.022298701 0.09956687 -0.052779805 -0.03318967
0000b0 15 b2 23 3d 3f 1a 0c 3e cb cf e4 bd 50 1b 8f 3d
       0.039964754 0.13681887 -0.11172446 0.06987631
0000c0 c0 cf 48 bd af 8a 95 3d 4e ae a0 bd 66 6d bd 3d
       -0.04902625 0.073018424 -0.07845746 0.09249382
0000d0 49 77 80 bd 98 17 11 be bf 35 be bd 14 c4 05 bd
       -0.06272752 -0.14169157 -0.09287595 -0.032657698
0000e0 12 ab cd bd 1b 36 2d bc a4 8a 5c 3e e9 aa ad 3d
       -0.10042395 -0.010571982 0.21537262 0.08479864
0000f0 42 30 a9 bb 5a 5f 99 3d a8 0e fc ba dd e1 02 3e
       -0.0051632235 0.0748889 -0.0019230442 0.12781473
000100 76 4b 08 3e 1f 35 0b 3e eb 80 b2 3d 3d 1d 91 3d
       0.13310036 0.13594483 0.087159954 0.07085655
000110 d9 8a 0e 3e 06 94 c0 bd 81 b8 04 bd 94 4a f0 bd
       0.13920154 -0.09403233 -0.03240252 -0.11732975
000120 25 3b f4 3d d5 a3 05 3e 71 ac 0d bc fb a4 5c bc
       0.119253434 0.13050778 -0.00864707 -0.013467069
000130 81 c1 92 3d 71 b5 03 3e b2 b0 b1 3b 04 8f 8f bd
       0.07165814 0.12862183 0.005422675 -0.070097
000140 c3 03 e2 bc 1d fd 34 bb 8b fe 83 bd c7 c2 f1 3c
       -0.027589684 -0.0027616688 -0.064450346 0.029511822
000150 c0 0f 86 bb 62 14 11 3e 4b b1 b1 bd 0e 11 8f 3d
       -0.004091233 0.14167932 -0.08676394 0.06985675
000160 5b e8 79 bd 29 61 37 3e 30 31 35 bd 88 b8 98 bd
       -0.061012607 0.17908157 -0.044236362 -0.074570715
000170 82 f2 67 bd bc 74 bf bc 91 8d 08 3e e9 36 19 bd
       -0.056627758 -0.023371093 0.13335253 -0.037405882
000180 8d 1d bb ba 72 03 d3 3c f7 00 96 bd 86 96 c7 bb
       -0.0014275775 0.025758479 -0.07324403 -0.006090942
000190 ff 0c 7f 3d 5e 6b af bc b4 1b 49 3d e4 2f d7 3d
       0.062268253 -0.021413501 0.049098685 0.10507181
0001a0 12 27 75 3d 26 d7 30 be f3 d0 c3 bd 8a ab 5c bd
       0.059851713 -0.17269573 -0.09561338 -0.05387453
0001b0 bb f2 bf 3d 7a bd ad 3b 11 bb 95 3d 26 ab 8a bc
       0.09372469 0.0053021284 0.07311071 -0.016927313
0001c0 2b 9c 19 3d a5 9d 97 bd 08 8d eb bd f6 00 80 3d
       0.03750245 -0.07403115 -0.11501509 0.06250183
0001d0 79 7a 53 bd 54 64 56 3d 68 c3 5a bd 2f 17 85 3d
       -0.05163047 0.052341774 -0.05340901 0.064985625
0001e0 5c 53 ba bd ea 03 89 bd e8 e8 f7 3d 5a f1 10 bc
       -0.09097931 -0.066902 0.1210497 -0.008846605
0001f0 c9 05 2f 3e 57 0f bb 3d 2d f2 8f 3c 32 d1 1e be
       0.1709205 0.09133785 0.017571533 -0.15509489
000200 1d ef 7d bd a2 97 46 3e 08 b1 8a 3d 4d eb 95 bd
       -0.061995614 0.19393781 0.06772047 -0.07320271
000210 20 22 c1 bd bf a5 b7 bd 11 6e a6 bd 93 ab 86 3c
       -0.09430337 -0.089671604 -0.08126462 0.016439235
000220 cf af 1a 3d c8 60 98 bd 6b 80 21 3c 28 0b 8a bc
       0.03776532 -0.074403346 0.009857277 -0.016851023
000230 82 67 67 bd 72 97 ac 3d da c5 2b be 3d 8f 54 3d
       -0.056495197 0.084273234 -0.16774693 0.051894415
000240 40 3b e9 bc 0c bb 1a bc 9d cf 1b bd 57 a5 90 3c
       -0.028470635 -0.0094440095 -0.038039792 0.017656965
000250 a4 4a 24 bd ed 9e 1d be 3d d3 f1 3d b7 a1 13 bd
       -0.040110245 -0.15392657 0.11807869 -0.036042895
000260 f6 fe b3 bd b2 1a a4 3d 16 40 b6 3d 10 5d 36 bd
       -0.08788864 0.08012904 0.08898942 -0.044522345
000270 41 63 c5 bd db 53 09 be 7d f7 91 3b 8a 4b 11 bd
       -0.09638072 -0.13410895 0.0044545517 -0.03547243
000280 30 61 9a 3d db 65 29 bd fc d2 6d bd 01 fa 0e 3e
       0.07538068 -0.041356903 -0.05806254 0.13962556
000290 13 65 e3 bc dd 14 62 3b eb d2 2f be 67 c0 2e b9
       -0.027758157 0.0034497299 -0.17170303 -0.00016665609
0002a0 71 3b 25 be 2e c3 84 3d 33 8e 23 3e 5d 4f 37 bd
       -0.16135956 0.0648254 0.15972213 -0.04475342
0002b0 ac 23 b3 bd 5f ff 46 be 53 67 85 bd 4e 16 cd 3d
       -0.08747038 -0.19433354 -0.06513848 0.1001402
0002c0 4a 7a 00 bc 48 a6 c8 3b f6 ad a5 bd 8e d7 e7 3d
       -0.007841656 0.006123338 -0.08089821 0.11320411
0002d0 5e cf 80 bd 5d ef ca 3d de 43 ff bb e2 1e ff 3d
       -0.06289552 0.09908936 -0.007790073 0.12457062
0002e0 77 b7 cd 3c 6b 8a b1 bd 41 0c f2 3d f8 eb 9f bd
       0.025111897 -0.08668979 0.118187435 -0.07808679
0002f0 8d 73 ad bc 40 25 0b bc 5e bd a0 bd 9c 2f c9 3c
       -0.021173263 -0.008492768 -0.07848619 0.024558835
000300 83 14 0c bd 31 19 a5 bd 9e d7 78 bd 4b b8 ac bd
       -0.03419925 -0.080614455 -0.060752504 -0.084335886
000310 3f 0a 15 bd 0b 98 ed bb 96 fb ab 3d 10 c5 0a 3e
       -0.036386725 -0.007250791 0.083975956 0.13551736
000320 f5 fa 3a 3c 08 1e 20 3e cf 94 41 3d 74 f5 da 3d
       0.011412372 0.15636456 0.047261056 0.10691348
000330 f4 32 9b 3d 97 8f 99 bc 88 a2 e9 3d bb 63 2d be
       0.07578078 -0.018745227 0.114079535 -0.16932575
000340 67 3b c4 3d 90 5a af 3d fd 95 c4 3c 67 14 d3 3d
       0.095816426 0.08562195 0.023997301 0.10306626
000350 9d 62 91 bd 2c 26 af bd b2 c2 f2 bd 55 48 da 3c
       -0.07098887 -0.085522026 -0.118535414 0.026645819
000360 18 02 bb 3d 97 40 fc bd 26 27 b6 bd 31 60 0a be
       0.09131259 -0.12317007 -0.08894186 -0.13513257
000370 1c b7 0b 3e a8 52 e6 3a dc 1d 08 be 78 cd c6 3d
       0.1364407 0.0017572241 -0.1329264 0.09707159
000380 87 04 68 bd 8c 07 b0 3d 97 e4 bd 3c f6 b7 e5 3a
       -0.056644943 0.085951895 0.02318029 0.0017526138
000390 e8 bc 6a 3d 30 a8 d5 3d 9d a7 2f bb 29 33 00 be
       0.05730906 0.1043247 -0.0026802786 -0.12519516
0003a0 0b 47 07 3e ff da 6f 3c 3a 12 0f 3e de 7c 0f 3d
       0.13210694 0.014639615 0.13971797 0.035031192
0003b0 4c 49 42 bd 1e dc a0 ba ec 99 16 be bf 1d be bd
       -0.047433183 -0.0012272631 -0.14707154 -0.09283017
0003c0 b7 34 3c 3e 92 46 56 3c d7 fe ef 3a 12 93 c3 3c
       0.18379484 0.013078349 0.0018310201 0.02387384
0003d0 4e 6f 27 3d ef bb 18 3e d6 c2 8d 3b 3a 64 bc bc
       0.040877633 0.14915441 0.004326205 -0.02299701
0003e0 23 5c d4 3c f0 0a 11 bd 3f 0a 0d 3c 7e fc d9 bd
       0.02592284 -0.03541082 0.0086084 -0.10643862
0003f0 45 e6 80 3d 5f 6f 5b bd e2 e0 e9 3d f6 b9 ad bd
       0.062939204 -0.05357301 0.11419846 -0.08482735

fc1.bias f4 [64]
000000 46 41 9e 3d 73 5b d0 39 61 17 ed bd b9 23 84 bd
       0.07727294 0.00039740987 -0.11576725 -0.06452126
000010 eb de a3 bd 82 72 9b 3c 6f 1d e3 bd d8 98 04 be
       -0.080015026 0.0189755 -0.110895984 -0.1294893
000020 f1 3c 2e 3d 45 7f e7 3c ee d4 4d 3d f8 47 10 be
       0.042538587 0.028258929 0.050251894 -0.14089954
000030 86 81 c9 3d 8a 86 45 bd 56 84 e4 bd c7 58 45 3a
       0.09839158 -0.04822401 -0.111580536 0.00075281825
000040 3a b5 95 bc b0 16 ec 3d 43 22 03 bd 0f d0 11 3d
       -0.018274892 0.11527765 -0.032015096 0.03559881
000050 be 58 2a bc 3f b0 f0 bc b3 77 e9 3d 51 19 5d 3c
       -0.010397134 -0.029380916 0.11399784 0.013494805
000060 40 a7 ed 3d b9 18 f2 bc 99 67 5c 3d 03 3e b6 bd
       0.11604166 -0.029552804 0.053809736 -0.088985465
000070 e5 37 ff bd fe e6 37 3d d3 d2 9c bd 6f d6 11 be
       -0.12461833 0.044898026 -0.07657399 -0.14241956
000080 88 ec 14 bd 0f 3c 90 bb bc 37 68 bd 30 12 cb 3d
       -0.036358386 -0.004401691 -0.056693777 0.09915578
000090 34 6b fe bd 60 a7 2d 3e 7c f8 2d bd 06 9b 81 bd
       -0.12422791 0.1695838 -0.0424733 -0.063283965
0000a0 82 3d fb 3d f3 52 ae 3d 80 f7 ec 3d c6 5a 5d 3d
       0.12267591 0.08511915 0.115706444 0.054041646
0000b0 f4 25 3c bd 42 0f 9e bc 29 80 1c 3d 98 95 fb bd
       -0.045934632 -0.019294385 0.03820816 -0.12284392
0000c0 1e 17 fb bd c4 20 8e 3d 37 55 d8 bd ee 4a bc bc
       -0.12260269 0.06939843 -0.105631284 -0.022984948
0000d0 35 73 24 3d 75 ae 53 be ce 64 92 3d d9 91 78 bd
       0.040148932 -0.20672019 0.07148133 -0.060685966
0000e0 ce f3 bc bc 80 5d 86 bc 1d 1c a6 3d f5 ab 78 bb
       -0.023065474 -0.016402006 0.08110831 -0.0037944291
0000f0 5a 49 11 be 34 ab 37 3d cc 62 2f 3e 45 93 b2 3d
       -0.14188138 0.044841006 0.17127532 0.08719496

batchnorm3.weight f4 [64]
000000 55 7c 64 3f 7a f1 71 3f 99 e9 77 3f 4a eb 7d 3f
       0.89252216 0.9450909 0.96840817 0.9918715
000010 71 b0 71 3f 86 c7 71 3f a1 b4 73 3f 89 2c 77 3f
       0.94409853 0.94445074 0.9519749 0.9655233
000020 95 c0 7d 3f 75 ef 7b 3f 86 fd 71 3f 76 0f 6e 3f
       0.9912198 0.9841226 0.9452747 0.9299234
000030 97 9f 81 3f 4b 42 71 3f 52 39 7b 3f ac 93 73 3f
       1.0126828 0.9424178 0.9813434 0.95147204
000040 4a 68 6c 3f ab 08 75 3f d7 81 6a 3f 94 fe 82 3f
       0.9234663 0.9571635 0.9160437 1.0233941
000050 47 99 75 3f 7b d0 76 3f 93 c5 71 3f 99 aa 7a 3f
       0.9593701 0.96411866 0.944421 0.9791656
000060 6e 0b 7f 3f 25 96 6c 3f c4 b5 60 3f b2 74 7b 3f
       0.99626815 0.924166 0.8777735 0.9822494
000070 bf f4 72 3f a0 33 72 3f 68 6b 73 3f 27 13 80 3f
       0.949047 0.94610023 0.95085764 1.0005845
000080 15 8b 80 3f d5 c5 7b 3f 36 f2 79 3f f1 da 7c 3f
       1.0042444 0.9834874 0.9763521 0.9877158
000090 00 4d 72 3f 36 7d 83 3f 15 a3 82 3f 1b 7b 83 3f
       0.9464874 1.0272586 1.0206019 1.0271944
0000a0 0a d0 78 3f f9 24 80 3f 55 ae 6c 3f 23 0c 75 3f
       0.9719244 1.0011283 0.9245351 0.95721644
0000b0 73 ea 7a 3f 2f ea 75 3f 51 c5 68 3f 4d 16 6f 3f
       0.9801399 0.9606046 0.9092608 0.93393403
0000c0 74 82 79 3f f5 37 71 3f 13 b4 77 3f 46 17 7a 3f
       0.9746468 0.9422601 0.96759146 0.9769176
0000d0 7d ec 6a 3f 09 ca 74 3f 72 29 6d 3f cb fa 6e 3f
       0.917671 0.9562078 0.92641366 0.9335143
0000e0 09 61 75 3f 40 96 6a 3f 51 ab 72 3f e8 6d 6b 3f
       0.9585119 0.91635513 0.9479266 0.9196458
0000f0 da f9 70 3f f1 85 77 3f 5b e6 72 3f e8 04 6e 3f
       0.94131243 0.96688753 0.94882745 0.92976236

batchnorm3.bias f4 [64]
000000 c2 59 27 bd b9 06 d3 3a 7c fa f6 3b 2d 35 13 3d
       -0.040857084 0.0016100026 0.0075371843 0.035939384
000010 2a 37 d0 3d 93 2c 0d 3b a4 b1 8d 3c 5c ed a3 bb
       0.10166772 0.002154146 0.01729662 -0.0050026607
000020 1c f2 2b bd 74 1e 25 3d b1 23 1b 3d 47 2a 7b 3d
       -0.04197894 0.040312245 0.037875835 0.061319616
000030 a6 fe 34 be 09 1f db bd ab 6a 34 bd b6 aa 35 3e
       -0.17675266 -0.10699279 -0.04404704 0.17740902
000040 31 f5 95 3c 8b 63 6f 3d 5f 69 45 bd 9f 58 1b bd
       0.018305393 0.05844454 -0.048196193 -0.037926313
000050 46 a1 4c bd 34 83 4b bd 29 5e e7 ba d1 96 ba 3d
       -0.04995849 -0.049685672 -0.0017651963 0.09110797
000060 7e 67 89 bd ab 8b 90 bc bc 52 0f 3d 5b 46 3a bd
       -0.06709193 -0.017644724 0.03499101 -0.045477252
000070 12 c3 ab 3a d2 a9 70 bd b4 b2 86 bd 0c 55 85 bd
       0.00131044 -0.058755703 -0.06577054 -0.06510362
000080 76 71 7d 3c db cd d5 3c 4d f5 77 bd 67 15 55 bd
       0.015468946 0.026099136 -0.06053667 -0.052022364
000090 53 ea 64 bc 07 d0 40 3d f3 99 01 bd df 7d c7 bb
       -0.013971883 0.04707339 -0.031640958 -0.006088003
0000a0 c5 90 6b 3c 49 78 82 bd e1 d6 9f bd e6 9d 08 bd
       0.014377777 -0.06370599 -0.07804657 -0.03335371
0000b0 12 26 17 3c de be d4 3c ad 7e 52 bd 00 97 6b bd
       0.009225385 0.025969919 -0.05139034 -0.05751705
0000c0 c4 83 65 bc 83 8b 0b bd 7f 19 18 bd c6 e7 93 bd
       -0.014008466 -0.034068596 -0.03713369 -0.07221942
0000d0 8e a5 16 bd 45 42 10 be 76 4e a4 bd 09 d3 00 be
       -0.03677898 -0.1408778 -0.08022778 -0.12580504
0000e0 62 90 e2 bc 7e 98 8a bd 2f 55 e4 bd d5 75 07 3d
       -0.027656738 -0.06767367 -0.1114906 0.033071358
0000f0 dc b1 03 bd 86 c1 5a 3a f3 2b 21 bd f3 29 9c bd
       -0.03215204 0.0008344877 -0.039348554 -0.07625189

batchnorm3.running_mean f4 [64]
000000 29 5f 08 3f 95 0d fd 3e fd a2 c7 3e b8 48 19 3f
       0.532702 0.49424425 0.38991538 0.59876585
000010 98 6b 0d 3f 31 30 f6 3e d2 c7 eb 3e 6f a5 dc 3e
       0.552423 0.48083642 0.46050888 0.43094966
000020 57 ca 1c 3f 0d 0d 37 3f 3a 5c 2c 3f fe e9 bd 3e
       0.61246246 0.7150429 0.67328227 0.37092584
000030 e6 ff 17 3f f6 ee a9 3e 5a 5f 21 3f d4 2f 10 3f
       0.59374845 0.33190125 0.6303612 0.5632298
000040 9c 49 2b 3f 27 76 25 3f 92 78 90 3e b9 7b 4e 3f
       0.66909194 0.6463341 0.28216988 0.80657536
000050 10 18 1f 3f fe 1c 06 3f 70 56 02 3f da bb 01 3f
       0.6214609 0.5238799 0.50913143 0.50677264
000060 06 f6 40 3f 8d 7b ab 3e 4f bf f8 3e 1c 2b 05 3f
       0.753754 0.334927 0.48583457 0.52018905
000070 0e 18 9f 3e a7 92 1d 3f bc 8b fb 3e 48 a4 f3 3e
       0.3107304 0.615519 0.49130046 0.47586274
000080 01 54 30 3f c3 c6 0a 3f d5 20 dd 3e 66 5d 2c 3f
       0.6887818 0.54209536 0.4318911 0.67330015
000090 fe c1 c2 3e 35 e4 39 3f ea 6a 15 3f db 6f 2e 3f
       0.3803863 0.7261384 0.5836626 0.6813943
0000a0 84 0d 37 3f f7 47 35 3f 66 35 28 3f 06 44 e8 3e
       0.71505 0.70812935 0.6570648 0.45364398
0000b0 d7 ad 00 3f cf 66 ea 3e 29 55 06 3f f1 ab e8 3e
       0.5026526 0.45781562 0.52473694 0.4544368
0000c0 73 f4 da 3e 0d 94 04 3f 59 76 09 3f 1f 93 05 3f
       0.42764625 0.5178841 0.5369621 0.52177614
0000d0 6d ff dd 3e 07 9e 9d 3e 7a 8d 18 3f 6e ef d7 3e
       0.43358937 0.30784628 0.59590876 0.42174858
0000e0 c8 7e af 3e 00 eb d0 3e 96 0d 05 3f e5 ba e1 3e
       0.34276414 0.4080429 0.51973855 0.44087902
0000f0 ab a2 ca 3e 0f 32 05 3f b8 e2 2d 3f 62 b8 20 3f
       0.3957723 0.5202951 0.6792407 0.62781346

batchnorm3.running_var f4 [64]
000000 bd 73 10 3f 86 a6 44 3f df 24 c0 3e 01 4c 3c 3f
       0.564266 0.76816595 0.3752813 0.7355347
000010 2f 8a 56 3f ca ec 1d 3f de bc 17 3f b2 6a f5 3e
       0.838046 0.61689436 0.59272563 0.47932965
000020 27 33 43 3f 58 4b 97 3f d2 8d 81 3f ee 19 e3 3e
       0.7624993 1.1819868 1.0121405 0.4435572
000030 99 f5 56 3f 9c 7b 9f 3e a6 1b 5e 3f d8 07 38 3f
       0.839685 0.31148994 0.8676094 0.7188697
000040 7a 15 8b 3f b4 dc 81 3f ef f3 7b 3e 9a 23 b5 3f
       1.0865929 1.0145478 0.24604772 1.415149
000050 27 00 89 3f ac fb 3c 3f be 80 ad 3e 35 bb 3f 3f
       1.0703171 0.7382152 0.33887285 0.7489503
000060 42 33 8f 3f a7 23 c1 3e f9 b8 f6 3e fe a2 25 3f
       1.1187518 0.37722513 0.48187998 0.6470183
000070 6a 3a b7 3e 3d e8 49 3f 98 e9 0b 3f 9b 0e 1d 3f
       0.35786754 0.7886999 0.5465331 0.6135041
000080 ce b5 8b 3f 51 1c 46 3f bc 17 17 3f ef 59 44 3f
       1.0914857 0.7738696 0.5902059 0.7669973
000090 a5 91 e1 3e 02 fd 86 3f 77 bc 3a 3f 84 52 71 3f
       0.4405643 1.0545962 0.72943825 0.94266534
0000a0 8c 20 63 3f 7d 45 92 3f 48 d3 48 3f b2 6f e7 3e
       0.8872154 1.1427456 0.7844739 0.45202404
0000b0 90 c8 1b 3f 0e f3 ec 3e 20 98 06 3f 95 72 0a 3f
       0.6085291 0.46279186 0.52575874 0.5408109
0000c0 8e c7 03 3f 81 68 19 3f a5 1a 42 3f 42 4f 25 3f
       0.5147637 0.59925085 0.75821906 0.6457406
0000d0 69 10 fe 3e e9 32 8f 3e 72 1c 3f 3f 6c bc d4 3e
       0.49621895 0.2796853 0.7465278 0.41550004
0000e0 c1 2f c8 3e 5c 4d c6 3e 88 df 28 3f 2e 99 07 3f
       0.39098933 0.38730896 0.6596608 0.5296811
0000f0 34 85 c4 3e 0d 3f 33 3f f8 de 38 3f 7e 24 59 3f
       0.38382876 0.7001808 0.72215223 0.8482131

fc2.weight f4 [32, 64]
000000 54 c6 a8 bc 8d 65 8a bd 38 a0 ab bd 8d 9b 2f be
       -0.020602383 -0.067576505 -0.08380169 -0.17149182
000010 ee 73 6d bc 31 c1 b1 bd d0 dc 54 bc fc 1b b0 bd
       -0.014492972 -0.086794265 -0.012992099 -0.085990876
000020 14 a1 dc 3d f6 e7 a9 3d d5 46 02 bd 18 29 03 3e
       0.10772911 0.08296196 -0.031805832 0.12808645
000030 3a 88 cb bd 11 e1 40 be 13 68 b7 bd b2 3f 99 3c
       -0.099380925 -0.18835856 -0.089553975 0.01870713
000040 2b 87 d0 3d 04 d0 8d 3d 51 27 6a bc 7b 64 82 3d
       0.10182031 0.069244415 -0.0142916 0.063668214
000050 8d 79 a3 bd 19 42 0f bd 09 c9 2b 39 99 bd bc bd
       -0.07982168 -0.034975145 0.00016382722 -0.092158504
000060 06 21 9f bd 05 31 a4 3c c1 90 7f bc af 0a 3c bc
       -0.077699706 0.020042906 -0.015598477 -0.011477157
000070 93 b7 8c 3c 51 c9 20 bd 4e 33 14 be d8 e7 1a bd
       0.017177379 -0.03925449 -0.14472696 -0.03781876
000080 15 b6 0e bd bf b7 82 bd d4 9f 4f bd 02 1d 0c bd
       -0.034841616 -0.06382703 -0.050689533 -0.03420735
000090 a8 f9 47 bd 83 11 18 be ed 5a 56 be db fb d8 bc
       -0.048822075 -0.1485043 -0.20933123 -0.026487282
0000a0 84 61 f2 3d cd 2b b6 3d 47 4d 37 3a fd 08 40 bd
       0.11835006 0.08895073 0.0006992411 -0.046883572
0000b0 36 c1 d0 bd 11 3d f0 bd 68 9f 37 3d 71 99 27 bd
       -0.10193102 -0.117303975 0.044829756 -0.040917818
0000c0 da 78 ff 3d 87 79 13 bd 20 5d e3 3d 1e eb 3c 3d
       0.124742225 -0.03600457 0.111017466 0.046122663
0000d0 b8 66 a9 3d 72 e3 48 3c 76 d2 a8 bc 60 2c d1 3c
       0.08271545 0.012261258 -0.020608168 0.025533855
0000e0 94 7d 7a bd 34 b7 57 bd f0 6c f6 bd 97 6d 90 bd
       -0.061154917 -0.05266495 -0.12032497 -0.070521526
0000f0 32 ae a4 bb 16 38 96 bd e3 15 80 bd 38 a2 96 bd
       -0.0050256485 -0.07334916 -0.062541746 -0.073551595
000100 32 d2 9c 3d 13 2a ba bd f0 70 f2 3c 59 0c f1 bd
       0.07657279 -0.09090056 0.029594868 -0.11769933
000110 ca 74 09 3d 9e 8c b7 3c 9f 3c 2a bd b3 fc c8 bc
       0.033558644 0.022405919 -0.04156172 -0.024534559
000120 26 55 ed 3c 7b 73 02 be 22 a7 39 3d 72 01 61 3c
       0.028971266 -0.12739365 0.045325406 0.013733255
000130 c1 28 17 3d 88 77 eb 3d ec ef b7 bd 88 48 8e bd
       0.0369041 0.11497408 -0.08981308 -0.06947428
000140 49 f4 19 3e 1b 1c c3 bd 78 cb c6 3d 44 0e 04 3d
       0.15034594 -0.09526845 0.09706777 0.032240167
000150 c7 c0 f9 3c 44 74 1a 3d 17 bc 0b bd e1 25 be bd
       0.030487431 0.037708536 -0.034114923 -0.092845686
000160 a7 34 44 bd 4d 01 e2 3c f3 31 85 3d 08 46 58 bd
       -0.047901776 0.02758851 0.06503668 -0.052801162
000170 31 86 9e 3d cd 13 52 bd e1 fb c1 3d 61 6a 82 bd
       0.07740439 -0.051288415 0.0947187 -0.063679464
000180 04 92 a6 3d 57 32 ec bc 8a 2e 45 3d 5f e0 30 bd
       0.08133319 -0.028832598 0.048140086 -0.043182727
000190 0e e2 bb 3d cd 37 06 be 1a 80 33 bd 57 5c fb bd
       0.09173976 -0.13107224 -0.04382334 -0.12273472
0001a0 8d d9 f0 3c a0 2b 8b bc cb 22 68 3d 90 b9 a2 3d
       0.029400611 -0.016988575 0.056673806 0.079455495
0001b0 91 d8 96 bd 20 51 05 bd 21 ea a1 3d a0 7e a6 bc
       -0.073655255 -0.03254807 0.07905985 -0.020324051
0001c0 1e 16 96 bc 77 d0 0a 39 d5 af bc 3d 07 04 a7 3d
       -0.018321093 0.00013238365 0.09213225 0.08155065
0001d0 c3 f3 e8 3d fa 38 94 bc 10 d5 aa bb 09 24 77 3d
       0.11374619 -0.018093575 -0.0052133873 0.0603371
0001e0 8f 0b e0 3d 28 42 7c 38 2e cb b7 3d b7 0f df 3d
       0.109397046 6.0143095e-05 0.089743 0.10891669
0001f0 c5 26 df bd 19 44 71 bc 7f 38 a9 bd 9e f8 d1 3d
       -0.108960666 -0.014725708 -0.08262729 0.10252498
000200 ee 60 4a 3d d6 ba 59 bd 49 07 5f bc ef 22 a7 bc
       0.049408846 -0.053156696 -0.013612577 -0.0204024
000210 3f 93 96 bd 6c 07 47 3d f1 db 27 bd 33 d4 13 3e
       -0.07352304 0.048591062 -0.040981237 0.14436416
000220 b0 44 99 bd ee d3 c1 3d 69 50 a2 3d f3 57 9e bd
       -0.07483804 0.094642505 0.07925493 -0.07731619
000230 e1 e9 0e 3d 0e 8f 66 3d 8d a2 a5 3d 57 b4 c2 bd
       0.034891013 0.05628877 0.08087645 -0.09507053
000240 40 00 da 3c 80 25 0d be f2 7e 1c bd a7 a0 f5 3d
       0.026611447 -0.13783836 -0.038207002 0.11993533
000250 8a 06 e7 bc 4c bc 32 3e 35 93 93 3d b4 9c 5e bd
       -0.02820136 0.17454642 0.07205812 -0.054348662
000260 fc 3d ea 3d 25 c8 41 3c 79 fb cb 3d 09 b9 68 bd
       0.11437604 0.011827503 0.09960074 -0.05681709
000270 05 61 43 bd ea 9f 08 3d f2 52 c6 bc 54 07 63 3d
       -0.047699947 0.03335563 -0.024209473 0.05542691
000280 ea 7a 96 3d a4 16 f6 bd ba d8 92 bd 8e 0e 05 3e
       0.07347663 -0.12016037 -0.071702436 0.12993833
000290 1b 7c 92 3d bf c9 97 bc 6d 5f b7 3d 6d 4f ff 3d
       0.071525775 -0.018528817 0.08953748 0.12466321
0002a0 19 49 12 3d 5a 9c 3c bd 12 ff 84 bb c7 a1 c7 ba
       0.035714243 -0.046047546 -0.004058727 -0.0015230709
0002b0 9c 73 ee 3d f9 de 04 3c 19 cc 12 3d 00 59 da 3c
       0.116431445 0.008109801 0.035839174 0.026653767
0002c0 2d dc 9c bd 73 da 97 bd 8f c8 df 3d fa fb 92 3c
       -0.07659183 -0.07414713 0.109269254 0.017942417
0002d0 31 f6 a0 3d 95 5c af 3d 93 33 2b 3e f0 67 30 3e
       0.07859457 0.085625805 0.16718893 0.17227149
0002e0 cf fc 41 3d 33 2d 2a 3d ca 2c a1 3d 82 71 08 bd
       0.047360238 0.04154701 0.07869871 -0.033311374
0002f0 31 87 b8 bd 3c 4c 56 3d b9 dc 04 bd 4f 89 d2 3c
       -0.09010161 0.052318797 -0.03243706 0.02570024
000300 48 6b b2 3d de 38 97 3b b0 2e 37 3d d0 e4 69 bd
       0.087118685 0.0046149334 0.04472226 -0.05710298
000310 23 4e a1 bd a5 60 df bd 96 c5 fc 3d c6 8b 07 bd
       -0.078762315 -0.10907105 0.12342374 -0.033092283
000320 2b b7 bc ba c7 9f 16 bd b3 bf 29 bd 8d 38 cb 3d
       -0.001439785 -0.03677347 -0.041442584 0.099228956
000330 43 43 a5 bc 93 17 30 3c a9 2d 1e 3c a3 5a 82 bd
       -0.020173674 0.010747808 0.009654441 -0.06364944
000340 88 40 3c bc 1f e7 b4 3d 80 c3 10 3e cf 05 6a bd
       -0.011489995 0.08833145 0.14137077 -0.057134446
000350 86 4d 11 3e 83 3b 4c bd 53 b7 12 3d 80 87 83 3d
       0.14189729 -0.049861442 0.035819363 0.06422329
000360 0d 30 9a 3d df 80 d7 3d 72 51 86 bd c3 87 89 3d
       0.07528696 0.10522627 -0.06558503 0.067153476
000370 14 6d 71 bd ed 2b 7c bd 20 05 0b 3d be f6 a2 bd
       -0.058941916 -0.06156533 0.033940434 -0.079572186
000380 25 67 35 bd 7d be 1d 3d db 53 b7 3d 82 78 f7 bd
       -0.04428782 0.038511742 0.08951541 -0.12083532
000390 2b 1d d7 bc 1a a2 63 3c ef 94 7c 3d b9 7d e8 3c
       -0.026259026 0.0138936285 0.06166547 0.028380262
0003a0 97 4f 34 3d de 8d 8b 3d 82 28 89 3c 8e 64 af 3d
       0.044021215 0.068141684 0.016742948 0.08564101
0003b0 14 22 90 bd 29 ab 4a 3d c9 93 a4 3d 3b fb c2 3d
       -0.0703775 0.049479637 0.08036 0.09520575
0003c0 24 18 aa 3c c4 65 93 bc e4 2d db 3d 3e eb 3f bd
       0.020763464 -0.017992862 0.10702112 -0.046855204
0003d0 2c c7 99 3d a4 42 9c 3d c0 e5 18 bd 1e ea a2 3d
       0.07508692 0.07629898 -0.03732848 0.079548106
0003e0 d8 04 86 3c 15 ca de 3c 4a e6 f6 bd 06 c7 14 be
       0.016359732 0.02719597 -0.12055643 -0.14529046
0003f0 ed 3c 1e bc 5f 64 a3 bd 27 78 de bd 13 41 50 bc
       -0.0096580805 -0.07978129 -0.10862761 -0.012710827

fc2.bias f4 [32]
000000 d8 ee 55 3d a6 0f 55 bd 63 15 24 be a3 60 2d 3d
       0.052229732 -0.052016877 -0.16023783 0.042328488
000010 f6 6d 50 be 4a ff 9b bd b2 67 c1 bd 1f da 03 be
       -0.20354447 -0.07617052 -0.094436064 -0.12876175
000020 61 e9 36 3d 71 91 35 be 50 2f 2c bd 22 e0 23 be
       0.04465616 -0.17731263 -0.04203731 -0.16003469
000030 b9 c6 47 be 29 02 b8 bc 4d 6f a1 3d eb d9 d8 bc
       -0.195094 -0.022461968 0.07882557 -0.026471099
000040 f2 54 56 be 37 1e b0 bd 7d fd af bd 08 f3 94 bd
       -0.20930842 -0.08599513 -0.08593271 -0.07272917
000050 37 a2 99 bc 5a 5d 8f bd 5e b2 31 3d 76 d6 08 be
       -0.018754108 -0.07000227 0.043382995 -0.1336306
000060 1f 10 df bc a5 5f 1f bb 5a eb 0a be 2b 45 8a 3c
       -0.027229367 -0.0024318483 -0.13566342 0.016878685
000070 93 7b ab 3c 3a 18 5a bd 17 0b f2 bd 08 13 dd bd
       0.020932948 -0.05324576 -0.118185215 -0.107946455

fc3.weight f4 [3, 32]
000000 17 cb 15 3c 1c fc c5 bd a4 85 16 bd be cb db 3d
       0.009142659 -0.09667227 -0.036748543 0.1073222
000010 46 4a 26 3a 29 de 1d bd 6e f9 cc bb 04 31 a4 3d
       0.0006343465 -0.038541947 -0.0062553203 0.080171615
000020 b0 56 36 3d 6b b7 b7 bd 88 bd 03 bd 28 bd 4a bc
       0.044516265 -0.08970531 -0.032163173 -0.0123742
000030 41 a9 0d bc 53 9f 0c be 29 72 85 3c 3d e2 9d 3d
       -0.00864631 -0.13732652 0.016289787 0.07709167
000040 5b 03 41 bc dd ac 0e 3d e6 3f e9 bd c8 fb 77 3d
       -0.011780585 0.034832824 -0.11389141 0.06054285
000050 da 6d 57 bc b6 71 86 bd 4a 48 62 bd 40 34 74 bb
       -0.013148749 -0.065646574 -0.05524472 -0.0037262589
000060 b1 d1 b1 3c ef 2d 45 bd 9b c4 9f 3d f8 51 0e 3d
       0.021706434 -0.04813951 0.078011714 0.03474614
000070 99 b0 fd 3d dc 5a 76 3d 69 57 38 3d b0 a3 20 3d
       0.12387199 0.060145244 0.045005236 0.039218605
000080 d7 7a 0f be 6d 8d 20 be 63 5b e0 bd 4c 7a 0f 3e
       -0.14011703 -0.1567895 -0.10954931 0.14011496
000090 e0 73 11 3e aa c0 ba bd b0 e0 44 bd 17 74 cb 3c
       0.14204359 -0.09118779 -0.04806584 0.02483563
0000a0 34 eb b1 bd e4 a1 4c 3c bd ce 85 3d b9 6a 2a bd
       -0.086874396 0.01248977 0.06533573 -0.041605685
0000b0 98 f4 26 be 8a 92 16 be 48 97 1e 3c 13 83 5f bd
       -0.16304243 -0.14704338 0.009679623 -0.05456836
0000c0 ee 02 d2 3c 73 26 03 bd 39 d8 0b be e0 1d 30 3e
       0.025636163 -0.03201909 -0.13656701 0.17198896
0000d0 7c d3 3b 3d c6 91 18 3d d3 96 3e be b6 7b e6 3c
       0.045855984 0.037248395 -0.18612222 0.028135162
0000e0 ce a9 dd bc a3 0c e9 3d 8a 20 b2 bd 49 09 23 3e
       -0.027058508 0.113793634 -0.086976126 0.15921511
0000f0 2f 11 80 3d 59 a8 29 3e 3f 49 21 3d f6 d5 cc 3d
       0.062532775 0.16568126 0.039376494 0.10001747
000100 3e 0a d1 3c 88 fe cf bd e1 44 22 3d 6c ed 97 3d
       0.02551758 -0.1015597 0.03961647 0.074183315
000110 f0 60 99 3c 11 67 9d bd e1 16 9a bc 58 da 1b 3e
       0.018722981 -0.07685674 -0.018809738 0.1522001
000120 aa e4 9c bd c9 48 af 3d f4 67 e5 bd 6b f5 db 3d
       -0.07660802 0.085588045 -0.11201468 0.10740169
000130 d4 e1 54 3d 2e 7f 5d bd ce 57 bc bd 83 bf 0b 3d
       0.05197318 -0.054076366 -0.09196435 0.034118187
000140 e2 8f 1d bd 66 f5 83 bd 3f de 8c bd 74 2f 09 bb
       -0.038467295 -0.064432904 -0.068783276 -0.0020932825
000150 ca 86 b9 bd bc f0 45 bd 9d 1b 08 be cb be 13 3d
       -0.09058912 -0.048325285 -0.13291784 0.036070626
000160 01 5e 9a bc 31 9e a0 3d c0 ca 90 3d 58 6b ef bc
       -0.018843653 0.078426726 0.070699215 -0.02922599
000170 5f 34 50 3d 96 ec af bd 42 28 99 bd 47 e5 c6 bd
       0.050831195 -0.08590047 -0.07478382 -0.097117

fc3.bias f4 [3]
000000 fe df 13 be 8a f3 44 bd 3a 30 ce 3d
       -0.14440915 -0.04808382 0.10067792

onnx::LSTM_216 f4 [1, 512, 2]
000000 26 c6 a5 bc f8 c5 af 3d 05 c4 0d bd 02 23 bb bd
       -0.020236086 0.085826814 -0.034610767 -0.091375366
000010 c6 58 fd bc ee b9 12 be 97 33 e7 3c 67 18 70 3d
       -0.03092612 -0.14328739 0.028222842 0.058617022
000020 01 53 b0 3d 99 e4 bb 3d 8a 52 72 3d 88 1d b2 3d
       0.08609582 0.09174461 0.059160747 0.08697039
000030 c0 fc c2 3c b0 88 93 3d 49 93 a8 bd d7 5d c6 bd
       0.023802161 0.072038054 -0.082312174 -0.09685867
000040 c6 57 c8 bd 82 cb 89 3d 43 63 a5 bd 4c d8 df 3d
       -0.097823665 0.06728269 -0.08075573 0.10929927
000050 8f 59 08 be b7 90 b4 bb 54 5f 57 3d 48 38 2f 3d
       -0.13315414 -0.0055104154 0.052581146 0.042778283
000060 c8 29 1d 3b c7 e5 13 3d 2a 6f d4 bd a9 7d 25 bd
       0.0023981202 0.036107805 -0.10372765 -0.040403042
000070 4e b0 0f 3e 8b 82 b0 3b c4 0a 86 3c 31 26 7e 3d
       0.14032099 0.0053866557 0.016362555 0.06204814
000080 c5 0d 0f 3c 24 06 86 bd 6c 6e ba bd 23 38 3e ba
       0.00873131 -0.0654414 -0.091030926 -0.000725629
000090 17 6b a1 bd 62 56 91 bc 81 31 7d 3d 14 2a 0a bc
       -0.07881754 -0.017741386 0.06181479 -0.008432884
0000a0 7a e8 24 bd 83 09 0e 3e 03 a5 1d 3e 16 4a a2 3d
       -0.04026077 0.13870816 0.15394978 0.07924287
0000b0 ce 2f 5b 3d 90 fc 2e 3d 09 28 af 3c 6a 89 c8 3d
       0.053512387 0.04272133 0.021381395 0.09791835
0000c0 29 cb 0d 3e 98 7f 8b 3d 13 39 8f 3c b6 1a 23 3c
       0.1384703 0.06811446 0.01748327 0.009955099
0000d0 50 6f 11 be 0a 4f f8 3c 95 99 30 3e 12 95 3d bc
       -0.14202619 0.030311126 0.17246087 -0.011571186
0000e0 57 54 f0 bc d1 ad 32 3d 5b 67 7f 3d ba e6 63 bd
       -0.029337091 0.043622795 0.062354427 -0.05563996
0000f0 be 0f 01 3d ca db 82 bd bb 63 dd bd 05 3c f9 3d
       0.031509154 -0.06389578 -0.10810038 0.12169651
000100 9f 92 6b 3d 95 01 40 3d 98 73 0d bd 53 db 65 bd
       0.057512876 0.04687651 -0.034534067 -0.056117367
000110 32 8d e6 bc a2 36 16 3e c5 f6 97 bc 99 a3 c2 3d
       -0.028143499 0.14669278 -0.018550286 0.0950386
000120 e8 40 7d 3e 12 11 9d bd d4 91 7e bc e4 4d ed 3b
       0.24731791 -0.076692715 -0.015537698 0.0072419513
000130 9d 77 1a 3d 5c f4 a9 3c 8f f0 07 3e dd 39 e9 3c
       0.03771173 0.020746402 0.1327536 0.028469974
000140 3c 77 8a bc b3 df 09 bd ec 5c c0 bd eb 49 06 3c
       -0.016902559 -0.0336606 -0.093927234 0.008196334
000150 e7 b7 a7 3d a9 82 02 3e ca a2 84 3d ce 96 5b 3d
       0.081893735 0.12745155 0.06476362 0.053610615
000160 e9 f2 14 be c1 00 3c 3d 1d 84 25 3b 47 ba e9 bc
       -0.14545788 0.045899156 0.0025255748 -0.028531207
000170 43 a4 8f bd 94 84 9c bd 42 5d 0b be e2 8e 70 bc
       -0.07013752 -0.07642475 -0.13609794 -0.014682503
000180 d2 98 dd 3c 3a 6c 06 3e 1e a0 16 bd de ed 08 3e
       0.02705041 0.13127223 -0.036773793 0.13371989
000190 48 80 02 bd e4 4a 42 3c b1 18 93 bc 85 e5 0b bd
       -0.03186062 0.011858676 -0.01795611 -0.034154434
0001a0 8e 42 f0 3d bf 85 0e bd 56 52 84 3d 82 a4 00 3d
       0.11731444 -0.03479552 0.06461017 0.031406887
0001b0 67 9f 78 3d d3 4c c6 bb d5 7b 40 3a a4 f1 1d 3d
       0.060698893 -0.0060516386 0.0007342671 0.038560525
0001c0 9e 4f 1b 3e f0 2e 8d 3d 28 48 fa bd b3 46 02 3c
       0.1516709 0.06893718 -0.12220794 0.007951426
0001d0 b6 43 89 3d 87 cd bd 3d 09 02 80 bd c1 6d 80 3d
       0.06702368 0.09267717 -0.06250388 0.06270934
0001e0 12 8a 4d be 4a 5f e5 3b 99 53 da 3d b4 2d 78 bb
       -0.20072201 0.0069998847 0.10660476 -0.0037869038
0001f0 b1 67 7d bd cb f4 be 3b ff 7c 34 bd 03 dc 90 3b
       -0.061866466 0.0058275214 -0.044064518 0.0044207587
000200 30 07 d4 bd b5 2f 65 bd 3f d6 5c bd 2b 6f a9 3d
       -0.103529334 -0.0559537 -0.05391526 0.08273157
000210 a8 bd a1 bd a6 f9 ea b9 00 1f 0c bd cb 49 a0 3d
       -0.07897502 -0.0004481796 -0.03420925 0.07826575
000220 0d 2f 35 3e 49 54 3b bd a7 20 06 bd c4 9a 80 bd
       0.1769373 -0.045734677 -0.032745983 -0.06279519
000230 88 9f f5 3c 1a ee 95 3c cd 56 6b 3c 03 44 09 3c
       0.029983297 0.018302012 0.014363957 0.008378032
000240 16 ef 6f be c4 39 01 bc 04 e9 75 bd 28 0b 83 b8
       -0.23431048 -0.007887308 -0.060036674 -6.248645e-05
000250 fb 0c 05 bd 8f eb 29 3e 76 4a ea 3d e1 a7 80 3d
       -0.032483082 0.16593765 0.114399835 0.0628202
000260 c3 10 6f 3e db 43 c7 3d 69 c5 13 3e ca 25 64 bc
       0.23346238 0.09729739 0.14430775 -0.013925025
000270 fd cb cf bd 1c fa 87 3d 2d 48 09 3e a8 49 1e bd
       -0.101463296 0.066395015 0.13406439 -0.038644463
000280 d1 0f 5a 3d e4 b3 d3 3b ef bb 0c 3d 5e 2c b4 3c
       0.05323774 0.0064606536 0.034358915 0.021993812
000290 9d 08 7d 3c 9f 85 00 bb eb 21 61 3d 2e 66 a5 3c
       0.015443948 -0.0019610894 0.054963987 0.020190325
0002a0 fd d8 8d bc f8 ec 93 bd e4 72 7e bd f1 e0 ce 3d
       -0.017315382 -0.072229326 -0.062121287 0.10101498
0002b0 46 a7 61 bc d3 88 82 3d 50 d5 cf 3c 58 c3 cc 3d
       -0.013772791 0.063737534 0.02537027 0.09998196
0002c0 a8 76 06 be 70 6e 4a bc 72 4a 31 be ef a7 32 bd
       -0.13131201 -0.012355432 -0.17313555 -0.043617185
0002d0 57 89 42 3d 97 68 a5 bc e3 22 8f 3d 44 93 a6 39
       0.04749426 -0.020191474 0.06989076 0.0003177171
0002e0 35 44 1c 3d 3e f8 85 3c 99 43 a7 3d 4d 1e bf bc
       0.038150985 0.016353723 0.0816719 -0.023329878
0002f0 72 53 09 be 57 95 ad bd 05 f5 0a be ce 5b a3 3d
       -0.13410738 -0.0847575 -0.1357003 0.07976495
000300 e7 93 57 bc 44 10 5c 3d 07 a1 78 bd 28 56 2f bb
       -0.013157821 0.05372645 -0.060700443 -0.0026754234
000310 5f 43 1a 3e 14 f6 ef 3c c2 03 d1 bd c8 04 da 3d
       0.15064763 0.029292144 -0.10205795 0.10645443
000320 2e 5e e9 bd c2 cd 7e 3c d4 1f 9a bc 11 8d 07 be
       -0.113949165 0.015551986 -0.018814005 -0.13237406
000330 59 0f d3 3b 61 87 9d bd b6 7b 81 bd cc 00 9d bd
       0.0064410386 -0.07691837 -0.06322424 -0.076661676
000340 27 ad 11 bd c1 d4 29 3d c3 f5 b1 3d de d8 96 bd
       -0.03556552 0.041462664 0.086894535 -0.07365583
000350 db 56 92 3d 77 7c 2c 3d 88 44 9f bd 2a 68 bc 3d
       0.071454726 0.042110886 -0.07776743 0.09199555
000360 b0 39 26 3e e5 bb 9a 3d 32 ac ad 3d d3 17 14 3e
       0.16232944 0.07555369 0.08480109 0.14462213
000370 f2 14 ae bd 0b 48 00 3e b8 a8 c8 3c ff a9 d1 bc
       -0.08500089 0.12527482 0.024494514 -0.025593756
000380 9c b4 0d 3e 73 82 6d 3a 50 40 c1 bc d5 43 3b 3d
       0.13838428 0.0009060271 -0.023590237 0.045718987
000390 45 38 1d bd 73 21 fc bb f5 f9 14 3d 9b da a1 bc
       -0.03838374 -0.007694417 0.03637119 -0.01975756
0003a0 b1 78 63 bd 4c 20 bf 3a e5 1c 16 3c ff dc bf bc
       -0.055535022 0.0014581769 0.009162162 -0.023420809
0003b0 6a 43 b6 bd a6 28 15 bc 2d 24 8e bd 3c 6e ee bc
       -0.08899577 -0.00910393 -0.06940494 -0.029105298
0003c0 9a 52 bd 3c d8 80 87 bd 62 39 b8 3c ed d3 95 3d
       0.023110677 -0.06616372 0.0224883 0.07315812
0003d0 3f 36 f3 3c 37 25 9c 3c 25 5d 2f 3d 1d 70 bf bd
       0.029688952 0.019060714 0.04281344 -0.09347556
0003e0 fc 0c b7 39 36 7b 59 3d 1e 46 cb 3d 1c 94 9b 3d
       0.00034914154 0.05309602 0.09925483 0.07596609
0003f0 e4 b6 83 3d 02 03 6f bd 59 16 5c ba 32 3f 1d be
       0.06431368 -0.058352478 -0.0008395664 -0.15356138

onnx::LSTM_217 f4 [1, 512, 128]
000000 dc 39 e9 3d 00 09 6f 3d f0 22 a2 3d 17 f8 9d bd
       0.11387989 0.058358192 0.0791682 -0.07713335
000010 5d 92 99 3d 1d 36 ac 3d 3b 0a 77 bd 41 b4 2a be
       0.0749862 0.08408759 -0.06031249 -0.16670324
000020 f1 e0 ae bc 6a 44 f0 3c 81 eb 5d bb a8 19 b7 3d
       -0.021347495 0.029329497 -0.0033862295 0.089404404
000030 2d ca 57 3b 8f 2e 20 3d 0d 50 1a be 30 e3 fd bc
       0.0032926903 0.0391069 -0.150696 -0.03099212
000040 a1 9d c9 bd 71 2e c1 bd 65 c3 af 3d 71 fb d2 3d
       -0.098445185 -0.09432686 0.085821904 0.10301865
000050 dd c1 98 bb c4 e6 9f 3d c0 c7 aa bc 31 17 d0 bb
       -0.004661782 0.07807687 -0.020847201 -0.006350421
000060 eb 1c 3f 3e ae 09 c0 3b e0 37 fa 3b 4e cf 88 bc
       0.18663375 0.005860529 0.0076360554 -0.016700413
000070 44 bc 58 bb 68 0c 21 3e 0a 3a 1d bc af 2d 0f bd
       -0.00330712 0.15727389 -0.009596357 -0.034955677
000080 fa 9a dd bb 68 88 b8 3d d2 5a 82 3d 2d 4b 44 bd
       -0.0067628594 0.090103924 0.06364979 -0.047923256
000090 0f 9b 7e bc 2d 38 59 3c 9b a5 de 3d 7a b7 7b 3d
       -0.015539899 0.013258022 0.108714305 0.061454274
0000a0 30 40 74 bd 99 b5 a1 bd ca 15 3f 3c 58 01 14 3b
       -0.059631526 -0.07895965 0.01166291 0.0022583809
0000b0 f4 10 64 bc 7d 32 8a bd 7e 52 02 be fb 4c db bd
       -0.013920058 -0.06747911 -0.12726781 -0.10708042
0000c0 11 18 b7 bd 4e 5d 76 3c ab c0 96 bd ab e9 b9 3b
       -0.08940137 0.015036894 -0.07360967 0.0056736073
0000d0 c3 8a 85 bb a9 a6 f8 bc 63 38 99 bd ab a5 d8 3d
       -0.0040753796 -0.030352907 -0.07481458 0.10578474
0000e0 f5 e1 b4 bd 71 b4 9b bb 4d ad f5 3c ea 00 0a 3d
       -0.088321604 -0.004751735 0.029989863 0.033692278
0000f0 8f 77 80 bc bd eb d4 bc 5c 1a 17 3d 5b 4c cd 3c
       -0.01568201 -0.025991315 0.036890373 0.025060823
000100 ca 4f 82 bd 18 b1 ed bd 7b c1 a1 bd e8 4b 0e bb
       -0.06362875 -0.116060436 -0.078982316 -0.0021712724
000110 26 66 00 bd 08 07 81 bc bd 6a e9 3c 7b 63 5a bc
       -0.031347416 -0.015750423 0.02849328 -0.013329382
000120 b2 3a 71 3d 92 42 11 be e7 15 90 3c 7f 7d 12 be
       0.058893867 -0.14185551 0.017588569 -0.14305685
000130 ec 46 0d be 3f 10 35 3d d1 ae 35 be 62 d5 39 bd
       -0.13796586 0.044204947 -0.17742468 -0.045369513
000140 97 9b 6d bc b4 75 1f 3d db 8b cc 3b c5 21 1b be
       -0.014502428 0.03893061 0.006242258 -0.15149601
000150 5c c0 95 3b cf 3b b9 bd 5c b3 56 3d 33 6c ce 3d
       0.00457005 -0.09044611 0.052417144 0.10079231
000160 33 6f 0d 3e 10 56 9f ba bc 93 16 3d dc de 92 3c
       0.1381195 -0.0012156386 0.036761984 0.017928533
000170 17 14 00 3c f7 96 72 3d 54 cb d0 bd c4 04 be 3d
       0.00781729 0.059226003 -0.10195032 0.09278253
000180 36 66 a3 3d e2 5e 83 3d 61 d5 ea 3d fe 50 f1 bd
       0.079784796 0.06414582 0.1146648 -0.11783026
000190 d6 c2 b0 bd 8c e7 2d bd d5 00 28 bd 13 bd eb 3c
       -0.08630912 -0.04245715 -0.04101642 0.028776681
0001a0 2e 7a a7 3d 2e 5f 26 bd 91 e2 cb bd 3c ab 18 3d
       0.08177601 -0.040618114 -0.099553235 0.037272677
0001b0 9d 6a 92 3d ee d4 4b 3c 5d c2 38 3d fc e4 3e be
       0.07149241 0.012440903 0.045107234 -0.18642038
0001c0 cd 2a bb bd ae 28 d6 3c d4 3c 57 3d 83 f5 11 bc
       -0.09139023 0.026142444 0.052548245 -0.008908632
0001d0 53 0f 7c bd f4 dd 78 3c 0d af 6b 3d 42 4a aa 3c
       -0.06153805 0.0151896365 0.05753999 0.020787362
0001e0 d3 db 1c bd 03 2c 14 bc 05 c2 80 be 53 f0 8e bd
       -0.03829558 -0.009043696 -0.25148025 -0.06979432
0001f0 74 20 9c bd c2 ae f3 bd e8 59 9c 3d 2a 7f 6c bd
       -0.076233774 -0.11898567 0.07634336 -0.05773846
000200 77 93 f5 3c 66 63 f6 3b 5a 40 32 3d a4 e5 49 3d
       0.029977543 0.0075191734 0.0435184 0.049291268
000210 18 91 a6 3d bf 1e 9c 3d 0b 50 c0 bc 48 3c 9d 3c
       0.08133143 0.07623052 -0.023475667 0.019193783
000220 33 52 72 bd 00 99 93 3d a5 b8 fb 3c 2a 80 89 3d
       -0.059160423 0.07206917 0.030727694 0.067138985
000230 8e b5 f7 ba 57 15 dd 3d 2d b2 19 bc 64 bb 11 bd
       -0.0018898712 0.10795086 -0.009380859 -0.0355791
000240 55 ea 31 3c 4b 42 03 bd cd a2 43 3d 54 f0 8c bd
       0.010859092 -0.032045644 0.04776268 -0.068817765
000250 7a d7 8a 3d 98 80 d8 bc 53 23 f9 3d e3 03 c7 3c
       0.0677938 -0.026428506 0.12164941 0.024293846
000260 41 5c 52 bc 20 fa 74 bd b6 ec 7c bd 6b 74 82 3d
       -0.012839378 -0.05980885 -0.061749183 0.06369861
000270 83 f4 b9 bb 21 ca ef 3c 47 40 88 3d 5d 4e 3b 3d
       -0.0056749 0.029271187 0.06652885 0.04572903
000280 9c 7b b5 3d c2 08 be bc d3 6f 42 3d e2 84 58 bd
       0.08861467 -0.023197535 0.047469925 -0.052861102
000290 e3 1d bc 3d 74 12 b5 3d c0 19 46 bd ff 04 b6 3d
       0.09185388 0.0884141 -0.0483644 0.08887672
0002a0 ea e2 b1 3d 05 b9 d7 bd a8 9c ef bd 86 15 b1 3d
       0.086858585 -0.105333365 -0.11699802 0.086466834
0002b0 88 86 9e bd d8 a2 b3 3b 5e d7 ca 3d cd 17 59 bd
       -0.077405035 0.005482059 0.09904359 -0.053001214
0002c0 05 97 0a be a3 a3 ce 3c 5a 1f b2 bc 16 fd 2d bd
       -0.13534172 0.025224512 -0.021743465 -0.04247769
0002d0 5d 30 7e 3d 8b df 4e bd d1 01 af 3d ad f6 db bc
       0.06205784 -0.050506156 0.08545268 -0.026851023
0002e0 b7 c3 a4 bd b0 c6 d7 bd 4a ba ec 3d 90 f8 0f bd
       -0.08045142 -0.105359435 0.11558969 -0.035149157
0002f0 83 47 a6 3c f0 aa 26 bd c1 c1 30 bb e0 da 34 3c
       0.020297771 -0.040690362 -0.0026970955 0.011038512
000300 31 f2 3b bd b8 99 05 3c 8b a4 db bd 21 60 d2 3c
       -0.04588527 0.008154325 -0.107247435 0.025680603
000310 60 3a 04 be cb 15 2f 3d 68 11 58 3d 22 ba aa bd
       -0.12912893 0.042745393 0.052750975 -0.08336283
000320 08 ff 17 bb 72 fb 8c 3d 8b 81 18 3c d3 0c 9a 3b
       -0.0023192782 0.06883897 0.009308229 0.004701236
000330 07 1d bd bd 2a af 77 bb 3d ab 17 3d 53 a1 c2 bc
       -0.09234052 -0.0037793615 0.03702854 -0.023758566
000340 6e 02 53 3d 4e 3e 89 bd 0f 7f e4 bc 82 94 a1 3d
       0.05151599 -0.06701337 -0.027892618 0.07889654
000350 9e 45 2c 3d e2 8d b2 3d a6 68 2a bc e7 e3 aa 3c
       0.04205858 0.08718468 -0.010400927 0.020860625
000360 70 7c 32 bd d4 9d 8c bd 66 a1 7c bd a9 63 a5 bd
       -0.043575704 -0.06866041 -0.06167736 -0.08075649
000370 c6 7a 89 3d 50 51 86 bd f5 66 6c bd c6 1d 31 bd
       0.0671287 -0.06558478 -0.057715375 -0.043241285
000380 d5 da 41 bd 7b 8c 24 3d 66 6b 36 bd 35 1a 66 3d
       -0.047327835 0.040173035 -0.044536017 0.056177337
000390 24 53 a1 3d 7a 3d 27 3d bc fd 78 3d 86 5b 9d bc
       0.07877186 0.040830113 0.060788855 -0.01920868
0003a0 28 28 6d bd 19 d9 75 bd b4 cd b8 3b 3a 66 e5 3c
       -0.057899624 -0.060021494 0.005639756 0.028002847
0003b0 0a 14 6d 3c dd 2e 3a bd 0f 71 0c bd 2f b3 bc bd
       0.01447011 -0.04545485 -0.03428751 -0.09213864
0003c0 7e 54 07 3e 0b 8a 14 3e bd be 76 3d a8 68 32 3d
       0.13215825 0.14505784 0.060240496 0.04355684
0003d0 d5 b9 8b bd 92 37 07 3c 54 ef b0 3c 89 db 5f bd
       -0.06822554 0.008252995 0.021598496 -0.054652724
0003e0 0b 26 0c bd 51 c1 86 3d 68 03 15 bd 18 5f 8b bc
       -0.034215968 0.06579841 -0.0363802 -0.017013118
0003f0 af 9f 0e 3c 37 5c bc 3d 8d 7a a7 3d fc 14 e6 3c
       0.008705064 0.09197276 0.081776716 0.028086178
