rock_paper_scissors_model.onnx (onnx, 500316 bytes, 20 tensors)

batchnorm1.weight f4 [20]
0.99061906 0.83491707 0.90162367 0.9489598 0.9129576 0.9685781 0.9386635 0.9159131
1.0133517 0.99120957 0.9130474 0.94893956 0.9100112 1.0584974 0.99176985 0.9282342
0.9232468 0.9899529 1.130942 0.88438594
00000000: 3699 7d3f 20bd 553f cfd0 663f 08ef 723f
00000010: 97b7 693f bcf4 773f 404c 703f 4879 6a3f
00000020: 82b5 813f e9bf 7d3f 79bd 693f b4ed 723f
00000030: 7ef6 683f d87c 873f a1e4 7d3f c2a0 6d3f
00000040: e759 6c3f 8e6d 7d3f b5c2 903f 1e67 623f

batchnorm1.bias f4 [20]
0.101042986 0.08017456 -0.032262962 -0.08480289 -0.05158566 -0.033852767 0.045581643 0.038155142
-0.06039668 0.07653652 0.1136828 0.10545367 0.039712146 0.018152503 -0.00021552845 -0.058279656
-0.017610075 -0.080393426 0.1417768 -0.020717986
00000000: a0ef ce3d 8f32 a43d 2b26 04bd 23ad adbd
00000010: 7c4b 53bd 33a9 0abd d1b3 3a3d 9148 1c3d
00000020: 8262 77bd 2ebf 9c3d 87d2 e83d 18f8 d73d
00000030: 34a9 223d 8fb4 943c 7aff 61b9 a6b6 6ebd
00000040: 0143 90bc 4fa5 a4bd f02d 113e c4b8 a9bc

batchnorm1.running_mean f4 [20]
-0.0009231364 -0.00057652907 -0.0005965968 -0.00041445968 -0.0008994051 -0.0008222064 -0.00046318042 -0.0012367266
-0.001013271 -0.00050503353 -0.00023615235 -0.0006179962 -0.0011688521 -0.0010629777 -0.00071090175 -0.00049892976
-0.0012736749 -0.0010148388 -0.00089647365 -0.0014497639
00000000: a3fe 71ba 3622 17ba ef64 1cba d64b d9b9
00000010: 0ec6 6bba 5689 57ba 06d7 f2b9 a919 a2ba
00000020: bccf 84ba 3a64 04ba aa9f 77b9 0601 22ba
00000030: 2b34 99ba 9d53 8bba cf5b 3aba 9cca 02ba
00000040: 70f1 a6ba 5704 85ba 5401 6bba 0106 beba

batchnorm1.running_var f4 [20]
0.000859831 0.0013499946 0.0017465675 0.0020096835 0.0021082857 0.0021674377 0.0020964858 0.002088481
0.002098486 0.0021278595 0.002237255 0.002257503 0.0023479438 0.0023826638 0.0023447368 0.0024054982
0.0023532314 0.0023796603 0.002428198 0.0024700991
00000000: 4866 613a 4df2 b03a 15ed e43a e5b4 033b
00000010: 2a2b 0a3b 920b 0e3b 3265 093b e6de 083b
00000020: c186 093b 8f73 0b3b e99e 123b 9ef2 133b
00000030: f6df 193b 7726 1c3b 28aa 193b 90a5 1d3b
00000040: ac38 1a3b 13f4 1b3b 6722 1f3b 63e1 213b

batchnorm2.weight f4 [64]
0.9667981 1.0390292 0.9810486 1.098948 0.95895404 0.98063415 0.9853 1.00028
0.950263 1.0629014 0.98541284 1.0050913 1.0261934 1.005038 0.9978987 0.8709163
0.971361 0.97234994 0.9506703 1.0233893 0.915839 0.922379 0.9808898 1.0254109
0.9465288 0.9734183 0.9784311 0.9038534 1.0081403 1.0242343 1.0072651 1.0049644
1.0197836 1.044859 1.0012165 0.96476805 1.0080922 1.0262246 0.95192736 1.04483
0.9758667 1.0379932 1.0090896 1.0232911 0.9584477 1.0889853 0.96308255 0.9033095
0.98855937 0.9509889 0.98505795 1.106533 0.9793309 0.9940597 1.0358641 1.0644841
0.9713502 1.0742123 1.0099586 1.021449 1.00762 1.105325 0.97440344 1.0455213
00000000: 1580 773f e9fe 843f 0026 7b3f 54aa 8c3f
00000010: 037e 753f d70a 7b3f 9f3c 7c3f 2d09 803f
00000020: 7044 733f 270d 883f 0444 7c3f d5a6 803f
00000030: 4e5a 833f 16a5 803f 4a76 7f3f 5ff4 5e3f
00000040: 1dab 783f edeb 783f 215f 733f 6cfe 823f
00000050: 6d74 6a3f 0821 6c3f 981b 7b3f aa40 833f
00000060: b64f 723f f131 793f 767a 7a3f f062 673f
00000070: be0a 813f 1c1a 833f 10ee 803f aca2 803f
00000080: 4588 823f f1bd 853f dd27 803f 0afb 763f
00000090: 2a09 813f 545b 833f 83b1 733f fdbc 853f
000000a0: 66d2 793f f6dc 843f d929 813f 34fb 823f
000000b0: d45c 753f df63 8b3f 948c 763f 4b3f 673f
000000c0: 3a12 7d3f 0274 733f c22c 7c3f e0a2 8d3f
000000d0: 6eb5 7a3f b27a 7e3f 3297 843f 0441 883f
000000e0: 68aa 783f ca7f 893f 5346 813f d7be 823f
000000f0: b1f9 803f 4a7b 8d3f 8172 793f a4d3 853f

batchnorm2.bias f4 [64]
0.050311282 0.13977896 0.055360865 -0.022684624 0.074385956 -0.07615223 -0.057091348 -0.08910878
-0.039075658 -0.05026146 0.008827986 -0.06434179 -0.13172692 0.03186299 -0.074370176 0.007937089
-0.05305116 0.14030358 -0.19280656 -0.049795635 0.029005032 0.04978074 -0.030093536 -0.06695575
-0.13455676 -0.024635993 0.04501113 0.115721405 0.08284883 -0.08022981 0.013194628 0.1129424
-0.05900383 -0.09361554 -0.046204578 0.0673831 -0.07517243 0.02480502 -0.065071695 0.026683854
-0.10944104 -0.021023395 -0.07052743 -0.013936807 0.013956868 0.023955004 -0.062382977 0.1257324
-0.043383226 -0.14177905 -0.021225907 0.004846148 -0.1081585 -0.015423966 -0.07109692 -0.011099929
0.03108362 0.10679012 -0.0082428595 -0.00062519155 0.14171137 -0.04455631 0.04056275 -0.040085204
00000000: 3413 4e3d 3722 0f3e 13c2 623d 1bd5 b9bc
00000010: aa57 983d b3f5 9bbd 9ed8 69bd aa7e b6bd
00000020: cc0d 20bd f6de 4dbd 42a3 103c a1c5 83bd
00000030: 6ce3 06be c482 023d 644f 98bd 900a 023c
00000040: 2c4c 59bd beab 0f3e 156f 45be 82f6 4bbd
00000050: f69b ed3c e4e6 4b3d b886 f6bc 1920 89bd
00000060: 3fc9 09be 6cd1 c9bc 975d 383d 58ff ec3d
00000070: a6ac a93d 874f a4bd 482e 583c 584e e73d
00000080: 00ae 71bd 81b9 bfbd 0341 3dbd 2700 8a3d
00000090: 01f4 99bd e633 cb3c 4f44 85bd 1998 da3c
000000a0: a022 e0bd 4139 acbc af70 90bd 3557 64bc
000000b0: 59ab 643c 493d c43c 4b85 7fbd ffbf 003e
000000c0: 9cb2 31bd 872e 11be f4e1 adbc 70cc 9e3b
000000d0: 3482 ddbd cdb4 7cbc 439b 91bd 7adc 35bc
000000e0: 13a3 fe3c c7b4 da3d 0f0d 07bc e5e3 23ba
000000f0: c91c 113e ad80 36bd 2025 263d 6230 24bd

batchnorm2.running_mean f4 [64]
-0.17692731 0.47506353 -0.19329649 0.6089074 0.012385774 -0.3237693 -0.10816165 0.00012225442
0.108061954 0.14875981 0.21071382 -0.5566545 -0.41157392 0.40659425 -0.0059174066 -0.10017639
-0.1990041 -0.1547005 -0.2863203 0.46889815 -0.17935796 0.49711218 0.069533445 0.27222228
-0.6882626 -0.14438011 -0.368935 -0.0017210264 0.30492502 -0.5510248 -0.2520694 -0.17524357
0.20980248 -0.03440405 0.05494952 0.30899376 0.0083988095 0.2703259 0.42303124 0.42424235
-0.06426822 0.1548442 -0.107214995 -0.46718833 0.19669944 0.54169786 0.41669497 -0.3556362
-0.5779644 0.006546083 -0.6079243 0.30482665 -0.23895654 0.22891346 -0.4760787 0.22583146
0.29550222 0.6086457 -0.3256182 -0.5064049 -0.38533238 0.2635212 0.11868196 0.42553774
00000000: 6f2c 35be 873b f33e 84ef 45be 5be1 1b3f
00000010: b4ed 4a3c 17c5 a5be db83 ddbd 6c31 0039
00000020: 964f dd3d 7e54 183e 5dc5 573e e980 0ebf
00000030: d1b9 d2be 1f2d d03e cee6 c1bb 4729 cdbd
00000040: bbc7 4bbe cf69 1ebe 9398 92be 6b13 f03e
00000050: 9da9 37be 7d85 fe3e 8d67 8e3d b860 8b3e
00000060: fa31 30bf 61d8 13be 0ce5 bcbe 1094 e1ba
00000070: 221f 9c3e f60f 0dbf 3e0f 81be 0d73 33be
00000080: 76d6 563e 43eb 0cbd bf12 613d 6e34 9e3e
00000090: 299b 093c 2868 8a3e 8d97 d83e 4b36 d93e
000000a0: 0e9f 83bd 7a8f 1e3e 8993 dbbd 4f33 efbe
000000b0: 946b 493e b6ac 0a3f 0b59 d53e f315 b6be
000000c0: 7af5 13bf 8680 d63b eda0 1bbf 3d12 9c3e
000000d0: 06b1 74be 4a68 6a3e 96c0 f3be 5d40 673e
000000e0: 114c 973e 34d0 1b3f 6eb7 a6be c0a3 01bf
000000f0: 494a c5be 40ec 863e 870f f33d 15e0 d93e

batchnorm2.running_var f4 [64]
0.07408877 0.19324262 0.087848544 0.20732997 0.1437608 0.08703825 0.056343887 0.06981775
0.038746756 0.08105223 0.0704836 0.10951345 0.15149923 0.07801878 0.08911607 0.028910298
0.06993111 0.06631794 0.122135 0.107668385 0.15574713 0.08907458 0.044429574 0.1428571
0.11176693 0.09281999 0.090762265 0.113756485 0.26822233 0.11492325 0.078216165 0.05627155
0.08343105 0.049378335 0.05432773 0.13504769 0.030920034 0.18539613 0.09519271 0.14183117
0.021593567 0.06422078 0.06332642 0.105232365 0.09791363 0.12142679 0.10305989 0.056550063
0.13504796 0.119703755 0.12925537 0.17493455 0.088699706 0.07462992 0.13541834 0.086522005
0.14986223 0.15229635 0.07871404 0.10347368 0.15203561 0.07696199 0.24759078 0.13519682
00000000: dabb 973d 65e1 453e f0e9 b33d 4f4e 543e
00000010: 0836 133e 1c41 b23d d9c8 663d 9cfc 8e3d
00000020: ebb4 1e3d b6fe a53d b559 903d 9648 e03d
00000030: 9d22 1b3e 4fc8 9f3d 7c82 b63d 4ad5 ec3c
00000040: 0b38 8f3d b3d1 873d ea21 fa3d 3e81 dc3d
00000050: 2d7c 1f3e bc6c b63d c9fb 353d 2249 123e
00000060: 0fe6 e43d 6818 be3d 91e1 b93d 29f9 e83d
00000070: 7054 893e e25c eb3d cc2f a03d ff7c 663d
00000080: e6dd aa3d f040 4a3d c186 5e3d f149 0a3e
00000090: 034c fd3c 7cd8 3d3e 65f4 c23d 313c 113e
000000a0: fee4 b03c 2f86 833d 48b1 813d 1184 d73d
000000b0: f186 c83d 9cae f83d 1011 d33d 0aa1 673d
000000c0: 034a 0a3e 3e27 f53d 855b 043e 0b22 333e
000000d0: 31a8 b53d 92d7 983d 1bab 0a3e 7332 b13d
000000e0: 7c75 193e 93f3 1b3e d434 a13d 02ea d33d
000000f0: 39af 1b3e 3f9e 9d3d 7088 7d3e 0971 0a3e

fc1.weight f4 [64, 64]
0.13034964 0.036678135 0.12268474 -0.058575813 -0.13605097 -0.111070156 -0.02144985 0.142523
0.017785069 0.1958237 0.020180706 0.047849916 -0.22814083 0.008608151 -0.11883736 0.050999135
0.045859978 0.027583985 -0.08983244 -0.031381164 0.004985573 -0.029691985 0.005992605 -0.083767526
-0.063405864 0.08305901 -0.04391387 0.084081315 0.19777791 -0.04840492 -0.14776406 0.020786218
-0.07174747 -0.10690969 0.11169068 0.14800815 -0.042424113 0.015495038 0.007342004 0.19935636
-0.022114938 -0.093787156 0.18886821 0.021991368 -0.0062608 0.11172752 -0.026490498 -0.0692027
-0.06677875 -0.09424641 -0.005982641 0.040951014 -0.10625936 -0.049202148 -0.12109949 -0.010744522
0.03571923 0.026219642 -0.08934096 -0.09660505 0.053108703 -0.12363591 -0.106676236 0.15139227
-0.035498165 -0.10692346 0.11911145 -0.12622124 -0.034893442 0.11111339 0.08664648 0.065117955
0.07600572 0.022449652 -0.14462963 0.027772428 0.046120297 -0.16691858 0.07279338 -0.114157446
0.08120403 0.05557674 0.13805032 0.16181971 -0.04139616 -0.1861694 0.10372818 0.11463596
0.05286656 0.043406487 -0.011813475 0.03156495 -0.10600129 -0.0072863456 0.008955059 -0.113525726
0.14293168 0.03992518 -0.033496972 -0.0031334362 -0.03367231 -0.15423472 -0.13735346 -0.16711079
0.036689375 -0.17206061 0.056606505 0.09346888 0.10708081 -0.010723587 0.11057681 -0.10982566
0.04631655 0.14978279 0.20349064 0.14805277 0.14764173 -0.032875534 0.08374879 -0.07312905
-0.1481777 -0.011010432 0.16974768 0.1105998 -0.14965518 -0.036084596 -0.108771294 -0.0616878
-0.1245088 -0.123512276 0.08002396 -0.12672435 0.019089116 0.11363268 0.046784956 -0.045778472
-0.018998807 0.097868785 -0.030447653 0.07574283 -0.05512342 0.014179876 -0.03353397 0.010379827
-0.093900405 -0.1096293 -0.08927091 -0.07516266 -0.07976481 0.11220088 0.05732241 0.15028593
0.08856223 -0.06319737 -0.067152895 0.04023382 -0.21691033 0.108438075 -0.05624573 -0.06769882
0.072673224 -0.08630391 0.048927672 -0.16108438 0.16681367 0.089574836 -0.027745856 -0.19982518
0.20523556 0.13694572 -0.074425966 0.013779549 0.042892285 -0.03825422 -0.109201156 0.018117525
0.07110151 0.102657765 0.037638523 0.04879052 0.091857366 0.013595263 0.0008326401 0.1340956
0.0687044 -0.16676836 -0.09462751 0.016964119 -0.0018780372 0.08639223 -0.07681527 0.014584211
-0.059930753 0.014301395 -0.053094666 0.13284475 0.055657424 0.0010072342 -0.007770722 -0.16834387
0.09484717 -0.054084335 -0.087247774 0.047690798 0.12059749 -0.019519277 0.040882733 -0.021374073
0.054042608 -0.102941215 0.019931113 0.075564764 -0.101391196 0.1575049 -0.007961858 -0.03740799
0.11408838 0.019120822 0.039756663 -0.036382042 -0.028848186 0.07943973 0.0008131309 -0.005776945
-0.061960846 -0.03549324 -0.16883484 0.06938944 -0.057477918 0.026047498 0.14592092 -0.12290957
0.084393606 0.1723616 0.13059951 0.011822814 -0.043325733 -0.04763219 -0.018705972 0.007987686
-0.08056621 -0.15559803 0.038302954 0.014234121 0.082025476 -0.118787564 -0.051847853 -0.04338523
0.07686803 0.109323055 -0.05676335 0.033588022 -0.10531245 0.13734989 -0.088252716 0.045739733
00000000: 607a 053e d03b 163d 2342 fb3d 31ed 6fbd
00000010: f250 0bbe c078 e3bd 99b7 afbc 8df1 113e
00000020: feb1 913c 0286 483e 0252 a53c 46fe 433d
00000030: c09d 69be 3409 0d3c 0061 f3bd 78e4 503d
00000040: acd7 3b3d cff7 e13c 12fa b7bd 8989 00bd
00000050: 045e a33b 9b3c f3bc 9d5d c43b 4f8e abbd
00000060: efda 81bd d81a aa3d 08df 33bd d332 ac3d
00000070: 4b86 4a3e 3d44 46bd 764f 17be dc47 aa3c
00000080: 56f0 92bd 78f3 dabd 15be e43d 738f 173e
00000090: e8c4 2dbd e6de 7d3c 3295 f03b 1324 4c3e
000000a0: 632a b5bc 7b13 c0bd ab66 413e 3e27 b43c
000000b0: 6627 cdbb 66d1 e43d 9a02 d9bc 25ba 8dbd
000000c0: 4cc3 88bd 4304 c1bd 080a c4bb 40bc 273d
000000d0: 829e d9bd 3188 49bd 0203 f8bd cb09 30bc
000000e0: 544e 123d 93ca d63c 65f8 b6bd ded8 c5bd
000000f0: 8388 593d d334 fdbd 1279 dabd 9306 1b3e
00000100: 8666 11bd b0fa dabd b4f0 f33d 2440 01be
00000110: 6dec 0ebd 6b8f e33d b673 b13d 905c 853d
00000120: e3a8 9b3d 55e8 b73c ca19 14be 0183 e33c
00000130: a3e8 3c3d b4ec 2abe b214 953d 61cb e9bd
00000140: 4c4e a63d 70a4 633d 105d 0d3e 11b4 253e
00000150: 058f 29bd 31a3 3ebe 716f d43d 42c6 ea3d
00000160: 9b8a 583d 00cb 313d 4e8d 41bc 404a 013d
00000170: 3417 d9bd 4cc2 eebb 3db8 123c 2d80 e8bd
00000180: af5c 123e 9688 233d 1f34 09bd 565a 4dbb
00000190: faeb 09bd b5ef 1dbe 63a6 0cbe 171f 2bbe
000001a0: 9947 163d a830 30be 39dc 673d 9d6c bf3d
000001b0: 2f4d db3d fcb1 2fbc 1876 e23d 47ec e0bd
000001c0: 6cb6 3d3d a960 193e da5f 503e 259b 173e
000001d0: 652f 173e 7fa8 06bd 7c84 ab3d afc4 95bd
000001e0: e5bb 17be 1965 34bc 56d2 2d3e 2682 e23d
000001f0: 353f 19be 71cd 13bd 7cc3 debd 59ac 7cbd
00000200: 78fe febd 01f4 fcbd 9ae3 a33d 07c4 01be
00000210: c760 9c3c 40b8 e83d 95a1 3f3d 3582 3bbd
00000220: 63a3 9bbc 6e6f c83d 5b6d f9bc 0f1f 9b3d
00000230: 18c9 61bd b652 683c eb5a 09bd 2610 2a3c
00000240: db4e c0bd 5485 e0bd abd3 b6bd e1ee 99bd
00000250: bc5b a3bd 93c9 e53d e7ca 6a3d 8ee4 193e
00000260: 1d60 b53d 9f6d 81bd 7587 89bd 38cc 243d
00000270: be1d 5ebe c814 de3d ec61 66bd aea5 8abd
00000280: b3d5 943d 1bc0 b0bd 6268 483d 4ef3 24be
00000290: 34d1 2a3e 0373 b73d 474b e3bc f99e 4cbe
000002a0: 4529 523e 803b 0c3e a46c 98bd 9ec3 613c
000002b0: d2af 2f3d 75b0 1cbd dba4 dfbd 346b 943c
000002c0: ab9d 913d 3c3e d23d da2a 1a3d 91d8 473d
000002d0: b71f bc3d aabe 5e3c 8845 5a3a 5b50 093e
000002e0: e4b4 8c3d 53c5 2abe 11cc c1bd 56f8 8a3c
000002f0: 7928 f6ba 69ee b03d 5351 9dbd 9df2 6e3c
00000300: f379 75bd 6650 6a3c cb79 59bd 7408 083e
00000310: 0af9 633d 2c05 843a 8aa1 febb 5662 2cbe
00000320: 3c3f c23d 8987 5dbd f6ae b2bd 6d57 433d
00000330: d1fb f63d e4e6 9fbc a774 273d ae18 afbc
00000340: c85b 5d3d d8d2 d2bd 9346 a33c b3c1 9a3d
00000350: 30a6 cfbd f748 213e 7472 02bc 1f39 19bd
00000360: 2ba7 e93d 45a3 9c3c e2d7 223d 5605 15bd
00000370: 0853 ecbc 4cb1 a23d 4a28 553a 874c bdbb
00000380: a8ca 7dbd 5c61 11bd 0ae3 2cbe 0d1c 8e3d
00000390: f76d 6bbd 9061 d53c 4b6c 153e 03b8 fbbd
000003a0: 8ed6 ac3d 8f7f 303e e1bb 053e 7ab4 413c
000003b0: 5376 31bd f919 43bd 443d 99bc c9de 023c
000003c0: e6ff a4bd 1755 1fbe 8fe3 1c3d 3b36 693c
000003d0: f9fc a73d e546 f3bd 6a5e 54bd b6b4 31bd
000003e0: fc6c 9d3d c4e4 df3d b080 68bd 9893 093d
000003f0: 0eae d7bd 73a5 0c3e d7bd b4bd 9659 3b3d

fc1.bias f4 [64]
0.20672801 -0.17637293 -0.104179 -0.10379182 -0.006857472 -0.2436723 0.08305165 0.09468948
-0.07903986 -0.12639245 -0.14171813 0.04587171 -0.18162873 -0.06405161 -0.022433864 -0.16239288
-0.07121272 -0.08500174 -0.23245323 -0.1330724 0.076747596 0.016938727 -0.036118668 -0.063321695
-0.053934813 -0.1524034 0.024252959 0.11175938 -0.15919515 0.04347074 0.07586664 -0.0568418
0.11535615 -0.039098084 0.096563086 -0.16433547 -0.008971673 -0.028430613 0.040719565 -0.13914059
-0.08728658 0.16074662 -0.0720899 0.028767712 -0.19212134 0.05557763 -0.0522307 -0.019574696
0.050645806 -0.06587542 0.02383497 0.07233004 -0.0751407 -0.15537214 0.051612385 0.06835891
0.065616265 -0.06738824 -0.027502898 -0.06423204 0.04038665 -0.25018844 -0.10394852 -0.029767916
00000000: 82b0 533e 1b9b 34be cd5b d5bd ce90 d4bd
00000010: a5b4 e0bb 3b85 79be fc16 aa3d 8fec c13d
00000020: a6df a1bd 066d 01be 8f1e 11be f9e3 3b3d
00000030: e2fc 39be 7e2d 83bd 39c7 b7bc 524a 26be
00000040: f9d7 91bd 6415 aebd 3808 6ebe 2244 08be
00000050: d82d 9d3d 16c3 8a3c 2bf1 13bd ceae 81bd
00000060: c0ea 5cbd a30f 1cbe 24ae c63c 1ae2 e43d
00000070: 0e04 23be 600e 323d f85f 9b3d f3d2 68bd
00000080: d83f ec3d 5025 20bd dec2 c53d 8f47 28be
00000090: edfd 12bc 51e7 e8bc 8fc9 263d df7a 0ebe
000000a0: 4ec3 b2bd c39a 243e dfa3 93bd 44aa eb3c
000000b0: 75bb 44be 5ea5 633d dcef 55bd 1d5b a0bc
000000c0: fa71 4f3d b1e9 86bd 8e41 c33c c621 943d
000000d0: 5ee3 99bd e019 1fbe 8267 533d c2ff 8b3d
000000e0: d261 863d d802 8abd c24d e1bc 168c 83bd
000000f0: 796c 253d b318 80be f6e2 d4bd d8db f3bc

fc2.weight f4 [32, 64]
-0.13346225 -0.15667911 0.052715402 0.09947719 0.05982927 0.056941565 0.0009013839 -0.024080591
-0.09607599 0.06561762 -0.04310362 -0.02906773 -0.066531084 -0.02125157 0.07245761 0.10196484
0.030131897 0.0238269 -0.041664924 -0.10567634 -0.033403184 -0.023602387 -0.1356328 -0.039397467
-0.1105288 -0.015236235 -0.078197934 0.09851271 -0.16966675 -0.07694744 0.054857504 0.08314434
-0.08849914 0.0002456262 -0.097359695 -0.09311172 0.039433833 -0.100212574 -0.07638499 0.026982104
-0.14943942 0.0837101 -0.048782416 0.04518562 -0.08043119 -0.10956759 -0.059965767 -0.13061675
-0.030176882 0.05055162 -0.04895399 0.1113089 -0.0327996 0.029763881 -0.04366028 -0.10247638
0.12589434 -0.07231176 -0.0802687 -0.10028412 0.08023585 -0.055093113 -0.06463817 -0.09154123
-0.012179403 -0.01219013 0.18768738 0.041016065 -0.049420208 -0.011348284 0.133339 -0.003559041
0.12730291 0.025474604 0.08235613 0.009201494 -0.13635884 -0.1130885 -0.06991577 -0.07644381
-0.014025982 0.07603227 0.070522346 -0.07648811 -0.2104018 -0.011664967 -0.074309096 0.010876172
-0.007219725 -0.052521646 -0.051011067 -0.13021089 0.16732697 0.085370705 -0.09592842 -0.08786472
-0.046127837 -0.036437638 -0.066332586 -0.040015705 -0.09045406 -0.071286775 0.07379488 0.020617396
-0.057927467 -0.05537462 0.1675346 0.1187609 0.093522325 -0.1720153 0.104643 -0.14487581
-0.080795825 0.09909874 -0.026826082 0.06840653 0.053805433 0.015154161 0.07854891 -0.17113008
-0.17004639 -0.05823564 0.017178634 -0.049461294 -0.10798278 -0.118030004 0.09943502 0.099141955
-0.13934271 0.19115728 0.15089561 0.008613743 0.060990352 -0.002774687 -0.039797053 -0.1343083
-0.1288681 -0.053891752 0.03965866 -0.007013044 0.093243584 -0.022538614 -0.103308655 0.032741625
-0.083117284 0.018024877 0.045270164 0.113569215 0.06783448 0.02733186 -0.03729953 -0.09586164
0.05308656 -0.015854253 0.08561001 0.083041094 0.0015164642 -0.119291194 0.06332798 0.113556966
0.0064408025 -0.16508752 0.03453347 -0.092871085 -0.08998692 -0.16258991 -0.094768204 -0.06653627
-0.10379457 -0.079064175 -0.13393374 -0.08522302 0.048199084 -0.061330162 -0.035709582 -0.018153561
-0.09834834 0.02032662 -0.11128051 -0.105705015 0.032716643 0.071596675 0.10602385 0.045281786
-0.084506296 0.053279635 0.024321528 -0.06690372 0.015315969 -0.03919306 0.048918225 -0.17382929
-0.054941457 0.0824495 0.09842673 0.09138562 -0.13781677 0.029327484 -0.07119892 -0.0067377887
0.03251546 0.07492774 -0.0027085596 -0.10474775 0.13556093 0.045729738 0.10482443 0.06890161
-0.11524784 0.08023842 0.09503019 0.114397965 -0.054007456 -0.047322053 0.15809707 0.01650362
0.09907413 0.09631482 -0.12302169 0.04498758 -0.008038203 0.046300843 0.031790208 0.0784566
-0.08405126 -0.14381789 0.016192866 -0.00055806217 0.026684223 -0.11718357 0.0648437 0.098210715
-0.09662529 0.037511945 0.014391447 -0.06098122 0.059763018 -0.00079869205 -0.053315762 -0.046285737
-0.11131534 -0.09336304 -0.092070125 -0.11054555 0.051575094 -0.069888495 -0.037803806 0.009865296
-0.15964942 -0.009955269 -0.05399697 -0.03588467 -0.12964267 0.08347659 0.026967844 -0.0041707004
00000000: 54aa 08be 7d70 20be 1bec 573d b2ba cb3d
00000010: 890f 753d 8f3b 693d d94a 6c3a a944 c5bc
00000020: 7dc3 c4bd 8862 863d 6c8d 30bd 731f eebc
00000030: 7341 88bd c617 aebc a864 943d f1d2 d03d
00000040: 2bd7 f63c a230 c33c d7a8 2abd d66c d8bd
00000050: c7d1 08bd cb59 c1bc 53e3 0abe 3d5f 21bd
00000060: ec5c e2bd 67a1 79bc 3d26 a0bd 08c1 c93d
00000070: 1fbd 2dbe 9f96 9dbd 43b2 603d 9447 aa3d
00000080: 0a3f b5bd 64c7 8039 8564 c7bd 5cb1 bebd
00000090: 5f85 213d 403c cdbd bc6f 9cbd 9309 dd3c
000000a0: a606 19be 3370 ab3d 12d0 47bd 8f14 393d
000000b0: 1cb9 a4bd f964 e0bd aa9e 75bd 66c0 05be
000000c0: 8235 f7bc 370f 4f3d fb83 48bd ecf5 e33d
000000d0: e058 06bd 62d3 f33c 1fd5 32bd 23df d1bd
000000e0: 72ea 003e 3018 94bd eb63 a4bd c361 cdbd
000000f0: b152 a43d 51a9 61bd 0461 84bd f879 bbbd
00000100: 1e8c 47bc 1cb9 47bc 1f31 403e 7600 283d
00000110: d86c 4abd 27ee 39bc 058a 083e cd3e 69bb
00000120: b25b 023e 1eb0 d03c 55aa a83d ddc1 163c
00000130: a7a1 0bbe f29a e7bd 0030 8fbd 928e 9cbd
00000140: 3bcd 65bc cfb6 9b3d 056e 903d cca5 9cbd
00000150: 9273 57be 6b1e 3fbc 5e2f 98bd f931 323c
00000160: 7193 ecbb f020 57bd fbf0 50bd 0156 05be
00000170: c357 2b3e d6d6 ae3d 1f76 c4bd 6bf2 b3bd
00000180: 8bf0 3cbd a23f 15bd 61d9 87bd 82e7 23bd
00000190: fa3f b9bd cdfe 91bd c521 973d d0e5 a83c
000001a0: 5a45 6dbd 7fd0 62bd 318e 2b3e ea38 f33d
000001b0: a288 bf3d c724 30be 124f d63d 535a 14be
000001c0: 4878 a5bd 48f4 ca3d 5fc2 dbbc b918 8c3d
000001d0: 1663 5c3d 2849 783c 40de a03d b93c 2fbe
000001e0: a420 2ebe 7f88 6ebd 35ba 8c3c ed97 4abd
000001f0: 1326 ddbd b7b9 f1bd 96a4 cb3d f00a cb3d
00000200: dbaf 0ebe bcbe 433e 6184 1a3e a820 0d3c
00000210: 05d1 793d 86d7 35bb 3c02 23bd 1d88 09be
00000220: 00f6 03be 99bd 5cbd 1e71 223d adcd e5bb
00000230: 7ef6 be3d e6a2 b8bc 7d93 d3bd 151c 063d
00000240: 6539 aabd e8a8 933c 356d 393d fa96 e83d
00000250: ceec 8a3d 11e7 df3c 64c7 18bd 1c53 c4bd
00000260: 4b71 593d c7e0 81bc 4d54 af3d 7311 aa3d
00000270: 18c4 c63a f14e f4bd 1ab2 813d 8e90 e83d
00000280: 5e0d d33b b40c 29be f872 0d3d 3233 bebd
00000290: 104b b8bd f87d 26be d515 c2bd 2b44 88bd
000002a0: 3f92 d4bd 66ec a1bd ed25 09be 6889 aebd
000002b0: 676c 453d 5635 7bbd 3644 12bd c7b6 94bc
000002c0: db6a c9bd 0384 a63c 09e7 e3bd df7b d8bd
000002d0: e301 063d 47a1 923d 0823 d93d 6579 393d
000002e0: a311 adbd bf3b 5a3d f13d c73c d104 89bd
000002f0: d4ef 7a3c e788 20bd 7a5e 483d 4e00 32be
00000300: 4b0a 61bd 49db a83d f493 c93d 6228 bb3d
00000310: d71f 0dbe 3140 f03c bdd0 91bd abc8 dcbb
00000320: ee2e 053d b773 993d 1782 31bb fd85 d6bd
00000330: 7cd0 0a3e 1b4f 3b3d 31ae d63d 4a1c 8d3d
00000340: 0f07 ecbd 0a54 a43d 309f c23d 7b49 ea3d
00000350: ec36 5dbd c5d4 41bd 33e4 213e 9a32 873c
00000360: 61e7 ca3d b440 c53d ccf2 fbbd e644 383d
00000370: abb2 03bc f4a5 3d3d 7336 023d dbad a03d
00000380: 1123 acbd ff44 13be e7a6 843c eb4a 12ba
00000390: df98 da3c f1fd efbd c6cc 843d b322 c93d
000003a0: 7be3 c5bd 20a6 193d 1bca 6b3c 72c7 79bd
000003b0: 11ca 743d 515f 51ba a161 5abd 1d96 3dbd
000003c0: 4cf9 e3bd 1f35 bfbd 438f bcbd b565 e2bd
000003d0: 6840 533d b321 8fbd 2ad8 1abd 0da2 213c
000003e0: 237b 23be 6d1b 23bc ed2b 5dbd cefb 12bd
000003f0: 0cc1 04be c6f5 aa3d abeb dc3c 5faa 88bb

fc2.bias f4 [32]
-0.077096425 -0.20371887 0.030771885 -0.14151312 -0.08840272 0.11364878 -0.14713949 0.06300637
-0.0720758 0.12241144 0.0407661 0.08296154 0.14771 -0.17531101 0.09389351 -0.1368545
0.056654945 -0.03614871 -0.13687594 -0.03352828 -0.028923478 0.0003752724 -0.008559642 -0.0028958668
-0.20564237 0.12591535 0.036233854 0.024346484 0.119563326 0.052991286 0.14078741 0.15882528
00000000: bbe4 9dbd ae9b 50be 5215 fc3c d1e8 10be
00000010: 7c0c b5bd b1c0 e83d bcab 16be 7c09 813d
00000020: 7a9c 93bd d9b2 fa3d 5bfa 263d bde7 a93d
00000030: 4a41 173e bb84 33be 3e4b c03d 9623 0cbe
00000040: 040f 683d ab10 14bd 3529 0cbe f354 09bd
00000050: eef0 ecbc 35c0 c439 be3d 0cbc 95c8 3dbb
00000060: ea93 52be f4ef 003e f369 143d 4772 c73c
00000070: 9edd f43d 640d 593d 932a 103e 18a3 223e

fc3.weight f4 [3, 32]
0.11185967 0.17614412 -0.098760165 -0.12213508 -0.116707325 -0.11725858 0.1462255 0.21903136
-0.13937578 -0.13262324 -0.08397296 0.16395168 -0.015645348 -0.089388564 0.17309776 -0.11804567
-0.06864303 -0.12426067 0.037091605 -0.028533481 -0.049723253 -0.043644898 -0.013018563 -0.0676869
-0.08212957 -0.20175709 0.070786655 0.19491543 0.15554047 0.07431686 -0.1159697 -0.07588733
0.10226974 -0.061143715 -0.02033163 -0.11014436 -0.0011322249 -0.0262955 -0.017173141 -0.054971803
0.23547785 -0.05931752 0.006260517 0.08090739 -0.29576316 -0.024256643 0.10315756 0.03451913
-0.20600268 -0.12093775 -0.13958336 0.17054836 0.012743592 0.12964755 -0.041906957 -0.04764552
-0.086565204 0.008778962 -0.071914226 0.12833144 0.05198634 -0.15840325 0.07577867 0.040917333
0.088019356 -0.019132294 0.1162555 0.07558097 -0.14400116 0.17741442 -0.046835277 0.093763776
0.077643245 -0.12825392 0.10612881 -0.16885677 0.1379559 -0.015045515 0.10484386 -0.1783858
0.024010105 -0.122040175 -0.10743074 0.09766158 -0.020846603 -0.15584919 -0.0103923725 0.2018565
0.11200493 -0.14969172 0.10292408 -0.16618809 -0.100365095 -0.009072331 0.17545766 0.10414696
00000000: af16 e53d 205f 343e c542 cabd f521 fabd
00000010: 4004 efbd 4425 f0bd 23bc 153e c249 603e
00000020: 86b8 0ebe 63ce 07be 04fa abbd f3e2 273e
00000030: ac2a 80bc 5a11 b7bd 8a40 313e eec1 f1bd
00000040: b894 8cbd 617c febd 5eed 173d 0cbf e9bc
00000050: 9caa 4bbd fec4 32bd d04b 55bc 6e9f 8abd
00000060: 8c33 a8bd 6999 4ebe 98f8 903d e997 473e
00000070: 0046 1f3e 7033 983d 8681 edbd d16a 9bbd
00000080: cc72 d13d d571 7abd 858e a6bc 5e93 e1bd
00000090: 2a67 94ba a969 d7bc b0ae 8cbc 1d2a 61bd
000000a0: 1b21 713e eef6 72bd 0625 cd3b c6b2 a53d
000000b0: 456e 97be deb5 c6bc 4544 d33d ee63 0d3d
000000c0: 5ef2 52be 36ae f7bd f1ee 0ebe 3ba4 2e3e
000000d0: 80ca 503c 54c2 043e a1a6 2bbd f327 43bd
000000e0: 1949 b1bd a3d5 0f3c c447 93bd 5169 033e
000000f0: a1ef 543d 7634 22be d931 9b3d ef98 273d
00000100: 7e43 b43d 54bb 9cbc 5d17 ee3d 32ca 9a3d
00000110: 0a75 13be 20ac 353e 59d6 3fbd 3907 c03d
00000120: 6c03 9f3d ff54 03be 105a d93d cae8 2cbe
00000130: 5044 0d3e 7781 76bc 61b8 d63d c4aa 36be
00000140: d7b0 c43c 33f0 f9bd a604 dcbd cb02 c83d
00000150: 7fc6 aabc ee96 1fbe c544 2abc 78b3 4e3e
00000160: d762 e53d c948 19be dcc9 d23d 362d 2abe
00000170: 378c cdbd 1da4 14bc 2cab 333e 004b d53d

fc3.bias f4 [3]
0.1556979 0.10065145 0.120679334
00000000: 456f 1f3e 5922 ce3d ba26 f73d

onnx::LSTM_209 f4 [1, 512, 2]
-0.109284684 -0.057214875 0.0006838036 -0.08254946 -0.23395047 0.0084698275 -0.050943635 -0.06672747
-0.1179353 -0.03494259 -0.043428726 -0.10032419 -0.039253853 -0.01929405 -0.24127091 -0.022458926
-0.116157986 -0.109199435 -0.037942626 -0.06760844 -0.057629015 -0.0801113 -0.006404954 -0.14435117
-0.07018984 -0.23864049 -0.072011635 0.09861168 -0.17792507 -0.11430085 -0.026576146 -0.061005455
0.024450298 -0.054311637 0.04662042 0.08653268 0.037595227 0.04880064 -0.013889408 0.02069686
-0.08024818 -0.057436224 -0.10743314 -0.04834911 -0.23700729 -0.10496895 -0.08155214 -0.03207062
-0.15894142 0.061631594 -0.09161568 -0.08502579 -0.036331095 0.13704476 -0.03847931 -0.0061569065
-0.056078844 -0.02698908 -0.027108872 0.059883513 -0.018470336 -0.07790933 -0.12865566 0.008836517
0.0020651645 -0.102507465 0.06494249 -0.017596317 -0.028777247 -0.20254107 -0.1702375 0.026104381
-0.16283715 0.13157146 0.023052342 0.15506724 0.04271798 -0.06267871 -0.18037252 -0.07875182
-0.16776729 -0.043959916 0.06142387 -0.012464742 0.061405398 0.016687457 -0.038657922 -0.013156042
-0.04128691 -0.14597063 -0.06840383 0.096542485 0.10180246 -0.031453904 -0.09320403 -0.01637202
-0.028057637 -0.114262804 0.015132011 -0.12711067 0.06404456 -0.11845841 -0.0017460121 -0.10736423
-0.05369338 -0.049799137 -0.14532846 -0.12652805 -0.2856134 -0.09194534 -0.1290652 0.078502126
0.047333993 0.15618956 -0.15665719 0.13523403 -0.2687957 -0.023095809 -0.16174465 0.09130723
0.055781435 -0.030445985 -0.0882075 0.061191246 -0.02920411 -0.04107184 0.01232171 0.024729656
0.0059168125 -0.0564449 -0.0053078798 0.06195909 -0.16285852 -0.15491626 0.04930008 -0.038240135
-0.047718756 -0.01567312 0.03702194 0.023174193 0.08294856 0.06484335 -0.049394812 -0.16591196
0.041809373 -0.110655166 -0.031526104 -0.013382306 0.0350505 -0.12942351 -0.0131536545 -0.020733234
-0.17955059 0.01538377 -0.11818244 0.016966928 -0.0069185435 -0.13914728 -0.11248175 -0.0354406
-0.06334322 -0.043244388 -0.17843905 0.033964295 -0.0393507 0.15510072 -0.0069468683 0.030524764
0.044074703 0.060948752 -0.008865576 0.01251707 -0.06260681 0.009836074 0.036755677 -0.05000038
-0.15380564 -0.076932885 -0.23923571 0.00015864416 0.027789623 0.044585127 0.0014264439 0.011756327
-0.10791143 0.06370082 0.015210239 0.0018063709 0.14240289 -0.119091764 -0.053718302 0.010251754
-0.022057744 -0.13860965 -0.14814773 -0.14875644 -0.07907633 0.035261825 0.13463873 0.10855909
-0.21768406 0.04773004 -0.17754264 -0.20330216 -0.14528994 0.014303061 -0.014571907 -0.047470964
0.025099285 0.047881898 -0.03893335 0.012892369 -0.032361247 -0.09724914 -0.058656275 0.04663362
-0.08455313 -0.09823302 -0.114773475 -0.07535197 0.09513272 -0.04773512 -0.022844665 0.04986174
-0.07073823 -0.14964148 -0.03843556 -0.09417461 -0.20885484 -0.03900248 -0.111328535 0.10689672
0.011583684 -0.03118336 0.075624615 -0.10593258 -0.08179882 0.0020181204 -0.24051614 -0.074324735
-0.06666743 -0.068914376 0.032614022 0.11112217 -0.09806287 -0.07458293 -0.054201473 -0.073746175
0.104829 -0.055382818 -0.14251845 -0.13581769 0.031187337 0.058186248 -0.002564943 -0.0051162005
00000000: a6d0 dfbd 255a 6abd 4841 333a b10f a9bd
00000010: b690 6fbe 08c5 0a3c 46aa 50bd 69a8 88bd
00000020: 1088 f1bd f61f 0fbd 52e2 31bd c576 cdbd
00000030: a6c8 20bd 8e0e 9ebc b90f 77be c8fb b7bc
00000040: 3de4 edbd f4a3 dfbd ba69 1bbd 4b76 8abd
00000050: 670c 6cbd 6511 a4bd a6e0 d1bb cbd0 13be
00000060: b1bf 8fbd 2c5e 74be d67a 93bd ecf4 c93d
00000070: fd31 36be 9016 eabd 38b6 d9bc dbe0 79bd
00000080: fe4b c83c e175 5ebd 0ef5 3e3d 0c38 b13d
00000090: 74fd 193d 2ee3 473d 6690 63bc 768c a93c
000000a0: 2859 a4bd 3f42 6bbd e805 dcbd b709 46bd
000000b0: 0ab2 72be f6f9 d6bd cf04 a7bd 7c5c 03bd
000000c0: 8ac1 22be 6971 7c3d 00a1 bbbd 0022 aebd
000000d0: eacf 14bd 7655 0c3e 7b9c 1dbd e0bf c9bb
000000e0: eeb2 65bd 3418 ddbc 6d13 debc 6a48 753d
000000f0: 1a4f 97bc ed8e 9fbd 4fbe 03be 0ac7 103c
00000100: b657 073b 6fef d1bd 9100 853d 2726 90bc
00000110: 43be ebbc ed66 4fbe bd52 2ebe dbd8 d53c
00000120: c8be 26be abba 063e 44d8 bc3c f2c9 1e3e
00000130: 0cf9 2e3d b25d 80bd 93b3 38be a248 a1bd
00000140: 30cb 2bbe 500f 34bd 9997 7b3d eb38 4cbc
00000150: 3a84 7b3d 22b4 883c c557 1ebd 718c 57bc
00000160: 771c 29bd 5379 15be 4f17 8cbd 11b8 c53d
00000170: cf7d d03d cfd5 00bd c1e1 bebd 9d1e 86bc
00000180: 21d9 e5bc 9e02 eabd 41ec 773c 4d29 02be
00000190: cb29 833d 539a f2bd 72da e4ba c7e1 dbbd
000001a0: 97ed 5bbd 2efa 4bbd fcd0 14be 9290 01be
000001b0: eb3b 92be d74d bcbd ab29 04be b9c5 a03d
000001c0: 4ae1 413d 28f0 1f3e be6a 20be ca7a 0a3e
000001d0: 979f 89be 6c33 bdbc 64a0 25be 49ff ba3d
000001e0: 137b 643d dc69 f9bc 22a6 b4bd aca3 7a3d
000001f0: 753d efbc f23a 28bd ffe0 493c d995 ca3c
00000200: d2e1 c13b c432 67bd b9ed adbb d1c8 7d3d
00000210: 62c4 26be 5ea2 1ebe e1ee 493d b0a1 1cbd
00000220: be74 43bd ea64 80bc 51a4 173d ced7 bd3c
00000230: efe0 a93d 97cc 843d 3752 4abd d3e4 29be
00000240: 4e40 2b3d 2d9f e2bd 8421 01bd 7641 5bbc
00000250: 1d91 0f3d 9987 04be 6d82 57bc bed8 a9bc
00000260: 1cdc 37be 350c 7c3c a309 f2bd 3afe 8a3c
00000270: f3b4 e2bb a07c 0ebe d55c e6bd 2a2a 11bd
00000280: 17ba 81bd 0721 31bd bab8 36be 251e 0b3d
00000290: 332e 21bd b9d2 1e3e 8ea2 e3bb 120f fa3c
000002a0: ad87 343d 66a5 793d ec40 11bc 6614 4d3c
000002b0: 0038 80bd 7c27 213c 1f8d 163d 33cd 4cbd
000002c0: 3a7f 1dbe fd8e 9dbd 35fa 74be b859 2639
000002d0: 10a7 e33c e59e 363d 84f7 ba3a 9c9d 403c
000002e0: ab00 ddbd 9375 823d 5e34 793c c0c3 ec3a
000002f0: 10d2 113e 62e6 f3bd b907 5cbd f9f6 273c
00000300: 71b2 b4bc b0ef 0dbe 0ab4 17be 9c53 18be
00000310: c5f2 a1bd b46e 103d bcde 093e 3a54 de3d
00000320: 92e8 5ebe 9380 433d bdcd 35be 712e 50be
00000330: e3c6 14be 6357 6a3c 02bf 6ebc ea70 42bd
00000340: 049d cd3c cf1f 443d 9478 1fbd 843a 533c
00000350: 3a8d 04bd 8f2a c7bd 9041 70bd e502 3f3d
00000360: 312a adbd 652e c9bd 5b0e ebbd 2252 9abd
00000370: f2d4 c23d e785 43bd bc24 bbbc d33b 4c3d
00000380: 35df 90bd 9e3b 19be 9b6e 1dbd 9ede c0bd
00000390: 0bde 55be 11c1 1fbd 3700 e4bd abec da3d
000003a0: 7ec9 3d3c 3f74 ffbc 14e1 9a3d 2ef3 d8bd
000003b0: 2486 a7bd 7142 043b dd49 76be 9137 98bd
000003c0: ef88 88bd fb22 8dbd 4896 053d 0594 e33d
000003d0: 30d5 c8bd efbe 98bd 5d02 5ebd 3c08 97bd
000003e0: 96b0 d63d 18d9 62bd 5bf0 11be cb13 0bbe
000003f0: 967c ff3c b454 6e3d 9a18 28bb cda5 a7bb

onnx::LSTM_210 f4 [1, 512, 128]
0.09910511 0.0059407884 -0.041082155 -0.0027720327 -0.09636855 -0.02058638 0.03886823 -0.06950277
-0.120771036 -0.08982826 -0.16708231 0.025729692 0.06494327 -0.07555714 -0.08861946 0.024412278
0.084584914 -0.099242896 -0.06767315 0.019739728 -0.032358237 -0.05729259 0.0018834561 0.1146555
0.010350237 0.0024556955 -0.14379542 0.108428 -0.18861541 -0.02800098 0.07814764 0.09102554
0.013568969 -0.002889122 -0.107168056 -0.10056573 0.051126853 0.036039837 -0.035721004 0.008305978
-0.10256011 -0.10205694 0.048930362 0.09524047 -0.031365924 -0.01880517 0.0064827316 0.067998245
-0.05055076 0.0009966212 -0.08299134 -0.025793135 -0.04943834 -0.020847872 0.11654083 -0.017360123
-0.0458994 -0.0053466707 -0.106732056 0.060253855 0.014859019 -0.13961522 -0.023740256 0.082477726
0.03711609 0.09903033 0.07418155 -0.031869926 0.07460062 0.045294166 0.07113138 0.08321917
0.07221677 -0.003527231 0.106817044 -0.02509671 -0.074723095 -0.013335739 -0.029995786 0.13793673
0.045986217 -0.08285153 0.08775106 0.0920924 -0.046253268 0.064699315 0.07131606 -0.060013607
-0.067760974 0.08098257 -0.014184926 0.05217242 -0.028624818 0.041991938 -0.003767695 -0.13098392
0.0063093086 -0.04240778 0.12109923 -0.08966071 -0.030648287 -0.12563227 0.020984402 -0.039364163
0.06588327 -0.054500356 -0.049695488 0.16721718 0.036866013 0.00058906805 -0.020388722 -0.04395956
-0.068707734 -0.08258367 -0.07034247 0.072728716 -0.047425374 -0.1495484 0.021012444 0.041990235
0.017796788 -0.06801136 -0.08549128 0.053629182 -0.034319345 -0.05511371 -0.06500799 0.0033071486
0.061127 0.08953592 -0.09969147 -0.011458136 0.033304296 -0.088945135 -0.05255884 -0.21518774
0.07932318 -0.03411784 -0.057857852 0.1097701 0.12298167 -0.028034218 -0.051462103 0.021023825
-0.043899406 0.043237682 -0.049745917 -0.055166896 -0.14615196 0.089310415 -0.15787935 0.15669861
0.09674256 0.10210179 -0.14886221 -0.005727224 -0.12671441 -0.052623022 0.07242725 0.19510053
-0.0074797357 0.02549016 0.04895639 -0.0065821684 0.10561911 0.0350219 -0.047741555 0.012140545
-0.086283185 -0.116421625 -0.021917874 0.027245369 0.029547568 0.055428185 0.05195257 0.1352601
0.059206136 -0.025002994 -0.15892944 0.07814798 -0.09093242 0.03164706 0.051450353 0.028634239
0.15470913 -0.18981893 -0.017475303 0.03107684 0.03313532 -0.062259145 -0.15098643 0.09707521
0.07351959 0.089750245 -0.01193966 -0.092243984 0.08913028 0.14755175 -0.011427077 -0.06635076
-0.06768418 -0.062254753 0.02579508 0.048969418 -0.045446854 -0.1489548 -0.056020364 0.0249412
0.041591335 0.039796773 0.034331914 0.1359331 -0.011788542 -0.021345716 -0.06589639 -0.21555598
0.01232197 -0.08921759 -0.05540696 0.04733176 -0.11786461 0.09118582 0.0019676099 0.024601564
0.057270136 0.03596967 0.12962571 0.064855345 -0.055240825 -0.037817754 0.038364753 0.074680686
0.043452848 -0.096917115 0.013555894 0.01841135 -0.009242961 -0.06393526 -0.06520301 -0.119906224
-0.0028069227 0.054674417 -0.13416047 0.0057236813 -0.15313295 0.0735048 -0.05601907 0.19174285
-0.111672916 -0.15336356 -0.06928165 0.0861704 -0.02724242 0.003241522 0.018127143 -0.0058279876
00000000: 9ff7 ca3d f2aa c23b c345 28bd feaa 35bb
00000010: e05c c5bd c5a4 a8bc 4b34 1f3d 7857 8ebd
00000020: ce56 f7bd e1f7 b7bd a017 2bbe 13c7 d23c
00000030: fa00 853d b4bd 9abd 1f7e b5bd 42fc c73c
00000040: db3a ad3d dc3f cbbd 3898 8abd 36b5 a13c
00000050: 128a 04bd a3ab 6abd 4dde f63a 81d0 ea3d
00000060: 0a94 293c bcef 203b 1b3f 13be 800f de3d
00000070: 6624 41be 5062 e5bc df0b a03d 996b ba3d
00000080: 6250 5e3c 6d57 3dbb ed7a dbbd 68f5 cdbd
00000090: 646a 513d 829e 133d 3050 12bd cc15 083c
000000a0: 090b d2bd 3b03 d1bd 346b 483d 6f0d c33d
000000b0: 8e79 00bd 4d0d 9abc 186d d43b aa42 8b3d
000000c0: 500e 4fbd 0fa1 823a 5df7 a9bd 204c d3bc
000000d0: db7f 4abd 28c9 aabc f5ac ee3d d136 8ebc
000000e0: 0201 3cbd 2033 afbb 5696 dabd bfcc 763d
000000f0: 3e73 733c 4bf7 0ebe ed7a c2bc 15ea a83d
00000100: 0b07 183d 6ad0 ca3d 7fec 973d 0a8a 02bd
00000110: 36c8 983d 6086 393d 54ad 913d d06e aa3d
00000120: 63e6 933d 1e29 67bb e5c2 da3d 9e97 cdbc
00000130: 6c08 99bd 257e 5abc b9b9 f5bc 493f 0d3e
00000140: 0b5c 3c3d 10ae a9bd d4b6 b33d f19a bc3d
00000150: 1174 3dbd 1381 843d 280e 923d d4d0 75bd
00000160: 44c6 8abd 31da a53d e467 68bc bfb2 553d
00000170: 987e eabc bdff 2b3d 6feb 76bb a620 06be
00000180: 51be ce3b c8b3 2dbd e002 f83d 09a0 b7bd
00000190: 1e12 fbbc bfa5 00be 7be7 ab3c 513c 21bd
000001a0: cfed 863d c43b 5fbd 7f8d 4bbd fb3a 2b3e
000001b0: d100 173d b06b 1a3a 4006 a7bc f10e 34bd
000001c0: a4b6 8cbd a121 a9bd b70f 90bd cbf2 943d
000001d0: 1c41 42bd 3723 19be 4a22 ac3c f4fd 2b3d
000001e0: 92ca 913c 8a49 8bbd 0d16 afbd 46aa 5b3d
000001f0: 7192 0cbd eabe 61bd e922 85bd bfbc 583b
00000200: 4e60 7a3d 9c5e b73d 0b2b ccbd e8ba 3bbc
00000210: 166a 083d de28 b6bd f047 57bd 2d5a 5cbe
00000220: 3174 a23d 26bf 0bbd 5bfc 6cbd 25cf e03d
00000230: d0dd fb3d 04a8 e5bc edc9 52bd 283a ac3c
00000240: ddcf 33bd ff19 313d 60c2 4bbd aff6 61bd
00000250: dca8 15be 61e8 b63d 20ab 21be 9a75 203e
00000260: f720 c63d be1a d13d 566f 18be 70ab bbbb
00000270: 6cc1 01be 3d8b 57bd bd54 943d 6fc8 473e
00000280: 9218 f5bb bdd0 d03c 7f86 483d 3baf d7bb
00000290: d54e d83d 2073 0f3d a68c 43bd 23e9 463c
000002a0: 3db5 b0bd 766e eebd 1d8d b3bc ae31 df3c
000002b0: be0d f23c aa08 633d 38cc 543d a081 0a3e
000002c0: 2282 723d 14d3 ccbc 66be 22be 0c0c a03d
000002d0: c73a babd 59a0 013d 9bbd 523d 5a92 ea3c
000002e0: 126c 1e3e e55f 42be 5e28 8fbc db94 fe3c
000002f0: e7b8 073d 7203 7fbd 309c 1abe 5ecf c63d
00000300: 7091 963d face b73d 909e 43bc 6aea bcbd
00000310: f089 b63d ce17 173e a338 3bbc e8e2 87bd
00000320: 019e 8abd d7fe 7ebd 3450 d33c 2894 483d
00000330: 7b26 3abd 9b87 18be 9c75 65bd 7d51 cc3c
00000340: ad5b 2a3d f101 233d 9f9f 0c3d 0c32 0b3e
00000350: bb24 41bc 36dd aebc b0f4 86bd b5ba 5cbe
00000360: 17e2 493c b6b7 b6bd 69f2 62bd f3de 413d
00000370: 0063 f1bd a2bf ba3d 04f3 003b 3889 c93c
00000380: 1794 6a3d ef54 133d 9abc 043e e1d2 843d
00000390: 3444 62bd cae6 1abd 5c24 1d3d 30f2 983d
000003a0: 9dfb 313d 7b7c c6bd 8a19 5e3c 66d3 963c
000003b0: ca6f 17bc 7df0 82bd 2889 85bd 6591 f5bd
000003c0: 59f4 37bb 48f2 5f3d 5d61 09be b88d bb3b
000003d0: e2ce 1cbe af89 963d 4174 65bd 3d58 443e
000003e0: c5b4 e4bd 560b 1dbe 8ae3 8dbd 1b7a b03d
000003f0: 7f2b dfbc b76f 543b 607f 943c b4f8 bebb

onnx::LSTM_211 f4 [1, 1024]
-0.17893742 0.005421063 -0.0905524 -0.11584758 0.104483046 -0.0713644 -0.012308708 -0.06663053
0.024075327 0.002454095 0.052591924 -0.08892409 -0.087563895 -0.043133665 -0.1023993 0.02955892
-0.07285988 -0.020541549 0.009107101 -0.02116078 -0.07681661 -0.12323006 -0.11329698 -0.14420037
0.07285174 -0.06555898 -0.1424228 0.05343729 -0.09810801 -0.002240968 -0.09613136 -0.11512613
-0.02687129 -0.042205818 -0.087587476 -0.13272777 0.15455158 0.053646777 -0.082018636 0.029074285
-0.1337346 -0.12144637 -0.109117866 -0.01166036 -0.12987982 0.013731026 0.043733507 -0.15298434
-0.07148049 0.033823237 -0.07278961 -0.030298108 -0.029202221 -0.062252916 0.06585761 -0.02029776
0.022743043 -0.031821985 -0.15409395 0.030075828 0.009661323 0.06617882 -0.13349953 -0.03434121
-0.12267722 -0.068720676 -0.21140489 0.065433435 -0.050036382 -0.010156354 0.13453674 -0.07258585
-0.0063444832 -0.02277084 -0.025630346 0.08300661 -0.07931536 -0.069443956 -0.18803708 -0.029249294
0.07040135 -0.048872843 0.13384765 -0.13628459 -0.121201165 0.038173717 -0.0978905 -0.04577988
-0.07491158 -0.08635938 0.041341834 -0.012902066 -0.009267472 -0.1354025 0.02422908 0.045063764
-0.0745287 -0.042671915 -0.049754865 0.026294006 0.047424324 -0.09173418 -0.041335195 0.11615665
-0.11184918 0.022074683 -0.06423926 -0.0856649 -0.11473947 0.00242866 -0.010156986 0.020902175
0.037663497 -0.049968366 -0.030578377 0.078706555 0.018838774 0.032714114 -0.117432706 0.12262687
-0.09943443 0.06606609 0.016547564 0.066390045 -0.034321137 -0.119057156 -0.06317567 0.001082636
-0.011810404 -0.13542171 -0.057121854 -0.084524915 0.11091788 -0.082919836 -0.0029888968 -0.0024342048
0.033742145 -0.05153329 0.017847942 0.05058374 -0.18715884 0.01945981 -0.13805042 -0.03441682
-0.07879094 -0.01896635 0.0059152483 -0.014643399 -0.18507652 -0.048440173 -0.08970206 -0.1466143
0.070827775 -0.12661356 -0.13416341 -0.10554238 -0.028918758 -0.120894015 -0.1016139 -0.13572529
0.0055931415 -0.08576346 -0.056262404 -0.088702776 0.14891802 0.06375382 -0.079069324 -0.093674116
-0.025658382 -0.0031439255 -0.04019067 0.0364098 -0.11774211 -0.0039053373 0.0046241824 -0.043951556
-0.13454297 -0.0060481206 -0.023860605 0.04439942 0.082609795 -0.18973942 0.11202026 -0.023821045
-0.0147948805 -0.0004172875 -0.14140666 -0.08774833 0.038547054 0.075133346 -0.026332095 -0.056997262
-0.06851799 0.027126534 -0.20333947 0.048690062 -0.034079272 -0.033118743 0.12615396 0.042575072
-0.0036840364 -0.06047125 -0.121031 0.027441246 -0.067274444 -0.07346286 -0.13615143 -0.097977236
0.027751734 -0.018470941 0.0656353 -0.10907713 -0.055271655 0.0025160701 0.01872007 -0.12234638
-0.034477886 -0.11965757 0.015456563 -0.057627548 0.073709354 -0.058651347 0.018486582 -0.046284143
-0.13293064 -0.104432605 0.022026695 0.06131946 -0.09856331 0.010670885 -0.086011104 0.1578222
-0.018467331 0.16675921 0.033871975 -0.05013423 -0.11232135 0.036575858 -0.06721906 0.041203614
-0.082603805 -0.1668078 -0.08000655 -0.033671435 -0.043166928 -0.051875442 0.010877033 0.13468105
-0.0771808 0.15491986 -0.1374082 -0.023436824 -0.07439499 -0.121685885 0.03861452 -0.07294182
00000000: 5f3b 37be 2ca3 b13b 8973 b9bd 7f41 edbd
00000010: 35fb d53d 8027 92bd 77aa 49bc 9675 88bd
00000020: 9f39 c53c e2d4 203b a16a 573d d51d b6bd
00000030: b354 b3bd edac 30bd b9b6 d1bd 8c25 f23c
00000040: 9037 95bd c046 a8bc f335 153c 5f59 adbc
00000050: 0752 9dbd 0b60 fcbd 3f08 e8bd 43a9 13be
00000060: 4b33 953d c943 86bd 48d7 11be 0fe1 5a3d
00000070: daec c8bd 34dd 12bb 85e0 c4bd 40c7 ebbd
00000080: 2e21 dcbc 02e0 2cbd 1061 b3bd cae9 07be
00000090: c542 1e3e b9bc 5b3d 63f9 a7bd 322d ee3c
000000a0: b9f1 08be e0b8 f8bd 3079 dfbd 180b 3fbc
000000b0: 37ff 04be 19f8 603c e821 333d eda7 1cbe
000000c0: 5d64 92bd 3c8a 0a3d b812 95bd bd33 f8bc
000000d0: 7f39 efbc eafc 7ebd 5be0 863d 7d47 a6bc
000000e0: 9e4f ba3c c557 02bd ceca 1dbe 9561 f63c
000000f0: 874a 1e3c c388 873d 1ab4 08be 5ea9 0cbd
00000100: 323e fbbd 6dbd 8cbd 867a 58be f701 863d
00000110: f3f2 4cbd d666 26bc 00c4 093e e4a7 94bd
00000120: 62e5 cfbb ea89 babc bbf6 d1bc 5fff a93d
00000130: 1770 a2bd a238 8ebd cb8c 40be 379c efbc
00000140: 952e 903d e42e 48bd 5c0f 093e 308e 0bbe
00000150: 5138 f8bd 0b5c 1c3d d17a c8bd af83 3bbd
00000160: 3e6b 99bd 30dd b0bd 0e56 293d 3063 53bc
00000170: 98d6 17bc f4a6 0abe 107c c63c c894 383d
00000180: 81a2 98bd bfc8 2ebd c2cb 4bbd 8766 d73c
00000190: 0240 423d 21df bbbd 184f 29bd 8ae3 ed3d
000001a0: 2f11 e5bd f7d5 b43c e08f 83bd 1471 afbd
000001b0: 87fc eabd 272a 1f3b 7d69 26bc 0a3b ab3c
000001c0: 0a45 1a3d a1ab 4cbd 817f fabc e730 a13d
000001d0: c653 9a3c 3cff 053d 8f80 f0bd cc23 fb3d
000001e0: 47a4 cbbd a84d 873d c28e 873c 81f7 873d
000001f0: 5294 0cbd 3dd4 f3bd 3f62 81bd 3ce7 8d3a
00000200: 6d80 41bc fdab 0abe 9bf8 69bd 661b adbd
00000210: ea28 e33d e0d1 a9bd 5ee1 43bb 2e87 1fbb
00000220: 3435 0a3d 9214 53bd d935 923c e530 4f3d
00000230: 91a6 3fbe 2e6a 9f3c 175d 0dbe a7f8 0cbd
00000240: 255d a1bd 525f 9bbc b3d4 c13b deea 6fbc
00000250: b384 3dbe 3469 46bd b7b5 b7bd 0f22 16be
00000260: 270e 913d fca6 01be 2262 09be 9a26 d8bd
00000270: 08e7 ecbc 4897 f7bd f31a d0bd 92fb 0abe
00000280: ac46 b73b c1a4 afbd 6873 66bd cda9 b5bd
00000290: f77d 183e 5d91 823d 19ef a1bd 37d8 bfbd
000002a0: 8731 d2bc 510a 4ebb f99e 24bd 7122 153d
000002b0: c622 f1bd b0f0 7fbb 7486 973b 8c06 34bd
000002c0: a2c5 09be 502f c6bb 5177 c3bc 2bdc 353d
000002d0: 532f a93d 0d4b 42be e16a e53d 5a24 c3bc
000002e0: 3a66 72bc 61c7 dab9 e8cc 10be 65b5 b3bd
000002f0: 84e3 1d3d 83df 993d 68b6 d7bc f675 69bd
00000300: 2953 8cbd 7738 de3c 3938 50be 3b6f 473d
00000310: b596 0bbd 85a7 07bd 812e 013e 3363 2e3d
00000320: e06f 71bb b4b0 77bd 1adf f7bd 77cc e03c
00000330: 2fc7 89bd b273 96bd 486b 0bbe 4aa8 c8bd
00000340: 9b57 e33c 5f50 97bc cd6b 863d d563 dfbd
00000350: 8864 62bd a7e4 243b d55a 993c bd90 fabd
00000360: af38 0dbd 070f f5bd 863d 7d3c dd0a 6cbd
00000370: eef4 963d 653c 70bd 2c71 973c 7194 3dbd
00000380: f81e 08be c3e0 d5bd 5471 b43c 1d2a 7b3d
00000390: 90db c9bd f0d4 2e3c 9726 b0bd 259c 213e
000003a0: cd48 97bc edc2 2a3e 57bd 0a3d 8d59 4dbd
000003b0: bc08 e6bd 91d0 153d 26aa 89bd 1fc5 283d
000003c0: 2f2c a9bd aacf 2abe 79da a3bd 0feb 09bd
000003d0: cecf 30bd 587b 54bd 9535 323c d4e9 093e
000003e0: f810 9ebd 50a3 1e3e bcb4 0cbe 95fe bfbc
000003f0: 675c 98bd 7336 f9bd 422a 1e3d 8562 95bd
