rock_paper_scissors_model.onnx (onnx, 839065 bytes, 10 tensors)

fc1.weight f4 [64, 128]
00000000: c5fd a6be 7a0b a3bc 2b9b 133e 592a 8f3d
00000010: aab6 5cbc 19bc 41bd a227 febd 0f59 5f3e
00000020: 1bc3 2e3c 1554 9cbe 53de 333e 11f5 06bc
00000030: 6fe5 6a3e 2e85 4d3e c955 5e3e 2023 de3c
00000040: 5332 81bd 2f1d 673c 0eac ebbe 4fac 283e
00000050: 5093 e139 04ec 90bd cd1b f9bc 1381 28be
00000060: 9871 0c3e 5b92 9b3d 907f 293c ad10 23be
00000070: 9515 0b3e e142 d9bd 0db8 77bd c49b 6b3d
00000080: 1011 133e babf 033c 9ab1 b5bd 2f9e 2a3c
00000090: f2e5 703d 81e8 69bd 088e 7a3d a717 50bd
000000a0: 0c75 4139 54d4 22bc 6827 233d 4bc8 bdbd
000000b0: 62c7 1e3e 2046 213d 5ab6 b73d 71c6 d73d
000000c0: 1b9a 843d 5c05 cdbd af32 2d3d 860f 93bc
000000d0: 6ee9 433d 7cb9 2bbe 2982 173e 9cac b7bd
000000e0: bc0f dabd 239a efbb e9d8 153e de07 7ebe
000000f0: f001 dbbc 6d04 f33d 79fc 52bb b1c0 a33d
00000100: 3ad7 a4bc 6bb6 423e d27f a63d eae0 03bd
00000110: 0c88 0ebd 4183 0d3e 0dd6 9d3d efc2 113e
00000120: 3445 0abe 3741 3fbd 7087 50be b3f8 bc3d
00000130: 8de0 683d 9a5b 22be ecfe 0d3e 3561 0c3e
00000140: 4752 623d 30ab 4abe a7ad 0abe 56e9 91bd
00000150: c07b d8bd 1d33 16be fa1b c53d 793e 303e
00000160: 18fd a83d 27e4 c23d 25b5 04be bb7c b3be
00000170: 8edd 7b3e 9931 403d af61 023e 1ff9 99bc
00000180: 44ea ecbc 9e42 033e 5053 64bd 0483 703d
00000190: e66b d6bc 4c1f b33d cee4 53bd bb85 0b3e
000001a0: 1421 203e 2d74 c03d ccea 363d d213 b13b
000001b0: 0b30 eb3c 0f30 37be 78d9 283e 4882 813e
000001c0: c92d ebbc 0488 103e 5ecd 6cbe 0d02 523c
000001d0: 03fc 123e 0f51 f5bc 8c0c 003e 57f1 ea3d
000001e0: d297 17be 947b 333e 9ddc 1c3e 5051 89bd
000001f0: 8a8c ffbd f10d 1f3e f144 1bbe fa13 d53d
00000200: 10c3 0e3e e39e edbd 7a31 e8bd 3ae9 fb3d
00000210: 2fed 30bd b768 303e 09d2 a2bd afea f0bc
00000220: c3fe 2f3e bf0f b9bc 09f5 7b3e 5408 d03d
00000230: 22d5 27be ad92 3f3d 2830 ffbd d869 183c
00000240: 356e cabd f33c 9bbc aeaf 333e 4b9f 253d
00000250: 6722 1ebe b3bc 203e 22e0 a53c 8101 a53d
00000260: 2421 9abd 34e5 0ebe a92f 423d 50cc 1e3e
00000270: 0605 dfbd b099 c5bc 93a3 743e 40c3 08be
00000280: 0501 59bc db78 fdbb 4203 fe3c 7abf b43d
00000290: 7d9c dc3d cb5a 323d ab73 65bd 8c2b 7b3d
000002a0: dcb2 153e 21e2 fdbc 9051 603e 0a95 98bc
000002b0: dc62 ecbd 6d49 243e 7689 933d 64f1 97bd
000002c0: 5111 b53d 0d37 dc3c 0f25 113e db1e 543e
000002d0: c2a4 353e 97da 163e 759f 7cbc fb5d 64bd
000002e0: cf10 cdbd eb1b 53be 117b 12be d91d 00be
000002f0: b8f3 2a3e b9c2 7d3c 5a74 2c3d a74e 2c3d
00000300: c7fe 713d 4510 2f3d 629e 2f3e 0066 81be
00000310: 2fc8 e3bd e8e4 2ebe 3881 343e bd58 4e3e
00000320: ecc1 aabc 7c3d 943d 7912 283d 1446 24bd
00000330: 3a73 9f3d a725 fa3d 2831 2b3d 7115 95be
00000340: 5ce3 2dbc 0247 733c 7487 02be bd10 fcbd
00000350: 2e36 1dbe e89f 0b3e bea5 4e3e 1ed7 80be
00000360: 779e 65be f0a9 cf3d 0686 b6bd 1bf6 f13c
00000370: 46d7 653d 3854 133c b7e0 2bbe e9d7 b8bc
00000380: ab0e aa3d 58c7 55be 2595 b5bd 9d2b 8a3d
00000390: 62c9 02be 5958 0ebe 9622 b23d 6045 e23b
000003a0: 9f0c b0be 886e be3d 0c3d 673d 146c 32bb
000003b0: 73c8 37bb 3b7b 71bd 7a13 e83d 6c94 b3bd
000003c0: a602 873e e152 0cbd a51b c5bd 7e54 dabd
000003d0: 0e40 8fbc 948f d33d 2f4f b53b c2b5 c73c
000003e0: 0717 89bc 0ceb 063e a56a 0cbe b90f 173d
000003f0: 9bd2 c1bd 8d59 6e3e 8f49 2c3e 561a 74be
-0.32615486 -0.019902933 0.1441466 0.06990499 -0.013471285 -0.047298525 -0.12409903 0.21811317
0.010666634 -0.305329 0.17565279 -0.008237139 0.22939084 0.20070335 0.21712412 0.027116358
-0.06308427 0.014106079 -0.46029705 0.1647198 0.000430251 -0.070762664 -0.030408764 -0.16455488
0.13715208 0.075962745 0.010345355 -0.1592433 0.13582452 -0.10608459 -0.06047826 0.057521597
0.14361978 0.008041317 -0.088717654 0.0104136905 0.058813043 -0.0571065 0.061170608 -0.050803807
0.00018449518 -0.009938318 0.039832503 -0.092667185 0.15505746 0.039373517 0.08970328 0.105358966
0.06474706 -0.10010788 0.042284664 -0.017951738 0.047830038 -0.16769975 0.14795746 -0.089684695
-0.10647532 -0.0073120757 0.14633526 -0.24807689 -0.026734322 0.118660785 -0.0032193942 0.07995737
-0.02012216 0.190149 0.081298485 -0.032196917 -0.034797713 0.138196 0.077068426 0.14234518
-0.13502961 -0.046693053 -0.20364165 0.09227123 0.056854773 -0.15855256 0.13866776 0.13708957
0.055254247 -0.19791865 -0.13542806 -0.071245834 -0.105704784 -0.14667936 0.09624477 0.17211331
0.08251399 0.09516173 -0.12959726 -0.350561 0.24596235 0.0469223 0.12732576 -0.018795548
-0.0289203 0.12818381 -0.055743515 0.058718696 -0.026174497 0.08746204 -0.051731877 0.13625233
0.15637618 0.09397159 0.044657513 0.005403974 0.028709432 -0.17889427 0.16489208 0.2529471
-0.028708356 0.14114386 -0.23125216 0.012817872 0.14353947 -0.029945878 0.12504786 0.11471813
-0.14804009 0.1752761 0.15318532 -0.06704962 -0.124779776 0.15532662 -0.15163018 0.10404201
0.13941598 -0.11602571 -0.11337562 0.12300344 -0.043194946 0.17227446 -0.07950217 -0.02940878
0.17187028 -0.022590516 0.24605192 0.101578385 -0.16389897 0.04677074 -0.12460357 0.009302579
-0.098843016 -0.018949961 0.17547485 0.040435117 -0.15442811 0.15696983 0.020248476 0.080569275
-0.07525852 -0.13954622 0.047408734 0.15507627 -0.1088963 -0.024121135 0.23890524 -0.13355732
-0.013244872 -0.0077353544 0.031007413 0.08825584 0.10772035 0.04354362 -0.056018513 0.061320826
0.1461901 -0.030991616 0.21906114 -0.018625755 -0.115422934 0.16043635 0.07203953 -0.074190885
0.088411935 0.026881719 0.14174293 0.20714895 0.17738631 0.14731823 -0.015418877 -0.05575369
-0.100129716 -0.20616119 -0.14304759 -0.12511386 0.16694534 0.01548832 0.04210315 0.042067196
0.059080865 0.042740125 0.17150262 -0.25273132 -0.11122166 -0.17079508 0.17627418 0.20151038
-0.020844422 0.0723829 0.041033242 -0.040105894 0.077856496 0.12214213 0.041794926 -0.2911792
-0.010613289 0.014848473 -0.12746984 -0.1230788 -0.15352699 0.13635218 0.20180413 -0.2516412
-0.22423731 0.10139835 -0.08912282 0.029536298 0.056113504 0.008992247 -0.1678494 -0.022563891
0.08303579 -0.20876825 -0.08866338 0.067466 -0.12772134 -0.1390089 0.08698003 0.006905243
-0.3438463 0.09298426 0.056454703 -0.0027225064 -0.002804306 -0.058955412 0.1133184 -0.087685436
0.26369208 -0.034258727 -0.096244134 -0.10660647 -0.017486598 0.1033012 0.005533121 0.024378661
-0.016734613 0.13175601 -0.13712557 0.03688023 -0.09463998 0.23276348 0.16824935 -0.23838171

fc1.bias f4 [64]
00000000: 4431 6abd 4a84 89bd efa9 09be 7254 cebc
00000010: 7fbd febd 4dcf 473d c5a3 433d e896 bb3d
00000020: 5b76 c4bd ccfb 5c3d 2f85 1b3e 53de a7bd
00000030: c2ed 1dbc 04db e1bd 1ca7 bd3d 9f83 f8bb
00000040: 689a 11be a3a3 c03c 15e5 ee3d 05d0 d1bd
00000050: 135c ef3c 5f73 9e3a cdfd c33c 7a91 f33d
00000060: 8a80 2bbe b94b 44bd b840 41bc b37a 7cbd
00000070: 9522 0cbd 3153 693d a98b 443d e38e 1b3e
00000080: e2a5 b43d bda7 383d 6f7f 85bd 636b 9bbd
00000090: 544d de3d be49 31be e023 cabd bc2d 63bd
000000a0: fbee 84bd da8f f2bd 601c 9bbd 01cc 083e
000000b0: 370e 6b3d bfb7 84bd 72f8 003c ddd8 f03d
000000c0: 4a56 91bd b3ca 0abe b502 d2bd bbff 0cbd
000000d0: 9c68 99bc de17 a8bd d3bc 07be 941b 2bbe
000000e0: 7c31 d1bd 5023 f5bd 1259 babd 719d 07be
000000f0: 229a 40be e61e 943c c14a 99bd 0c6a 02be
-0.05717589 -0.06714685 -0.13443731 -0.025186751 -0.12438487 0.04878168 0.047763605 0.091596425
-0.09592887 0.05395107 0.15187524 -0.08196702 -0.009639205 -0.11028102 0.09260389 -0.00758405
-0.14219058 0.023515528 0.11664788 -0.10244755 0.02921871 0.0012088827 0.023924733 0.11892982
-0.16748253 -0.047923777 -0.011795215 -0.061640453 -0.034212667 0.056964103 0.047984753 0.15191226
0.08820702 0.045081843 -0.06518447 -0.07588842 0.10854593 -0.17313287 -0.09870124 -0.055463538
-0.064908944 -0.11843844 -0.075737715 0.13359071 0.057386603 -0.06480359 0.007871734 0.117601134
-0.070965365 -0.13553886 -0.102544226 -0.03442357 -0.01872664 -0.08207677 -0.13255624 -0.16709739
-0.102145165 -0.11969626 -0.0909902 -0.13243653 -0.18808797 0.01808114 -0.07484961 -0.12735766

fc2.weight f4 [3, 64]
00000000: 3129 8ebd 9cae 5bbe 292c 08bd fa0d 1a3d
00000010: 563b b13d 63c9 2b3e 094e 893e 2953 1cbe
00000020: 0d17 08bd f8c4 b3bd c223 b63d 4ea5 f139
00000030: af0f ebbd e177 ccbc e555 053e bf21 87bc
00000040: 7bad 2bbe 7e8d 473e f27f 4fbd 6272 b7bd
00000050: 6857 763e fbe0 093e d252 ff3d 32fa 22be
00000060: 3adb 363e 63ae f0bd 05ee 003e 4f8a 873d
00000070: 3423 2abe 619b e8bd 5e9c 64be b583 64be
00000080: f8dc 2ebe d1df 273e 09ef ee3d 5041 ae3d
00000090: 9755 853e cc1b 313d fe7d 663d d898 69be
000000a0: 49ba 4c3d b258 14bd 42b5 5fbc 080e 973c
000000b0: cd8b 7abe e058 993d b77a 06be 7170 48bc
000000c0: 0e11 a4bd 8136 ae3d 6253 f9bd 234d 43be
000000d0: 032d 253e a29f 68be 0f21 3d3c 6bb4 6dbd
000000e0: 3eb2 e9bd b32a acbd 941f 3ebe 5bf7 28bd
000000f0: 911c fbbd 8e98 183d 9116 68bd 62ef 363e
00000100: 993d 513e 0ae6 4c3d 5070 383d 44dd fa3d
00000110: 783f 85be bc71 b9bd bf35 48be a80c 883d
00000120: 635f 75bd a42a fdbd a257 2abe 6ea5 0e3e
00000130: d4bd 983c a3a3 623c 58d1 2abe 6320 19be
00000140: ea8f 4e3d 1b87 7f3c 267e 29be 5ecf cfbd
00000150: 9972 3bbd 3319 5ebe 317c 10be 2546 c1bd
00000160: c400 77be a0d5 513e 2ffa 04bd e0cc babc
00000170: effb 893e 547b debd a766 ac3d ec12 323a
00000180: 2061 6a3e ed60 09be 89bb 26be e279 3b3c
00000190: 3ac4 70be a89c 723d 307f 6d3d 437a 1f3e
000001a0: f414 1b3e affc 3cbc b86a 09be cadb 5abe
000001b0: 8f22 0e3d 7068 113d 8152 463e 1292 38be
000001c0: 522b a53d 8ed5 233d 4dc9 143e fc35 283e
000001d0: 6b5f 0f3e e17e d63d f348 a7bd 9f59 7e3d
000001e0: 7612 6a3e 270d ab3d 6b31 5d3d 10dd fabd
000001f0: 4692 0fbe 501e 4c3d 4d98 803d 1900 1fbe
00000200: 40d1 47be a9d7 d63b 7e77 cf3d 761e 0d3e
00000210: c6a4 d0bd 235f d1bd 8551 15be 1963 ae3d
00000220: f10b aebd 35ac 153e f267 c03d 58b3 0ebe
00000230: 17f1 8bbe 4c06 bd3d 0292 a43b ba97 c53b
00000240: 7241 f23d ccb2 97be c0d4 483e 2474 c2bd
00000250: 3b46 5ebd 722e 79bd 16d3 c9bd 6db8 693e
00000260: 4b20 973c 18c3 50be 91fa 8dbe baaa 9cbc
00000270: ac23 8ebe 7a26 3a3e b2c7 cc3c 0247 4f3e
00000280: 0104 ce3d 2dfa e73c f2af 9a3c ac09 c33d
00000290: 8a02 f0bb bfd0 8bbd cd74 a33b 66e6 92bd
000002a0: ba58 b8bd 44e9 d4bc cfd2 8eba a972 253e
000002b0: 55cb 423e 25d6 323d 334c 3bbc 3a6b fa3d
000002c0: 10ca 12bc 417e 9fbe 5462 433d bce5 c03d
000002d0: f3b4 39be f469 14be 5a69 bc3d 7dc7 7fbd
000002e0: 1dda e9bd 7bc7 ee3d d28b c5bd 0034 323e
000002f0: f9c2 593e 8f9d 343d 8f5b 463b d564 463d
-0.069414504 -0.21453327 -0.03324524 0.037610985 0.086538956 0.16776042 0.2681735 -0.15266098
-0.033225108 -0.08777803 0.08893539 0.00046090264 -0.11477601 -0.024959506 0.13021047 -0.016495584
-0.16765396 0.19487569 -0.050659128 -0.08957364 0.2405678 0.1346473 0.124669686 -0.15915754
0.17857066 -0.117520116 0.12590797 0.06618177 -0.16614991 -0.11357761 -0.22325274 -0.22315867
-0.1707648 0.16393973 0.11666686 0.08508551 0.26041862 0.0432394 0.0562725 -0.22812212
0.049982343 -0.0362174 -0.013654055 0.018439308 -0.24467392 0.07487655 -0.1313275 -0.012233839
-0.080110654 0.085064895 -0.12174107 -0.19072394 0.16130452 -0.22717145 0.011543526 -0.058033388
-0.1141095 -0.08406582 -0.18566734 -0.04125152 -0.12261308 0.037254862 -0.056662146 0.17864755
0.20433654 0.05002407 0.045028985 0.12249234 -0.26024985 -0.09054896 -0.19551753 0.06643039
-0.05990542 -0.12361649 -0.16634992 0.13930294 0.018645205 0.013832959 -0.16681421 -0.14953761
0.050430216 0.0155961765 -0.16552028 -0.10146974 -0.045763586 -0.216893 -0.14109875 -0.09437207
-0.24121386 0.20491648 -0.032465156 -0.02280277 0.26950023 -0.10863367 0.08418017 0.0006792981
0.22888613 -0.1341588 -0.16282476 0.011442633 -0.23512354 0.05923143 0.057982624 0.15573983
0.15144712 -0.011534854 -0.13419616 -0.21372905 0.034700926 0.03549999 0.1936741 -0.18024471
0.08064903 0.039998583 0.14529915 0.16426843 0.14001243 0.10473419 -0.08168211 0.062097188
0.22858605 0.08352118 0.054002207 -0.122491956 -0.14020643 0.049833596 0.06279049 -0.15527381
-0.19513416 0.0065564704 0.10130213 0.13781151 -0.10187678 -0.10223224 -0.14581878 0.08514995
-0.084983714 0.14616473 0.09394826 -0.13935602 -0.27332374 0.09229717 0.0050222883 0.00603005
0.11828889 -0.296286 0.19612408 -0.09494808 -0.054266196 -0.06083531 -0.098547146 0.22824259
0.018448016 -0.20386922 -0.2773023 -0.019124378 -0.2776159 0.1817874 0.024997566 0.20241931
0.100593574 0.028317535 0.018882725 0.09523329 -0.0073245214 -0.068269245 0.004988289 -0.07172851
-0.09001298 -0.025990136 -0.0010896566 0.1615702 0.19022878 0.043661255 -0.0114317415 0.12227483
-0.008959308 -0.31151012 0.047701195 0.09418818 -0.18135433 -0.14493543 0.09199782 -0.062446106
-0.11418555 0.11659142 -0.09645809 0.17402649 0.21265782 0.044095572 0.0030266976 0.048436005

fc2.bias f4 [3]
00000000: e8f5 2cbd e3b1 e03d 3b17 a3bc
-0.042226702 0.10971429 -0.019908538

onnx::LSTM_198 f4 [1, 512, 3]
00000000: 9bbe 4f3e e348 463e 6ebc 7abd a8cc d23d
00000010: e33a 09bd 3188 debd b649 1abe 5fd0 383b
00000020: 39d7 3dbe a268 5e3d 6959 b93d 010d bcbc
00000030: b2b0 163e dc50 9ebb bbb4 253d 6e36 00bf
00000040: 9aa7 d7bd 73f1 85be 5115 283e 01bb c6bd
00000050: 3dbb 8dbc b215 4a3e 0623 cbbd b31a 14bc
00000060: 476c e73d fefc f13d 55b5 4b3d 1161 57bc
00000070: 4d9f 343c fb98 18be b7a8 8bbd f720 4a3e
00000080: 611a 0cbe 65d1 6ebe 8b45 f03d 2544 44be
00000090: 8a9b fc3d f56e 1a3c c08c 5f3d a02e 29bc
000000a0: e890 1d3e 0289 1dbe 7523 463d f078 fbbb
000000b0: eba5 253e 1515 53bd 500d 2fbe 758f 20be
000000c0: edf8 d53d 6610 073e 9148 93be f8c6 c5bd
000000d0: 454c f83d 78b7 4cbe 8226 8abd 9f55 9bba
000000e0: 5be7 9cbd 78c3 773e 9f82 913d 01ca ebbc
000000f0: 3ee1 11be 2063 3ebe c518 19be 7a9d 43bd
00000100: deb9 d33d c6bd dbbe 6551 363e ece4 0a3e
00000110: 0291 b9bd 1dd0 e4bd 29e0 883e 8c1f 8ebd
00000120: 3199 38bd 747f 873b 4570 eabd ed7e 8bbe
00000130: 5f9b e03c 9973 d2be 8438 e4bd 0969 5a3c
00000140: 2eb4 753d bdf1 68bd 9f08 44bc 1c3b 88bc
00000150: 2325 0a3e 5a2e d3bd abcc 11bc 3eb8 193e
00000160: 504a 763e 8dbc 003e 6087 42bd dadb ef3d
00000170: 5db9 f0bd 6eb6 b6be f868 4e3d 9b0d e63c
00000180: b2a8 403e afcd 693d 80da 5ebe 6db5 5abd
00000190: ba69 9dbd d5c6 82be 1c69 3c3d 5f17 93bd
000001a0: 30e8 93bd 5bd3 c73c bb1e 593a e2ca d8be
000001b0: 4310 ecbd 2e98 8e3d 5727 413e 93f5 3cbe
000001c0: ddff 573d fb84 f4bc 3ece 81bc ce52 473c
000001d0: 27ed 89be 9d07 7c3d 443c 5ebd 73a4 15be
000001e0: 62c4 5bbc 9ec7 b13d 8f34 e4bd 5db0 88bd
000001f0: 0d51 84bd 9196 9c3d cb67 093c ca37 8e3c
00000200: 6446 3fbe c333 ffbc 94e3 033e 270c 993d
00000210: 90a4 583e e9f5 68bd d23c 52be e9e7 a53d
00000220: ae46 49bb 1b81 113e c650 08bc 1918 ae3d
00000230: 8a03 36be c80e 40be cfc2 bdbe ec37 a6bd
00000240: 8184 0b3d 3584 f8bc ae47 2dbe 583e ac3e
00000250: daa6 0abc b281 b2bc 7719 52be 5d0b 0dbe
00000260: 3ce1 583e a30a a8bd 2d51 3abd d2d4 113d
00000270: e39a f53c 206f 0cbe bd9b 6c3d fbbe 8b3c
00000280: 95d8 a53d 2812 46bc 8c63 833e 4dd8 763d
00000290: 5b96 2cbc d84a e23d e406 0e3e 6f84 75be
000002a0: a955 23be 8d42 39bd 38ca 10bd 792c 40be
000002b0: 963b 913d 00b2 723e 3e96 783e 907a a33d
000002c0: d219 36be b884 f43d a289 413e ef29 2ebe
000002d0: 9d11 e93d c88d 4bbd 15f4 a2be ee48 913d
000002e0: 9308 44be 8b30 f93d e380 eebb ac4e 82be
000002f0: 7e30 ff3d 1c14 843e 6463 08bc ebbd d3be
00000300: c8ef 56be 09b8 21bd 424e 6f3d bfd3 9abe
00000310: 9ce4 8fbe f81d 90be 414d fbbd 01c8 02bc
00000320: 1c56 9abe f1eb 553d 1938 6b3e 4cf0 2fbe
00000330: b99f 77be 802b 0fbe 7f1f 90be 1748 8cbd
00000340: cfd5 2b3d d0e5 83be 4811 52be dae1 72be
00000350: 2b67 66bd 179e 2fbd 5bc3 3ebe 8e33 3dbd
00000360: 67e1 8a3b b8ff 9dbd 27c3 8abd 3c76 bd3c
00000370: b8fc 99be 4245 8a3d be44 2f3b e8a1 89be
00000380: af66 45be 8d40 85bd c6e9 543c 20e1 d43d
00000390: bc19 8ebe db7b a0bd 7141 cabe cb46 563e
000003a0: 6054 6bbd 1631 6cbe 2602 3b3d 1cd5 17be
000003b0: 6083 813d 4429 29bc 8296 02bc 176b 16be
000003c0: 0c0c 273e aed9 843d b704 653d 26be fabc
000003d0: cd68 f8bd 7e0e 21bc 5a74 0ebe b704 8ebe
000003e0: 270e 7cbe afff 7a3e 7323 9cbd 5fbf b7bd
000003f0: d1fb c6bc 934b 15be 2771 1fbe aca8 7abe
0.20287554 0.19363742 -0.061214857 0.10292941 -0.033503424 -0.1086582 -0.15067181 0.002820037
-0.18539132 0.054299004 0.09050257 -0.02295542 0.14715841 -0.0048314165 0.04045556 -0.50083053
-0.10530014 -0.26160774 0.16414382 -0.09703637 -0.017301196 0.19734839 -0.099187896 -0.009039569
0.11299949 0.118158326 0.04973348 -0.013145701 0.011024308 -0.14902107 -0.06819289 0.19739138
-0.13681938 -0.23322065 0.11732014 -0.1916662 0.12334354 0.009425868 0.05457759 -0.010326058
0.15387309 -0.15384296 0.04837366 -0.007674329 0.16176574 -0.051533777 -0.17094922 -0.15679725
0.104478694 0.1318985 -0.287663 -0.09657091 0.12123922 -0.19991863 -0.06745626 -0.0011851079
-0.07661315 0.24195659 0.07104992 -0.028782846 -0.1424608 -0.185925 -0.14950855 -0.047757603
0.10338186 -0.42918223 0.17804487 0.1356389 -0.09060861 -0.11172507 0.2673352 -0.06939611
-0.04506797 0.0041350666 -0.11447195 -0.27245274 0.027417837 -0.4110382 -0.11143592 0.013330706
0.059986286 -0.056871165 -0.011964946 -0.016629748 0.13490729 -0.10311575 -0.008898894 0.15011689
0.24051785 0.12571926 -0.047492385 0.11711855 -0.11754105 -0.35686058 0.050393075 0.02808266
0.18814352 0.05708092 -0.21763039 -0.053395677 -0.07686181 -0.25542322 0.045998678 -0.07182192
-0.072220206 0.024392774 0.0008282472 -0.42342287 -0.11526539 0.0696262 0.18862663 -0.18453054
0.052734245 -0.029848566 -0.015845414 0.012165738 -0.26938745 0.061530698 -0.054256693 -0.14613514
-0.0134135205 0.08680652 -0.11142837 -0.066742636 -0.06460772 0.07645906 0.008386563 0.017360587
-0.18679196 -0.031152612 0.12879783 0.07473021 0.21156526 -0.056875143 -0.20531014 0.08100874
-0.0030712294 0.14209406 -0.008320039 0.0850069 -0.17774788 -0.18755639 -0.3706269 -0.08116135
0.034061912 -0.030336479 -0.16921875 0.33641315 -0.008462632 -0.02179036 -0.20517527 -0.13773866
0.2117967 -0.08205154 -0.04548757 0.035603352 0.029981082 -0.13714266 0.05776571 0.01705884
0.0809795 -0.01208929 0.25661886 0.060264874 -0.010533894 0.110494316 0.13869816 -0.239763
-0.15950646 -0.045229483 -0.0353491 -0.18766965 0.07091443 0.23700714 0.24276063 0.07982361
-0.17783287 0.119393766 0.18900159 -0.17008184 0.113803126 -0.04969576 -0.31826845 0.07093988
-0.19143896 0.12167462 -0.007278548 -0.25450647 0.12460421 0.25796592 -0.008324478 -0.41355833
-0.20989907 -0.03948215 0.05842424 -0.30239674 -0.28104103 -0.28147864 -0.122705944 -0.007982255
-0.3014382 0.052226964 0.22970618 -0.1718151 -0.24182023 -0.13981438 -0.2814903 -0.068496875
0.04195195 -0.2576127 -0.20514405 -0.23718968 -0.056250732 -0.042875376 -0.1862921 -0.046191745
0.004238296 -0.0771479 -0.067755036 0.023127668 -0.30075622 0.06751491 0.0026743854 -0.26881337
-0.19277452 -0.06506453 0.012995189 0.10394502 -0.2775401 -0.078361236 -0.39503053 0.20925443
-0.057453513 -0.230656 0.045656346 -0.14827389 0.06323886 -0.01032478 -0.007970454 -0.14689289
0.1631319 0.064868316 0.0559127 -0.030608248 -0.12129364 -0.009830115 -0.13911572 -0.27737972
-0.24614774 0.24511598 -0.07623949 -0.08972048 -0.024289997 -0.1457961 -0.15570508 -0.24478406

onnx::LSTM_199 f4 [1, 512, 128]
00000000: e29c 9e3e 3847 653e 0002 9a3d a767 303e
00000010: 6d65 2fbe cf72 8bbc e8d7 d03d 117e 86be
00000020: b9eb 823d 77ac a4bc 80b9 7f3e ba2b 0f3e
00000030: e248 183e 9000 e33c e97f c9bc 72e5 35be
00000040: 067e 873e 87cf 03be 431b 9d3d d30c 293e
00000050: 69c9 e7bd 84a1 ffbc aa7d 233e a928 f6bd
00000060: 714c 793d 1fdb 193d db8f 563c 0a7e 67be
00000070: c3df 5fbe 89e8 05be 888f 85be 2031 013e
00000080: f656 27be 6184 bfbd 3625 f9bd 6531 e8bd
00000090: f21c 2f3e 1738 9cbd 502c 423e 597a c33d
000000a0: 786b c8bd aa61 1fbe 6068 8cbd 1330 87bd
000000b0: c5ab 943e af91 083b 0196 d5bd 3567 0d3e
000000c0: e5e4 a73d 522f 37be 1798 1a3e b5c7 b23d
000000d0: 1d67 25be 63db a3be 8c0e 47be 1024 603e
000000e0: 5c47 5ebc 71f2 3fbd 9a05 dd3d 5ae2 603e
000000f0: 9f07 48be bbec ac3b 1142 563e 47bd 073f
00000100: 158d dfbc a867 6bbe c7d1 543e dc97 253e
00000110: 7644 8b3d 9783 1abd e9a9 67be 5aa9 1c3c
00000120: 9c91 4d3d 40be 793c aae7 72bd 29f3 65bd
00000130: e037 613e 7c31 b8bd f7d9 31bd 8734 f3bd
00000140: 7f1c 5e3e f359 4e3e 779b c2bd 6b68 07bd
00000150: 03b8 4fbe 1b5c f6bd 2be4 99bc c7eb e93d
00000160: 24c2 84bd 74e3 cf3d f005 603d 2e65 07bd
00000170: dbac ba3d 4770 bbbe fbbd a53d 30ce acbd
00000180: 4567 19be fe43 6e3d 16ff c1bd ffca d7bb
00000190: 9dab 283b 5b11 f93c 645e 0e3e a6c4 b33d
000001a0: a856 18be 922e 453e 9457 b83c 728b 2bbe
000001b0: 8228 953d eaac 72be e993 28bd 5177 61be
000001c0: 74e1 113d 79c1 803e 24ce 1fbe a1bd a2bd
000001d0: 3592 093e 7213 963c fbfa 053b 1121 7ebd
000001e0: dfb1 3e3e 3b22 9c3d a0e6 febd b20c 5b3d
000001f0: 9c3a 9e3e 9121 4ebd 0aa3 dbbc c2b3 5e3d
00000200: b82e c53d 3521 c33d 322c 12be 0e49 793d
00000210: 3ae9 55bd 0b2b 923d f9d9 67bc 3812 f6bd
00000220: 00ec 91bd 2c72 eebc 5241 193e 260a f13c
00000230: dc0a 093e 61f9 893d dabe a4bd f897 2a3e
00000240: ade6 4d3c dbbb 1a3d 361c 4a3e 7c06 b83d
00000250: 756a 163a f03e 11be 4928 0b3e 6142 77bc
00000260: 516c fb3d 740b 443e 368f 2c3e 1073 08be
00000270: d10e d2bd f52f 313d 4aad 00be d62b dc3d
00000280: 3840 b8bd 57e3 cfbd a9e5 89bd 35ae 88bd
00000290: 031f 163e f7d0 62bd 877a 50bb 47ee 383e
000002a0: 8558 c5bd 4cb2 1d3a 34b9 5b3d 3515 693d
000002b0: be0c 623d f253 c8bd 5b7a 34bd 9521 8cbd
000002c0: 3d47 983d e044 bcbd 780f 823d 26f5 d9bd
000002d0: 7157 06be 985d fabd 0e50 5e3d f64c d23d
000002e0: bfa5 4abe 8358 21bd fc9e 7c3d 3d73 1f3e
000002f0: d613 bcba 5d93 3cbd e41b c9bd 37f2 e3bd
00000300: 33ba ebbc c671 21bc 5262 88bc 5d00 0e3e
00000310: d7d9 f83d 1a1e 87be aaaf 13be 9a5e b6bd
00000320: 4d1d 15be c1e1 723d d046 07be 5715 a83d
00000330: 4dc0 983e 0855 a33c bc2f b0bc c26d 63be
00000340: 5c92 ebbb 3f83 df3d f340 363e e502 a03d
00000350: 7953 bebd bb25 26be 5638 95be 323e 5bbd
00000360: 600f 4bbe e46b b3bc 1d28 a83d a5bd c3bd
00000370: d0d7 8dbb 847e d2bc a440 d13d 61bd 00be
00000380: 4897 07bc 31e5 10bd 429e e9bd 5419 c93a
00000390: 9d7b 243d 7f9f db3c 085a 2f3e a481 01be
000003a0: ea69 11be 071e e73d 9207 d5bd e046 1f3c
000003b0: 2fa6 013e c3ad 1bbd a80c 183d e235 26bb
000003c0: 5c34 91bd c00a 9abd d021 abbc b158 1ebd
000003d0: 2365 223e 0fa1 d93b 1825 7d3c faa1 38be
000003e0: 818c df3a 1df8 2a3e 1c0f e5bd 9b62 bd3d
000003f0: c4a2 ef3d a382 d3bd 2155 29bc 4652 5bbd
0.30979067 0.22390449 0.07519913 0.1722704 -0.17128535 -0.017022518 0.10197431 -0.26268056
0.06392617 -0.020101769 0.24973106 0.13981524 0.14871553 0.02771023 -0.024597125 -0.17763308
0.26463336 -0.12872134 0.076712154 0.16508798 -0.11317713 -0.031204946 0.15965906 -0.12019474
0.060863916 0.037562486 0.013095821 -0.22606674 -0.21862702 -0.13076986 -0.26086068 0.12616396
-0.16341767 -0.09351421 -0.121653005 -0.11337546 0.17100886 -0.07627886 0.18962216 0.0954482
-0.09786123 -0.155646 -0.068558455 -0.06600966 0.290373 0.0020838787 -0.104290016 0.13808902
0.08197955 -0.17889145 0.1509708 0.08729497 -0.16152616 -0.32003316 -0.19439143 0.21888757
-0.013566818 -0.04686207 0.10792084 0.21961346 -0.19534157 0.005277244 0.2092364 0.5302319
-0.027288953 -0.2298876 0.20783149 0.16171211 0.06800167 -0.03772315 -0.2262341 0.009561861
0.050187692 0.015243113 -0.059302963 -0.0561401 0.21993971 -0.089938134 -0.043420758 -0.11875253
0.21690558 0.201515 -0.09502309 -0.033058565 -0.20285039 -0.120292865 -0.018785557 0.11421924
-0.06482342 0.10150805 0.054693162 -0.033055477 0.09115001 -0.36609098 0.080928765 -0.08437765
-0.149808 0.05817031 -0.09472482 -0.0065854783 0.0025737055 0.030403784 0.13903195 0.08777742
-0.14876807 0.19256046 0.022502698 -0.16752413 0.07283117 -0.23698774 -0.041156683 -0.22018172
0.0356154 0.25147608 -0.1560598 -0.07946325 0.1343468 0.01831982 0.0020443785 -0.062043253
0.1862254 0.076237164 -0.12446332 0.053478904 0.3090409 -0.05032498 -0.026811142 0.05437065
0.096280515 0.09527818 -0.14274672 0.060860686 -0.052224375 0.07137116 -0.01415109 -0.12015194
-0.071250916 -0.029107176 0.14966324 0.029423784 0.13383049 0.067370184 -0.080442145 0.16659534
0.012567204 0.03777681 0.19737324 0.08985612 0.0005737909 -0.14184165 0.13589586 -0.01509151
0.12276519 0.19144994 0.16851506 -0.13325143 -0.10256732 0.043258626 -0.12566105 0.107505485
-0.08996624 -0.101507835 -0.06733257 -0.06673852 0.14660268 -0.055375066 -0.0031811313 0.18059646
-0.096360244 0.0006015643 0.05364342 0.05690499 0.055187933 -0.09781636 -0.044062 -0.06842343
0.074354626 -0.09192824 0.06350607 -0.106424615 -0.13119294 -0.12224883 0.054275565 0.102685854
-0.1978979 -0.039391052 0.061675057 0.15571304 -0.0014349173 -0.046038974 -0.09819773 -0.11130183
-0.02877531 -0.009853786 -0.016648445 0.13867326 0.12150925 -0.26390153 -0.1442248 -0.089047626
-0.14561959 0.059297327 -0.13210607 0.08207195 0.29834214 0.019938007 -0.021507137 -0.22209838
-0.0071890783 0.10913705 0.17798214 0.07813052 -0.09293265 -0.1622533 -0.29144543 -0.05352611
-0.19830084 -0.021902032 0.08210776 -0.09557656 -0.0043287054 -0.025695093 0.10217407 -0.12572242
-0.008275814 -0.035374824 -0.114071384 0.0015342631 0.04015695 0.026809452 0.17124188 -0.1264711
-0.1420056 0.11285024 -0.104018345 0.009721488 0.1266105 -0.03800751 0.037121445 -0.0025361707
-0.07090065 -0.07521582 -0.020890146 -0.0386588 0.15858893 0.006641514 0.015450738 -0.18030539
0.0017055423 0.1669621 -0.111845225 0.09247323 0.11700967 -0.10327651 -0.010335238 -0.05354526

onnx::LSTM_200 f4 [1, 1024]
00000000: cc56 2b3e a772 6bbb 1ddb c53d 5253 883d
00000010: d1bf 5b3d 7e77 69bd 33f6 d0bc 37d9 11be
00000020: 41d1 013e 755e 1c3d 0148 923d addc cf3b
00000030: b5c6 153e 5a3e 113d 4629 133e b9a7 3cbe
00000040: dc55 a0bd 01f4 133d 4990 25bd 4d32 9b3d
00000050: bad3 efbd ab78 15be d3d6 963b f251 ac3c
00000060: 900a b9bd 3d21 24be 84bc 3f3d 7114 8b3c
00000070: b7fe febd daed 323d 506d 0e3e 3d37 5dbc
00000080: 2523 03be 6366 21bd a5a2 cb3d 6b9c 25be
00000090: 2cae e73d fd9f 283b 5825 4d3d 32bc f33d
000000a0: f85d 483d 4b70 75bd d50e fb3c 8b9e 50bc
000000b0: 54cb 5cbd 2ed0 4f3e b53f 82bd ea27 d0bd
000000c0: f4e9 6c3c 2d0c ef3d 7328 95ba 3d10 e4bd
000000d0: 4a32 723d c322 d33d db8b 423e 6df8 fa3a
000000e0: defd a4bd a667 3f3e e6fa 12bd 115f e33d
000000f0: 4743 debd e99e 563d edfd 843d 8e09 9b3d
00000100: a604 17be eec6 e4bb f9e0 debd bb0a 0a3d
00000110: 71a1 90bd 1e2f 92bd 14c3 63bc 3df7 aa3d
00000120: 060f 98bb 6a16 933d ad0e f5bc 8cbb d23d
00000130: 709b 25be 723f eb3d ddf7 98bd 3b75 473d
00000140: fc82 cb3c 20c5 fe3d 2d61 7dbe 0630 de3d
00000150: abe0 ab3d 852b 78bd df29 03bc 1837 70bd
00000160: 1273 5b3d b5c7 df3d 7ba6 273e 1af8 243d
00000170: 12d6 f03d 6839 2e3e 8c9f c73b 422d 07bc
00000180: 2545 13be 1aaf 57bd 9596 a9bc b640 65bd
00000190: 30a6 b83d ed48 dbbd 9e1f 9bbc 583d 6f3d
000001a0: e6bd d1bc b3ad ea3d f5bf 12bd 9376 17bd
000001b0: b017 d3bd 3973 d83d 152e e63c febf fb3d
000001c0: f04b 123d 7d1e e23c ff05 9f3d 8124 9fbd
000001d0: 0c92 f0bc 605e 94bd 95fe 983c fc7b 82bd
000001e0: b7ad 6e3d 7500 09be e1cb 3cbe 2397 193e
000001f0: 6321 c2bc 87b9 0d3e 20af 7fbc 65c8 f13d
00000200: e800 e83d 19c3 723c c2de b43d 49ad 1ebb
00000210: 6279 103d 3861 893b 3beb 013b 776b 0dbe
00000220: 28c7 303e ffb1 01bb 7d32 0e3d 62ea 043c
00000230: 7ed8 253e 7638 0d3d e1f5 e33d c23c d5bd
00000240: 66b4 46bd 528f 883d 792a cbbd 914b 4fbd
00000250: 1ed1 15be 4473 f4bd 1d39 e93d 86e1 643d
00000260: 7657 ea3c b5bf e2bd d33c d73d b378 37bd
00000270: ccb2 05be e640 103d 8a14 853c 335b d93b
00000280: 15fe f2bc f072 a5bd db8a 883c bb7d 8cbd
00000290: 0bf5 543e 53f8 c13d 099c debc 26a9 873e
000002a0: 7aae c43d 4917 023d bafa 98bd d2c6 943d
000002b0: 1cc5 0dbc b276 d43d a429 243d cd29 ffbc
000002c0: f55c 05be 8285 013e edd3 393d 67c4 5abd
000002d0: 5a20 c53d 113c f13d 69d4 513d fff4 61bd
000002e0: 3f72 84bd 205f 4f3e 2318 babb ce5a 803d
000002f0: cca9 34bd d9b5 153e dc8d e73c bef6 483e
00000300: b4ce e4bc 6ed5 89bd c269 79bc deba cd3d
00000310: 6729 10bd 2639 f13b 6a3d 8f3d 279d 6bbb
00000320: e9a6 d53d cd18 73bd f2e8 2cbe 8615 b93d
00000330: d9b6 8c3d 6a4a 1bbc 7607 e5bd ce41 b13d
00000340: 518d 8b3d 2a3f 083e 9f2d 07be 81d6 b8bc
00000350: f3f0 003e b454 28be 4093 ca3d d72d b83d
00000360: da16 a73b 80f4 01bd 2c2c 353e 101c 3abd
00000370: ef62 5b3d 3c88 383d a6f7 fcbd 0103 4d3d
00000380: 017d b0bd 54ec 8ebc 7ea4 a8bd 067b 923a
00000390: f6cc 263c 7535 8ebd 4870 d73d d0f1 a93d
000003a0: d151 4cbc 93bb 803d 44cb e53b 962e dbbd
000003b0: a127 1b3d 83a8 4b3d c9e0 533d d385 e93d
000003c0: d7a5 8f3d 8669 98bd 459f 8c3d 20ac 71bd
000003d0: ca89 b73c 597f 3a3e 269d 8b3c 30b1 efba
000003e0: 5e2e 1abd a97f a2bd 012a 8abd fb9b 653e
000003f0: 9bfd 15bd 20b7 7a3e b5b4 d4bc 09a7 d9bb
0.16732329 -0.0035926492 0.09660933 0.06656517 0.053649727 -0.056998722 -0.025508022 -0.14243017
0.1267748 0.03817602 0.0714264 0.0063434453 0.14626582 0.035459854 0.14371213 -0.18423356
-0.078288764 0.036121372 -0.040420804 0.075779535 -0.117103055 -0.14596812 0.0046032458 0.021035168
-0.09035218 -0.16028304 0.046810642 0.01697752 -0.12450927 0.043683864 0.13908887 -0.013501939
-0.12806375 -0.039404284 0.09943131 -0.1617295 0.113125175 0.0025730126 0.050084442 0.1190113
0.04891774 -0.059921544 0.03064672 -0.012733112 -0.053904846 0.20294258 -0.063598074 -0.10163863
0.014460076 0.11672244 -0.0011379853 -0.1113591 0.05912999 0.10309365 0.18998663 0.0019147523
-0.08056234 0.18691882 -0.035883807 0.11102117 -0.10852676 0.052397642 0.06493745 0.07570182
-0.14747867 -0.006981722 -0.10882754 0.03370164 -0.070620425 -0.07137893 -0.013901491 0.08347938
-0.004640463 0.071820095 -0.029914225 0.10289678 -0.16172576 0.114867106 -0.07469151 0.048695784
0.024842732 0.12439942 -0.24744101 0.108490035 0.083924614 -0.06058838 -0.008005588 -0.05864629
0.053576536 0.10926763 0.16372101 0.04027567 0.11759581 0.17014086 0.0060920175 -0.008250536
-0.14381845 -0.052657224 -0.020701686 -0.055969916 0.09016073 -0.10707269 -0.018935975 0.05840811
-0.025603246 0.11458912 -0.035827596 -0.036978316 -0.103072524 0.10568852 0.028098145 0.12292479
0.03571695 0.027602429 0.077648155 -0.077706344 -0.029366516 -0.07244563 0.018676082 -0.063713044
0.058271136 -0.1337908 -0.18437149 0.1499906 -0.02369756 0.13840304 -0.015605718 0.118058
0.11328298 0.014817023 0.0883155 -0.0024212173 0.03527201 0.0041924976 0.0019824046 -0.13810526
0.17263472 -0.0019789932 0.034716118 0.008112522 0.16195866 0.034477673 0.11130882 -0.10411979
-0.048511885 0.06667961 -0.099202104 -0.050609175 -0.14630553 -0.11936048 0.113878466 0.05587914
0.028606158 -0.110717215 0.10509648 -0.044792842 -0.13056487 0.035218142 0.016245145 0.0066331862
-0.029662171 -0.08078563 0.016667774 -0.06859919 0.20796601 0.09471192 -0.027174013 0.26496238
0.09603591 0.031760488 -0.07469697 0.072644845 -0.008652952 0.10374202 0.040078774 -0.031147862
-0.13023742 0.12648585 0.045368124 -0.05340996 0.09625311 0.11779035 0.05122796 -0.055165287
-0.06467103 0.20251131 -0.005679147 0.062673196 -0.044107243 0.1462015 0.028265886 0.19625375
-0.027930595 -0.067301616 -0.0152229685 0.10045408 -0.035195734 0.007361549 0.06994136 -0.0035951824
0.10432226 -0.059349824 -0.16885737 0.090373084 0.06870813 -0.009478191 -0.11183064 0.086551294
0.06814063 0.13305345 -0.13200997 -0.022563221 0.12591915 -0.16438562 0.09891367 0.08993118
0.0050991597 -0.031727314 0.17692631 -0.04543692 0.053561147 0.0450518 -0.12351923 0.050051693
-0.086175926 -0.017446674 -0.082344994 0.001117558 0.010180702 -0.0694379 0.10519463 0.08298075
-0.012470678 0.06285777 0.0070127565 -0.10702245 0.03787959 0.049721252 0.051728044 0.11402478
0.07014053 -0.07442002 0.06866316 -0.05900204 0.02240457 0.18212642 0.017042708 -0.0018287059
-0.037641875 -0.079345055 -0.06746293 0.22422783 -0.03661881 0.24483919 -0.025965074 -0.0066422266

onnx::LSTM_218 f4 [1, 512, 128]
00000000: 5a03 1fbc 14d1 f6bd 0602 233e 10ab 213d
00000010: 0ed3 b1bd 79b9 b83c a18a c33c 89d3 a63c
00000020: 0b39 603e a440 74bd ffab 2abd 28b8 eabd
00000030: f6bf 853e 0e29 10bc a73a 3b3d 6c60 1a3e
00000040: 247a 49be b57e 5f3d 77b5 cfbd fef5 6c3d
00000050: 86cb 083e c947 203e 6ee0 30bd 3076 db3c
00000060: f70a 84bd 6b0c 8fbd 80a0 1ebd 18ae 8d3e
00000070: 2502 34be f708 4ebe 6092 0d3b fd34 3d3e
00000080: 1540 283e 0adf 1a3d ee70 f33d 53e9 573e
00000090: 2c26 683d 09ac a93d f58d 44be 2f19 1e3e
000000a0: c377 943b 2f13 eb3d 4452 e23c 98bf 00be
000000b0: 7030 483e ca38 9abd 9236 4e3e 768a 0f3e
000000c0: 45a6 993c 4564 55bd da76 0c3d b596 023d
000000d0: d176 bebd 2349 fabc e6b2 ad3d d78e babd
000000e0: 3439 363e f0b9 373d 69f9 0f3d b064 38bd
000000f0: 0f7f b63a f631 273d 3ffb ee3d 2d05 1ebe
00000100: 2c58 eebc 1df8 ae3d b79b 62be 5419 30be
00000110: 29e6 10be b32b 9c3e ca7c 293d 91ea 86be
00000120: 04b6 3f3c 12e9 78bd 209b 98bd 80aa ed3d
00000130: 522e af3d 9a54 8a3e ac55 38be d23c d3bd
00000140: 6853 2abd 9f2a a73d 1d04 80be d0ba 133d
00000150: ab01 2ebc c138 9e3d 50b8 0ebe 5410 b63d
00000160: d9dc 28bd 30de 953c 67ad bb3d 300f 97bc
00000170: 4fe7 02be 2422 1ebe c0ae 2d3c 28ce c0bd
00000180: 4c26 c83c 2c45 febd 2f70 dd3d 910d 2a3e
00000190: fe70 d2bd 67f7 eb3d 9b3e 7ebe 3006 ee3d
000001a0: 6722 3d3e 916c b4bc 8e93 1f3e 9ad2 713d
000001b0: 8140 13bc 896b 2b3e b5e8 503d d763 183e
000001c0: 6206 25be d424 1cbe 9a77 6e3d 35c1 88bb
000001d0: 51c6 08be 19f3 d23c 1198 3c3e 697e aa3d
000001e0: b0a0 10bc e9f7 acbd 04e8 f43c 3c53 7c3d
000001f0: c9ab f9bd 6a1d 68bd 7799 d1bb 50ff 3dbe
00000200: 12ae 823e 27ab 213d f3a3 36be 2a1d 493e
00000210: 633c a1be c14e 48be fe5e bb3e d04b 0fbd
00000220: f9b9 98be 213f f9bc a10a f83d 6835 8f3e
00000230: 3a72 693e a636 2a3e 329a 45bd b42c b7be
00000240: 4623 953e 6291 b7bd c5f4 c13d 5a4b 343e
00000250: 7d0c 61be 6e08 9e3a e39e 893d 44bd 83be
00000260: be44 073e 5ef0 c03d adca 423e 1a27 1abe
00000270: 661e 08be 4609 9abe 4c20 863c 1d48 393d
00000280: f000 32be 515f 913d 694c 0bbe 5480 bbbd
00000290: 9730 b53e 8077 ebbd fa8e 833e 1a71 37be
000002a0: 7e39 543d d5db b63c 18ad 9a3e 1ee6 5bbe
000002b0: 9554 e8bb 62d3 8fbe 0ab2 193c b67c b43d
000002c0: ec50 693d 066e cbbd 4ca2 953e 05e1 5dbe
000002d0: d86d 613d 6c18 3ebe a82e ce3a e483 bf3d
000002e0: f488 d23d 3edd 16be 4532 51bb d573 bc3c
000002f0: 58b6 84bd 7af4 4abe 85b2 a5be 7c9c a63e
00000300: de6c a23d c1aa d5bd b0bf 083e de66 2b3d
00000310: 82de 7a3d ed2c a4bc 7b1d 8fbe 7b39 c03d
00000320: 6010 64bd 745d 03be 7275 83be abc0 98be
00000330: a374 6d3e 1fd0 763c 763c 023e fc25 97be
00000340: 4829 ee3e be98 ccbc 26be 75bb a641 febd
00000350: 790a ab3c 101d 01bd ac99 69be 2c75 983e
00000360: 99ee 703c ba95 713e ed96 993e c3c5 17be
00000370: f514 7abe d26a 8cbb 5579 e83c c6d6 03bd
00000380: c08a 37be 6680 00be cd6f 8b3d a3b1 4f3d
00000390: 5a41 3fbe 28dc 82be bf84 603e 80f6 30be
000003a0: 2785 c1be a12a 963e c7aa 0fbe 0fcd 2abe
000003b0: 70c1 243e 27b1 69be b8b7 82be 936f a2be
000003c0: 4753 0f3e 7928 4a3d c8f7 debd 8cd3 233e
000003d0: 1196 293e 3279 87be 904f bcbe a3c3 1f3c
000003e0: f446 943e 7444 993e 210e 253e 029a 01be
000003f0: b8ce a03d 1dd2 acbe f44b a43d 0b4a 903e
-0.009705389 -0.12051597 0.1591874 0.03946978 -0.086828336 0.022549378 0.023869814 0.02036454
0.2189676 -0.05963196 -0.041667935 -0.11460906 0.26123017 -0.008798851 0.045710232 0.15075845
-0.19675499 0.054564197 -0.101420335 0.057851784 0.13358888 0.15652384 -0.043182783 0.026789755
-0.06447404 -0.069847904 -0.038727283 0.27671885 -0.17578943 -0.20120607 0.002160214 0.18477245
0.16430695 0.037810363 0.11886774 0.210851 0.05667703 0.08284766 -0.19194777 0.15439294
0.0045308783 0.11478268 0.027627118 -0.12573087 0.19549727 -0.07530363 0.20138004 0.14017662
0.018756041 -0.052097578 0.034293033 0.031882007 -0.09300006 -0.030552452 0.08481388 -0.09109276
0.17795259 0.04485506 0.035149965 -0.045017898 0.0013923364 0.04081913 0.11669015 -0.15431662
-0.029094778 0.085434176 -0.22129713 -0.17197162 -0.14150299 0.3050209 0.041378774 -0.26350835
0.011701111 -0.06076915 -0.07451463 0.11604786 0.08553757 0.2701767 -0.18001431 -0.10314335
-0.04158345 0.08162426 -0.25003138 0.03606683 -0.010620515 0.07725669 -0.13937497 0.08889833
-0.04122624 0.018294424 0.09163933 -0.01843986 -0.1278355 -0.15442711 0.010600746 -0.09414321
0.024432324 -0.12415537 0.10812413 0.16606738 -0.10275458 0.115217976 -0.2482857 0.11622274
0.18470155 -0.022024425 0.15583631 0.059038736 -0.008987547 0.1674024 0.051003177 0.14881836
-0.16115716 -0.15248424 0.05821953 -0.0041734227 -0.13356902 0.025750684 0.18417384 0.08324892
-0.008827373 -0.084457226 0.02989579 0.061602816 -0.121909685 -0.056668676 -0.0063964683 -0.18554425
0.2552343 0.039469864 -0.17835979 0.19640031 -0.31491384 -0.19561292 0.3659591 -0.03498441
-0.29829386 -0.03042561 0.12111402 0.27970433 0.2279748 0.16622409 -0.048242755 -0.35776293
0.29128474 -0.089632764 0.09470514 0.1760687 -0.2197742 0.0012056956 0.06719758 -0.25730336
0.13209817 0.094208464 0.19022627 -0.15053979 -0.13292846 -0.300852 0.016372822 0.04523479
-0.1738317 0.07098258 -0.13603367 -0.09155336 0.35388634 -0.11497402 0.2569502 -0.17914239
0.05181264 0.022321621 0.30210185 -0.21474501 -0.007090161 -0.2809096 0.009380827 0.08812849
0.05696194 -0.09933095 0.29225385 -0.2166787 0.055036396 -0.18564004 0.0015730457 0.09351328
0.10280028 -0.14732835 -0.0031920832 0.023004452 -0.06480092 -0.19819823 -0.32362762 0.32541263
0.07930921 -0.10432959 0.13354373 0.04184615 0.061247356 -0.020040954 -0.2795218 0.093859635
-0.05567968 -0.12828618 -0.2567554 -0.29834494 0.23189025 0.015064268 0.12718377 -0.29521167
0.4651587 -0.024975177 -0.003749737 -0.12414865 0.020879017 -0.031521857 -0.22812527 0.29776895
0.014705324 0.23592272 0.2999796 -0.14821534 -0.24422057 -0.004285195 0.028378168 -0.032187246
-0.17924023 -0.1254898 0.06808434 0.050706517 -0.18677273 -0.2555859 0.21925639 -0.17281532
-0.377969 0.29329398 -0.1402999 -0.16679786 0.16089416 -0.22821485 -0.2553079 -0.3172575
0.13996612 0.049355004 -0.10887104 0.15998667 0.16561152 -0.26459652 -0.3677945 0.009751233
0.28960383 0.29935038 0.16118671 -0.12656406 0.078519285 -0.33754054 0.080222994 0.2818149

onnx::LSTM_219 f4 [1, 512, 128]
00000000: 6b85 783e b265 e8bd 91e1 90bd ad69 3f3c
00000010: 62bc 90be 8c15 15be 75fe cd3d 2e6a b0bd
00000020: c0c3 61bc 6a78 2b3e f228 11be 84ca a8bd
00000030: 5502 72bd e176 05bd b632 edbd 1ea9 483e
00000040: 6fd3 98bd c1ec 573d d6ff 6a3e 1078 f0bd
00000050: f455 1f3d 78eb 153e f472 053d d824 223e
00000060: bd7e 10bd ab42 993d 6b6c 81bd 149c 393e
00000070: 1705 fe3c fccc 043d 2b94 aabd 1322 813d
00000080: 3022 e33d 058b 23be 26cc 4c3e 3726 ba3d
00000090: 74f2 903d 35f8 f6bd 8957 1fbd 7804 4e3d
000000a0: e97b 8ebb 0448 503d 3957 d83c fbbf 8fbd
000000b0: 9448 1ebe 8e61 db3c 96bb 4fbe 58cb 6bbe
000000c0: 04e9 a6bc f015 67bd 5cd0 bebc b90c a73e
000000d0: 1f91 873e 930f 9dbd faf1 3cbe 3975 963d
000000e0: 60a9 74bd d6fb 953d e60b 3bbe 5dd0 293e
000000f0: ba65 ca3d 31eb 743d d052 38be a84e a83d
00000100: 8a52 a1bd 60aa 4abc eb2d 043d a684 24be
00000110: a27f 0f3d e892 713d c123 5b3e e6e1 e3bd
00000120: 1121 573d 6914 a0bd f1d1 16bd 72ed 6a3e
00000130: 84e4 a23d d134 073e 732f cbbe 0f5f 173e
00000140: 661e 1d3d 9b5e 1c3d 4879 9fbd c709 6cbe
00000150: 71b5 bc3d f0d9 fb3d 4cd4 c43d 4560 4b3d
00000160: 1a67 23bd 1e5e 7ebd f547 cf3c ad79 493e
00000170: 1c77 37be 2317 693d 56c5 06be 3caf da3d
00000180: a310 22bd e486 693e 128c 543e 4f82 3f3e
00000190: 2550 34be 0591 cf3d 8638 35be b022 b5bc
000001a0: 2657 243d 9f5e 8b3d c32f 10be 2c84 9cbd
000001b0: addf 95bd 0fe0 9d3e b203 013e ac8c 80be
000001c0: 734d 8f3c 6c54 973d 7f03 223e 4318 2ebc
000001d0: 9ae0 e4bd 22cb 553e 1dd6 14be b5a2 94be
000001e0: 3424 a63d 28ce 633d 3f88 e03b 9b93 adbd
000001f0: 0114 a9bd bef6 68bd 8d0c 43be 7418 ad3d
00000200: cba4 4ebe e29e 7cbd 87c9 2abd 6f84 fbbc
00000210: 1ea0 033d 6f3b ca3d 2a2d 3bba 32be 903d
00000220: 1181 acbd 2d83 5ebd e551 123e 7bee 00be
00000230: f669 5a3e 8646 c03d 7bb7 c93d 1af3 92bd
00000240: 4f85 acbc 3c97 e0bd 7a95 06ba f53b 46bd
00000250: 0012 55be 3504 cabd 6778 b4bc 2df3 7cbc
00000260: 31a9 5bbc dbe3 df3d 1791 70bd 52a3 d2bd
00000270: f17b cb3c 6b72 ae3d 17bc 0b3e 7e5f dabc
00000280: 28f9 953e 8cc1 d7bd 3999 bbbd 2b4f eabc
00000290: 83d7 a63d 2cc6 01be b5b2 373d 5a11 b8bd
000002a0: f8ef b3bc 5356 ca3c f653 bbbd f3ab 91bb
000002b0: 9ac1 403e 4dc4 0c3e 2638 40bd d870 92bd
000002c0: 01a1 e53d a513 22be 5fb4 5b3d ba01 4fbe
000002d0: 4b21 833d a042 b73d 9c07 11be 8437 24be
000002e0: af21 873c 4fdb 5ebc 873a fe3c 6665 b7bd
000002f0: e793 333e 7fef 4f3e dc64 003e fc0a 443a
00000300: f532 95bd 3dc7 173e a8a5 4d3d af6f 1bbe
00000310: fd5e 25bd 2867 14be 4c18 aabc 4525 a2bc
00000320: 5ea8 b5bd 53dd 8d3d ac21 d43c 0498 083e
00000330: d7e8 883d f442 393c 6af5 713b b92b b83d
00000340: b1f8 a13d 25ee de3c 9270 fdbd e15e 89bd
00000350: 8292 30be ef08 e8bd 94e4 2bbe 87a5 043e
00000360: 6154 103e 65c8 4e3d 683a 133e dd9d 07be
00000370: 426b 74bd 2487 f9bd 5a5b 01bc 0fb6 29be
00000380: 14a2 123e 6414 543d e5fd 88bb c8d3 c1bd
00000390: 2807 9fbe d16e fd3d a068 03be 3021 80bb
000003a0: adaf 143e 4f03 cdbd a7b2 aa3d 6ad0 323d
000003b0: 7f2b 07bd 5f35 f4bc b680 193b 3742 be3c
000003c0: e801 d23c 40b4 b63e 44c6 a7bd 1df2 99bd
000003d0: 8f9e b23d 2929 1fbe 6f32 a4bc 64eb a83d
000003e0: 3e61 06bc 5f1f 793e 4d32 4ebe 801f 843d
000003f0: 6dda 9ebc bbbb f23d d8bc 92bd a95f 0a3e
0.24269645 -0.11347522 -0.070742734 0.01168291 -0.28268725 -0.14559 0.100582995 -0.08614002
-0.013779581 0.16745153 -0.14175776 -0.08241752 -0.059084255 -0.032584075 -0.11581938 0.19595763
-0.07462203 0.05271602 0.22949156 -0.1174165 0.03890033 0.14640605 0.03258033 0.15834367
-0.035277117 0.07483419 -0.06319507 0.18125945 0.031008286 0.03242205 -0.08329042 0.06305327
0.11090505 -0.15971 0.19999751 0.0908932 0.07077494 -0.120590605 -0.03890184 0.05029723
-0.0043482673 0.05084993 0.026408779 -0.07019039 -0.15457374 0.026779916 -0.20286402 -0.23026788
-0.020374782 -0.056417406 -0.023292713 0.32626894 0.26477906 -0.07668986 -0.18451682 0.07346577
-0.05973184 0.073234245 -0.18266258 0.1658339 0.09882684 0.05979461 -0.1800034 0.082181275
-0.07877071 -0.012369722 0.032270353 -0.16066226 0.03503383 0.05897799 0.21400358 -0.11127071
0.05252177 -0.07816393 -0.03682131 0.2294214 0.07953742 0.13203742 -0.39684638 0.14782356
0.03835907 0.03817616 -0.077868044 -0.23050605 0.09214295 0.12297428 0.09610805 0.049652357
-0.039893247 -0.062101476 0.025302866 0.19675322 -0.1791653 0.05690683 -0.13161215 0.106779546
-0.039566647 0.22805363 0.20756558 0.18702053 -0.17608698 0.10135082 -0.17697343 -0.022111267
0.040122174 0.06805157 -0.1408072 -0.07642397 -0.073180534 0.30835006 0.12599066 -0.25107324
0.017492985 0.07389149 0.15821646 -0.010625902 -0.11175652 0.2087827 -0.14534803 -0.29030386
0.08112374 0.055616528 0.0068521793 -0.08475419 -0.082557686 -0.056875937 -0.19047756 0.0845193
-0.20180051 -0.06167496 -0.041696098 -0.030702798 0.03213512 0.09874617 -0.0007140214 0.07067527
-0.08423055 -0.054324318 0.14289053 -0.12590973 0.21329483 0.09388451 0.09849449 -0.07175274
-0.02105966 -0.10966346 -0.0005133968 -0.048397023 -0.20807648 -0.09864084 -0.022030069 -0.015438837
-0.013407038 0.10932132 -0.05873212 -0.10285057 0.024839373 0.08517917 0.1364597 -0.026656862
0.29291654 -0.10534963 -0.09160084 -0.028602203 0.08146574 -0.12673253 0.044848163 -0.089876845
-0.021965012 0.024699366 -0.09146874 -0.004445547 0.18823853 0.13746758 -0.046928547 -0.071504295
0.1121235 -0.15827806 0.053638812 -0.20215502 0.064028345 0.089482546 -0.14163059 -0.16036803
0.016495554 -0.013602092 0.031033767 -0.08954887 0.17536889 0.20306204 0.12538475 0.00074784434
-0.0728511 0.14822097 0.05020681 -0.15179323 -0.04037379 -0.14492476 -0.020763539 -0.019793162
-0.08870004 0.0692698 0.025894962 0.1333924 0.06685036 0.011307467 0.003691996 0.089927144
0.07908762 0.027213166 -0.12374987 -0.0670755 -0.17243388 -0.11329829 -0.16786414 0.12953769
0.14094688 0.05048408 0.14377749 -0.13243814 -0.0596726 -0.12183979 -0.007895315 -0.16573356
0.1431964 0.05177726 -0.004180657 -0.09464222 -0.31060147 0.12374652 -0.1283288 -0.0039102063
0.1452014 -0.10010397 0.083348565 0.04365579 -0.033000465 -0.029810606 0.0023422665 0.023224933
0.025635675 0.35684395 -0.08192113 -0.075168826 0.08721649 -0.15543045 -0.02004358 0.08248022
-0.008201895 0.24328373 -0.20136376 0.06451321 -0.019391263 0.11852213 -0.07164925 0.13513054

onnx::LSTM_220 f4 [1, 1024]
00000000: c5af 863d 75b2 08bd 430a 86be 9711 b4bc
00000010: 0087 d9bc 93d5 2abe a0ea 21be aafd 843c
00000020: e92a 8bbd 5c8c d73d 0105 68be 4bea 49be
00000030: 73d3 3abd b7ed 8ebe 404d 7bbd 2133 debd
00000040: c07f d1bc aeaf 89be e59b a43d 252d 4dbd
00000050: e92e c8bd 977d 8f3d 9354 54bd 2ac5 30be
00000060: 47ba 10be 4b56 06bd f467 8cbd ecfa 82bd
00000070: f97b b6bd 6169 693d 3e9d 29bd 90c3 0dba
00000080: f495 83bd b51d 9ebd 78e5 01be f8ec 85be
00000090: 7428 37be ce4f c43c ea45 dbbd 925e cebd
000000a0: 6c0a 10be 6322 403b 3cd9 503c f32c 0bbe
000000b0: ea6d 2cbd ac4f 0c3b de5c 27be 9117 723c
000000c0: cb4d 5ebd bd6c e1bd 3427 88be 3154 42be
000000d0: 1e60 8bbd 0c35 a5bc 83ce f13c e29d 8ebd
000000e0: b389 943d 5a18 01be 59a2 913c a6b7 fbbd
000000f0: 6237 3abe 389e 0cbe e872 0cbe 9e77 3ebd
00000100: f190 c63c eb73 22be 7161 c9bd 972d babd
00000110: f6a0 43bd 463e c5bd cce5 64be 9b7b f8bc
00000120: 73eb 6dbb 7c35 1cbe 1c27 7bbd fc16 043e
00000130: 9848 40be ddbc d33c 90b3 21be 9684 05bb
00000140: dfb4 3ebe 8ef7 d03d d31e 1dbe b178 27be
00000150: 91ae 0dbe 10f1 ecbd 841a 88bd 2d0f 4b3d
00000160: b0c7 30be 7787 95be 5180 37be 2b96 b63d
00000170: 2924 e5bd d2b3 833c c29f 83bd 22fc 1ebe
00000180: d6cd 66be a47a 56be b06a 43be 928c 23be
00000190: 677d 21be a2f5 64be d020 e9bd 08b8 babc
000001a0: 8799 73bd 0d92 2dbe 8612 b8bd 4bd4 dcbd
000001b0: 4e94 b23a f033 4b3d 0f72 583d 0530 53be
000001c0: 2ddf 96bd 3a0d 3bbd 43b7 3a3c 9cd9 96bd
000001d0: 023e 363d 89c3 72bd 47ea edbd 9563 3abd
000001e0: 990e 4d3d 99a2 b9bd a5c1 35be 7cc5 08bd
000001f0: d0f3 8dbd 3495 7abe 5590 0ebd e25c e8bd
00000200: ac9e 96bd d5cc ccba dfa1 02be 6c25 01bd
00000210: df2b cfbd 163e 14be f97e 0bbe 7915 bbbc
00000220: 2733 98bd fbec 803d b215 f5bd 0b66 8abd
00000230: 7f7e e0bb 4830 b3be 23e2 9b3c d076 45be
00000240: 4bf0 2bbd 94db d9bd 217f c33d edbc cb3c
00000250: 7e53 0fbe b347 043c 744b 84bd 0068 1bbe
00000260: 74e1 afbd 1dab a83d 9975 8c3d 372b 803d
00000270: 3563 15be f04c 703c 84dd 0abe 9df2 e9bd
00000280: e955 b1bd 1ed7 33be b285 2abe caf4 82be
00000290: 5a99 8dbc c4f3 fdbd 9ad7 07be 58a7 8a3d
000002a0: 326c 67be 12a3 953c a208 cebd 860e 15be
000002b0: 96ec 80bd 95e3 ab3d b42d 83be 9730 c5ba
000002c0: 61e2 893c 348f 4fbd d013 52be 3c55 18be
000002d0: 4d5b 5abd 1ff6 18bd 3395 06be d587 23be
000002e0: 425b af3d a71a 19be a84d 12bd c5de 36be
000002f0: c761 bdbd 950a 94bd 831a 6c3c 4715 06be
00000300: e272 4dbd d2f4 a7bd 5560 39be c027 ffbd
00000310: 0571 d4bc 958a 30be 20db d3bd 52ee 6dbe
00000320: 60f9 eb3c 2375 04be c712 d5bd 3a8d ccbc
00000330: 07cd a8be 5530 eabc 5440 aebe 251d 0e3e
00000340: 6f6d d1bd 3f08 4ebc ebd0 5ebe 8958 2cbe
00000350: bb66 093d 2a03 f0bc 1eab 18be 7714 dfbd
00000360: 491b b43c 46b0 9cbe abda 7ebd 0da4 3d3e
00000370: 15bd 80be 3346 cf3a 660a 20be 4a8c 14be
00000380: 0edc 31be 35b5 d1bc 72fc 48bd d9b1 f9bd
00000390: e954 85be dd08 9ebe 2933 4bbe e504 bbbd
000003a0: 85af c2bb a4f4 3dbd b13b 4bbe ef53 5ebe
000003b0: a433 18bd 9f3c 90bd 1d5d fd3c d66f 2cbe
000003c0: 951a e73c e195 43bd f09a ef3c daf6 7bbc
000003d0: 3d6b 6bbd 0cc2 efbd ac84 39be ec5c 37bd
000003e0: 7d60 143e c7f4 25be e053 07bd 8d27 c3bd
000003f0: 1ecf 14be b2a6 83be fa82 c1bd 887d 05bd
0.06576494 -0.033373315 -0.26179704 -0.021981044 -0.02655363 -0.16683035 -0.15812159 0.016234238
-0.06795294 0.10524818 -0.22658159 -0.19718282 -0.04561181 -0.27915737 -0.06135297 -0.10849596
-0.025573611 -0.26891845 0.08037547 -0.05009188 -0.097745724 0.07006376 -0.05183847 -0.17262712
-0.14133559 -0.03279714 -0.06855765 -0.06395516 -0.08910365 0.056985263 -0.041409723 -0.0005407864
-0.06425086 -0.0772051 -0.12685192 -0.26157355 -0.17886525 0.023963835 -0.107066944 -0.100766316
-0.14066476 0.002931737 0.012747105 -0.13591366 -0.04209701 0.0021409793 -0.1634402 0.0147761265
-0.054273408 -0.11007068 -0.2659241 -0.18977429 -0.06805442 -0.020166896 0.029517418 -0.069637075
0.072528265 -0.12606946 0.017777609 -0.122908875 -0.1818519 -0.1373223 -0.13715708 -0.046500795
0.024239035 -0.15864532 -0.098330386 -0.09090727 -0.047760926 -0.09631018 -0.22353286 -0.030332377
-0.0036303669 -0.15254778 -0.061316594 0.12899393 -0.18777692 0.025846893 -0.15791154 -0.0020373217
-0.18623684 0.10203467 -0.1534379 -0.16354634 -0.13836123 -0.115694165 -0.066456825 0.04957502
-0.17263675 -0.29204914 -0.17920043 0.08915361 -0.111885376 0.016076956 -0.06426956 -0.15525869
-0.22539458 -0.20945221 -0.19083667 -0.15971592 -0.15770493 -0.22359326 -0.113832116 -0.022792831
-0.059472587 -0.16950245 -0.08987908 -0.10782679 0.001362452 0.04961008 0.05284315 -0.20623787
-0.07366786 -0.04566691 0.011396232 -0.073657244 0.04449273 -0.059268508 -0.116169505 -0.045505125
0.05006275 -0.09064216 -0.17749651 -0.03339146 -0.06931269 -0.24470979 -0.034805615 -0.11345841
-0.07354483 -0.001562501 -0.12757061 -0.03152983 -0.101157896 -0.14476809 -0.13622655 -0.022837387
-0.074316315 0.062952004 -0.11967029 -0.067577444 -0.006851017 -0.34997773 0.019028729 -0.19283605
-0.041977208 -0.10637584 0.09545732 0.02487036 -0.13996693 0.008073735 -0.06459704 -0.15176392
-0.08587924 0.08235762 0.068583675 0.062582426 -0.14588626 0.014666781 -0.13561064 -0.11423228
-0.08658964 -0.1756253 -0.16652563 -0.25577384 -0.017285038 -0.1240001 -0.13265839 0.067701995
-0.22599867 0.018266235 -0.1006024 -0.14556322 -0.06295125 0.08393017 -0.25620806 -0.0015044388
0.016831579 -0.05067368 -0.2051537 -0.14876264 -0.053309727 -0.037344094 -0.13142852 -0.15969785
0.08562328 -0.14951573 -0.03571859 -0.17858417 -0.09247165 -0.07228581 0.014410618 -0.13094054
-0.05015839 -0.08200993 -0.18103154 -0.124587536 -0.025932798 -0.17240365 -0.10344529 -0.23235443
0.028805435 -0.12935309 -0.10403972 -0.024969686 -0.32968923 -0.0285875 -0.34033453 0.13878305
-0.10225951 -0.012575208 -0.21759383 -0.16830648 0.033545237 -0.029298384 -0.14909026 -0.10892575
0.021985667 -0.30603236 -0.062220257 0.18519612 -0.25144258 0.0015813768 -0.15628967 -0.14506641
-0.173691 -0.025599102 -0.049068876 -0.12192125 -0.26041344 -0.30866137 -0.19843735 -0.09131793
-0.0059413337 -0.046375886 -0.19846989 -0.21711706 -0.037158623 -0.070428126 0.030928189 -0.16839537
0.028210917 -0.047750358 0.029248685 -0.015378678 -0.057475317 -0.117069334 -0.18117017 -0.04476635
0.14489932 -0.16206656 -0.033038974 -0.09529028 -0.14532134 -0.25713116 -0.0944881 -0.03259042
