rock_paper_scissors_model.pth (torch, 503750 bytes, 22 tensors)

lstm1.weight_ih_l0 f4 [512, 2]
0.0006927785 -0.081558 -0.057098955 0.008557964 0.082206964 -0.040459316 0.12915267 0.09391865
-0.15214767 -0.111112595 -0.07621383 -0.11408689 0.066279426 -0.030240918 -0.06052241 0.085078046
-0.04764969 0.066970564 0.0031099902 0.1250176 0.032782428 0.034269247 0.09237697 0.06577167
0.016407797 0.088280775 -0.08187419 -0.13067202 -0.102064386 -0.083998196 -0.09147097 -0.028257605
0.026896091 -0.0027021153 -0.10535457 -0.11363274 0.12485267 0.005531811 0.012484125 -0.14476666
-0.013660558 0.052556537 -0.062058292 -0.110978544 -0.029752616 0.15480295 -0.035856113 0.008575609
-0.023709022 0.0074224775 -0.118656926 -0.16113517 -0.1580056 -0.101782784 -0.08581315 -0.06847678
-0.061664753 -0.02575408 0.015431016 0.07721453 -0.09184429 -0.1678726 0.048154052 0.09287679
0.00089368166 -0.116234034 0.009824635 0.11580093 0.05304215 0.0018098275 -0.020389145 0.034804985
-0.07081274 0.06956843 -0.08406151 -0.1437117 -0.07499614 0.032941733 -0.09255719 0.017125878
-0.04230779 0.017098239 -0.08872161 0.078392856 -0.09458644 -0.1909275 0.1313547 0.10354247
-0.00893115 0.009466121 0.0015314639 -0.16546062 -0.089434125 -0.11641066 0.036660306 0.12228064
0.09546555 -0.17929497 -0.23136835 -0.13193598 0.10482634 0.044265073 0.013469888 -0.054043323
0.07148045 -0.071640484 0.011199442 -0.003919441 -0.074519075 0.06814665 -0.11737002 0.04466345
-0.052800056 0.015174219 0.005068157 0.008937451 0.014553831 0.09301466 -0.051919434 -0.15374386
0.0146724135 -0.0053829732 -0.20298688 -0.17262277 -0.108319126 -0.0016227284 -0.053797796 -0.0314157
-0.045575988 -0.0071919486 0.0020082223 0.122232735 0.18116161 -0.056626733 -0.0027060388 -0.10933103
0.0069448063 -0.1308657 -0.0486538 -0.016560853 -0.067673385 -0.118259616 -0.029138159 -0.012914932
-0.10331062 0.060438726 -0.048295148 -0.011870108 0.020866595 0.0072569083 -0.17259742 -0.037626434
-0.034796324 0.12984025 0.023875084 0.057842433 -0.09305361 -0.018158492 -0.04304312 -0.034477606
-0.067580454 -0.17326528 -0.044929594 0.029511018 -0.2485265 -0.00080015726 -0.08300679 -0.12013733
-0.0773547 -0.012166419 -0.049884338 -0.040984336 0.08214129 0.024864303 0.014813192 0.09051561
-0.013167169 -0.05603804 -0.04986608 -0.052484263 -0.12931482 -0.018318078 0.15632026 0.10687232
0.04515484 -0.00080632785 -0.14697371 0.08465703 0.1079437 0.128775 0.027631497 -0.0065033087
-0.17614812 -0.07024925 0.038491968 0.07230359 0.110955596 -0.059533503 -0.058237463 -0.00042559492
0.021846108 0.026102414 0.036637377 -0.07985672 -0.10954738 -0.038398344 0.077181935 -0.0079991715
-0.10141895 -0.11709853 -0.15675479 0.043426216 0.043326467 -0.11457652 -0.116471045 -0.03337994
-0.13557872 -0.081696056 0.021183323 0.035651594 -0.026544876 0.029865049 0.07546302 -0.034528874
-0.055444345 0.010108216 -0.09580273 -0.008162163 -0.030354856 -0.053895585 0.09214183 0.08040475
0.016205736 -0.07048815 0.020370442 0.13719685 -0.08913504 -0.124399 -0.005366603 0.06402129
-0.029775657 -0.031900343 -0.038844094 0.015282414 0.0002913856 -0.0044565327 -0.026955325 0.0025008875
-0.12386776 0.0023365105 0.0138174025 -0.14467895 -0.103323996 -0.03834126 0.005447024 -0.0052770823
00000000: 949b 353a e107 a7bd 98e0 69bd b436 0c3c
00000010: 205c a83d abb8 25bd 9940 043e 6c58 c03d
00000020: 99cc 1bbe 008f e3bd ff15 9cbd 63a6 e9bd
00000030: 82bd 873d cdbb f7bc 59e6 77bd 663d ae3d
00000040: 522c 43bd dd27 893d fad0 4b3b 9d04 003e
00000050: de46 063d e95d 0c3d 2330 bd3d 4cb3 863d
00000060: a569 863c 8dcc b43d a8ad a7bd e3ce 05be
00000070: 2207 d1bd 3f07 acbd 2255 bbbd 7e7c e7bc
00000080: 3155 dc3c f915 31bb 23c4 d7bd 48b8 e8bd
00000090: c2b2 ff3d 3244 b53b 378a 4c3c b63d 14be
000000a0: 88d0 5fbc 8645 573d d630 7ebd b848 e3bd
000000b0: c2bb f3bc aa84 1e3e dcdd 12bd b680 0c3c
000000c0: 6c39 c2bc 4138 f33b 6702 f3bd 9e00 25be
000000d0: 38cc 21be 7e73 d0bd cebe afbd 8e3d 8cbd
000000e0: 2e94 7cbd 38fa d2bc 5fd2 7c3c a722 9e3d
000000f0: dc18 bcbd cbe6 2bbe 2f3d 453d 3036 be3d
00000100: f645 6a3a 1c0c eebd 82f7 203c 0a29 ed3d
00000110: ba42 593d bc37 ed3a 2307 a7bc ac8f 0e3d
00000120: 4506 91bd e579 8e3d 7128 acbd 2929 13be
00000130: 9497 99bd e9ed 063d a08e bdbd 924b 8c3c
00000140: ef4a 2dbd 9b11 8c3c adb3 b5bd 6f8c a03d
00000150: 89b6 c1bd 8082 43be d981 063e 130e d43d
00000160: f553 12bc ca17 1b3c 67bb c83a 826e 29be
00000170: 3d29 b7bd b668 eebd 1e29 163d 466e fa3d
00000180: 7183 c33d 1a99 37be d3eb 6cbe 3a1a 07be
00000190: 31af d63d 4b4f 353d ceb0 5c3c 885c 5dbd
000001a0: 5864 923d 3fb8 92bd dd7d 373c a76e 80bb
000001b0: 759d 98bd 7990 8b3d b15f f0bd 06f1 363d
000001c0: df44 58bd 4a9d 783c c812 a63b 636e 123c
000001d0: 3173 6e3c 787e be3d 79a9 54bd 086f 1dbe
000001e0: 9064 703c a763 b0bb cbdb 4fbe 06c4 30be
000001f0: 6bd6 ddbd bbb1 d4ba 145b 5cbd c0ad 00bd
00000200: e3ad 3abd 70aa ebbb 619c 033b 2855 fa3d
00000210: 6e82 393e 6ff1 67bd cc57 31bb f2e8 dfbd
00000220: 4291 e33b a801 06be 3549 47bd a0aa 87bc
00000230: 5898 8abd 1932 f2bd 26b3 eebc 2799 53bc
00000240: 8594 d3bd 998e 773d 22d1 45bd d77a 42bc
00000250: 6cf0 aa3c 5ccb ed3b 61bd 30be 2d1e 1abd
00000260: 9786 0ebd d8f4 043e ae95 c33c 30ec 6c3d
00000270: e492 bebd 1ec1 94bc fc4d 30bd 6438 0dbd
00000280: 9f67 8abd 746c 31be 1808 38bd 17c1 f13c
00000290: bb7d 7ebe a5c1 51ba 77ff a9bd 8f0a f6bd
000002a0: 246c 9ebd a955 47bc 8553 4cbd 31df 27bd
000002b0: b139 a83d 39b0 cb3c 08b3 723c 4060 b93d
000002c0: 1cbb 57bc 2588 65bd 6040 4cbd bdf9 56bd
000002d0: 1b6b 04be cb0f 96bc 6b12 203e e0df da3d
000002e0: 48f4 383d bf5f 53ba 4780 16be aa60 ad3d
000002f0: 9611 dd3d 98dd 033e 735b e23c b519 d5bb
00000300: 2c60 34be d7de 8fbd c1a9 1d3d e813 943d
00000310: b03c e33d 67d9 73bd 688a 6ebd 6222 dfb9
00000320: 9cf6 b23c bbd4 d53c 1311 163d ec8b a3bd
00000330: 605a e0bd 9547 1dbd 9011 9e3d f50e 03bc
00000340: bdb4 cfbd 5bd1 efbd 5484 20be b0df 313d
00000350: 1877 313d 18a7 eabd 5f88 eebd 67b9 08bd
00000360: 26d5 0abe 4350 a7bd a688 ad3c 6807 123d
00000370: a474 d9bc 8ca7 f43c 5b8c 9a3d 266e 0dbd
00000380: 9c19 63bd ee9c 253c 3934 c4bd 98ba 05bc
00000390: bfaa f8bc 9ec1 5cbd dbb4 bc3d 3fab a43d
000003a0: e4c1 843c 175c 90bd eadf a63c 557d 0c3e
000003b0: 6f8c b6bd e7c4 febd 54da afbb 981d 833d
000003c0: 14ec f3bc efa9 02bd fc1a 1fbd 1763 7a3c
000003d0: 1dc5 9839 1b08 92bb 6ad1 dcbc eee5 233b
000003e0: 61ae fdbd 2420 193b 6362 623c b826 14be
000003f0: 889b d3bd ba0b 1dbd f37c b23b 60eb acbb

lstm1.weight_hh_l0 f4 [512, 128]
-0.06375151 -0.13418901 0.12095438 -0.10806216 0.105174825 -0.091000244 -0.14875148 -0.12259371
0.16543822 -0.1014354 -0.12795615 -0.051850665 0.074950546 -0.038462706 0.032668505 0.019303415
-0.0156003125 -0.034686793 0.064139575 -0.029003367 -0.0716012 -0.002303075 -0.04000114 0.035091233
-0.01611168 0.12586144 0.0069309557 -0.021739166 -0.06822137 0.024845885 0.024410816 -0.046668
-0.0044837142 -0.0047707553 -0.16469048 0.03193274 -0.056702137 0.08100643 0.12889071 0.09381477
-0.13060115 0.10407894 0.015103673 -0.11634051 -0.01648387 -0.048519414 -0.0028085602 -0.01147978
0.017505066 -0.054795638 -0.041834146 -0.105172195 -0.107810564 -0.049317535 -0.027436817 -0.11304421
0.08003149 0.04435434 0.06766296 0.09908328 0.062412035 0.04670959 0.08721979 0.04436035
-0.05135399 -0.04970156 0.09128338 0.013024503 -0.06213435 0.04688373 0.12133381 0.07158062
-0.058288388 0.030584766 0.10614941 0.06122021 -0.08707316 0.0903418 0.052293878 -0.045834858
-0.07664109 -0.05298631 -0.034719136 -0.011051176 -0.11383 0.0055772434 0.06268561 0.05710185
-0.0094099445 -0.14233698 0.1540547 -0.010644574 -0.066567264 0.06730693 0.12424124 0.02818527
0.014108132 0.10239928 -0.026108116 0.05171807 0.038429912 -0.06450944 -0.02713901 -0.048859194
0.009163788 -0.100579895 0.098161675 0.058211025 0.13005522 0.058415893 -0.023779254 -0.057498693
0.0073726093 0.032757476 -0.007855547 0.07748582 -0.073700055 0.010260162 -0.01863869 -0.1250124
-0.043962065 -0.06290794 0.05783044 0.020704286 -0.048699282 -0.015939772 -0.06742331 -0.029130183
-0.07981564 -0.11909576 0.066261955 -0.17117256 -0.014884628 -0.18506892 -0.012531597 -0.027285058
0.13161258 -0.16557212 -0.028366882 -0.16963527 -0.0019309463 -0.1849383 -0.062273756 0.017979095
0.052412774 -0.047004707 -0.009716147 -0.10453875 -0.03834622 0.039457012 -0.05393263 0.1449414
-0.027144713 0.015923254 -0.08916263 0.034670237 0.02198208 -0.10371632 -0.0060528587 -0.030363027
0.11372269 0.00081459346 -0.22309054 -0.005530174 0.03361571 -0.009077517 -0.13848905 0.051658425
-0.154524 0.0018502503 0.06223962 -0.06969082 -0.017972145 -0.04947261 0.082292706 -0.14796336
0.018759994 -0.12352154 -0.002362405 -0.07632521 -0.019943515 0.010696651 -0.0656411 -0.14477931
0.017392758 0.016825553 0.020000383 0.031272374 0.04652611 -0.020810304 0.20482925 -0.05856128
-0.03630887 -0.10005978 0.07605021 -0.053060688 0.038100436 -0.07863034 0.11023549 -0.055684708
-0.25084677 -0.13113843 0.051818263 0.06487981 -0.13160898 0.0528119 0.25973463 -0.06255933
0.07164497 0.046672206 -0.053971075 -0.10268828 -0.06563514 -0.005592281 0.01765552 -0.07402333
-0.10133316 0.019634545 0.043009005 -0.16193809 0.012005251 -0.08145599 0.009355636 0.04342589
0.0018303825 -0.050721925 -0.026235603 -0.14553605 -0.043588642 -0.1451755 0.054664046 0.11754118
0.10955494 -0.075137846 0.042576835 0.10811983 0.19226608 0.012891267 -0.10180987 0.061716754
0.10344148 -0.038813364 -0.038860098 0.046601042 -0.084827036 -0.036571115 -0.1932846 -0.15824455
0.07397964 -0.07067267 0.06381979 0.059159607 -0.07227904 0.06751598 -0.15461631 -0.03576249
00000000: 2790 82bd d868 09be eeb6 f73d b24f ddbd
00000010: e665 d73d 565e babd 4f52 18be 6912 fbbd
00000020: a368 293e 5dbd cfbd f006 03be 5d61 54bd
00000030: ac7f 993d 128b 1dbd 69cf 053d 3222 9e3c
00000040: 7498 7fbc bd13 0ebd 9c5b 833d 7898 edbc
00000050: a6a3 92bd 30ef 16bb 3cd8 23bd d3bb 0f3d
00000060: a4fc 83bc d2e1 003e 121d e33b 5616 b2bc
00000070: a5b7 8bbd 9989 cb3c 31f9 c73c f226 3fbd
00000080: 1fec 92bb ff53 9cbb 9fa4 28be e8cb 023d
00000090: 8040 68bd b3e6 a53d edfb 033e f521 c03d
000000a0: 4fbc 05be 5727 d53d 6575 773c ef43 eebd
000000b0: 2e09 87bc 4bbc 46bd d20f 38bb b015 3cbc
000000c0: c966 8f3c 6471 60bd 485a 2bbd 8564 d7bd
000000d0: c9cb dcbd 2f01 4abd 2dc3 e0bc b983 e7bd
000000e0: 8de7 a33d e5ac 353d e192 8a3d 2dec ca3d
000000f0: c3a3 7f3d 8e52 3f3d 4aa0 b23d 33b3 353d
00000100: 9058 52bd dd93 4bbd c8f2 ba3d ba64 553c
00000110: 9780 7ebd 2709 403d dc7d f83d dc98 923d
00000120: cebf 6ebd e78c fa3c dd64 d93d 0bc2 7a3d
00000130: 6a53 b2bd 1f05 b93d 1b32 563d 55bd 3bbd
00000140: 01f6 9cbd 2c08 59bd a735 0ebd fe0f 35bc
00000150: b41f e9bd 4fc1 b63b 5061 803d a1e3 693d
00000160: 2b2c 1abc c9c0 11be 84c0 1d3e 9466 2ebc
00000170: 6b54 88bd 37d8 893d 3172 fe3d cce4 e63c
00000180: cb25 673c b7b6 d13d b0e0 d5bc 54d6 533d
00000190: af68 1d3d 861d 84bd a152 debc 9420 48bd
000001a0: b623 163c d5fc cdbd fd08 c93d af6e 6e3d
000001b0: 322d 053e 8145 6f3d b6cc c2bc c083 6bbd
000001c0: ee95 f13b b42c 063d 8db4 00bc e3b0 9e3d
000001d0: 0ef0 96bd 3d1a 283c 2ab0 98bc 4003 00be
000001e0: 9111 34bd e1d5 80bd 9ddf 6c3d 099c a93c
000001f0: e678 47bd 2094 82bc 3b15 8abd 6ca2 eebc
00000200: 6276 a3bd 7ae8 f3bd 59b4 873d dc47 2fbe
00000210: a8de 73bc b582 3dbe 5451 4dbc ea84 dfbc
00000220: 73c5 063e bd8b 29be aa61 e8bc deb4 2dbe
00000230: ce17 fdba 7760 3dbe c412 7fbd e548 933c
00000240: c7ae 563d 0288 40bd 7930 1fbc 6a18 d6bd
00000250: ed10 1dbd ad9d 213d 76e8 5cbd 856b 143e
00000260: 975e debc 7c71 823c e69a b6bd 6102 0e3d
00000270: c313 b43c 3969 d4bd 0f57 c6bb e2bb f8bc
00000280: 71e7 e83d 718a 553a d971 64be 7636 b5bb
00000290: a0b0 093d deb9 14bc 13d0 0dbe c997 533d
000002a0: 8a3b 1ebe 1984 f23a f9ee 7e3d 10ba 8ebd
000002b0: 523a 93bc cba3 4abd 1489 a83d b583 17be
000002c0: 8fae 993c dcf8 fcbd 94d2 1abb 6450 9cbd
000002d0: 9560 a3bc 0241 2f3c d76e 86bd 0741 14be
000002e0: 427b 8e3c bed5 893c d8d7 a33c 7617 003d
000002f0: 2a92 3e3d 5f7a aabc c2be 513e f4dd 6fbd
00000300: 9cb8 14bd 24ec ccbd 36c0 9b3d 2a56 59bd
00000310: 340f 1c3d f208 a1bd 25c3 e13d a615 64bd
00000320: fd6e 80be 2749 06be 633f 543d b5df 843d
00000330: 81c4 06be 4a51 583d f0fb 843e 1b1f 80bd
00000340: 99ba 923d 5b2b 3f3d c610 5dbd 3c4e d2bd
00000350: b76b 86bd 743f b7bb 4fa2 903c 8b99 97bd
00000360: c387 cfbd a0d8 a03c 362a 303d 19d3 25be
00000370: acb1 443c 66d2 a6bd 6248 193c 59df 313d
00000380: 72e9 ef3a cbc1 4fbd 0cec d6bc 6707 15be
00000390: 018a 32bd e3a8 14be 68e7 5f3d 6eb9 f03d
000003a0: 575e e03d dfe1 99bd 0c65 2e3d ee6d dd3d
000003b0: 66e1 443e e535 533c b181 d0bd b5ca 7c3d
000003c0: 20d9 d33d c3fa 1ebd c42b 1fbd bce0 3e3d
000003d0: ccb9 adbd 98cb 15bd 66ec 45be dc0a 22be
000003e0: a382 973d d5bc 90bd f3b3 823d 5851 723d
000003f0: 0907 94bd d145 8a3d bd53 1ebe b07b 12bd

lstm1.bias_ih_l0 f4 [512]
0.015633676 -0.1141858 -0.04756002 0.14027968 -0.1762249 -0.11052913 0.022844767 0.07167063
0.06279199 0.14671399 -0.018361144 -0.014002973 0.002434192 0.017765097 -0.012593707 -0.08994246
0.043091908 -0.12114332 -0.024659758 -0.050259225 0.13825008 -0.006544372 -0.0043253014 -0.1382409
-0.08450568 0.04036331 -0.0435935 -0.05438201 0.03667643 -0.12212859 -0.06142165 0.032325245
0.013241176 0.008215709 0.066212244 0.0053901253 0.044939775 0.004258974 0.09171424 -0.016379502
-0.06733929 -0.028730933 -0.012477519 0.07286024 -0.068137676 -0.085826784 -0.13752645 -0.06925583
-0.08865143 -0.17372577 0.19026066 -0.113629594 0.061245393 -0.040190965 -0.12191023 0.022458777
0.057742953 -0.046249595 -0.04485922 -0.052039523 -0.0034468225 -0.09275175 0.10153421 -0.055285923
-0.13938299 -0.037786532 0.09110805 -0.048360076 -0.012040774 0.040295035 0.00021125798 -0.11505414
0.036991395 -0.05024828 0.048916016 0.00029174972 0.030152561 -0.052062433 0.018465562 -0.020570662
0.029963717 -0.023346364 -0.0775987 -0.03158856 -0.052780043 -0.051068567 0.04748022 0.010359917
0.02606592 0.014763632 0.024796203 0.016884802 0.021959344 0.02458663 0.061676342 -0.072215505
-0.16248135 -0.052926563 0.062497385 0.014210057 0.016714051 0.061424714 -0.045465313 -0.021631733
-0.0132005075 -0.09267405 -0.07693449 -0.0004831745 -0.11691898 0.09450956 -0.04371769 0.058073357
-0.08488593 -0.13372502 0.034498055 -0.08123929 -0.08419972 -0.03295741 -0.010324803 -0.013468712
0.00554186 -0.04503936 -0.061702646 -0.04553438 -0.074055016 0.029324654 0.034567837 0.07620288
-0.0019454035 -0.07698048 0.07091907 0.023525864 -0.14914635 -0.15628228 -0.21060699 -0.059357464
-0.0543576 -0.17052297 -0.098957315 -0.1719525 -0.012444784 -0.06609984 -0.060997326 -0.014407525
-0.052057646 -0.12703298 -0.07425584 0.012836831 -0.07867488 -0.0027301575 -0.16763894 -0.016189273
-0.031663377 -0.0035558026 -0.014498784 -0.0720203 0.014756748 0.036422964 -0.033585344 0.026445612
-0.083339125 -0.14718695 -0.13158771 -0.09173076 -0.053474657 -0.0641146 0.009962723 -0.11281379
-0.14942582 -0.03864284 -0.11593837 -0.11751254 -0.19535063 -0.13619664 0.018605197 0.030095415
-0.016152784 -0.18810679 0.00301131 -0.008403802 -0.011866825 -0.082438275 0.0017113945 -0.020679522
-0.039830532 -0.034214273 -0.056639314 -0.060206547 -0.0031826114 -0.17556094 -0.11269961 -0.08908515
-0.09037498 -0.13662732 -0.13104449 -0.16209796 -0.120208934 -0.070847206 -0.06311734 -0.06116801
-0.040481474 -0.11545759 0.012995994 -0.15253311 -0.059354473 -0.09410432 -0.08680596 0.0012095
-0.07802221 0.0068670833 -0.05768727 0.020062542 0.049887575 -0.005086673 -0.123302706 -0.09963651
-0.105281 -0.22849193 -0.115811355 -0.25075194 -0.10887698 -0.21188347 -0.21203583 -0.032826915
-0.14858644 -0.13113147 -0.026457066 -0.045653533 -0.051913682 -0.008060138 -0.1102004 0.025616132
-0.079128966 -0.13725208 -0.105361395 -0.11252852 -0.016732438 -0.018407676 -0.13440762 0.031073702
-0.079781845 -0.1529571 -0.07114564 -0.029859832 -0.020230742 0.015228895 0.025113888 -0.117887735
-0.143703 -0.13674438 -0.025197646 -0.016361484 0.01585937 -0.07192786 -0.06500363 -0.08642772
00000000: 3212 803c 3fda e9bd 4cce 42bd 7aa5 0f3e
00000010: 4d74 34be 195d e2bd f324 bb3c 0dc8 923d
00000020: 1699 803d 313c 163e 1c6a 96bc ba6c 65bc
00000030: f786 1f3b 1c88 913c d655 4ebc c133 b8bd
00000040: 2481 303d fd19 f8bd 4303 cabc 9edc 4dbd
00000050: 6e91 0d3e 2c72 d6bb 42bb 8dbb 068f 0dbe
00000060: 5011 adbd 0054 253d 198f 32bd acbf 5ebd
00000070: 063a 163d 8e1e fabd 4595 7bbd 7a67 043d
00000080: 84f1 583c 2e9b 063c 499a 873d a69f b03b
00000090: c512 383d dd8e 8b3b add4 bb3d 4e2e 86bc
000000a0: 2fe9 89bd 225d ebbc 826e 4cbc c037 953d
000000b0: c48b 8bbd f4c5 afbd bcd3 0cbe 00d6 8dbd
000000c0: e28e b5bd 2be5 31be b1d3 423e a2b6 e8bd
000000d0: 73dc 7a3d 489f 24bd 12ac f9bd 78fb b73c
000000e0: e083 6c3d 3770 3dbd 4dbe 37bd 6527 55bd
000000f0: 16e4 61bb a1f4 bdbd 2bf1 cf3d 7e73 62bd
00000100: 6aba 0ebe 0dc6 1abd db96 ba3d 3715 46bd
00000110: ab46 45bc 680c 253d 2285 5d39 81a1 ebbd
00000120: 4a84 173d 24d1 4dbd 295c 483d fcf5 9839
00000130: 8102 f73c 6b3f 55bd 1745 973c ce83 a8bc
00000140: 7876 f53c e040 bfbc 11ec 9ebd 0263 01bd
00000150: e32f 58bd 462d 51bd 9f7a 423d a4bc 293c
00000160: 3288 d53c 29e3 713c 6821 cb3c ff51 8a3c
00000170: 15e4 b33c e669 c93c 55a0 7c3d b9e5 93bd
00000180: 8361 26be 86c9 58bd 42fd 7f3d 4dd1 683c
00000190: e8eb 883c 7b98 7b3d d639 3abd 0835 b1bc
000001a0: f146 58bc e4cb bdbd d48f 9dbd 9552 fdb9
000001b0: 3873 efbd 3a8e c13d 5211 33bd 54de 6d3d
000001c0: add8 adbd 36ef 08be d54d 0d3d c960 a6bd
000001d0: e770 acbd 59fe 06bd 5d29 29bc dfab 5cbc
000001e0: 7e98 b53b 317b 38bd eabb 7cbd 4282 3abd
000001f0: 28aa 97bd 423a f03c 0197 0d3d 4110 9c3d
00000200: e9fc feba f1a7 9dbd 043e 913d 50b9 c03c
00000210: d2b9 18be 7608 20be 5ca9 57be d020 73bd
00000220: 13a6 5ebd 939d 2ebe 22aa cabd 5114 30be
00000230: 35e5 4bbc 5a5f 87bd 55d8 79bd 8a0d 6cbc
00000240: 663a 55bd ef14 02be 7213 98bd 9251 523c
00000250: 4c20 a1bd 71ec 32bb 8ba9 2bbe 5e9f 84bc
00000260: 75b1 01bd 7808 69bb 4f8c 6dbc 617f 93bd
00000270: 4ac6 713c 3f30 153d c990 09bd 78a4 d83c
00000280: b4ad aabd 2db8 16be eebe 06be 56dd bbbd
00000290: 3e08 5bbd 844e 83bd b03a 233c eb0a e7bd
000002a0: 1503 19be f447 1ebd 1971 edbd 6aaa f0bd
000002b0: ff09 48be 2277 0bbe ed69 983c a98a f63c
000002c0: d852 84bc 119f 40be 6659 453b 1ab0 09bc
000002d0: 126d 42bc 66d5 a8bd df50 e03a 1a68 a9bc
000002e0: 5725 23bd 4424 0cbd a0fe 67bd 249b 76bd
000002f0: 5c93 50bb 3fc6 33be 0ecf e6bd 4672 b6bd
00000300: 8416 b9bd 08e8 0bbe 8730 06be 02fd 25be
00000310: 1a30 f6bd 5718 91bd aa43 81bd 4f8b 7abd
00000320: e7cf 25bd 0775 ecbd 26ed 543c a431 1cbe
00000330: ad1d 73bd c4b9 c0bd 53c7 b1bd 1688 9e3a
00000340: 1cca 9fbd 4505 e13b 7d49 6cbd 335a a43c
00000350: ea56 4c3d 1bae a6bb 2186 fcbd 3a0e ccbd
00000360: 919d d7bd caf9 69be 812e edbd 8f62 80be
00000370: e5fa debd fbf7 58be ec1f 59be 8475 06bd
00000380: 0b27 18be 5447 06be 7dbc d8bc 33ff 3abd
00000390: 71a3 54bd ab0e 04bc bfb0 e1bd ecd8 d13c
000003a0: 5e0e a2bd cf8b 0cbe b7c7 d7bd 5a75 e6bd
000003b0: 7712 89bc b2cb 96bc 27a2 09be 478e fe3c
000003c0: aa64 a3bd c9a0 1cbe ceb4 91bd 9b9c f4bc
000003d0: f1ba a5bc 9d82 793c a4bb cd3c 206f f1bd
000003e0: e126 13be b806 0cbe 4b6b cebc 8508 86bc
000003f0: 82eb 813c ea4e 93bd a020 85bd 0401 b1bd

lstm1.bias_hh_l0 f4 [512]
0.019956417 -0.13382459 0.036046304 -0.022087017 -0.112233676 -0.09061798 0.059290215 0.0019003046
0.033702534 0.19111603 0.08592859 -0.015132379 -0.07675697 0.08983956 -0.011883052 -0.058752257
-0.050741147 -0.045697663 0.028381668 -0.08485793 0.1862432 0.008011042 0.107324384 -0.11062155
-0.06648455 -0.12064812 -0.053280372 -0.07606803 -0.016736265 0.008813712 -0.012525049 -0.073432796
-0.039401684 -0.09318342 0.043772027 -0.07221834 0.03802716 -0.028459808 0.065681934 0.060954474
-0.08010488 -0.08014708 -0.1542992 0.14833525 0.058229182 -0.025670102 -0.14056012 0.01845834
0.051983446 -0.11581521 0.16574247 -0.081701 -0.035718914 0.089106195 -0.080282845 -0.028375302
-0.03077208 -0.039110664 -0.0039157206 -0.09155497 -0.14345016 -0.10627041 0.03200712 -0.04725982
-0.1032434 -0.033394948 0.12752722 -0.08062521 -0.08462755 0.0035489362 0.013499493 -0.08150932
0.027597893 -0.09544869 -0.033345647 -0.080412135 -0.0013740973 -0.020824015 0.012746624 -0.066013
-0.03125686 -0.029401649 -0.084816255 -0.10352141 -0.13187142 0.04104291 -0.06006101 -0.05755173
-0.080788024 0.0832703 -0.034838617 0.12662561 -0.05909848 0.051854305 -0.01598508 -0.025118941
-0.16094138 -0.0018662941 -0.066215076 -0.041769017 0.08868014 0.0011138478 0.033981018 -0.003291349
0.0038948208 -0.005596075 -0.1320158 -0.0046923263 -0.09573007 -0.027992707 -0.124559164 -0.04473654
-0.06869625 -0.10599438 0.008749252 -0.04265835 0.09046403 -0.03886255 -0.04959741 0.10218245
-0.00393675 -0.08123921 -0.03055822 -0.05202858 0.01318432 -0.075638585 0.017157277 0.07412595
0.03649774 -0.014684408 0.014218756 -0.11409592 -0.14543208 -0.045719344 -0.05178477 -0.10417546
-0.06693473 -0.12887849 -0.057579845 -0.077828735 -0.08136759 -0.04421204 -0.018538907 -0.077323034
0.031532392 -0.089235626 -0.041997492 -0.02888343 -0.097094186 -0.12932108 -0.15566568 -0.10316866
-0.069144174 -0.016763806 -0.031017054 -0.040430397 0.03899599 0.036336124 -0.15368398 0.043508727
-0.071892224 -0.14288642 -0.10876308 -0.12805608 -0.11529433 -0.111432806 -0.09317067 -0.03633938
-0.098098695 -0.037833545 -0.06454552 -0.19647641 -0.19725455 -0.12895466 -0.014665873 -0.030402683
0.03520608 -0.13782004 -0.0063862414 -0.041767947 0.0011694629 -0.175411 -0.024374029 -0.13373934
-0.11429373 0.0077022617 -0.07510778 0.048343763 -0.12028874 -0.019939527 -0.18891738 -0.054148354
-0.13062061 -0.104344115 -0.063011944 -0.09104547 -0.09139929 0.03597608 -0.0645678 -0.09511706
0.002723696 -0.07191029 0.061066043 -0.1727289 -0.122799575 -0.09652734 -0.08856097 -0.036027774
-0.033847358 0.0050768857 -0.033042688 -0.00496815 0.062203564 -0.13821177 0.0094866 -0.09584232
-0.12776168 -0.29058152 -0.027689472 -0.24971367 -0.1033464 -0.13923651 -0.11470582 -0.01595539
-0.059270855 -0.12144842 -0.10793388 0.05534256 -0.036919523 -0.12671278 -0.107774384 0.020891294
-0.016976666 -0.06281272 -0.04538245 -0.18333024 -0.008795351 -0.1702966 -0.09671899 -0.08464727
-0.08390859 -0.0025456126 0.00070905895 -0.08395859 0.061095346 -0.008716148 -0.123147495 -0.035304207
-0.0077788145 -0.08245777 -0.12181594 -0.12375522 -0.110868685 -0.0033812926 -0.10418918 -0.1315097
00000000: a47b a33c 5009 09be 4aa5 133d d5ef b4bc
00000010: c5da e5bd eb95 b9bd 4cda 723d a413 f93a
00000020: ab0b 0a3d ecb3 433e 54fb af3d cced 77bc
00000030: c232 9dbd cefd b73d 22b1 42bc 35a6 70bd
00000040: f3d5 4fbd 792d 3bbd ac80 e83c ffc9 adbd
00000050: 8ab6 3e3e bf40 033c e3cc db3d 8d8d e2bd
00000060: 0d29 88bd 5d16 f7bd 853c 5abd 8ec9 9bbd
00000070: 7e1a 89bc 6367 103c dd35 4dbc ef63 96bd
00000080: a963 21bd f3d6 bebd 4c4a 333d 36e7 93bd
00000090: 5ec2 1b3d 8b24 e9bc 4084 863d 66ab 793d
000000a0: 070e a4bd 2724 a4bd 9c00 1ebe 32e5 173e
000000b0: b981 6e3d 1b4a d2bc feee 0fbe f235 973c
000000c0: 98ec 543d 8630 edbd 65b8 293e db52 a7bd
000000d0: ff4d 12bd 4f7d b63d 556b a4bd 5273 e8bc
000000e0: bb15 fcbc 8132 20bd 724f 80bb 2c81 bbbd
000000f0: 99e4 12be 4da4 d9bd e619 033d 8393 41bd
00000100: 4771 d3bd 24c9 08bd 7f96 023e d51e a5bd
00000110: 3551 adbd 4595 683b fa2c 5d3c 5cee a6bd
00000120: fa14 e23c 9a7a c3bd 7295 08bd 1eaf a4bd
00000130: 0e1b b4ba 2097 aabc 37d7 503c d331 87bd
00000140: 3107 00bd badb f0bc 25b4 adbd 0803 d4bd
00000150: 4d09 07be 9c1c 283d 8902 76bd 5dbb 6bbd
00000160: 3174 a5bd 9e89 aa3d f0b2 0ebd 25aa 013e
00000170: 3f11 72bd 2e65 543d 24f3 82bc 3dc6 cdbc
00000180: d1cd 24be 709e f4ba c59b 87bd fd15 2bbd
00000190: ef9d b53d 88fe 913a ae2f 0b3d acb3 57bb
000001a0: 4040 7f3b 485f b7bb 262f 07be 16c2 99bb
000001b0: 200e c4bd f650 e5bc e018 ffbd aa3d 37bd
000001c0: 9fb0 8cbd 9513 d9bd 0659 0f3c 86ba 2ebd
000001d0: 3545 b93d 562e 1fbd a726 4bbd 0845 d13d
000001e0: daff 80bb be60 a6bd 3b55 fabc ec1b 55bd
000001f0: 0c03 583c 67e8 9abd 6b8d 8c3c 59cf 973d
00000200: a77e 153d df96 70bc c9f5 683c 1fab e9bd
00000210: 26ec 14be 3544 3bbd 441c 54bd f259 d5bd
00000220: 1315 89bd b9f8 03be d8d8 6bbd ac64 9fbd
00000230: 0da4 a6bd af17 35bd e8de 97bc 8a5b 9ebd
00000240: 1c28 013d 2bc1 b6bd 9005 2cbd f19c ecbc
00000250: 51d9 c6bd bf6c 04be d366 1fbe 174a d3bd
00000260: 769b 8dbd 4054 89bc 7a17 febc 589a 25bd
00000270: 42ba 1f3d 30d5 143d 555f 1dbe 3536 323d
00000280: 3b3c 93bd d150 12be 2dbf debd 2221 03be
00000290: 6f1f ecbd e236 e4bd 44d0 bebd 9ad8 14bd
000002a0: f8e7 c8bd 59f7 1abd 7130 84bd 1d31 49be
000002b0: 19fd 49be b10c 04be 2149 70bc 0c0f f9bc
000002c0: 4034 103d b220 0dbe ad43 d1bb de14 2bbd
000002d0: aa48 993a f19e 33be 0bac c7bc f7f2 08be
000002e0: d512 eabd 4163 fc3b 1cd2 99bd 1c04 463d
000002f0: f159 f6bd 3858 a3bc 8f73 41be aaca 5dbd
00000300: 69c1 05be 5eb2 d5bd 680c 81bd 0c76 babd
00000310: 8d2f bbbd a75b 133d 1f3c 84bd bccc c2bd
00000320: 0980 323b b445 93bd 6320 7a3d d8df 30be
00000330: 587e fbbd 20b0 c5bd 745f b5bd dc91 13bd
00000340: 87a3 0abd 015c a63b c557 07bd ddcb a2bb
00000350: 2ac9 7e3d 6387 0dbe af6d 1b3c fa48 c4bd
00000360: f5d3 02be 1ac7 94be 08d5 e2bc f1b4 7fbe
00000370: 47a7 d3bd 0494 0ebe e3ea eabd e1b4 82bc
00000380: ffc5 72bd f3b9 f8bd 700c ddbd e1ae 623d
00000390: ed38 17bd ffc0 01be d1b8 dcbd 3824 ab3c
000003a0: a612 8bbc f5a3 80bd f3e2 39bd ecba 3bbe
000003b0: 601a 10bc 3b62 2ebe 9b14 c6bd 8c5b adbd
000003c0: 44d8 abbd 4bd4 26bb 24e0 393a 7bf2 abbd
000003d0: 1d3f 7a3d 2dce 0ebc c134 fcbd 259b 10bd
000003e0: 6de5 febb 9fdf a8bd a37a f9bd 6073 fdbd
000003f0: 1f0f e3bd ad98 5dbb 2361 d5bd 7baa 06be

batchnorm1.weight f4 [20]
1.0239263 1.0161935 0.8776307 0.9777663 1.0821964 0.95923054 0.9205025 0.94961566
0.9829684 0.9501632 0.9903746 1.0013355 1.0647975 1.0168923 1.0707123 1.0479028
1.1441256 0.9448798 1.1043706 0.8105637
00000000: 0410 833f a112 823f 68ac 603f e44e 7a3f
00000010: 6985 8a3f 2290 753f 0da6 6b3f 031a 733f
00000020: d1a3 7b3f e53d 733f 3189 7d3f c32b 803f
00000030: 494b 883f 8729 823f 1a0d 893f ae21 863f
00000040: b572 923f a4e3 713f 045c 8d3f 1a81 4f3f

batchnorm1.bias f4 [20]
-0.028607342 -0.04774789 -0.058713093 -0.055536937 -0.040545415 -0.06583904 0.05071569 0.019849138
0.080492556 -0.07679754 -0.17350103 -0.10850967 0.025080353 0.0024660882 -0.09988304 -0.034819722
0.0050676535 -0.050069045 -0.00044066278 -0.005054344
00000000: f259 eabc 4b93 43bd 247d 70bd b37a 63bd
00000010: f312 26bd 9ed6 86bd 41bb 4f3d a99a a23c
00000020: 48d9 a43d 0748 9dbd 41aa 31be 513a debd
00000030: 5075 cd3c 189e 213b 7b8f ccbd 209f 0ebd
00000040: 8f0e a63b 3315 4dbd c208 e7b9 e99e a5bb

batchnorm1.running_mean f4 [20]
0.0017087398 0.0018007499 0.00202452 0.0019792295 0.001731287 0.0017247285 0.001537211 0.0016318636
0.0015920715 0.0014841459 0.0013731283 0.0015986409 0.001438079 0.0011975887 0.0015126546 0.0015577293
0.0015378008 0.0014788825 0.001402339 0.0014861397
00000000: cbf7 df3a 2407 ec3a cfad 043b f6b5 013b
00000010: 5aec e23a 4910 e23a 3e7c c93a 42e4 d53a
00000020: 0ead d03a ac87 c23a 8afa b33a 7d89 d13a
00000030: ed7d bc3a 69f8 9c3a 4444 c63a b92c cc3a
00000040: 0890 c93a 10d7 c13a b0ce b73a 93ca c23a

batchnorm1.running_var f4 [20]
0.0009486196 0.0015677002 0.0018547636 0.001993744 0.0021142983 0.0020995396 0.0020870604 0.0020803888
0.002114122 0.0020582592 0.002164348 0.0021106063 0.0021170722 0.0021017757 0.0021128857 0.0020621861
0.00209754 0.0020965685 0.0021457258 0.0021032873
00000000: c9ac 783a 4a7b cd3a 8a1b f33a 79a9 023b
00000010: 0a90 0a3b 6e98 093b 10c7 083b 2257 083b
00000020: 158d 0a3b dce3 063b bcd7 0d3b 1952 0a3b
00000030: 94be 0a3b f2bd 093b 5778 0a3b be25 073b
00000040: e276 093b 9566 093b 4e9f 0c3b 4ed7 093b

lstm2.weight_ih_l0 f4 [256, 128]
0.057463862 0.086047515 -0.10861115 -0.068746544 -0.028575394 -0.06397423 -0.051950928 0.08412022
-0.039160658 -0.061213106 -0.1127796 0.10262523 -0.083244085 -0.10261756 -0.008167924 0.04663194
-0.10393532 -0.028407333 0.0641429 -0.09013512 -0.13720614 -0.10898757 -0.051439848 -0.09249285
0.061579667 0.07912787 -0.1814007 0.103113584 -0.0026189652 0.09215162 -0.10748907 0.14703667
0.12385632 0.08317282 -0.09935192 0.16796316 -0.034703642 -0.04887521 0.0039212108 -0.17126882
-0.08052897 0.06469974 -0.02055786 0.017717388 -0.061407786 0.009821731 0.048166987 -0.10157171
0.1005811 -0.1217408 0.06558952 0.055963352 0.026102504 -0.09481978 0.038895644 -0.122354895
0.10553859 0.16214532 -0.1324583 -0.10568177 -0.11147357 -0.07431267 0.10155152 -0.05943883
0.021263419 0.023425391 0.04650536 0.008520877 0.034183584 -0.19447128 -0.042070873 -0.09324576
0.06735487 -0.013730131 0.05319616 0.120383464 -0.10167948 0.052201655 -0.040257912 -0.11686967
0.12018336 -0.023885712 0.08562787 -0.014675907 -0.058761925 -0.017488828 0.03838031 -0.111377865
-0.028780464 0.05153636 0.009963331 -0.026259225 -0.11390278 -0.12159728 -0.080067165 -0.09276083
0.07125854 0.103477165 -0.15496834 -0.019815546 0.10675925 0.1319802 -0.1099887 0.044298492
0.13423283 0.020540887 0.023418043 0.14064655 -0.039418746 0.079327404 -0.12455037 0.033451177
-0.0056826207 -0.013838414 -0.078152105 -0.026235582 0.08211009 0.12658143 -0.08227106 0.045393575
-0.014103855 0.043044556 -0.12537444 0.016829846 -0.015174293 -0.048391897 0.05665087 0.052459013
0.013953694 0.050553568 -0.050256178 -0.031028705 0.0550103 0.06564977 0.039879154 0.08871175
0.03290251 -0.1356789 -0.056897674 0.07128514 -0.031642515 -0.16598514 0.032224044 0.07112284
0.1039917 -0.04455392 -0.058026005 -0.028278168 -0.008649056 -0.14244865 0.05180287 -0.123599604
-0.15059242 0.13688481 -0.0011854672 -0.033297867 -0.0027324883 0.10485621 -0.11594419 0.06577955
0.11291775 -0.09408037 0.10213294 -0.069973975 -0.057698935 0.08825569 0.12129048 0.080866724
-0.014746974 -0.055958997 -0.051016796 -0.1310673 0.16239049 -0.030935138 0.0781615 0.021854322
0.038786173 -0.10392411 0.08571704 0.028336186 -0.040292904 0.021550508 0.12419876 -0.027557097
-0.0675121 0.07062393 0.060381386 -0.028405685 -0.12991032 0.05267705 0.013308571 -0.03403932
-0.0927598 0.045311566 0.03284784 0.094625115 -0.03645103 -0.065702796 -0.10470218 0.025087377
-0.11739053 -0.049544953 -0.16587628 0.022546608 -0.024442203 0.10027698 -0.039556965 -0.0071696662
0.012527909 -0.052724786 -0.13839066 -0.06737114 -0.026503429 -0.08710044 0.0854262 0.06513692
0.13442567 0.21521705 0.12126172 -0.027479362 0.071585454 -0.100953355 -0.07516906 0.15681787
-0.037773367 0.15148684 -0.08025602 0.10857132 0.05308807 0.062887534 -0.024837237 -0.13271932
-0.027761761 0.05178296 -0.031484198 0.08763645 -0.027894411 -0.07963652 0.02901703 -0.02851857
0.120087706 0.10627621 -0.10152638 0.17036851 0.11637198 0.1419503 0.015954455 -0.018426983
0.060121357 -0.12677978 0.043101527 0.11711948 -0.05761382 -0.006122606 -0.13673343 0.15051585
00000000: 3a5f 6b3d ae39 b03d 866f debd fdca 8cbd
00000010: f216 eabc ec04 83bd 7fca 54bd 3947 ac3d
00000020: ed66 20bd 98ba 7abd fef8 e6bd 2d2d d23d
00000030: e07b aabd 2829 d2bd c2d2 05bc 2201 3f3d
00000040: 0bdc d4bd 7fb6 e8bc 5a5d 833d c398 b8bd
00000050: c47f 0cbe e034 dfbd 97b2 52bd e46c bdbd
00000060: f63a 7c3d cb0d a23d 1bc1 39be 372d d33d
00000070: f2a2 2bbb fdb9 bc3d 3b23 dcbd c890 163e
00000080: 62a8 fd3d 8356 aa3d 0579 cbbd 89fe 2b3e
00000090: 6825 0ebd 5f31 48bd 807d 803b 1861 2fbe
000000a0: 5fec a4bd 4c81 843d f568 a8bc 0e24 913c
000000b0: bb86 7bbd 53eb 203c bf4a 453d d404 d0bd
000000c0: 77fd cd3d 3e53 f9bd cc53 863d d439 653d
000000d0: ebd4 d53c df30 c2bd 0a51 1f3d 3495 fabd
000000e0: 9e24 d83d 6c09 263e 26a3 07be af6f d8bd
000000f0: 414c e4bd 3e31 98bd 3efa cf3d 2176 73bd
00000100: 9f30 ae3c 9be6 bf3c 687c 3e3d 269b 0b3c
00000110: 1604 0c3d 7b23 47be 8252 2cbd a2f7 bebd
00000120: 5af1 893d 58f4 60bc 37e4 593d 9b8b f63d
00000130: 553d d0bd 67d1 553d 7be5 24bd 5e59 efbd
00000140: b222 f63d f8ab c3bc aa5d af3d 3773 70bc
00000150: 58b0 70bd bb44 8fbc ac34 1d3d 141a e4bd
00000160: 02c5 ebbc ca17 533d 3d3d 233c 961d d7bc
00000170: dc45 e9bd ff07 f9bd 41fa a3bd 64f9 bdbd
00000180: ffef 913d d6eb d33d 05b0 1ebe 3654 a2bc
00000190: 98a4 da3d d125 073e c141 e1bd 5672 353d
000001a0: 5574 093e 5d45 a83c 32d7 bf3c a605 103e
000001b0: 8d75 21bd 6876 a23d 4414 ffbd 1a04 093d
000001c0: 4735 babb 84ba 62bc 360e a0bd 01ec d6bc
000001d0: 5629 a83d 909e 013e bb7d a8bd 9dee 393d
000001e0: db13 67bc 7d4f 303d 2862 00be bfde 893c
000001f0: 999d 78bc 9536 46bd be0a 683d 43df 563d
00000200: 099e 643c 4211 4f3d 6cd9 4dbd e92f febc
00000210: 7b52 613d 6373 863d 5358 233d 82ae b53d
00000220: c8c4 063d 69ef 0abe 890d 69bd f2fd 913d
00000230: 959b 01bd 02f8 29be 5cfd 033d daa8 913d
00000240: 9af9 d43d 2c7e 36bd adac 6dbd 9ea7 e7bc
00000250: c5b4 0dbc 0fde 11be 3f2f 543d ca21 fdbd
00000260: e634 1abe 882b 0c3e ae61 9bba 5863 08bd
00000270: 8c13 33bb dabe d63d 2674 edbd 6eb7 863d
00000280: 6c41 e73d 36ad c0bd 132b d13d 844e 8fbd
00000290: b855 6cbd 66bf b43d 2567 f83d 749d a53d
000002a0: 4b9d 71bc 4335 65bd fdf6 50bd 8236 06be
000002b0: b149 263e b06b fdbc 2313 a03d d607 b33c
000002c0: 40de 1e3d 2ad6 d4bd 6a8c af3d 4a21 e83c
000002d0: 2c0a 25bd b18a b03c eb5b fe3d 6cbf e1bc
000002e0: c943 8abd 47a3 903d 7952 773d 0ab3 e8bc
000002f0: 3607 05be e4c3 573d 310c 5a3c d06c 0bbd
00000300: daf8 bdbd 9f98 393d 758b 063d d0ca c13d
00000310: ad4d 15bd 308f 86bd 196e d6bd 0b84 cd3c
00000320: 726a f0bd a6ef 4abd 79db 29be aab3 b83c
00000330: 043b c8bc 045e cd3d 7c06 22bd 85ef eabb
00000340: dc41 4d3c f2f5 57bd 48b6 0dbe e1f9 89bd
00000350: b81d d9bc b761 b2bd eef3 ae3d 8166 853d
00000360: e2a6 093e dc61 5c3e 1158 f83d 661c e1bc
00000370: 659b 923d a2c0 cebd 3cf2 99bd dd94 203e
00000380: 3fb8 1abd 5e1f 1b3e 455d a4bd a45a de3d
00000390: e072 593d 2ecb 803d 7677 cbbc 93e7 07be
000003a0: a26c e3bc 5e1a 543d 93f5 00bd bd7a b33d
000003b0: d282 e4bc 7918 a3bd 1fb5 ed3c c79f e9bc
000003c0: 8bf0 f53d 57a7 d93d 10ed cfbd 1575 2e3e
000003d0: 6f54 ee3d 6b5b 113e ebb2 823c 2ff4 96bc
000003e0: d041 763d 8fd2 01be 3a8b 303d 57dc ef3d
000003f0: 78fc 6bbd 24a0 c8bb d903 0cbe d420 1a3e

lstm2.weight_hh_l0 f4 [256, 64]
-0.06340288 -0.032509897 -0.045030154 0.026655 0.047635436 0.15633932 0.07718616 0.000828922
0.086412385 -0.100954086 -0.018497473 -0.080381565 0.09857629 -0.04172458 0.14160731 0.09295587
0.0718727 0.09434355 -0.0986897 -0.022330962 -0.05007964 -0.08966092 0.054868877 0.008569458
-0.010670496 -0.033552762 -0.041540973 -0.033087544 0.022212263 0.03659176 0.124293305 -0.07202279
0.17612469 -0.22433122 0.08503028 -0.13910156 -0.032889824 0.020285191 0.045524098 0.14609331
-0.08178293 -0.06604997 0.050015416 0.06284574 -0.027144862 -0.082272984 -0.00066217413 0.049403645
0.07024918 -0.059912294 -0.099618465 0.044752114 0.103373304 -0.022288078 -0.048124533 0.122415945
-0.08115897 0.2087838 0.10293194 -0.08639029 0.010684898 -0.08648292 -0.04690149 0.019032754
-0.02839992 -0.009045822 -0.068615444 0.119833395 0.07520948 0.1545575 0.07018511 0.033810474
0.26137042 -0.20185111 0.049582526 -0.21856108 0.017148111 -0.11994977 -0.07897404 -0.01776523
-0.0056667044 0.09039251 -0.06442005 0.15751827 -0.102915056 -0.12211141 -0.016539618 0.1994359
0.012709665 0.17406088 0.12975672 -0.1276128 -0.059461407 0.12803434 0.023290595 -0.09093244
0.14603621 -0.005236193 0.030617675 0.0272304 -0.065732986 0.105419174 0.14555165 0.11290208
-0.033116512 -0.027214862 0.026957689 0.03029263 -0.054830782 0.1743359 -0.18112871 -0.066708386
-0.048648797 0.05916933 -0.09157389 -0.038280908 0.029549459 0.06928844 -0.12623906 0.082528986
0.0365064 -0.14821118 -0.036872167 -0.26924285 0.11840499 -0.06214436 -0.008941999 0.06848878
-0.08041953 0.04968703 0.074240275 -0.08858414 -0.10461307 0.038045004 0.062943034 -0.029426003
-0.14879908 0.05737647 -0.07151265 0.056244645 -0.1274044 -0.0060517904 -0.111823365 0.113936834
0.11377884 -0.05073726 0.07974592 -0.0005646285 0.023330469 -0.0030598738 0.15197591 -0.10961066
0.012574415 0.1146985 -0.147239 0.07905756 -0.034063324 0.061434273 0.0021065704 0.033737343
-0.009083539 0.23270248 -0.07515085 -0.14227211 -0.0065294104 -0.16065298 0.14438821 -0.053723395
0.16190314 -0.19627178 0.21783006 -0.13811399 -0.016765526 -0.16208906 0.07364408 0.03354559
-0.04900979 0.028992562 0.11867261 0.015009033 0.105482616 0.022946512 0.02663647 -0.07151017
-0.045019753 -0.12722471 -0.108503625 -0.085580215 -0.13544104 0.09584221 0.18077636 -0.0010584339
-0.26181588 0.002549512 -0.0049292026 -0.08116815 0.09549066 0.1447944 0.0032072351 -0.084462784
-0.07203152 -0.0548592 0.042949133 -0.0430505 0.022626927 -0.03306973 -0.14940466 0.013304555
0.09570818 0.09840357 0.10373557 -0.1995197 -0.19297701 -0.10285727 0.082987376 -0.031718094
0.019060513 2.332098e-05 -0.040437162 -0.022978922 -0.2078284 -0.13086054 0.062070686 -0.05493049
-0.2049975 0.08162396 0.046598617 0.054188266 -0.18986669 -0.19073749 0.09387861 -0.09662945
0.24126571 -0.18109025 0.046312302 0.028226875 0.0018378961 0.011756045 0.010584522 0.12160235
-0.033447955 -0.089590296 0.05135251 -0.0724002 -0.0041470067 -0.110242054 0.123466894 -0.14538752
-0.0019825557 0.033215266 -0.018047052 0.032242935 -0.19690658 0.060625393 0.1550058 0.06797838
00000000: 5fd9 81bd 1929 05bd 8a71 38bd 965b da3c
00000010: 601d 433d 6a17 203e c713 9e3d 044c 593a
00000020: faf8 b03d 04c1 cebd 0388 97bc 179f a4bd
00000030: 5ee2 c93d 65e7 2abd 8201 113e a65f be3d
00000040: fe31 933d 3137 c13d d31d cabd 6cef b6bc
00000050: 4f20 4dbd 25a0 b7bd 30be 603d e966 0c3c
00000060: 4ed3 2ebc 9f6e 09bd de26 2abd ce86 07bd
00000070: 7ef6 b53c 3ee1 153d 7d8d fe3d af80 93bd
00000080: 085a 343e 15b7 65be 5b24 ae3d a470 0ebe
00000090: 7bb7 06bd 212d a63c 7a77 3a3d 7c99 153e
000000a0: cf7d a7bd 3545 87bd f7dc 4c3d 44b5 803d
000000b0: e75e debc bd7e a8bd c195 2dba 7a5b 4a3d
000000c0: cdde 8f3d 9866 75bd c404 ccbd fe4d 373d
000000d0: 62b5 d33d 7d95 b6bc 3b1e 45bd 36b5 fa3d
000000e0: ad36 a6bd 6ccb 553e fbcd d23d 64ed b0bd
000000f0: b60f 2f3c f51d b1bd c71b 40bd 94ea 9b3c
00000100: f3a6 e8bc ed34 14bc 4186 8cbd 366b f53d
00000110: 6e07 9a3d 5244 1e3e 36bd 8f3d da7c 0a3d
00000120: 58d2 853e 0fb2 4ebe 0c17 4b3d 7ace 5fbe
00000130: 327a 8c3c 3aa8 f5bd 24bd a1bd 6388 91bc
00000140: c3af b9bb b51f b93d a9ee 83bd 784c 213e
00000150: 21c5 d2bd 8c15 fabd 187e 87bc ed38 4c3e
00000160: 333c 503c 043d 323e f2de 043e eeac 02be
00000170: ce8d 73bd 6f1b 033e ebcb be3c c93a babd
00000180: 848a 153e 5f94 abbb ebd1 fa3c 4a12 df3c
00000190: 049f 86bd 02e6 d73d 7e0b 153e 3539 e73d
000001a0: 2ea5 07bd b4f1 debc 5fd6 dc3c 4028 f83c
000001b0: 3e96 60bd 1c85 323e ce79 39be 689e 88bd
000001c0: f643 47bd 8a5b 723d 178b bbbd 71cc 1cbd
000001d0: b511 f23c 19e7 8d3d d044 01be f504 a93d
000001e0: bc87 153d acc4 17be 4507 17bd 33da 89be
000001f0: 517e f23d 168b 7ebd 7681 12bc d843 8c3d
00000200: ffb2 a4bd a184 4b3d 490b 983d 9a6b b5bd
00000210: 613f d6bd 14d5 1b3d 47e8 803d cd0e f1bc
00000220: c95e 18be 9703 6b3d 3975 92bd c960 663d
00000230: 4d76 02be 194e c6bb a603 e5bd b757 e93d
00000240: e104 e93d e0d1 4fbd d451 a33d 9403 14ba
00000250: 8a1f bf3c 2a88 48bb 939f 1b3e 8e7b e0bd
00000260: eb04 4e3c 0ce7 ea3d d2c5 16be eee8 a13d
00000270: fc85 0bbd 81a2 7b3d 630e 0a3b 2b30 0a3d
00000280: 20d3 14bc 8f49 6e3e b0e8 99bd c8af 11be
00000290: aaf4 d5bb 3782 24be 81da 133e 100d 5cbd
000002a0: f0c9 253e 78fb 48be d80e 5f3e c16d 0dbe
000002b0: db57 89bc adfa 25be b5d2 963d 1a67 093d
000002c0: 7dbe 48bd cf81 ed3c a00a f33d 72e8 753c
000002d0: 4507 d83d 53fa bb3c ba34 da3c ed73 92bd
000002e0: a266 38bd 3247 02be 2637 debd ae44 afbd
000002f0: 0eb1 0abe ec48 c43d 701d 393e 26bb 8aba
00000300: bb0c 86be b715 273b 2685 a1bb 7d3b a6bd
00000310: 9b90 c33d fc44 143e 7a30 523b d3fa acbd
00000320: 4385 93bd 0ab4 60bd 6eeb 2f3d b955 30bd
00000330: 1b5c b93c 2074 07bd 89fd 18be 59fb 593c
00000340: a602 c43d d087 c93d 5173 d43d e44e 4cbe
00000350: c49b 45be d5a6 d2bd 49f5 a93d d5ea 01bd
00000360: cb24 9c3c 6ca1 c337 70a1 25bd 4b3e bcbc
00000370: f8d0 54be 4e00 06be d53d 7e3d cbfe 60bd
00000380: ddea 51be 762a a73d 31de 3e3d 84f4 5d3d
00000390: 6a6c 42be b050 43be 6e43 c03d a9e5 c5bd
000003a0: 5c0e 773e b96f 39be f8b1 3d3d 0c3c e73c
000003b0: 8fe5 f03a 6d9c 403c b46a 2d3c a70a f93d
000003c0: b900 09bd 1e7b b7bd 0257 523d 8e46 94bd
000003d0: 9de3 87bb 96c6 e1bd 36dc fc3d 77e0 14be
000003e0: c4ed 01bb bb0c 083d 69d7 93bc 2b11 043d
000003f0: e1a1 49be 5552 783d d7b9 1e3e 4038 8b3d

lstm2.bias_ih_l0 f4 [256]
0.043478888 -0.06494491 -0.0128719555 0.066288434 -0.02900356 -0.06346553 -0.055518508 0.15743122
-0.16951619 0.104157336 0.16054317 -0.2472703 0.11302395 -0.14823703 -0.17558935 -0.07684091
-0.06945007 0.16252597 0.14694774 -0.15020719 -0.080703884 -0.100917235 0.04747714 -0.16060583
-0.06408318 0.06497176 0.15472037 0.01879525 -0.056835566 -0.013549268 0.021109486 0.05585715
-0.0149056 -0.15243807 -0.068030655 -0.06058833 0.008884524 0.10459819 0.044831544 0.11257305
-0.076237924 0.09211643 -0.061420757 0.11885099 0.13008298 -0.1556817 0.07678525 0.08165053
-0.06008405 -0.08816097 0.118784025 -0.1327132 0.022258287 -0.05744462 -0.27994683 0.0023865197
0.117547154 -0.091963835 -0.22015837 -0.024239426 0.0033233468 -0.0984942 -0.0042170673 0.12975024
0.097073145 0.060019884 -0.066307664 -0.15676282 0.07172815 -0.018090399 -0.17978993 0.06860909
-0.0029489344 -0.051648185 0.14179425 -0.018262817 0.03546697 -0.11909905 -0.123030335 -0.08012601
-0.06728346 -0.024950758 0.06307633 -0.13615607 -0.11205833 0.08096901 0.0015390884 -0.056574237
-0.23093349 -0.054681245 -0.08767014 -0.03302787 -0.056372683 -0.1748661 0.1166163 -0.0052814144
0.08072249 0.16025938 -0.046268012 0.04405274 0.08033261 -0.06744252 -0.025423331 -0.09876594
-0.04994724 0.02280703 0.011707472 -0.02267969 -0.101616435 0.03388458 0.15985234 0.052627526
0.19719493 -0.024176056 -0.14487146 -0.07429126 -0.094144374 -0.11455582 0.12682566 0.15172012
-0.018181613 -0.09673213 -0.008213785 -0.029616041 -0.16309589 -0.02715852 0.06229616 0.049850278
0.0809158 -0.047816 -0.039771296 0.08836154 0.13369863 -0.10535159 0.027887544 -0.021374451
-0.097901225 -0.02051014 0.08444515 0.12899481 0.06320123 0.06829557 0.04776695 0.050252043
-0.11143183 0.12849236 0.026254501 0.013091333 -0.078337714 0.15847045 -0.022920443 0.0030505434
-0.14849423 0.08075653 -0.04151283 -0.08256315 0.14764018 -0.04019141 -0.09445101 -0.08017545
0.09784982 0.06269829 0.0041700746 0.016799094 -0.08009191 0.0035759252 -0.08405535 0.037645806
-0.09114062 0.06684049 -0.1011343 0.10166846 -0.034770522 -0.009980212 -0.07832827 0.08058221
-0.024718763 0.19678874 0.117252626 0.14943957 -0.12189386 0.00047516287 0.17793329 0.11294019
-0.16163011 -0.0807491 0.049687948 -0.061728183 0.026696358 0.08025622 0.020702697 0.0050451728
-0.048768386 -0.093141355 0.05856763 -0.047708843 0.01667583 -0.07681924 0.14031298 0.14134459
0.09209148 0.020780345 0.053929836 -0.11820567 0.22867079 -0.0025481125 -0.015890792 -0.17075545
-0.18175302 0.20509587 -0.012144814 0.002227627 -0.08842006 0.024244342 -0.10367808 0.05890216
0.0812651 0.1600787 0.16545424 0.22391683 0.17401172 -0.14435548 0.075005606 0.10938901
0.107395716 0.117999904 0.119281985 0.09885166 -0.05905139 -0.06277855 -0.059598193 -0.056918904
0.01063031 0.06654644 0.17464282 0.07306722 0.0010913371 0.05217005 -0.07302828 -0.069141224
-0.0060570375 0.056014072 0.18845867 0.053781077 0.17258471 0.090197176 0.20327589 -0.06053641
0.049507737 0.1778909 0.14146236 0.07982774 0.087868646 -0.103955194 -0.07822796 0.04691892
00000000: eb16 323d d601 85bd e5e4 52bc 3bc2 873d
00000010: e098 edbc 37fa 81bd 6067 63bd a635 213e
00000020: a795 2dbe 7150 d53d 6e65 243e 6d34 7dbe
00000030: 1a79 e73d 73cb 17be b2cd 33be c45e 9dbd
00000040: d73b 8ebd 356d 263e 7879 163e eacf 19be
00000050: 1448 a5bd b2ad cebd 6477 423d db75 24be
00000060: 0b3e 83bd ea0f 853d 046f 1e3e 7ff8 993c
00000070: 69cc 68bd c0fd 5dbc cded ac3c 78ca 643d
00000080: 9e36 74bc ba18 1cbe a853 8bbd 782b 78bd
00000090: 6590 113c 9337 d63d 48a1 373d b38c e63d
000000a0: a122 9cbd 8aa7 bc3d 5594 7bbd 2668 f33d
000000b0: 7934 053e 066b 1fbe 9641 9d3d 6538 a73d
000000c0: b11a 76bd bd8d b4bd 0a45 f33d f8e5 07be
000000d0: 0357 b63c 0d4b 6bbd 3155 8fbe 2867 1c3b
000000e0: 90bc f03d 8957 bcbd 3271 61be c391 c6bc
000000f0: 82cc 593b 54b7 c9bd 532f 8abb 3fdd 043e
00000100: 49ce c63d 69d7 753d 50cc 87bd 6f86 20be
00000110: 35e6 923d 5132 94bc da1a 38be ec82 8c3d
00000120: e942 41bb 0c8d 53bd 8332 113e e79b 95bc
00000130: d045 113d 34ea f3bd 54f7 fbbd 1b19 a4bd
00000140: e9cb 89bd 8865 ccbc 2a2e 813d 7f6c 0bbe
00000150: d67e e5bd 15d3 a53d 3dbb c93a 63ba 67bd
00000160: d479 6cbe 71f9 5fbd 678c b3bd 3b48 07bd
00000170: 0be7 66bd 1910 33be 87d4 ee3d b70f adbb
00000180: d551 a53d 091b 243e 8783 3dbd a570 343d
00000190: 6c85 a43d 4e1f 8abd 9744 d0bc cc45 cabd
000001a0: 7a95 4cbd cfd5 ba3c b2d0 3f3c c2ca b9bc
000001b0: 471c d0bd 8fca 0a3d 55b0 233e f68f 573d
000001c0: 78ed 493e dd0c c6bc 2f59 14be 0426 98bd
000001d0: c4ce c0bd 3e9c eabd 96de 013e 855c 1b3e
000001e0: 9bf1 94bc 7f1b c6bd 1c93 06bc 579d f2bc
000001f0: 9c02 27be 8b7b debc 422a 7f3d ce2f 4c3d
00000200: 2fb7 a53d b6da 43bd 3ae7 22bd e5f6 b43d
00000210: 4be8 083e 93c2 d7bd 6b74 e43c 7919 afbc
00000220: 7080 c8bd e204 a8bc 94f1 ac3d 3717 043e
00000230: a56f 813d 8cde 8b3d 47a7 433d 16d5 4d3d
00000240: 5f36 e4bd 8093 033e ae13 d73c 087d 563c
00000250: 866f a0bd 1446 223e a7c3 bbbc a0eb 473b
00000260: df0e 18be ae63 a53d 5b09 2abd de16 a9bd
00000270: fd2e 173e bf9f 24bd 886f c1bd 0733 a4bd
00000280: 7d65 c83d f667 803d 1fa5 883b 419e 893c
00000290: 3a07 a4bd 125a 6a3b 3625 acbd 7d32 1a3d
000002a0: efa7 babd abe3 883d 801f cfbd 8e37 d03d
000002b0: 896b 0ebd 0b84 23bc 926a a0bd 4908 a53d
000002c0: 017f cabc fd82 493e 2522 f03d b006 193e
000002d0: 7da3 f9bd 481f f939 2534 363e 304d e73d
000002e0: 5d82 25be c95f a5bd 9785 4b3d b1d6 7cbd
000002f0: 52b2 da3c 605d a43d b498 a93c fa51 a53b
00000300: 5cc1 47bd e5c0 bebd 9ce4 6f3d 596a 43bd
00000310: c09b 883c 6853 9dbd 35ae 0f3e a3bc 103e
00000320: 759a bc3d 8b3b aa3c 88e5 5c3d d015 f2bd
00000330: ad28 6a3e 3cfe 26bb 682d 82bc 84da 2ebe
00000340: 771d 3abe a704 523e 0bfb 46bc 61fd 113b
00000350: 9415 b5bd 129c c63c 2c55 d4bd 6443 713d
00000360: 516e a63d aceb 233e d66c 293e 744a 653e
00000370: 2130 323e ecd1 13be 8a9c 993d 5807 e03d
00000380: 49f2 db3d efa9 f13d 1d4a f43d bd72 ca3d
00000390: dfdf 71bd 0a92 80bd 3c1d 74bd cc23 69bd
000003a0: c02a 2e3c 8049 883d 91d5 323e 44a4 953d
000003b0: 320b 8f3a 43b0 553d da8f 95bd ea99 8dbd
000003c0: 1d7a c6bb 036f 653d 4ffb 403e 8c49 5c3d
000003d0: 0cba 303e 4cb9 b83d 8e27 503e 07f5 77bd
000003e0: a0c8 4a3d 0829 363e 82db 103e ba7c a33d
000003f0: 7af4 b33d 76e6 d4bd fb35 a0bd 0e2e 403d
