rock_paper_scissors_model.onnx (onnx, 500316 bytes, 20 tensors)

batchnorm1.weight f4 [20]
0	0x3f89ee58	1.0775862
1	0x3f95dd4c	1.170816
2	0x3f783492	0.96955216
3	0x3f46c3c4	0.77642465
4	0x3f6b661e	0.91952693
5	0x3f805ac6	1.0027702
6	0x3f8c6d60	1.0970879
7	0x3f799fb2	0.975093
8	0x3f9052e4	1.1275296
9	0x3f71561c	0.9427202
10	0x3f6972f1	0.9119101
11	0x3f837441	1.0269853
12	0x3f86164a	1.0475552
13	0x3f78c6e1	0.97178465
14	0x3f908567	1.1290711
15	0x3f512c5f	0.8170833
16	0x3f996c8f	1.1986254
17	0x3f3dd616	0.74154794
18	0x3f8b2b05	1.0872504
19	0x3f53a13f	0.82667917

batchnorm1.bias f4 [20]
0	0x3d1f8331	0.038943473
1	0x3e747e6b	0.2387635
2	0xbeb2b81b	-0.34906086
3	0xbd9494d6	-0.07254951
4	0xbe9136f2	-0.28362232
5	0xbc4b73b2	-0.012417721
6	0x3e1df63f	0.15425967
7	0x3d12f2af	0.035875972
8	0xbe8dcc3f	-0.2769489
9	0x3d4d10a2	0.05006469
10	0xbdf9351b	-0.12168332
11	0x3de7b0e0	0.11313033
12	0xbcb4d630	-0.022074789
13	0x3d5d2895	0.05399378
14	0xbe4fb0ad	-0.2028224
15	0x3e316b6e	0.17326137
16	0x3dbd3cba	0.09240098
17	0x3d63e706	0.055640243
18	0x3d999b4e	0.07500325
19	0x3d8fc1fd	0.07019422

batchnorm1.running_mean f4 [20]
0	0xb9f632a9	-0.0004695852
1	0xba8261cc	-0.0009947359
2	0xba84e258	-0.0010138256
3	0xba8c552d	-0.0010706537
4	0xba3a36a0	-0.00071034767
5	0xb9e8f797	-0.00044434957
6	0xb9ea4866	-0.000446859
7	0xba01492c	-0.0004931863
8	0xba1cddd7	-0.00059839844
9	0xba366fd8	-0.0006959415
10	0xba1b59e1	-0.0005926174
11	0xba062f87	-0.00051187765
12	0xba3be549	-0.000716765
13	0xba0edf98	-0.0005450188
14	0xba2b34c9	-0.0006530998
15	0xba03dbf2	-0.0005030028
16	0xba529bef	-0.00080341
17	0xba1342b6	-0.00056175457
18	0xba1971cc	-0.0005853444
19	0xba368edb	-0.0006964036

batchnorm1.running_var f4 [20]
0	0x3a74d6b3	0.0009339854
1	0x3ac5dbac	0.0015095375
2	0x3ae4d45e	0.001745831
3	0x3aeb0dbc	0.001793317
4	0x3af51b40	0.0018700138
5	0x3af91915	0.0019004667
6	0x3afa3f24	0.0019092304
7	0x3b0070c1	0.0019598457
8	0x3b007da4	0.0019606138
9	0x3affa504	0.0019504135
10	0x3afb6595	0.0019180054
11	0x3afdb45c	0.001935612
12	0x3aff621a	0.0019484193
13	0x3affc6a7	0.0019514159
14	0x3b033672	0.0020021466
15	0x3b0569da	0.0020357282
16	0x3b071fd0	0.0020618327
17	0x3b052d88	0.0020321328
18	0x3b033f69	0.002002681
19	0x3b041a21	0.0020157176

batchnorm2.weight f4 [64]
0	0x3f7b7342	0.98222744
1	0x3f58994d	0.8460892
2	0x3f789bbf	0.9711265
3	0x3f84d6c6	1.0378044
4	0x3f8529ed	1.040342
5	0x3f79fc72	0.97650826
6	0x3f855c4f	1.0418795
7	0x3f7cb8e1	0.987196
8	0x3f8ed17c	1.115768
9	0x3f8af8a3	1.0857128
10	0x3f7d339f	0.9890689
11	0x3f7a859a	0.9786011
12	0x3f816d94	1.0111566
13	0x3f89960a	1.0748913
14	0x3f89db31	1.0770017
15	0x3f7c0f2e	0.9846066
16	0x3f814b25	1.0101057
17	0x3f82a352	1.0206091
18	0x3f69d2ea	0.91337454
19	0x3f82f608	1.0231333
20	0x3f677ef8	0.90428114
21	0x3f832ee4	1.0248685
22	0x3f75cd03	0.9601595
23	0x3f718ba1	0.9435368
24	0x3f7d7ffb	0.9902341
25	0x3f8688c3	1.0510486
26	0x3f6db7d2	0.9285861
27	0x3f6e83fb	0.93170136
28	0x3f8753c4	1.0572438
29	0x3f89c2a7	1.0762528
30	0x3f5f1aa2	0.87150013
31	0x3f5d3b23	0.8641836
32	0x3f74ac5e	0.9557551
33	0x3f8f4fc3	1.1196216
34	0x3f742674	0.95371175
35	0x3f7c33bd	0.98516446
36	0x3f732601	0.94979864
37	0x3f74cf31	0.9562865
38	0x3f80aae4	1.0052152
39	0x3f79248c	0.9732139
40	0x3f6deb59	0.9293724
41	0x3f7c040b	0.9844367
42	0x3f707fb9	0.9394489
43	0x3f7b58d4	0.98182416
44	0x3f7e213d	0.9926947
45	0x3f814b70	1.0101147
46	0x3f7afd8d	0.9804314
47	0x3f71a211	0.9438792
48	0x3f73776c	0.951041
49	0x3f85e54e	1.0460603
50	0x3f80cefd	1.0063168
51	0x3f7180b5	0.94337016
52	0x3f6f73f8	0.9353633
53	0x3f75edad	0.9606579
54	0x3f7cbff1	0.9873038
55	0x3f8656f4	1.0495286
56	0x3f660991	0.8985835
57	0x3f95ed18	1.171298
58	0x3f778ae7	0.96696323
59	0x3f822335	1.0166994
60	0x3f7463a2	0.9546453
61	0x3f80fa0c	1.0076308
62	0x3f7d6d37	0.98994774
63	0x3f883fd9	1.0644485

batchnorm2.bias f4 [64]
0	0x3d571a69	0.05251542
1	0xbc9a16d0	-0.018809706
2	0xbad694b1	-0.0016371218
3	0x3c9fedde	0.019522604
4	0xbce5bf7a	-0.028045405
5	0x3ddf4c37	0.10903209
6	0xbcb41044	-0.021980412
7	0xbca89f13	-0.020583665
8	0xbdda26e9	-0.10651953
9	0x3b3fb51b	0.0029252234
10	0x3dd4c118	0.10388392
11	0xbd43ae8a	-0.047773875
12	0x3c480ef1	0.012210594
13	0xbddbf95e	-0.107409224
14	0x3c30ebf4	0.010798443
15	0x3dc7aaee	0.09749399
16	0xbd4c1d3e	-0.049832575
17	0x3d9a12f2	0.07523145
18	0x3db4839b	0.08814164
19	0x3dcb6568	0.09931451
20	0x3e06c261	0.13160087
21	0xbd176671	-0.03696293
22	0x3a1e471c	0.0006037818
23	0xbd803528	-0.06260139
24	0x3cb78441	0.02240193
25	0xbd8d8df5	-0.06911842
26	0x3d746a8f	0.059671935
27	0x3c905659	0.017619299
28	0xbcab4ecc	-0.020911597
29	0x3d0ee760	0.034888625
30	0x3d113542	0.03545118
31	0x3bb6ddb7	0.0055806297
32	0x39ddf03a	0.00042331388
33	0xbdc9d7be	-0.09855603
34	0xbd9208c9	-0.07130582
35	0xbe15a5fa	-0.14614096
36	0x3d80d91c	0.0629141
37	0x3e0c0a3b	0.13675778
38	0xbd695e77	-0.056974854
39	0x3b3cfa83	0.002883584
40	0x3d848baa	0.06471951
41	0xbe0a2185	-0.13489349
42	0x3db562db	0.08856746
43	0xbd95ab61	-0.073080786
44	0xbbe2cc85	-0.0069213533
45	0xbd30d79f	-0.043174382
46	0x3cff369d	0.031153971
47	0x3d6b4dab	0.057447117
48	0x3d20858f	0.03918987
49	0x3c9d0d77	0.01917146
50	0x3d713ddd	0.058896888
51	0xbc7a7e3f	-0.0152888885
52	0x3cbd3a31	0.023099037
53	0xbcf1dfb5	-0.029525617
54	0x3bc59f27	0.0060309353
55	0xbd1ca2a5	-0.038241047
56	0xbaf9647e	-0.0019027141
57	0x3d6a7d27	0.05724826
58	0x3d5eed22	0.054425366
59	0xbcb846f0	-0.022494763
60	0xbd190c3a	-0.037365176
61	0xbdaacd94	-0.08339992
62	0xbce6b619	-0.028163003
63	0x3c03107d	0.007999537

batchnorm2.running_mean f4 [64]
0	0x3dd71047	0.105011515
1	0xbe0f84a0	-0.14015436
2	0xbea0d18e	-0.31409878
3	0x3eb0fa03	0.34565744
4	0xbecef241	-0.404192
5	0x3d8ccd8f	0.06875145
6	0xbe338a6c	-0.17533273
7	0x3e8b7bb6	0.2724282
8	0xbef88af0	-0.485435
9	0x3e82c89f	0.25543687
10	0x3f07c16e	0.53029525
11	0x3e50de39	0.20397271
12	0x3e5a7d24	0.213368
13	0xbf158c40	-0.5841713
14	0x3e3a8528	0.18214858
15	0xbec6e5a0	-0.38847065
16	0xbebb25d5	-0.365523
17	0xbcd5f04b	-0.026115557
18	0xbcd63c28	-0.026151732
19	0x3f0fe131	0.5620299
20	0x3ea5088f	0.32233092
21	0x3cd61ee9	0.026137786
22	0x3e60fcfa	0.21971503
23	0xbec9608c	-0.39331472
24	0x3e29e666	0.16591796
25	0x3e4681e8	0.19385493
26	0x3e0e061f	0.13869523
27	0xbead9222	-0.33900553
28	0x3cf48ce7	0.029852344
29	0x3ec636b8	0.38713622
30	0x3e846c27	0.25863764
31	0x3f0e73de	0.5564555
32	0x3e8c3cc3	0.27390108
33	0x3e673a8d	0.22580929
34	0x3d8920db	0.0669572
35	0x3ea9ab5f	0.33138558
36	0xbe371e20	-0.17882586
37	0x3e49c6a3	0.1970468
38	0xbeca86d4	-0.3955599
39	0xbe527617	-0.2055286
40	0x3eba6d75	0.36411634
41	0x3ecc090b	0.3985065
42	0x3d357178	0.044297665
43	0xbea547bd	-0.32281294
44	0xbe65230a	-0.22376648
45	0xbe238cee	-0.15971729
46	0xbedaad76	-0.42710465
47	0x3d9dea42	0.07710697
48	0x3f14395e	0.57900035
49	0x3a141d70	0.00056501385
50	0xbd89c1b2	-0.067263976
51	0xbeccb25c	-0.39979827
52	0x3df02826	0.11726408
53	0x3d962f0f	0.073331945
54	0xbea82228	-0.3283856
55	0x3dbf2c49	0.093346186
56	0x3e965ae1	0.2936621
57	0x3e002930	0.12515712
58	0xbd7803c5	-0.06055047
59	0xbd8b6b16	-0.068075344
60	0xbe38838e	-0.18018934
61	0xbe765c85	-0.24058731
62	0xbc56201e	-0.013069181
63	0xbed2047a	-0.4101904

batchnorm2.running_var f4 [64]
0	0x3d221cf6	0.0395784
1	0x3d3f6ed6	0.04673656
2	0x3dec0d5d	0.11525986
3	0x3e8659c4	0.2624036
4	0x3e21d4db	0.15803854
5	0x3d76bceb	0.06023876
6	0x3e613162	0.21991494
7	0x3e27da5a	0.16391888
8	0x3e13528f	0.14386962
9	0x3dd8601c	0.105652064
10	0x3dd2c095	0.10290638
11	0x3d85c2db	0.06531306
12	0x3e8636cb	0.2621368
13	0x3e215f44	0.15758997
14	0x3dac4c2e	0.084129676
15	0x3dd96a65	0.10615996
16	0x3dd83868	0.10557634
17	0x3d527983	0.051385414
18	0x3dcc974c	0.09989795
19	0x3e336427	0.17518674
20	0x3dea23c4	0.11432603
21	0x3dfe9ea8	0.12432605
22	0x3dc0e301	0.094182976
23	0x3e10bd74	0.1413477
24	0x3e93db32	0.2887817
25	0x3d9100fa	0.070802644
26	0x3e9b25ee	0.30302376
27	0x3dc1201c	0.094299525
28	0x3d891289	0.066929884
29	0x3e6d18f3	0.23154049
30	0x3e133b0e	0.14377996
31	0x3e14eaf1	0.14542748
32	0x3dad8f35	0.0847458
33	0x3eae41e0	0.34034634
34	0x3e27fa7d	0.16404147
35	0x3e9556cb	0.2916778
36	0x3dabab64	0.083822995
37	0x3e0086a4	0.12551361
38	0x3e125281	0.14289285
39	0x3d944ca5	0.07241181
40	0x3dbf585e	0.093430266
41	0x3dec3abc	0.1153464
42	0x3dde4355	0.10852686
43	0x3e7f94ba	0.24959078
44	0x3db03c8a	0.08605297
45	0x3ee1a236	0.4406907
46	0x3d8ea912	0.06965841
47	0x3e86d263	0.26332387
48	0x3e0c6a85	0.13712509
49	0x3d98474b	0.07435473
50	0x3e3f5538	0.18684852
51	0x3e69ab10	0.22819161
52	0x3dd0ddee	0.1019858
53	0x3cd232eb	0.025659045
54	0x3e06c9d1	0.13162924
55	0x3e097202	0.13422397
56	0x3dc7cfdf	0.09756445
57	0x3eb892c4	0.36049473
58	0x3e28566f	0.16439222
59	0x3df8366b	0.121197544
60	0x3d0c36c3	0.034231912
61	0x3e79e2ee	0.24402973
62	0x3d9d3944	0.07676938
63	0x3dc72c9b	0.09725305

fc1.weight f4 [64, 64]
0	0xbc3fba96	-0.0117022
1	0xbddddaa0	-0.10832715
2	0x3d9109da	0.07081957
3	0xbe3ab62f	-0.1823356
4	0x3d5163a1	0.051120404
5	0x3dbd26e1	0.09235931
6	0x3d49c74e	0.049262337
7	0x3e01b488	0.12666523
8	0xbd92a4be	-0.07160328
9	0xbd03324c	-0.03203039
10	0xbe326552	-0.17421463
11	0xbc18d763	-0.009328696
12	0xbdc64117	-0.09680384
13	0xbbf69f2e	-0.0075263
14	0xbd8c6bea	-0.068565205
15	0xbe1bb3d4	-0.15205318
16	0xbd923329	-0.07138664
17	0x3e089ba7	0.13340627
18	0x3e0a67ca	0.13516155
19	0xbd7dcd08	-0.06196311
20	0x3da820bc	0.082093686
21	0x3d542039	0.051788542
22	0x3de06c29	0.1095813
23	0xbe105d8a	-0.14098182
24	0xbe8269f6	-0.25471467
25	0xbe12e14f	-0.14343761
26	0xbd31eb6f	-0.043437418
27	0xbd3420ed	-0.043976713
28	0xbe3828ef	-0.17984365
29	0xbdc995fa	-0.09843059
30	0x3d429984	0.047509685
31	0x3ce240c4	0.027618773
32	0xbcce3738	-0.025172815
33	0xbd29620c	-0.04135327
34	0xbe309aea	-0.17246595
35	0xbd9b9f48	-0.0759874
36	0xbe0e0d91	-0.13872363
37	0xbc6b60cb	-0.014366339
38	0xbdae2567	-0.08503228
39	0x3e16c6d5	0.14724286
40	0x3dd12788	0.10212618
41	0xbd4c0deb	-0.04981796
42	0xbc95a9ff	-0.018269537
43	0x3c59fb74	0.01330458
44	0xbd537010	-0.051620543
45	0xbd985b29	-0.074392624
46	0x3c7fe908	0.015619524
47	0xbd926fc2	-0.07150222
48	0x3ccf864e	0.025332596
49	0xbdb56914	-0.08857933
50	0xbd889ce9	-0.06670553
51	0x3bfd1174	0.007723028
52	0x3df0616c	0.11737332
53	0x3d3e07e0	0.04639423
54	0xbd4a1fde	-0.049346797
55	0x3dc9b25d	0.09848473
56	0x3db5d3d4	0.08878294
57	0xbcd821d0	-0.02638331
58	0xbe0d9e90	-0.13830018
59	0x3d976585	0.0739241
60	0x3b529b3c	0.0032135984
61	0xbdf161b1	-0.11786211
62	0xbdef277b	-0.11677452
63	0x3d4102f4	0.047121957
64	0xbd4e5bb1	-0.050380412
65	0xbe47963f	-0.19490908
66	0x3c09b734	0.008405495
67	0x3d5b447e	0.053532116
68	0x3d700adf	0.058604117
69	0xbdd668ec	-0.10469231
70	0x3df0c68c	0.1175662
71	0xbdf18d49	-0.11794526
72	0xbc449a64	-0.0119997
73	0x3ddae649	0.10688455
74	0xbe1a665d	-0.15078111
75	0xbe59db05	-0.21274956
76	0xbda68a30	-0.08131826
77	0x3e47f437	0.19526754
78	0x3d09c8b9	0.03363869
79	0xbcda8c6e	-0.02667829
80	0xbc96b538	-0.018396959
81	0x3d72a6d5	0.059241135
82	0xbd6745fd	-0.05646323
83	0xbe2829f7	-0.16422258
84	0x3de24b30	0.11049497
85	0xbd38fda1	-0.045163754
86	0xbddee2aa	-0.108830765
87	0x3e12ad09	0.1432382
88	0xbba9449b	-0.005165649
89	0xbdcf278b	-0.10114964
90	0xbdc21be4	-0.09477976
91	0x3dbfb150	0.093599916
92	0x3d5bd6ea	0.053671755
93	0x3dd14b23	0.10219409
94	0xbe03e454	-0.12880069
95	0x3d8b73cf	0.06809198
96	0x3d9708a0	0.07374692
97	0xbc816bcf	-0.015798477
98	0x3d8e27f9	0.06941218
99	0x3d0a7e41	0.03381181
100	0xbdb1c9e0	-0.08681083
101	0xbe0b9da7	-0.13634358
102	0xbd849d8b	-0.064753614
103	0xbd454267	-0.04815903
104	0xbe05954b	-0.13045232
105	0xbc6cf7ca	-0.014463374
106	0x3d4b08e8	0.04956904
107	0x3d5445a3	0.051824223
108	0xbe3069d6	-0.17227873
109	0xbd07a769	-0.03311864
110	0x3d9b3934	0.0757927
111	0xbe06b1d6	-0.13153777
112	0xbbf955d0	-0.0076091066
113	0xbbaa04c5	-0.005188557
114	0x3dd6c4bd	0.104867436
115	0xbdea7f55	-0.11450068
116	0x3cce0c39	0.025152313
117	0xbdbc2d5d	-0.0918834
118	0x3e1f3b19	0.15549888
119	0x3d968ba4	0.07350853
120	0xbe2b11ba	-0.16705981
121	0xbda19037	-0.07888835
122	0xbd003fe7	-0.031310942
123	0x3d522a21	0.05130971
124	0xbd5d70b2	-0.054062553
125	0x3d569941	0.052392248
126	0x3e21d668	0.15804446
127	0xbd3ae66c	-0.045629904
128	0x3c4ccdd3	0.012500244
129	0x3dcbba86	0.09947686
130	0xbde4fb68	-0.111807644
131	0xbd1ae51c	-0.037816152
132	0x3d5c0b1e	0.05372154
133	0x3c877287	0.016534103
134	0x3d3f7c72	0.04674954
135	0x3dffb7c0	0.124862194
136	0x3e12aa94	0.14322883
137	0xbd9ee07a	-0.07757659
138	0x3c7687b6	0.015047004
139	0xbd83ad67	-0.06429558
140	0xbcdee3cc	-0.027208231
141	0x3dc371d9	0.09543199
142	0xbdcc91a0	-0.09988713
143	0x3d907fe3	0.070556425
144	0xbb50d90f	-0.0031867658
145	0x3d81ef73	0.063444994
146	0xbdbe143a	-0.09281202
147	0xbdc4a3f9	-0.09601588
148	0xbd8086d6	-0.06275718
149	0x3bfc6eed	0.007703653
150	0x3de6ea7c	0.11275193
151	0xbdc44819	-0.09584064
152	0xbd8c097a	-0.06837745
153	0x3e06d170	0.13165832
154	0xbdddb638	-0.10825771
155	0x3c27ea3f	0.01024872
156	0x3d7d7d74	0.06188722
157	0x3befc714	0.007317433
158	0xbdf163cb	-0.11786612
159	0x3b63bd74	0.0034750374
160	0xbdc30561	-0.0952251
161	0x3de9a58d	0.114085294
162	0xbd848d74	-0.064722925
163	0x3dbca428	0.09210998
164	0xbdb54502	-0.08851053
165	0x3d982ab2	0.074300185
166	0x3dc326d7	0.095288925
167	0xbd1afdd6	-0.037839733
168	0x3db6262a	0.08893998
169	0x3da22fae	0.079192504
170	0xbbd85f17	-0.0066031325
171	0x3d187952	0.037225075
172	0xbcbb7a1e	-0.022885378
173	0x3dd316c4	0.103070766
174	0xbdab1da0	-0.0835526
175	0x3cca4b78	0.02469419
176	0xbddd1fff	-0.107971184
177	0x3c8b9fd9	0.017043995
178	0x3c91980b	0.017772695
179	0xbd1d77e9	-0.038444433
180	0xbca6d349	-0.02036442
181	0x3bd59db0	0.006519042
182	0xbd842cc4	-0.06453851
183	0x3d763a3c	0.06011413
184	0xbe1ef1e5	-0.15521963
185	0x3d12ae4c	0.035810754
186	0xbd63d0e5	-0.05561914
187	0xbcffa0d4	-0.031204619
188	0xbd8a7e7c	-0.06762406
189	0x3e587bec	0.21141022
190	0xbddce818	-0.10786456
191	0x3e6ccc3c	0.23124784
192	0x3cbb2229	0.022843437
193	0xbc2d3db6	-0.010573795
194	0x3ca4cd14	0.02011732
195	0xbd316ca5	-0.043316502
196	0xbe7a7e1a	-0.24462166
197	0x3d3bde95	0.045866568
198	0x3daa5864	0.083176404
199	0x3bed4bf1	0.007241719
200	0xbcd2d950	-0.025738388
201	0xbe145ab0	-0.1448772
202	0x3ca212c2	0.019784335
203	0xbde89c3a	-0.11357923
204	0xbdac7d2d	-0.08422313
205	0xbe3d854f	-0.18507884
206	0x3dc1990a	0.09453018
207	0xbd87b917	-0.066271
208	0xbd72f2ed	-0.059313703
209	0x3ce4dea4	0.027938195
210	0xbd877150	-0.066134095
211	0x3ce16425	0.027513573
212	0xbdb86462	-0.090035215
213	0xbe9ad8fd	-0.30243674
214	0x3e447e9f	0.19188927
215	0xbe4411d8	-0.19147432
216	0xbd9ccbd7	-0.07656067
217	0xbd8c369e	-0.06846355
218	0xbc79a531	-0.015237139
219	0x3db61dee	0.088924274
220	0x3d381a8e	0.0449472
221	0xbdb9d42b	-0.09073671
222	0xbdcb0126	-0.099123284
223	0xbd9dee80	-0.07711506
224	0x3c0691d9	0.008213484
225	0xbd237502	-0.03990651
226	0x3c9e0c04	0.019292839
227	0xbd7aac0b	-0.06119923
228	0x3ce5592f	0.027996628
229	0xbd13fb94	-0.036128595
230	0x3dcfde6d	0.10149846
231	0xbdfa20df	-0.12213301
232	0x3e3e6fbc	0.18597311
233	0xbdd8ae96	-0.105801746
234	0xbd4e7a6b	-0.050409716
235	0xbd8bce81	-0.06826497
236	0xbe3b7078	-0.18304622
237	0x3c357249	0.011074611
238	0xbc4d453b	-0.012528713
239	0xbdc45bd5	-0.09587828
240	0xbdf79d11	-0.12090505
241	0x3daaa334	0.0833191
242	0xbc0a7f7b	-0.008453245
243	0x3e090edb	0.13384573
244	0xbd792860	-0.06082952
245	0xbd452b13	-0.048136782
246	0xbe661258	-0.22467935
247	0x3d08ba98	0.033381075
248	0x3d14b4c3	0.0363052
249	0xbd30140e	-0.042987876
250	0x3b873bfe	0.0041270247
251	0x3e12dc9b	0.14341967
252	0x3d25efba	0.040511824
253	0x3d7216f4	0.05910392
254	0x3d474b07	0.048655536
255	0x3d45924f	0.048235234

fc1.bias f4 [64]
0	0x3d78303d	0.06059288
1	0x3b8eeacb	0.0043614856
2	0xbccb3584	-0.024805792
3	0xbc884cc8	-0.016638175
4	0xbc4e5745	-0.012594049
5	0xbe365284	-0.17804915
6	0xbe6177e7	-0.22018395
7	0xbe018c09	-0.12651075
8	0xbe45ecd5	-0.19328626
9	0x3d1f67dd	0.03891741
10	0xbddfd75b	-0.10929748
11	0xbe04cdc3	-0.12969117
12	0xbc337991	-0.010954277
13	0xbc609204	-0.013706688
14	0xbda5d90d	-0.0809804
15	0xbd2e5e66	-0.042570494
16	0x3d4076e8	0.046988398
17	0x3ddfe7dc	0.109328955
18	0xbd532db3	-0.051557254
19	0x3dc0ad2c	0.0940803
20	0xbda2d774	-0.07951251
21	0xbe039ef7	-0.12853609
22	0xbe22fea2	-0.15917447
23	0xbd17f5c5	-0.03709962
24	0xbdcdcceb	-0.100488506
25	0xbe1b7ef1	-0.15185143
26	0x3dcbcf1e	0.09951614
27	0xbdb96c1c	-0.09053823
28	0xbcff53f8	-0.03116797
29	0xbdd5d62b	-0.1044124
30	0xbd76aebf	-0.060225245
31	0xbe4c58bd	-0.19955726
32	0xbdf61ef4	-0.120176226
33	0xba1eb238	-0.00060537783
34	0xbe282b1a	-0.16422692
35	0x3d20ae1f	0.039228555
36	0x3d46d4ab	0.04854266
37	0xbcaea380	-0.021318197
38	0xbe1d3485	-0.15352066
39	0xbcfa77d7	-0.030574722
40	0x3dae2deb	0.08504852
41	0xb928942b	-0.00016076925
42	0xbdc4699a	-0.095904544
43	0x3d352bf2	0.044231363
44	0x3d298aac	0.041392013
45	0x3e043e5e	0.12914416
46	0x3d3a5bce	0.045497708
47	0xbe0c6f36	-0.13714299
48	0x3e16e1aa	0.14734522
49	0xbdcd877c	-0.10035607
50	0xbd0c8cac	-0.034313843
51	0x3d112634	0.035436824
52	0xbe4c6a61	-0.19962455
53	0xbddf6e47	-0.109097056
54	0xbd4a56cc	-0.049399182
55	0x3dd969fb	0.10615917
56	0xbe3b13e1	-0.18269302
57	0xbc9dcab1	-0.01926169
58	0xbba0bf26	-0.004905599
59	0x3d8f40b1	0.06994761
60	0x3d398fb0	0.045303047
61	0x3df14f6f	0.11782729
62	0xbe59d91a	-0.21274224
63	0xbe0cfd5f	-0.13768528

fc2.weight f4 [32, 64]
0	0xbdb364f3	-0.08759489
1	0x3c2662e5	0.010155414
2	0xbbcd76ca	-0.0062702643
3	0x3cb23a55	0.02175633
4	0xbdba6967	-0.09102135
5	0xbe48e092	-0.19616917
6	0xbcdc6307	-0.026902689
7	0xbde8c54c	-0.113657564
8	0xbdddb28c	-0.10825071
9	0xbe33acaa	-0.17546335
10	0xbd87605e	-0.066101775
11	0xbe069b5c	-0.13145202
12	0x3d52a205	0.051424045
13	0x3d8940ed	0.06701837
14	0x3df4259f	0.11921238
15	0xbdf38d8f	-0.118922345
16	0xbbe1eafc	-0.0068944674
17	0x3a67ca04	0.00088420534
18	0x3bb2b89d	0.0054541365
19	0x3d68fd2f	0.05688208
20	0xbdc3cbe1	-0.09560371
21	0x3be41bd6	0.006961326
22	0xbe0deec7	-0.13860618
23	0xbd075d05	-0.033047695
24	0xbcdbc641	-0.026827933
25	0xbd74e568	-0.05978909
26	0x3da79696	0.08183019
27	0x3cf23674	0.02956698
28	0xbdc4446a	-0.095833614
29	0x3dadd749	0.08488328
30	0xbd825049	-0.063629694
31	0xbb96ff75	-0.0046080896
32	0x3da2905d	0.07937691
33	0xbc5f2642	-0.013619961
34	0xbd75c4e4	-0.060002223
35	0x3d143ca9	0.036190663
36	0xbde99ad3	-0.114064835
37	0xbe253a9c	-0.16135639
38	0xbe4def69	-0.20110859
39	0xbccdc699	-0.025119113
40	0xbe12f899	-0.14352645
41	0xbcc2e658	-0.023791477
42	0x3e0c7dc7	0.13719855
43	0xbb942bb4	-0.0045218114
44	0x3db0c1d7	0.08630722
45	0x3c29f788	0.010373957
46	0xbdfeaf47	-0.12435775
47	0x3db2a94c	0.08723697
48	0x3c993133	0.018700218
49	0xbdf407fa	-0.11915584
50	0x3c8189f1	0.015812846
51	0x3b83aafe	0.0040181866
52	0xbe1ccef1	-0.15313317
53	0xbe2a3134	-0.16620332
54	0xbc893254	-0.016747631
55	0xbc8d0df8	-0.017218575
56	0xbd0653c3	-0.032794725
57	0xbdc9217c	-0.0982084
58	0x3c76ea87	0.015070564
59	0xbe11c4cc	-0.14235228
60	0xbdd97cc3	-0.106194995
61	0x3da94a72	0.082661524
62	0xbc2377e3	-0.009977314
63	0xbb415e01	-0.0029505494
64	0xbd37c890	-0.044869006
65	0xbe1f992d	-0.15585776
66	0xbca678cb	-0.02032127
67	0xbe50ec8f	-0.2040274
68	0x3de2947c	0.110634774
69	0xbddf7724	-0.10911396
70	0x3d081ff1	0.033233587
71	0xbc9137ca	-0.017726798
72	0x3ddaef05	0.106901206
73	0xbd88dec1	-0.06683112
74	0xbddf0985	-0.108904876
75	0x3d333017	0.043747034
76	0xbdff5cb7	-0.12468856
77	0x3d2ebe81	0.042662147
78	0x3d1f6815	0.03891762
79	0xbd42003b	-0.0473635
80	0x3d4b6cbb	0.04966424
81	0x3d805d21	0.06267763
82	0xbd86a365	-0.06574134
83	0xbd57b5aa	-0.052663483
84	0x3c65521e	0.013996629
85	0x3daabc1d	0.08336661
86	0x3d2f77f7	0.042839017
87	0x3da79e41	0.081844814
88	0xbddcb557	-0.10776775
89	0xbce2db51	-0.027692469
90	0x3e2191af	0.1577823
91	0x3dbdad3f	0.0926156
92	0xbdb5ca64	-0.088764936
93	0xbd49f8ca	-0.04930953
94	0x3d8e393b	0.069445096
95	0x3ddbf35d	0.10739777
96	0xbdbfb5de	-0.0936086
97	0xbda1617d	-0.078799225
98	0xbd8940e7	-0.06701832
99	0xbd4b853b	-0.049687605
100	0x3dcccba4	0.09999779
101	0xbde789bc	-0.113055676
102	0x3c805fe0	0.015670717
103	0xbd62d307	-0.055377033
104	0x3e2e4bcd	0.17021103
105	0xbda44c21	-0.08022333
106	0x3caeb932	0.021328542
107	0x3dc56d08	0.09639937
108	0xbd7d7f2f	-0.06188887
109	0x3d724f82	0.059157856
110	0xbd66d4a8	-0.05635515
111	0xbd102cdf	-0.035199042
112	0x3bb45490	0.0055032447
113	0xbbe267fc	-0.0069093686
114	0x3c9d494e	0.019199993
115	0xbda98f97	-0.08279341
116	0xbd911b6e	-0.0708531
117	0xbc567b58	-0.013090931
118	0x3d34d675	0.044149835
119	0x3c50e127	0.012748993
120	0xbdeeb4ae	-0.11655556
121	0x3ccbeec4	0.024894126
122	0xbd8f3169	-0.06991846
123	0xbda2a857	-0.079422645
124	0x3d80bcc1	0.06286002
125	0x3cbe4580	0.0232265
126	0xbdb895fc	-0.09012982
127	0x3d837c7c	0.06420228
128	0xbd52da5c	-0.051477775
129	0xbd02b2e3	-0.03190888
130	0x3ce92f4a	0.028464932
131	0x3d87a3e6	0.06623058
132	0x3c6f970d	0.014623416
133	0xbcf3921c	-0.029732756
134	0xbd62de8e	-0.055388026
135	0x3acece85	0.00157781
136	0x3ce556c5	0.027995476
137	0xbd48b1d2	-0.048997708
138	0xbc60d3dd	-0.013722387
139	0xbe07086e	-0.1318681
140	0xbc1251b4	-0.008930612
141	0x3d784ea1	0.06062186
142	0x3bbea061	0.0058174585
143	0xbe1b3d3c	-0.15160078
144	0x3a900b33	0.0010989666
145	0xbca6e998	-0.020375058
146	0xbdc6a182	-0.09698774
147	0xbc9b0f5c	-0.018928222
148	0xbda3193d	-0.07963798
149	0xbb5fdef6	-0.0034159995
150	0x3e00eec5	0.12591083
151	0xbe27ffc8	-0.16406167
152	0x3c8d07cd	0.017215634
153	0x3e1c4a4f	0.15262721
154	0xbd8ab433	-0.067726515
155	0x3d86139d	0.0654671
156	0x3bef9047	0.0073109004
157	0x3dcff341	0.10153819
158	0x3e02891c	0.12747616
159	0x3db7829f	0.08960461
160	0x3e1943e0	0.14967299
161	0x3ce386d5	0.027774254
162	0xbe2de284	-0.1698094
163	0x3d912e37	0.07088893
164	0xbd21afe3	-0.03947438
165	0xbd96673c	-0.07343909
166	0x3e033409	0.12812819
167	0x3dd80eaa	0.10549672
168	0xbd89547b	-0.067055665
169	0xbc1deef5	-0.009639491
170	0x3e3287db	0.17434637
171	0x3e2c9a57	0.16855751
172	0x3d3c1efc	0.045927987
173	0xbd4131ca	-0.047166623
174	0x3dc2507a	0.09488006
175	0xbc5aaf0f	-0.013347401
176	0x3d83be93	0.064328335
177	0x3c813f0b	0.015777132
178	0x3cb8ec86	0.02257372
179	0x3dddece8	0.10836202
180	0x3d6e9ca9	0.05825487
181	0xbd30b7a7	-0.043143895
182	0x3de8bd53	0.11364236
183	0xbcd88d18	-0.026434466
184	0x3d0fff26	0.035155438
185	0xbd073702	-0.033011444
186	0x3d461cf3	0.048367452
187	0xbded42bb	-0.115849935
188	0xbdd95a31	-0.10612906
189	0x3deda117	0.11602991
190	0x3cb42d97	0.021994395
191	0x3df966e8	0.12177831
192	0x3d4204f9	0.047368024
193	0x3d4a87a5	0.049445767
194	0xbc4f4725	-0.0126512395
195	0xbe4ec3ad	-0.20191832
196	0xbdf5cfdd	-0.120025374
197	0xbe198121	-0.14990665
198	0x3dd5dfd2	0.10443081
199	0xbe1fb2d1	-0.15595557
200	0x3d131ada	0.03591428
201	0xbdc3963a	-0.09550138
202	0xbcb28b65	-0.021794984
203	0x3ce823cc	0.028337382
204	0x3d8f2fd5	0.06991545
205	0x3da02ac3	0.07820656
206	0x3da551c8	0.08072239
207	0xbe469aad	-0.19394942
208	0xbe2b9654	-0.16756564
209	0xbe4362bf	-0.19080637
210	0xbdea8736	-0.11451571
211	0x3d8b36da	0.067975715
212	0x3d672d02	0.056439407
213	0x3dcbde26	0.09954481
214	0xbd8cb593	-0.0687057
215	0xbe137934	-0.14401704
216	0x3d07c2c2	0.03314472
217	0xbcebed78	-0.028799757
218	0x3cade53c	0.021227472
219	0x3d7eaf34	0.062178805
220	0xbc6cb30d	-0.014446986
221	0xbcf3b059	-0.029747175
222	0x3ce8c77e	0.028415438
223	0x3d724c26	0.059154652
224	0x3d639cc9	0.055569444
225	0xbe24873c	-0.16067213
226	0x3bebb586	0.00719327
227	0x3d0af881	0.033928398
228	0xbc129c60	-0.0089484155
229	0xbe1ffd66	-0.15624008
230	0x3da51b62	0.080618635
231	0x3cf4ab86	0.029866945
232	0x3de952cc	0.113927454
233	0xbd55979a	-0.05214653
234	0xbcd31067	-0.025764657
235	0x3e193a0f	0.14963554
236	0xbe6ac4f7	-0.22926699
237	0xbd20f538	-0.03929636
238	0x3b1e4dab	0.002415518
239	0xbc5ac4a6	-0.013352549
240	0xbdebce4a	-0.11513956
241	0x3d922ed6	0.071378395
242	0xbd24a6be	-0.04019808
243	0xbdf536fd	-0.11973379
244	0xbcbedb57	-0.023297949
245	0x3d21ce4a	0.039503373
246	0xbd1c837f	-0.038211342
247	0xbe005356	-0.1253179
248	0x3d9a0061	0.075196035
249	0xbd8a6b6a	-0.06758769
250	0xbe1a4803	-0.15066533
251	0xbe2921a9	-0.16516747
252	0xbdffc6a2	-0.12489058
253	0x3df29397	0.11844557
254	0x3c008bce	0.007845832
255	0x3d4b962f	0.049703773

fc2.bias f4 [32]
0	0x3dd98944	0.106218845
1	0xbde8df4c	-0.113707155
2	0x3d879036	0.06619303
3	0xbdbf6775	-0.09345905
4	0xbc95e9f5	-0.018300036
5	0xbdc88643	-0.097912334
6	0x3dd01cdb	0.10161754
7	0xbd9de08e	-0.07708846
8	0x3d4d6f27	0.05015483
9	0xbdf74a6f	-0.12074744
10	0x3cab72b8	0.020928726
11	0xbdd5b84d	-0.10435543
12	0xbdcf036c	-0.101080745
13	0x3da669e0	0.08125663
14	0xbe53a1db	-0.20667212
15	0xbdc08f01	-0.09402276
16	0xbd8209a8	-0.06349498
17	0x3ded63de	0.11591314
18	0x3bf994fa	0.0076166363
19	0x3dd7ee2e	0.10543476
20	0xbe1374dc	-0.14400047
21	0xbd893666	-0.06699829
22	0x3d980214	0.07422271
23	0xbd0f3707	-0.034964588
24	0xbd47c0ab	-0.048767727
25	0xbd4c38df	-0.049858924
26	0x3bfe01ab	0.0077516637
27	0xbe74679c	-0.23867649
28	0xbd9ef507	-0.07761579
29	0x3d1386b0	0.03601712
30	0x3e43b6b8	0.1911267
31	0xbd8be5b1	-0.068309195

fc3.weight f4 [3, 32]
0	0x3cb4a4b1	0.022051187
1	0xba67db66	-0.00088446436
2	0x3d628c99	0.055309866
3	0x3e1a6971	0.15079285
4	0x3cc62148	0.024185792
5	0xbdad2ecf	-0.08456194
6	0xbe0bbc86	-0.13646135
7	0x3e103b98	0.14085233
8	0x3d32c9fd	0.043649662
9	0x3d0517b9	0.032493327
10	0xbe6966bf	-0.22793101
11	0x3d14b017	0.036300745
12	0xbd3de460	-0.046360373
13	0x3d06452d	0.032780815
14	0xbe2b9e53	-0.16759615
15	0x3d812fd5	0.06307951
16	0x3c351076	0.011051288
17	0xbdaabc3b	-0.08336683
18	0xbd66ebd8	-0.056377262
19	0x3e0cc066	0.13745269
20	0xbdbdb19f	-0.09262394
21	0xbd757926	-0.05992999
22	0xbdcbfd43	-0.09960415
23	0x3dc23b6b	0.09483989
24	0xbc007ffc	-0.007843014
25	0x3d9eba3e	0.07750367
26	0xbe14063d	-0.14455505
27	0x3d9eefeb	0.077606045
28	0x3e13a80a	0.1441957
29	0xbdcabd6e	-0.09899412
30	0x3ce21871	0.027599545
31	0x3da99ef8	0.08282274
32	0xbd14a722	-0.036292203
33	0xbdeb3504	-0.11484721
34	0xbd67a650	-0.056555092
35	0x3d8a210a	0.06744583
36	0xbd730b65	-0.05933704
37	0xbcfce6d4	-0.030871786
38	0x3e1b4d37	0.15166174
39	0xbe406e34	-0.18792039
40	0xbdc71f43	-0.097227596
41	0xbe33763f	-0.17525576
42	0xbe4b810e	-0.19873449
43	0x3d23464e	0.03986197
44	0x3db0cbf4	0.08632651
45	0xbe05268f	-0.1300299
46	0xbe0c5a4d	-0.13706322
47	0x3cc8e222	0.024521891
48	0xbe04da58	-0.12973917
49	0x3caa3426	0.02077682
50	0x3e0fdca0	0.14049006
51	0xbd1d938b	-0.038470786
52	0xbdd068ad	-0.10176215
53	0xbc448e90	-0.01199688
54	0x3e24f55b	0.1610922
55	0xbdb7eb64	-0.08980444
56	0x3e09ab5f	0.13444279
57	0xbe105d97	-0.14098202
58	0xbd4ccf50	-0.050002396
59	0x3cffa099	0.031204509
60	0xbe33bb6a	-0.17551962
61	0x3d24723f	0.040148016
62	0x3dacdd77	0.084406786
63	0xbb70d1bd	-0.0036746108
64	0xbd89fc89	-0.067376204
65	0xbc87306d	-0.016502583
66	0xbdfd7123	-0.12375095
67	0x3d43c2b8	0.04779312
68	0xbddcceeb	-0.10781654
69	0xbdad542f	-0.08463322
70	0x3d72d91b	0.05928908
71	0x3d8ae205	0.06781391
72	0xbdaa3214	-0.08310333
73	0x3e42d019	0.19024695
74	0x3e2a5911	0.16635539
75	0xbcff088f	-0.03113201
76	0xbd3b0401	-0.045658115
77	0xbad7af36	-0.0016455415
78	0x3df6e2be	0.120549664
79	0x3e1ac7c5	0.15115269
80	0x3d20312d	0.039109398
81	0xbe5a9899	-0.21347274
82	0xbe3d874e	-0.18508646
83	0x3da73c2d	0.081657745
84	0xbdba5b4d	-0.090994455
85	0xbe7ce61d	-0.24697156
86	0x3e19f122	0.15033391
87	0xbe00f0cc	-0.12591857
88	0xbdab64de	-0.08368848
89	0x3db09eab	0.086240135
90	0x3e33f3b5	0.17573436
91	0x3e35774c	0.1772129
92	0xbd956c3c	-0.07296035
93	0x3d90d719	0.070722766
94	0xbe0edc7a	-0.13951293
95	0xbe09e723	-0.13467078

fc3.bias f4 [3]
0	0xbd1e6ca3	-0.038677823
1	0xbd4faa69	-0.050699625
2	0x3df5aa0a	0.11995323

onnx::LSTM_209 f4 [1, 512, 2]
0	0x3d9086c5	0.07056955
1	0xbc5fb195	-0.013653179
2	0xbde05037	-0.109528
3	0xbdbb0b6f	-0.0913304
4	0x3de96359	0.11395902
5	0xbdf10703	-0.117689155
6	0xbc556fbc	-0.013027128
7	0xbc92ad62	-0.017904941
8	0xbe312928	-0.17300856
9	0xbce06009	-0.027389543
10	0xbdb79e90	-0.0896579
11	0x3c652edf	0.013988226
12	0x3b6e13c4	0.00363277
13	0xbd3794a6	-0.044819497
14	0x3d4421df	0.047883864
15	0x3d8d23b0	0.068915725
16	0x3d857566	0.065165326
17	0xbc6ccf3d	-0.014453706
18	0xbd68f40b	-0.056873363
19	0xbd5aa53f	-0.053380247
20	0xbcf3dbe9	-0.029767947
21	0xbe05ca5d	-0.13065477
22	0xbd3d8a88	-0.04627469
23	0xbd01a587	-0.031652
24	0xbd180c84	-0.03712131
25	0x3d8212f6	0.06351273
26	0xbdb1a57b	-0.08674141
27	0xbe7a6cc2	-0.2445555
28	0xbdaa33f7	-0.08310693
29	0xbe1f09bd	-0.15531059
30	0xbdd70253	-0.1049849
31	0x3d6b97a7	0.057517674
32	0xbe85d38e	-0.26137966
33	0xbc5d34f2	-0.013501393
34	0x3d1e3040	0.038620234
35	0xbcdb0f64	-0.026740737
36	0xbd358d8c	-0.044324443
37	0xbd8af045	-0.06784109
38	0xbdd1ee58	-0.102505386
39	0xbdb64202	-0.08899309
40	0xbd8adac5	-0.06780008
41	0x3cdf25e5	0.02723975
42	0xbe46c49c	-0.19410938
43	0xbcdbab1e	-0.026814993
44	0xbd70f259	-0.05882487
45	0xbe0b8bc4	-0.13627535
46	0xbe068a87	-0.13138781
47	0xbdc4c346	-0.09607558
48	0xbe04cd95	-0.12969048
49	0x3d03f7c3	0.032218706
50	0xbe58371d	-0.21114774
51	0xbdef3e1f	-0.116817705
52	0xbdf57f2e	-0.11987148
53	0xbe1b4fd1	-0.15167166
54	0xbbd36d76	-0.0064522577
55	0x3d0bea23	0.034158837
56	0x3ac7d812	0.0015246889
57	0x3e3e9462	0.18611291
58	0xbd825e6b	-0.06365665
59	0xbe0dffa9	-0.13867058
60	0xbe22a30c	-0.1588251
61	0xbe496439	-0.19667138
62	0xbda6c287	-0.08142572
63	0xbda74144	-0.08166745
64	0x3da113b4	0.07865086
65	0x3cfe1349	0.031015055
66	0xbcec4186	-0.028839838
67	0xbe0d7e9d	-0.1381783
68	0x3cb737b2	0.022365425
69	0x3d577318	0.052599996
70	0xbe88267a	-0.26591855
71	0xbcdb6f36	-0.026786428
72	0x3db0f52d	0.086405136
73	0x3d96d766	0.07365303
74	0x3e5af4a1	0.21382381
75	0x3e2b8ca4	0.16752869
76	0xbd15e4d3	-0.036595177
77	0xbe04e75a	-0.12978879
78	0xbd27d94a	-0.040978707
79	0xbd83f6c4	-0.06443551
80	0xbdd2f285	-0.10300163
81	0xbdfa9d6f	-0.12237059
82	0x3d1ca87f	0.038246628
83	0x3b9ee339	0.0048488644
84	0xbdcdb2f0	-0.10043895
85	0xbd999c86	-0.075005576
86	0xbc0f0065	-0.008728121
87	0xbb4e53c9	-0.0031483045
88	0x3dc52fa1	0.09628225
89	0xbd5f61df	-0.054536697
90	0xbdfdb5b8	-0.12388176
91	0x3d221c4d	0.03957777
92	0xbdbe8359	-0.09302396
93	0x3dab581d	0.08366416
94	0x3d47e96d	0.048806597
95	0x3c0a404e	0.008438183
96	0xbc471011	-0.012149827
97	0xbe2d5cbd	-0.16929908
98	0xbd471a5e	-0.04860913
99	0x3d9cfe18	0.07665652
100	0x3ca0aa8a	0.01961257
101	0xbe7b47c8	-0.24539101
102	0x3c7d7cc8	0.015471645
103	0xbd502102	-0.05081273
104	0xbe0e1ad7	-0.13877426
105	0x3ce873d6	0.028375547
106	0xbb74a32e	-0.0037328708
107	0xbe3d2be5	-0.18473776
108	0xbd4e32ba	-0.050341345
109	0xbd9d1948	-0.07670838
110	0x3aacd02a	0.0013184596
111	0x3d6a0eab	0.057142895
112	0xbe70585f	-0.23471211
113	0xbdd4a5a0	-0.10383153
114	0x3d7a6c63	0.061138522
115	0x3d4cd66c	0.050009176
116	0xbe1e5167	-0.1546074
117	0xbe0cad2b	-0.13737933
118	0xbd3652b6	-0.044512473
119	0xbe4e9276	-0.20173058
120	0x3d801405	0.062538184
121	0xbdab6b3a	-0.08370061
122	0x3d711498	0.05885753
123	0x3ce7abe4	0.028280206
124	0x3d9940ef	0.07483088
125	0xbe46d465	-0.1941696
126	0xbe566fb5	-0.2094105
127	0xbd73d81d	-0.059532274
128	0xbcf6ba06	-0.030118
129	0x3e0e8cc2	0.13920882
130	0xbdf059c2	-0.1173587
131	0xbd9895ee	-0.07450472
132	0xbe48b911	-0.19601847
133	0xbdc4749a	-0.095925525
134	0xbe2eebad	-0.1708209
135	0x3df63aca	0.12022932
136	0x3d8776fb	0.066144906
137	0x3d5e6fb8	0.054305762
138	0xbc50c08e	-0.012741221
139	0xbde5ac50	-0.112145066
140	0x3df7f9fd	0.12108228
141	0xbd30c41e	-0.043155782
142	0xbcd2960d	-0.025706315
143	0xbc7192ab	-0.014744441
144	0xbe11ca0b	-0.1423723
145	0xbd22294f	-0.039590176
146	0xbd5fb94f	-0.054620083
147	0xbe167ae0	-0.1469531
148	0xbe3a5299	-0.18195571
149	0xbda6c071	-0.08142174
150	0xbcecb63e	-0.028895494
151	0xbc8aa658	-0.016925022
152	0xbd7450bf	-0.059647318
153	0xbd2af5c5	-0.04173829
154	0xbd743a91	-0.059626166
155	0xbdd3b124	-0.10336521
156	0xbd447ab6	-0.04796859
157	0xba8ec834	-0.0010893405
158	0xbd8e0410	-0.069343686
159	0xbe10e6a1	-0.14150478
160	0xbd84e838	-0.06489605
161	0xbc1de46e	-0.009636981
162	0xbd6c7b84	-0.05773498
163	0xbdf3127c	-0.1186876
164	0xbe281670	-0.16414809
165	0xbd149058	-0.03627047
166	0xbe66fd2a	-0.22557512
167	0x3b7dce2d	0.0038727627
168	0x3d248611	0.04016692
169	0xbc06babe	-0.008223234
170	0xbe18fa11	-0.14939143
171	0xbdd9dbb5	-0.10637609
172	0xbd767c21	-0.060176972
173	0xbe081c99	-0.13292159
174	0x3b971990	0.0046112016
175	0xbd836eb3	-0.064175986
176	0xbd43b6a7	-0.047781613
177	0xbe142f99	-0.14471282
178	0x3e8dc53e	0.27689546
179	0x3d5c09d1	0.0537203
180	0xbe0dee05	-0.13860328
181	0xbcb675c4	-0.022272952
182	0xbde6963d	-0.112591244
183	0xbd92b903	-0.071641944
184	0xbdce9934	-0.10087815
185	0xbe4a5fba	-0.1976308
186	0xbd0ca201	-0.034334186
187	0xbe17ff46	-0.14843473
188	0xbe48b5b8	-0.1960057
189	0xbe0411db	-0.12897436
190	0xbdb915f1	-0.09037388
191	0x3cfb339c	0.030664258
192	0xbd76d405	-0.06026079
193	0xbd414b95	-0.04719122
194	0xbe287359	-0.16450252
195	0x3d3d29ec	0.046182558
196	0xbac196e3	-0.0014769699
197	0xbd8d8534	-0.06910172
198	0xbe4f2c09	-0.20231642
199	0xbe3ba8dd	-0.18326135
200	0x3d9d075c	0.07667419
201	0xbd2ea42f	-0.042637046
202	0xbc83204f	-0.016006617
203	0x3dd53892	0.104111806
204	0xbe3bcebc	-0.18340582
205	0xbcf9fbbf	-0.03051555
206	0x3d26b39c	0.040698633
207	0xbe0e27e3	-0.13882403
208	0xbe6c7730	-0.23092341
209	0x3de55cba	0.11199327
210	0xbd85e42f	-0.06537663
211	0xbdb8fe62	-0.09032895
212	0xbe4308c7	-0.19046317
213	0xbd00f6c9	-0.031485353
214	0x3db0dda7	0.08636027
215	0xbe49cee9	-0.19707836
216	0xbdd85fa9	-0.10565121
217	0x3c3bf42e	0.011471791
218	0xbda276e1	-0.079328306
219	0x3d70db6b	0.058803003
220	0xbd9d059e	-0.07667087
221	0xbd4a9893	-0.049461912
222	0xbe5b5c38	-0.21421897
223	0x3d53f9be	0.051751845
224	0xbd978b92	-0.07399668
225	0x3ce2dbbe	0.027692672
226	0x3d327549	0.043568883
227	0xbc841d3b	-0.01612722
228	0xbc6a6b3d	-0.014307794
229	0xbcfe31ea	-0.03102966
230	0xbe9285a3	-0.28617582
231	0xbdc78109	-0.097414084
232	0xbe223083	-0.15838818
233	0xbd7fb703	-0.062430393
234	0xbe8fa6f3	-0.2805706
235	0xbe399e01	-0.1812668
236	0xbc7c8f36	-0.0154150035
237	0xbbc411d1	-0.005983569
238	0xbdf6f07f	-0.1205759
239	0xbd830fc8	-0.063994944
240	0xbda18501	-0.078866966
241	0xbdb14dd7	-0.08657425
242	0xbbbf5387	-0.0058388147
243	0xbd082422	-0.033237584
244	0x3dffe182	0.12494184
245	0x3d4f1a8c	0.050562426
246	0xbbb05bdd	-0.0053820447
247	0xbd7a5420	-0.061115384
248	0x3e1787f0	0.1479795
249	0x3e09daec	0.13462418
250	0x3e0fdf0e	0.14049932
251	0x3d301c30	0.04299563
252	0xbd2f8ed3	-0.042860817
253	0x3d220216	0.03955277
254	0x3d42b2f1	0.047533933
255	0xbdb0aa6e	-0.08626257

onnx::LSTM_210 f4 [1, 512, 128]
0	0xbe02f567	-0.12788926
1	0xbd1ea785	-0.038733978
2	0x3e05ce71	0.13067032
3	0x3c93fcf5	0.018064955
4	0x3d638afb	0.055552464
5	0xbcf6ae85	-0.030112514
6	0x3dd74826	0.10511808
7	0x3c63fae1	0.013914795
8	0xbd5bed92	-0.05369336
9	0xbe2e8aff	-0.1704521
10	0xbc80d8dd	-0.015728408
11	0x3cc2cbf5	0.023778895
12	0xbc6aae56	-0.0143237915
13	0xbdcb9b30	-0.09941709
14	0x3dc61b29	0.09673149
15	0x3c410c35	0.011782696
16	0xbda13408	-0.07871252
17	0xbd1ac1aa	-0.03778235
18	0xbd747101	-0.05967808
19	0x3cb5d068	0.022194102
20	0xbde7a145	-0.113100566
21	0xbd1949f7	-0.037424054
22	0xbd853908	-0.065050185
23	0xbd30b869	-0.043144617
24	0xbd57c146	-0.052674554
25	0x3cbe4527	0.023226334
26	0x3d964cb1	0.073388465
27	0xbd2eeeb1	-0.042708103
28	0x3d4831e3	0.0488757
29	0x3cf0c034	0.029388525
30	0xbdb86e70	-0.09005439
31	0x3d4a7ba9	0.049434338
32	0xbc730411	-0.0148325125
33	0x3d811f67	0.06304818
34	0xbd59659a	-0.05307541
35	0x3d3a9447	0.045551565
36	0x3cdade36	0.026717287
37	0xbb3af75f	-0.0028528792
38	0xbc4dc19f	-0.01255837
39	0xbaf6f858	-0.0018842323
40	0x3d5d19ec	0.0539798
41	0x3d927794	0.07151714
42	0x3e007597	0.12544857
43	0x3c442584	0.011971835
44	0x3bc46221	0.005993143
45	0xbdb8a11b	-0.090151034
46	0xbd9630ec	-0.0733355
47	0x3dbffb12	0.0937406
48	0x3d6a0206	0.057130836
49	0xbcae7ca0	-0.02129966
50	0xbdc0a4fd	-0.09406469
51	0xbcbcfae8	-0.02306886
52	0x3d5067dd	0.0508803
53	0xbdbf806f	-0.09350669
54	0xbd54e632	-0.051977344
55	0xbc883bc6	-0.016630065
56	0xbe0190a8	-0.12652838
57	0xbc23e5e5	-0.010003542
58	0xbd234709	-0.039862666
59	0x3d58850a	0.05286125
60	0xbd8e2b47	-0.06941848
61	0x3d0b0fa5	0.033950467
62	0xba8d77f1	-0.0010793192
63	0x3c045f66	0.008079385
64	0xbc035795	-0.008016487
65	0xbd8eea9d	-0.06978343
66	0x3dd141a0	0.10217595
67	0xbccc4371	-0.024934502
68	0xbacef70a	-0.0015790176
69	0xbdce8945	-0.10084776
70	0x3ccaaaab	0.024739584
71	0xbd38b496	-0.045094095
72	0xbd4ce1f1	-0.050020162
73	0xbcab4da5	-0.020911047
74	0x3cc2e367	0.023790075
75	0xbcd7d203	-0.026345259
76	0xbdd9b87b	-0.1063089
77	0xbc8ace9f	-0.016944228
78	0x3da12b15	0.07869545
79	0x3d98c23c	0.07458922
80	0x3d54f9df	0.05199611
81	0xbcb4f87f	-0.022091148
82	0x3bb7a8ba	0.0056048306
83	0x3d5a65aa	0.05331961
84	0x3d9c7922	0.07640292
85	0x3d64db04	0.055872932
86	0x3d944d0c	0.07241258
87	0xbd2c60d7	-0.04208454
88	0xbd605ab7	-0.054774012
89	0x3d19d406	0.037555717
90	0x3cacc78b	0.021091243
91	0xbdbffb3b	-0.0937409
92	0xbc9c1262	-0.019051734
93	0xbcab57e2	-0.02091593
94	0x3cdfaa15	0.027302781
95	0x3d961fed	0.07330308
96	0xbc89a98b	-0.016804477
97	0xbdf8d293	-0.12149539
98	0xbbc2807c	-0.0059357267
99	0x3caf3ee7	0.021392299
100	0xbdabd088	-0.083893836
101	0xbdb65ce8	-0.08904439
102	0xbc5e380f	-0.01356317
103	0xbdddf4fe	-0.10837744
104	0x3ce0f751	0.02746168
105	0x3dba2e20	0.09090829
106	0x3cdc1d53	0.026869452
107	0x3df24caa	0.11831029
108	0xbce273d9	-0.027643131
109	0xbd89e36d	-0.06732831
110	0xbd70ebc7	-0.058818605
111	0xbc6b9fbe	-0.014381347
112	0x3e05d326	0.13068828
113	0x3d01d641	0.03169847
114	0xbd17d36f	-0.037066873
115	0xbde0f109	-0.10983474
116	0xbdc99999	-0.098437496
117	0x3d9d8888	0.07692057
118	0xbdd6c9a7	-0.10487681
119	0x3de4dac4	0.11174539
120	0x3c9ee82e	0.019397821
121	0x3d8de2d1	0.069280274
122	0x3ce46180	0.027878523
123	0x3d530654	0.051519707
124	0x3d8c9e38	0.06866115
125	0x3d71082d	0.058845688
126	0x3d57eef5	0.05271812
127	0xbd13e859	-0.036110256
128	0x3de1171f	0.10990738
129	0x3e470860	0.19436789
130	0xbe3cec8d	-0.18449612
131	0xbbb4231b	-0.005497349
132	0xbd8f6d3b	-0.07003256
133	0xbd23a62c	-0.039953396
134	0xbd8601a5	-0.065432824
135	0xbd3e3596	-0.046437822
136	0xbda0eefd	-0.078580834
137	0xbc6da606	-0.014504915
138	0x3c63cabd	0.013903317
139	0xbe4917b8	-0.19637954
140	0x3d91cd2a	0.0711921
141	0x3e8e589f	0.27801988
142	0x3e0a04f6	0.13478455
143	0x3d88b97b	0.066760026
144	0xbe3078f5	-0.17233641
145	0x3eb06b8e	0.34457058
146	0xbe7db5e1	-0.24776413
147	0xbdc0aa93	-0.094075345
148	0x3b511765	0.0031904813
149	0x3e778b6a	0.24174276
150	0x3d4d1d7d	0.05007695
151	0x3d786a01	0.06064797
152	0xbdacbb2f	-0.0843414
153	0xbd3bb097	-0.045822706
154	0xbe2c049c	-0.16798633
155	0x3e243716	0.16036639
156	0x3e16428f	0.14673828
157	0xbc83286d	-0.016010487
158	0x3b6a0f4f	0.003571469
159	0xbde0364d	-0.10947857
160	0xbd630f56	-0.055434547
161	0xbdefae81	-0.11703206
162	0x3e31b889	0.17355551
163	0x3d3a5ca6	0.045498513
164	0x3e25d422	0.16194203
165	0x3e5f184f	0.21786617
166	0xbc1062ec	-0.008812647
167	0x3d9a50c7	0.07534938
168	0x3c7e2e51	0.015513972
169	0x3e1afd99	0.15135802
170	0xbe7a8d33	-0.24467926
171	0x3d5c34ea	0.0537614
172	0x3de9871c	0.11402723
173	0xbd728d23	-0.05921663
174	0x3ded2412	0.115791455
175	0xbe23d2a2	-0.15998319
176	0xbbd9d57b	-0.0066477633
177	0x3dad05db	0.084483825
178	0x3d44937e	0.047992222
179	0x3df68b26	0.12038259
180	0x3e7efa53	0.24900179
181	0xbd184faf	-0.037185367
182	0xbe10229d	-0.14075704
183	0xbe0a4dcb	-0.13506238
184	0xbcb25940	-0.021771073
185	0x3e5d785c	0.21627945
186	0x3e30d47c	0.17268556
187	0xbe22a809	-0.15884413
188	0x3d6d88a4	0.05799164
189	0xbda41f6d	-0.080138065
190	0x3d90c60a	0.07069023
191	0x3e76ecd6	0.24113783
192	0xbe5fd8c3	-0.21860032
193	0xbe077495	-0.13228066
194	0x3d002e83	0.031294357
195	0xbd9aae08	-0.07552725
196	0xbe00ff0b	-0.12597291
197	0xbe15fbdc	-0.14646858
198	0xbdbed827	-0.093185715
199	0xbc85d810	-0.016338378
200	0xbca5621f	-0.02018839
201	0x3d08c677	0.033392396
202	0xbe4f2a5d	-0.20231004
203	0x3e1fcca9	0.15605415
204	0x3d66053b	0.056157332
205	0x3d81afc2	0.06332351
206	0xbcbc2bf8	-0.022970185
207	0xbe08c2d3	-0.1335557
208	0x3d643a14	0.05571945
209	0x3de3019d	0.11084292
210	0x3db7a0e8	0.08966237
211	0x3df89e4b	0.12139567
212	0x3e8108f1	0.25202134
213	0x3de2da7c	0.11076829
214	0x3c916adb	0.017751148
215	0x3e22acb7	0.15886198
216	0xbd80a51c	-0.06281492
217	0x3de714f8	0.11283296
218	0xbd9e6d01	-0.077356346
219	0xbe656ddd	-0.22405191
220	0xbd8509a6	-0.06495981
221	0x3e2db380	0.16963005
222	0xbc6998dc	-0.014257636
223	0x3e219614	0.15779907
224	0xbe5128a7	-0.20425664
225	0x3d9b7a1e	0.075916514
226	0xbdb58e1e	-0.08864997
227	0x3dec762e	0.115459785
228	0x3d1dfafd	0.03856944
229	0x3dadf8be	0.084947094
230	0x3c8d3726	0.01723821
231	0x3dcd717e	0.100314125
232	0x3e25a77b	0.1617717
233	0xbc74e5a3	-0.014947328
234	0xbe0f7b20	-0.14011812
235	0xbdeb5434	-0.1149067
236	0x3d905fd9	0.070495315
237	0xbd345b3b	-0.044032317
238	0x3e57e48f	0.21083282
239	0xbd4ef074	-0.050522283
240	0x3e11a08d	0.14221402
241	0x3db9a665	0.0906494
242	0x3c014ce0	0.007891864
243	0x3d397896	0.045281015
244	0xbca87c7c	-0.020567171
245	0xbc618b4a	-0.013766119
246	0xbe900b48	-0.28133607
247	0x3d449d3d	0.048001517
248	0xbc04409d	-0.008072046
249	0xbe6c78b7	-0.23092924
250	0xbe891332	-0.26772457
251	0xbd95fdc9	-0.07323796
252	0x3e2bc7d7	0.16775452
253	0xbe57c5c3	-0.21071534
254	0xbe4c7b3f	-0.1996889
255	0xbe1a702f	-0.15081857

onnx::LSTM_211 f4 [1, 1024]
0	0x3c1d26df	0.009591787
1	0xbe207206	-0.15668496
2	0xbcc8af41	-0.02449763
3	0xbd8bda5f	-0.0682876
4	0xbe00abd4	-0.12565547
5	0xbe27f7b2	-0.16403082
6	0xbe23071d	-0.15920682
7	0xbe1c5a7c	-0.15268892
8	0x3d8448e3	0.064592145
9	0x3d1e298e	0.03861385
10	0x3c64d042	0.013965668
11	0xbe182061	-0.14856102
12	0xbd36caa3	-0.044626843
13	0x3d699c6d	0.057033945
14	0xbde1dbc2	-0.110282436
15	0xbe1ba4d8	-0.15199602
16	0x3cde172f	0.027110664
17	0x3d6e3121	0.05815232
18	0xbda49d67	-0.080378346
19	0xbced502b	-0.028968891
20	0xbe175200	-0.14777374
21	0x3e0b40e2	0.1359897
22	0xbe08d4ac	-0.13362378
23	0xbe25a1c7	-0.16174994
24	0xbdb1d7cf	-0.0868374
25	0xbc4d0ced	-0.012515289
26	0x3d874325	0.06604604
27	0x3db68964	0.08912924
28	0x3c8e787e	0.01739144
29	0xbe0ab8ac	-0.13547009
30	0xbe1ae0b6	-0.15124783
31	0xbc8856fe	-0.016643044
32	0xbcf591b0	-0.029976696
33	0x3b47f9bd	0.0030513846
34	0x3ddd2689	0.107983656
35	0xbd1d343b	-0.03837989
36	0x3e1c7f87	0.15283023
37	0x3e05ae3a	0.13054743
38	0xbcb161b4	-0.021653034
39	0xbe65af2c	-0.22430104
40	0x3d3637d5	0.04448684
41	0x3d2635c1	0.040578607
42	0xbb454ab2	-0.0030104336
43	0x3dc9612b	0.098329864
44	0x3c7e14f0	0.015507922
45	0x3cb7eee4	0.02245278
46	0x3d76f10c	0.060288474
47	0xbd90ab0c	-0.070638746
48	0xbd436ef1	-0.047713224
49	0x3d179641	0.037008528
50	0xbd9d4568	-0.07679254
51	0xbdebe040	-0.11517382
52	0xbd2c6473	-0.042087983
53	0xbdd0fde9	-0.102046795
54	0xbcb2c446	-0.021822106
55	0xbcafaf34	-0.021445848
56	0xbe1558a0	-0.14584589
57	0xbd6ce8cc	-0.0578392
58	0xbc922362	-0.017839137
59	0xbdb2bce3	-0.087274335
60	0xbdd8b577	-0.10581487
61	0x3dbc1e9f	0.09185528
62	0xbb42caec	-0.0029723002
63	0x3d943800	0.07237244
64	0x3d8d23b1	0.06891573
65	0xbe244f66	-0.16045913
66	0xbd2b9ab1	-0.041895572
67	0x3c8be01c	0.017074637
68	0x3d6677f4	0.05626674
69	0xbe068793	-0.13137655
70	0x3dd8c6c4	0.105847865
71	0xb96a9834	-0.00022372679
72	0xbe13b33f	-0.14423846
73	0xbdc3695b	-0.09541579
74	0xbe106c2f	-0.14103769
75	0xbd8479cf	-0.06468546
76	0xbde32b50	-0.110922456
77	0xbcd50287	-0.026002182
78	0xbd80d2c9	-0.06290204
79	0xbe55b668	-0.20870364
80	0x3cb4fce3	0.022093242
81	0x3d324147	0.043519285
82	0xbd7b0f4b	-0.06129388
83	0xbd5fe7d3	-0.054664444
84	0x3db5ca07	0.08876424
85	0xbcc56b3d	-0.024098987
86	0xbc56bad9	-0.013106071
87	0xbd3b8b8a	-0.04578737
88	0xbd5b8229	-0.053590927
89	0x3ce4b27a	0.027917136
90	0xbd6a31ba	-0.05717633
91	0xbd9c3152	-0.076265946
92	0xbe263e50	-0.16234708
93	0xbd5915d1	-0.05299932
94	0xbd7090f1	-0.058731977
95	0xbd4cee9e	-0.05003225
96	0xbd7d9b8f	-0.06191593
97	0xbdab6c96	-0.083703205
98	0xbdb1b6ee	-0.08677469
99	0xbd0604b2	-0.03271932
100	0x3ba39bc5	0.0049929344
101	0xbcf24c27	-0.029577328
102	0xbdf97af1	-0.12181652
103	0xbe20089b	-0.15628283
104	0x3d34ca69	0.044138346
105	0xbe0829ce	-0.13297197
106	0x3c72789e	0.014799265
107	0x3ce79daf	0.028273432
108	0x3c11a710	0.008889928
109	0xbd8725da	-0.065990165
110	0xbbcfdb2f	-0.0063432674
111	0x3cb0f1db	0.0215997
112	0xbdc0cf80	-0.094145775
113	0xbd242a5a	-0.040079452
114	0x3c8db613	0.017298734
115	0xbe3a6f8d	-0.18206616
116	0xbd83d680	-0.06437397
117	0xbddccd84	-0.107813865
118	0x3db4c703	0.08827021
119	0xbdb4f515	-0.08835808
120	0xbd58a5c9	-0.05289248
121	0xbd804854	-0.062637955
122	0x3e2ab51b	0.16670649
123	0xbd8ce873	-0.06880274
124	0x3de527fd	0.11189268
125	0xbb6f6f7e	-0.003653496
126	0xbcd91492	-0.026499067
127	0x3d842dab	0.06454023
128	0xbdaf60d1	-0.08563388
129	0xbc72b402	-0.014813425
130	0xb9ff66c0	-0.00048713945
131	0xbddf39da	-0.10899706
132	0x3cc28794	0.02374629
133	0xbe3a9dec	-0.18224305
134	0xbe10582f	-0.1409614
135	0xbdaad014	-0.08340469
136	0xbca6ff10	-0.020385295
137	0xbdba68b2	-0.09102
138	0xbbd1b542	-0.0063997814
139	0xbda44b39	-0.0802216
140	0x3cac3148	0.021019593
141	0x3e170ec2	0.14751723
142	0xbd9cbf7f	-0.076537125
143	0xbe301ed5	-0.17199261
144	0xbdb0234b	-0.086004816
145	0xbd16e772	-0.036841817
146	0xbd2c7d5d	-0.042111743
147	0xbd866044	-0.0656133
148	0xbd1c982c	-0.03823106
149	0x3d7c45af	0.061589893
150	0xbdde7f02	-0.108640686
151	0xbd4b8c0b	-0.049694102
152	0xbddd1b53	-0.10796227
153	0xbd0580ed	-0.032593656
154	0x3c1aa758	0.009439312
155	0x3d7e4c18	0.062084287
156	0xbc7046cc	-0.014665317
157	0xbdff227b	-0.124577485
158	0xbe59316a	-0.21210256
159	0xbcc20965	-0.02368612
160	0x3dabe714	0.08393684
161	0xbe2feffd	-0.17181392
162	0x3c336a95	0.010950704
163	0xbe0cb2aa	-0.1374003
164	0x3e0f8c90	0.14018464
165	0xbb7fb639	-0.0039018525
166	0xbd9b46ba	-0.075818494
167	0xbdcd31a2	-0.10019232
168	0x3cd2d7cf	0.025737671
169	0xbcb23c39	-0.021757232
170	0xbdd31b85	-0.10307983
171	0x3d06d92f	0.032921966
172	0xbc6f0eb9	-0.0145909125
173	0xbdab8091	-0.083741315
174	0x3d57e90e	0.052712493
175	0xbd9e6c56	-0.07735507
176	0xbc87990e	-0.016552474
177	0xbd5df173	-0.054185342
178	0xbdf25686	-0.11832909
179	0x3d0eb028	0.034835964
180	0xbdb7a2ca	-0.089665964
181	0xbd7f1715	-0.062277872
182	0xbc128698	-0.008943222
183	0x3c5132b7	0.012768439
184	0xbe27f74c	-0.1640293
185	0x3d5a1597	0.053243246
186	0x3ccc0759	0.024905847
187	0xbd6b1044	-0.05738856
188	0xbe137571	-0.14400269
189	0x3d990083	0.07470801
190	0xbdc554ed	-0.09635339
191	0x3cb05e9a	0.021529485
192	0x3d677a87	0.056513336
193	0xbdcf7aff	-0.101308815
194	0xbdbd0c3b	-0.092308484
195	0x3cb1c432	0.021699999
196	0x3b2971b3	0.0025855124
197	0xbddfcb7c	-0.109274834
198	0xba4cfebe	-0.0007819942
199	0xbb0a7943	-0.0021129407
200	0xbd339127	-0.0438396
201	0xbe6732d4	-0.22577983
202	0xbdfdc54f	-0.12391149
203	0xbcd5de7d	-0.026107067
204	0xbe008a3c	-0.12552732
205	0xbd98fdfc	-0.07470319
206	0xbdb61489	-0.088906355
207	0xbdd63db2	-0.10460986
208	0x3c2dce99	0.010608339
209	0xbbd8bb21	-0.0066141044
210	0xbe1fe7dc	-0.15615791
211	0xbbde2f07	-0.0067805084
212	0xbd63e37a	-0.05563686
213	0x3d11c771	0.035590593
214	0xbd6ed773	-0.058310937
215	0x3d264372	0.040591665
216	0xbd170f09	-0.036879573
217	0xbc20e72b	-0.00982074
218	0xbd8f57e6	-0.06999187
219	0x3c814bf5	0.01578329
220	0xbe13788c	-0.14401454
221	0xbd752472	-0.05984921
222	0x3b8fb350	0.0043853894
223	0xbdb5ab2b	-0.08870538
224	0xbda0333c	-0.07822272
225	0xbc95a9a8	-0.018269375
226	0xbe1c1f83	-0.15246396
227	0xbe3c028f	-0.18360351
228	0x3c756428	0.014977492
229	0xbd414c9d	-0.047192205
230	0x3b1f652b	0.0024321775
231	0xbe084f5d	-0.13311525
232	0xbce2e5e7	-0.027697517
233	0xbc95bb42	-0.018277768
234	0xbd8b1cc6	-0.067925975
235	0x3d2624c8	0.04056242
236	0xbd9e8319	-0.07739849
237	0x3dacc7d7	0.08436554
238	0xbc248dbf	-0.0100435605
239	0xbce9e646	-0.028552186
240	0x3d7791aa	0.06044165
241	0xbb970fbc	-0.00461003
242	0xbdb2be08	-0.08727652
243	0xbe26d18f	-0.16290878
244	0xbdaba480	-0.08380985
245	0xbbfba915	-0.0076800683
246	0x3dbfef03	0.0937176
247	0xbe42e837	-0.19033895
248	0xbdf4b537	-0.119486265
249	0x3d1903d2	0.03735716
250	0x3e0fc25b	0.14038984
251	0x3d661638	0.056173533
252	0x3d574928	0.05256
253	0x3da8277f	0.08210658
254	0xbde31701	-0.11088372
255	0x3d43478f	0.047675665
