rock_paper_scissors_model.onnx (onnx, 839065 bytes, 10 tensors)

fc1.weight f4 [64, 128]
0.028482912 -0.12917106 0.06781585 0.16292843 -0.22500247 -0.06266209 0.020240802 -0.12087123
-0.11042368 -0.12648901 -0.15999866 -0.10906212 -0.105279595 -0.06949721 -0.30839375 -0.11834242
0.25137547 0.05460849 -0.030349785 0.093373366 -0.041047562 0.0044083986 0.0003612268 0.11000565
-0.06273797 -0.24737039 0.02515681 0.20415641 0.0019094965 -0.022307614 0.050212227 -0.005860622
-0.09678751 0.14781989 -0.14171086 -0.10133216 0.17483737 -0.11929988 -0.09131995 -0.0022447032
-0.029017402 -0.12230897 0.001435824 -0.17918581 -0.27257574 -0.020192113 0.13487639 -0.02787928
0.0038319612 0.018122451 0.24460058 0.031389195 -0.1968932 0.069577605 -0.09935131 -0.028810175
-0.010957984 -0.05239326 -0.12966774 0.106628776 -0.012446891 0.014410626 -0.07442111 0.2682857
-0.034709256 -0.18403791 0.057515405 0.09169801 0.008637728 -0.13382488 -0.051783122 -0.30373648
0.1607498 -0.050283097 -0.16915521 -0.21129252 0.017984789 0.16553693 0.059687305 0.040044885
-0.036433242 -0.2537177 -0.07971831 0.18354148 0.12502013 -0.20027858 -0.17037171 -0.12269369
0.055913158 -0.06268985 -0.17347327 0.049261298 -0.18637514 0.058797028 0.1426534 -0.25037968
0.19701311 -0.01903749 0.1716801 -0.051669966 -0.12606701 -0.058790352 -0.16525452 -0.03869405
-0.28036752 0.123202905 -0.22126156 0.13058563 -0.20578116 -0.16678645 0.091365874 -0.06531533
-0.05418814 -0.039352033 -0.21777934 -0.059478868 0.04971765 -0.057982128 -0.36252525 0.20213622
-0.09147356 0.07454578 0.029172154 0.20803985 0.10498833 0.15177259 -0.054212913 -0.1344981
-0.07942511 -0.14777258 -0.016103553 -0.032862354 -0.047390033 -0.058783147 -0.09817699 -0.048109565
-0.09979686 -0.022918815 -0.08786186 -0.06257926 -0.09904184 -0.0060557043 -0.042613294 -0.07751609
-0.07623356 0.024748735 0.056473136 -0.06425579 -0.015490312 -0.023347566 -0.0415308 -0.069538236
0.013049738 -0.04276791 -0.26953354 -0.051940776 -0.042907167 0.008154819 -0.02700068 -0.10172667
0.0260427 -0.12974744 -0.10732138 -0.026106901 -0.044982903 -0.110258594 0.085126005 -0.034919344
0.08544521 -0.043308374 0.023842746 0.03142677 0.0015362878 0.03845054 -0.071659334 0.00374426
-0.01318374 -0.22480868 -0.111823924 -0.009539404 0.013638469 -0.13436621 -0.06260678 -0.14589205
0.0020995955 -0.24174608 0.006272873 0.06436016 -0.09912595 0.013532875 0.0031244284 -0.03750797
0.02477266 0.02056082 0.014362687 -0.015493099 -0.18110205 -0.18048826 -0.20735478 -0.05745484
-0.010862311 0.04152544 -0.041478235 -0.12539288 -0.041371588 0.016658485 -0.0031772007 0.040026806
0.051721446 -0.12167465 -0.011956918 -0.096516296 -0.07785837 -0.16626202 -0.08923553 -0.038567647
-0.11695229 -0.03502545 0.07196439 -0.005661125 0.021513082 -0.048750944 -0.084027044 -0.14563257
-0.04991364 0.03392023 -0.09136703 -0.020520879 -0.04769747 -0.14163154 0.069913834 0.08278617
0.039508715 -0.1491836 -0.15545933 0.008010765 -0.030054012 0.05626618 -0.15122707 -0.10234877
-0.051292002 -0.1024935 -0.12861137 0.043369558 0.060813576 0.03479339 -0.0068183863 -0.072089136
-0.08138054 -0.06304098 -0.00063451007 0.1077979 -0.055649303 0.066968806 0.012019917 0.03921826
00000000: ff54 e93c 6b45 04be 09e3 8a3d b6d6 263e
00000010: 0c67 66be fb54 80bd 0ad0 a53c 568b f7bd
00000020: cf25 e2bd 5686 01be b0d6 23be f65b dfbd
00000030: d49c d7bd 8e54 8ebd c9e5 9dbe 835d f2bd
00000040: 49b4 803e 27ad 5f3d 1da0 f8bc 893a bf3d
00000050: 7d21 28bd 5474 903b 0a63 bd39 a44a e13d
00000060: c47c 80bd aa4e 7dbe a815 ce3c 610e 513e
00000070: 1248 fa3a 75be b6bc 56ab 4d3d 760a c0bb
00000080: 8838 c6bd 195e 173e a71c 11be 3c87 cfbd
00000090: 9108 333e 7f53 f4bd f405 bbbd df1b 13bb
000000a0: e7b5 edbc 207d fabd 4232 bc3a 7c7c 37be
000000b0: 0c8f 8bbe ee69 a5bc 091d 0a3e 1663 e4bc
000000c0: a421 7b3b 8975 943c 9378 7a3e f591 003d
000000d0: 5f9e 49be b47e 8e3d b378 cbbd 5103 ecbc
000000e0: 1e89 33bc 519a 56bd 9fc7 04be 3060 da3d
000000f0: 0bee 4bbc 8c1a 6c3c 186a 98bd be5c 893e
00000100: 4b2b 0ebd 6f74 3cbe 4695 6b3d 2bcc bb3d
00000110: 4285 0d3c 6409 09be 8a1a 54bd 5983 9bbe
00000120: 989b 243e a6f5 4dbd 0637 2dbe 115d 58be
00000130: d654 933c 8382 293e ad7a 743d 1b06 243d
00000140: 063b 15bd 49e7 81be 5a43 a3bd 4cf2 3b3e
00000150: 4705 003e d415 4dbe ec75 2ebe d446 fbbd
00000160: 3205 653d 8963 80bd faa2 31be 37c6 493d
00000170: 20d9 3ebe 27d5 703d bc13 123e c431 80be
00000180: cebd 493e 83f4 9bbc e8cc 2f3e e3a3 53bd
00000190: b617 01be 27ce 70bd 7b38 29be a77d 1ebd
000001a0: 558c 8fbe ce51 fc3d 6492 62be 3db8 053e
000001b0: 4cb8 52be 11ca 2abe 081e bb3d 0bc4 85bd
000001c0: 62f4 5dbd 992f 21bd 8c01 5fbe 1da0 73bd
000001d0: bca4 4b3d ab7e 6dbd e99c b9be ccfc 4e3e
000001e0: 7d56 bbbd 75ab 983d 71fa ee3c 6608 553e
000001f0: 1f04 d73d 466a 1b3e 5c0e 5ebd dfb9 09be
00000200: a2a9 a2bd b251 17be 99eb 83bc ad9a 06bd
00000210: 0d1c 42bd 99c6 70bd 0511 c9bd 890e 45bd
00000220: 4c62 ccbd 3dc0 bbbc ebf0 b3bd 8e29 80bd
00000230: 73d6 cabd ee6e c6bb 478b 2ebd c1c0 9ebd
00000240: 5720 9cbd dcbd ca3c 6050 673d 8a98 83bd
00000250: 14cb 7dbc 6543 bfbc 331c 2abd 106a 8ebd
00000260: 91ce 553c 672d 2fbd 4d00 8abe dabf 54bd
00000270: 6dbf 2fbd ca9b 053c 8830 ddbc 1356 d0bd
00000280: 8057 d53c 83dc 04be 50cb dbbd 24de d5bc
00000290: fe3f 38bd 42cf e1bd 8b56 ae3d 9607 0fbd
000002a0: e6fd ae3d 1f64 31bd dd51 c33c 5bb9 003d
000002b0: 445d c93a 507e 1d3d 21c2 92bd 4262 753b
000002c0: 9d00 58bc 3f34 66be f103 e5bd 294b 1cbc
000002d0: e373 5f3c 4c97 09be fc37 80bd ba64 15be
000002e0: 5e99 093b 498c 77be ac8c cd3b 42cf 833d
000002f0: 8c02 cbbd feb8 5d3c 36c3 4c3b f5a1 19bd
00000300: 09f0 ca3c 2a6f a83c 7a51 6b3c c4d6 7dbc
00000310: d172 39be ead1 38be d054 54be c455 6bbd
00000320: d6f7 31bc 9416 2a3d 15e5 29bd fe66 00be
00000330: 4175 29bd 6077 883c 9538 50bb 26f3 233d
00000340: ded9 533d 8f30 f9bd f3e6 43bc 56aa c5bd
00000350: 3674 9fbd 9740 2abe 1ec1 b6bd 1cf9 1dbd
00000360: af84 efbd d976 0fbd 1162 933d f580 b9bb
00000370: 343c b03c 12af 47bd 5f16 acbd b420 15be
00000380: 3f72 4cbd f0ef 0a3d a31e bbbd 671b a8bc
00000390: 6c5e 43bd dc07 11be fc2e 8f3d cc8b a93d
000003a0: e4d3 213d 96c3 18be bb30 1fbe 953f 033c
000003b0: d533 f6bc 5e77 663d 45db 1abe 3b9c d1bd
000003c0: 9017 52bd 1de8 d1bd b3b2 03be 47a4 313d
000003d0: a817 793d 8483 0e3d c56c dfbb 78a3 93bd
000003e0: d7aa a6bd a11b 81bd 4055 26ba 25c5 dc3d
000003f0: 86f0 63bd f126 893d 30ef 443c 54a3 203d

fc1.bias f4 [64]
0.13152654 -0.09286541 0.08082996 -0.11130702 -0.022499276 -0.07161268 -0.13538575 -0.08107692
-0.18768603 0.0348234 0.098212674 -0.015529762 -0.0892089 0.111355886 -0.06460988 -0.15231298
-0.11988776 0.15359753 -0.14538501 0.045660555 0.058297135 0.044658087 -0.16169168 -0.054723322
0.023638513 -0.047879595 -0.0679411 -0.004291221 -0.108520254 -0.09901426 0.04194423 -0.011009032
-0.12450649 -0.16055408 -0.11212141 0.093670696 -0.015008713 0.13329802 -0.070678614 -0.040594388
-0.086667776 -0.04331265 -0.1451389 -0.15498236 0.004073798 0.055627868 0.08210537 0.0739026
-0.12958938 -0.1249262 -0.12760022 -0.09810775 -0.068132855 0.032469988 -0.09574051 0.08462387
-0.11310689 0.09057984 0.03964551 -0.1186909 0.124313734 0.060108416 -0.11094538 -0.050291654
00000000: e5ae 063e 3830 bebd 2e8a a53d eff4 e3bd
00000010: 6750 b8bc aba9 92bd 90a2 0abe a80b a6bd
00000020: c430 40be fba2 0e3d ba23 c93d 8b70 7ebc
00000030: 28b3 b6bd 8e0e e43d 2f52 84bd eff7 1bbe
00000040: b787 f5bd ac48 1d3e cfdf 14be 9006 3b3d
00000050: fac8 6e3d 66eb 363d 8192 25be 9025 60bd
00000060: 8ea5 c13c 651d 44bd b424 8bbd 5f9d 8cbb
00000070: de3f debd fdc7 cabd b7cd 2b3d 3a5f 34bc
00000080: 42fd febd 4a68 24be e99f e5bd 6cd6 bf3d
00000090: 1be7 75bc 477f 083e f3bf 90bd 4d46 26bd
000000a0: e07e b1bd 9b68 31bd 4b9f 14be b2b3 1ebe
000000b0: 7f7d 853b 0cda 633d dc26 a83d 3f5a 973d
000000c0: 14b3 04be 4fd9 ffbd a2a9 02be b7ec c8bd
000000d0: 3d89 8bbd 40ff 043d 9a13 c4bd 484f ad3d
000000e0: 96a4 e7bd ec81 b93d 5563 223d 3714 f3bd
000000f0: 3398 fe3d 3e34 763d 5537 e3bd 9ffe 4dbd

fc2.weight f4 [3, 64]
-0.18578887 -0.0422752 -0.13632952 -0.037367295 0.20136723 0.12051045 -0.0059058852 -0.034767807
-0.17990407 0.0013028373 0.31349397 0.03805851 -0.062588185 -0.19815898 0.06191457 0.025162216
-0.049549516 -0.27464232 0.24836877 -0.17034158 0.11963428 -0.1499302 -0.24933587 0.116981044
0.086077765 -0.006293205 -0.043489248 0.061980523 0.043921344 0.00972406 -0.13260013 0.19036241
-0.081537925 -0.13457444 -0.04053407 -0.13780724 -0.081624776 -0.2981193 0.021609582 -0.044328604
-0.15159717 0.13514328 -0.07126895 0.00075640524 0.045873217 -0.11911338 0.23924144 0.016105816
0.04671972 -0.1916342 0.22794779 -0.035169527 0.08375322 0.07035865 0.08734823 -0.10816282
0.08907933 -0.14529859 0.015536765 -0.011725317 -0.17921036 0.32878563 -0.13574344 -0.05348059
0.0805034 -0.06400351 0.048589837 0.15727575 -0.20276672 -0.11706475 -0.02645879 -0.18851164
0.052568834 0.11504541 -0.22212334 -0.0034644692 -0.04380996 0.15331864 -0.025325533 0.060544074
-0.048605844 -0.016091144 -0.34259182 -0.08983611 -0.27169842 -0.14651495 0.19433914 -0.07961861
-0.24848615 -0.112400815 -0.03789369 -0.20178501 -0.036164902 -0.07954181 -0.16184415 -0.21829356
-0.093596764 0.038530473 -0.09666707 0.09889191 -0.15185596 0.084686756 0.04826544 -0.0144271385
-0.08423078 -0.20792343 0.03004891 -0.068542354 -0.08198578 -0.038028616 -0.3016669 0.16469395
-0.112248115 -0.105779774 -0.21355453 -0.10397885 0.124549195 0.12833445 0.08416148 0.06391797
0.08882112 0.15330142 0.028947674 0.10013183 0.01458749 -0.20055367 0.025768144 -0.030579468
-0.07954006 -0.027626691 0.08269646 -0.084664814 -0.03693676 0.04218316 -0.061851677 0.093176566
0.099692896 -0.18063356 -0.045350738 -0.039641283 -0.026250226 -0.110289894 -0.08393667 0.07126068
-0.0414228 0.06268874 -0.033145227 0.23402049 0.048335448 0.18808724 -0.13933311 0.136867
0.0078311395 0.14877829 -0.1301967 0.12852351 -0.105716065 0.045994803 0.074972674 -0.034202464
-0.09613462 0.18118694 -0.09560741 0.14052992 0.12150828 -0.09985164 -0.1280576 -0.043983188
0.11799504 0.015633592 0.041237712 -0.054324374 -0.0073899133 0.0849522 -0.16726357 -0.119550385
-0.1692899 0.19112861 -0.08621767 -0.06683631 -0.10146245 -0.14901151 0.026537262 0.120899364
0.07003996 -0.04430847 -0.19394283 -0.14654593 0.023677079 0.050523777 0.1921507 0.063587055
00000000: 703f 3ebe c328 2dbd f799 0bbe 730e 19bd
00000010: 3633 4e3e 2fce f63d 2886 c1bb b068 0ebd
00000020: c638 38be f7c3 aa3a 4882 a03e 3de3 1b3d
00000030: 3c2e 80bd 30ea 4abe 229a 7d3d fe20 ce3c
00000040: 6ff4 4abd eb9d 8cbe 6254 7e3e 066e 2ebe
00000050: d102 f53d 4d87 19be e751 7fbe c293 ef3d
00000060: 8a49 b03d 3b37 cebb c821 32bd 4adf 7d3d
00000070: dee6 333d aa51 1f3c 54c8 07be 5dee 423e
00000080: 5bfd a6bd e2cd 09be 0e07 26bd 571d 0dbe
00000090: e42a a7bd 18a3 98be 9406 b13c e991 35bd
000000a0: 4a3c 1bbe 0063 0a3e 75f5 91bd 7f49 463a
000000b0: 8ee5 3b3d b7f1 f3bd b5fb 743e 58f0 833c
000000c0: 2d5d 3f3d c13b 44be 256b 693e ec0d 10bd
000000d0: cf86 ab3d 3218 903d a1e3 b23d 7884 ddbd
000000e0: 396f b63d 27c9 14be ea8d 7e3c 8b1b 40bc
000000f0: ec82 37be 9756 a83e 5400 0bbe 770e 5bbd
00000100: f7de a43d 4614 83bd 2306 473d e50c 213e
00000110: 14a2 4fbe a5bf efbd 1bc0 d8bc 3209 41be
00000120: 6b52 573d ee9c eb3d 4d74 63be 260c 63bb
00000130: 1372 33bd 90ff 1c3e 7e77 cfbc 10fd 773d
00000140: ec16 47bd 93d1 83bc 3268 afbe fffb b7bd
00000150: 0e1c 8bbe 0408 16be d700 473e 150f a3bd
00000160: 2773 7ebe 6632 e6bd 6a36 1bbd bba0 4ebe
00000170: a621 14bd d1e6 a2bd 79ba 25be 5988 5fbe
00000180: a9af bfbd 21d2 1d3d 63f9 c5bd d787 ca3d
00000190: 2180 1bbe 4070 ad3d fbb1 453d ce5f 6cbc
000001a0: 3081 acbd e1e9 54be 2229 f63c ef5f 8cbd
000001b0: 29e8 a7bd e5c3 1bbd 1574 9abe 88a5 283e
000001c0: 57e2 e5bd 11a3 d8bd 0aae 5abe ddf2 d4bd
000001d0: a613 ff3d 1b6a 033e db5c ac3d 6de7 823d
000001e0: d9e7 b53d 0cfb 1c3e ac23 ed3c eb11 cd3d
000001f0: 5e00 6f3c f15d 4dbe b717 d33c cb81 fabc
00000200: e6e5 a2bd 5f51 e2bc c35c a93d bf64 adbd
00000210: 004b 17bd 40c8 2c3d 2f58 7dbd 5bd3 be3d
00000220: ca2b cc3d 01f8 38be b2c1 39bd e65e 22bd
00000230: b70a d7bc abdf e1bd fde6 abbd 1ff1 913d
00000240: f4aa 29bd f462 803d 4ac3 07bd 11a3 6f3e
00000250: 64fb 453d f199 403e 57ad 0ebe dd26 0c3e
00000260: 2e4e 003c 5659 183e 4952 05be ab9b 033e
00000270: aa81 d8bd 0c65 3c3d 468b 993d e217 0cbd
00000280: 3ae2 c4bd 1289 393e d1cd c3bd 13e7 0f3e
00000290: 55d9 f83d 047f ccbd 8821 03be b727 34bd
000002a0: 62a7 f13d 0512 803c e0e8 283d 3c83 5ebd
000002b0: 1627 f2bb 6bfb ad3d 2447 2bbe d5d6 f4bd
000002c0: 555a 2dbe 38b7 433e e492 b0bd 7ae1 88bd
000002d0: 8ccb cfbd 7996 18be ac64 d93c 169a f73d
000002e0: 1c71 8f3d cc7c 35bd f398 46be 2310 16be
000002f0: 6ff6 c13c 05f2 4e3d 27c3 443e ee39 823d

fc2.bias f4 [3]
0.04580843 -0.005967385 0.06471733
00000000: 9fa1 3b3d 0e8a c3bb 858a 843d

onnx::LSTM_198 f4 [1, 512, 3]
-0.31767783 -0.21800919 -0.18731852 -0.07380618 -0.22410974 0.052634373 0.07668958 0.11887708
-0.040726844 -0.33027685 -0.18590148 -0.4642772 -0.10909175 0.017885335 -0.16076878 0.007427034
-0.07980043 -0.2671382 0.01690045 0.140647 -0.018274525 0.11304956 0.05609481 0.21751103
0.17195033 -0.0022027781 0.02976774 0.031662103 0.1423852 -0.22237994 0.111321405 0.017844552
-0.050785363 0.1689782 0.063442886 0.10944023 -0.058762792 -0.008308522 -0.111284785 0.1221419
-0.1952787 -0.24949846 0.14229743 0.41216654 0.25849682 -0.20457076 0.07029055 -0.111102514
0.115646765 0.2505467 0.09804941 -0.018124701 0.063532956 0.06304269 -0.30455604 -0.07310098
-0.3238268 0.024859222 0.22309604 0.19261263 0.051457938 -0.038894255 -0.097807914 0.013185335
-0.1634177 -0.365348 0.06214783 -0.1594592 0.17844895 -0.012159066 -0.18434076 -0.02797282
-0.012659803 0.088508405 -0.199905 -0.14281754 -0.061692216 -0.0037410434 -0.65343004 -0.33558798
-0.115278274 -0.14146477 0.00030888827 -0.1823816 0.30040407 0.10355354 -0.18045494 -0.2331132
-0.10080276 -0.17692006 -0.15524918 -0.2594182 -0.16301227 -0.00037952152 -0.10950026 0.107268594
0.25413275 0.20306918 0.011601675 0.0910881 -0.04495618 0.039630312 0.022204297 -0.116033785
-0.106427975 -0.052788038 0.008945652 -0.017044203 0.084798016 0.11699587 0.038547236 0.08455498
-0.117722966 0.112006396 -0.21348411 -0.116399474 -0.22124606 -0.13994594 -0.011833721 -0.055898692
0.14568187 0.065149814 -0.1516641 0.19169284 0.09866597 0.16511428 -0.042432886 0.14547662
-0.029991793 -0.44318762 -0.25117782 -0.102833316 0.15416546 -0.10339057 0.0051214434 -0.061159518
-0.034334153 -0.07646784 -0.26300275 0.08208582 -0.09503471 0.04843729 0.012560267 -0.05201806
0.021734944 0.27692953 0.15815534 -0.19459802 -0.13641393 -0.23611711 -0.19822805 0.040288303
0.11320974 0.17477334 0.21392433 -0.0426111 -0.01236625 -0.13340692 -0.033309396 -0.25818944
-0.15312195 0.008454816 0.000583847 0.042328328 0.14369172 0.1222234 -0.17987348 -0.16774158
0.13057579 0.10563052 -0.010094102 0.09149024 -0.22899531 -0.48088443 0.026987381 -0.20355
0.14288846 0.031907365 0.04466367 -0.04495632 0.15955307 -0.017562322 -0.077952065 -0.08895827
-0.029449254 -0.1403811 -0.19515172 -0.06646899 -0.22044832 -0.30317786 0.054776054 0.15294993
0.16884959 0.13412018 -0.021794545 -0.023131339 0.010304218 0.086352274 -0.10008383 0.087969206
-0.32143727 -0.16749962 0.02460369 0.17733286 -0.026962606 -0.032886036 0.13555226 0.3475661
-0.062041003 -0.19655354 -0.11930535 -0.064191334 -0.03071934 -0.11568913 -0.010098665 0.12655969
-0.093102306 0.22288546 -0.0049584205 -0.015372563 0.03777006 -0.05771369 0.13766906 0.34782737
0.06496872 0.051195353 0.11602554 -0.10488805 0.14476599 0.11715866 0.055102285 0.040516935
0.034198508 -0.16745654 -0.056517746 -0.02585164 0.07614391 0.012870869 0.102610305 -0.191326
0.049808178 0.13821709 -0.057121575 0.019068496 -0.12901965 -0.29914144 0.11693453 -0.031961188
-0.22490028 -0.15591633 -0.08723965 -0.09042303 -0.007735139 0.008438671 -0.1177287 -0.21474208
00000000: aba6 a2be cd3d 5fbe 6dd0 3fbe b227 97bd
00000010: 067d 65be 2497 573d 6d0f 9d3d d475 f33d
00000020: 31d1 26bd 0c1a a9be f55c 3ebe beb5 edbe
00000030: 7f6b dfbd 4484 923c 92a0 24be 7a5e f33b
00000040: 686e a3bd 57c6 88be d072 8a3c c405 103e
00000050: 75b4 95bc 8786 e73d acc3 653d 36bb 5e3e
00000060: bf13 303e 7c5c 10bb 7adb f33c 1fb0 013d
00000070: 6dcd 113e 91b7 63be 7afc e33d bd2e 923c
00000080: 5004 50bd 9f08 2d3e 58ee 813d 3322 e03d
00000090: 41b1 70bd 7820 08bc 47e9 e3bd 8825 fa3d
000000a0: 24f7 47be 867c 7fbe 6bb6 113e 7e07 d33e
000000b0: b259 843e ff7a 51be 7ef4 8f3d b789 e3bd
000000c0: 36d8 ec3d a847 803e 21ce c83d 417a 94bc
000000d0: 911d 823d 871c 813d c5ee 9bbe f7b5 95bd
000000e0: a0cc a5be 91a5 cb3c 4a73 643e 3f3c 453e
000000f0: 8fc5 523d 954f 1fbd 844f c8bd 4e07 583c
00000100: f856 27be e50e bbbe b98e 7e3d 4649 23be
00000110: 52bb 363e d236 47bc d3c3 3cbe 4127 e5bc
00000120: 106b 4fbc e543 b53d e5b3 4cbe c33e 12be
00000130: fab0 7cbd 4b2c 75bb 3147 27bf 30d2 abbe
00000140: 0417 ecbd 24dc 10be 48f2 a139 3ec2 3abe
00000150: 90ce 993e e113 d43d 2ec9 38be 3ab5 6ebe
00000160: ad71 cebd 882a 35be a4f9 1ebe 76d2 84be
00000170: b0ec 26be 84fa c6b9 ac41 e0bd a3af db3d
00000180: b01d 823e 5ef1 4f3e f414 3e3c 668c ba3d
00000190: f923 38bd 6553 223d c9e5 b53c 1fa3 edbd
000001a0: e9f6 d9bd 4538 58bd c990 123c 49a0 8bbc
000001b0: 95aa ad3d 889b ef3d b5e3 1d3d 292b ad3d
000001c0: bd18 f1bd 9c63 e53d 949b 5abe d962 eebd
000001d0: 548e 62be fd4d 0fbe 39e2 41bc 07f6 64bd
000001e0: a12d 153e 446d 853d d54d 1bbe 214b 443e
000001f0: 6211 ca3d b813 293e 1bce 2dbd d3f7 143e
00000200: 59b1 f5bc 7de9 e2be 619a 80be 469a d2bd
00000210: 8ddd 1d3e 6fbe d3bd c8d1 a73b 6782 7abd
00000220: f8a1 0cbd 2c9b 9cbd 4ca8 86be 9c1c a83d
00000230: 8fa1 c2bd 2e66 463d 94c9 4d3c e410 55bd
00000240: 7b0d b23c b5c9 8d3e 79f3 213e b444 47be
00000250: 18b0 0bbe afc8 71be 4bfc 4abe 5905 253d
00000260: 82da e73d c8f7 323e fb0e 5b3e fa88 2ebd
00000270: d09b 4abc d39b 08be 6f6f 08bd 6831 84be
00000280: 00cc 1cbe 1286 0a3c 4f0d 193a 7860 2d3d
00000290: ec23 133e 4350 fa3d c130 38be 73c4 2bbe
000002a0: a9b5 053e d054 d83d bb61 25bc 3c5f bb3d
000002b0: bf7d 6abe 7c36 f6be a414 dd3c 696f 50be
000002c0: 5a51 123e 4cb1 023d 41f1 363d 1e24 38bd
000002d0: e161 233e dcde 8fbc 55a5 9fbd c12f b6bd
000002e0: 903f f1bc 10c0 0fbe dad5 47be e520 88bd
000002f0: 34bd 61be 213a 9bbe db5c 603d e89e 1c3e
00000300: e8e6 2c3e cd56 093e 798a b2bc ef7d bdbc
00000310: 06d3 283c 76d9 b03d c0f8 ccbd 3329 b43d
00000320: 6d93 a4be 0585 2bbe ad8d c93c bf96 353e
00000330: afe0 dcbc 82b3 06bd 36ce 0a3e 2ff4 b13e
00000340: b51e 7ebd 5545 49be 5d56 f4bd bf76 83bd
00000350: 20a7 fbbc 6cee ecbd df74 25bc dd98 013e
00000360: 6cac bebd 163c 643e 3f7a a2bb 34dd 7bbc
00000370: c7b4 1a3d 3165 6cbd 1ef9 0c3e 6e16 b23e
00000380: 520e 853d 38b2 513d cc9e ed3d 8ccf d6bd
00000390: 893d 143e e1f0 ef3d efb2 613d 16f5 253d
000003a0: bc13 0c3d ba79 2bbe 277f 67bd d2c6 d3bc
000003b0: 57f1 9b3d 56e0 523c 5a25 d23d f7ea 43be
000003c0: a903 4c3d c888 0d3e 50f8 69bd 8935 9c3c
000003d0: ba1d 04be 1129 99be 5f7b ef3d bce9 02bd
000003e0: 424c 66be 88a8 1fbe b4aa b2bd b62f b9bd
000003f0: 0d77 fdbb 5a42 0a3c bf1b f1bd 59e5 5bbe

onnx::LSTM_199 f4 [1, 512, 128]
-0.07215365 0.03262593 -0.07597298 0.2182943 0.20496804 -0.19219865 0.07403556 -0.06422056
-0.17556535 -0.21779628 -0.1468836 0.09228421 0.06387731 -0.15984371 -0.13510191 0.13073139
0.14553477 -0.25445154 -0.04165337 0.22900082 -0.2298507 -0.023956934 -0.013753698 -0.17086267
0.2455386 -0.17730956 -0.05279827 -0.09971059 0.040410668 0.31112877 0.062929794 -0.019396387
0.03935872 0.22650124 -0.08512461 0.06330633 0.32870746 -0.1652415 -0.1744003 0.13068536
-0.2107342 -0.11683391 0.057165965 0.033109978 0.0889106 -0.041191492 0.3291276 -0.24547938
-0.054744042 0.06962575 -0.20751683 -0.22244354 -0.040931307 0.058847446 -0.04386706 -0.12982464
-0.105285965 0.13424593 -0.004302361 0.24510656 -0.1429414 -0.02507176 -0.21361506 -0.053891193
-0.25727266 0.1686318 0.09221569 -0.06657166 0.19744635 -0.05123416 -0.08223506 -0.06390174
-0.001316726 -0.103275485 0.1728432 -0.079525396 -0.14532323 0.3471233 -0.29683822 -0.10176717
-0.35990602 0.26729974 0.119713664 -0.24728416 -0.077153355 0.06006074 0.089499235 0.1149668
0.089420676 0.2927325 -0.21989687 0.09211267 0.12952217 0.21168198 0.018357165 0.058338303
-0.010079085 -0.0017456021 -0.11312891 0.048428606 -0.024120428 -0.011375796 -0.040876646 -0.23801935
-0.18870273 0.3004917 -0.13817674 -0.16915736 -0.098452404 -0.040532604 -0.17049167 -0.2082841
-0.081120044 -0.20869848 -0.26081562 -0.14800003 -0.17104451 0.09086713 0.26484814 -0.071599185
-0.36381063 -0.1435758 0.3792935 0.034868546 0.027746888 0.25231066 -0.25133383 -0.1586248
0.004764825 -0.1861538 -0.17271458 0.07989804 0.018652275 -0.21778044 0.12541437 -0.009801979
-0.25076348 -0.13601622 -0.10101026 0.08868384 0.22614421 -0.051258907 -0.17194135 -0.019693043
-0.056623474 -0.12804934 0.10084956 0.019915802 -0.08545565 0.051213507 0.014261235 -0.04071411
0.07703438 -0.11412543 0.20900619 -0.12656105 -0.06777139 -0.0371715 -0.093852825 0.08260737
0.2082493 0.12247138 -0.10190952 -0.100185096 0.1756232 0.080848664 0.16967548 -0.008871021
-0.116632946 0.019972125 0.07033616 -0.06437142 -0.0060473788 0.0071659265 -0.111171916 -0.020262716
-0.028603887 -0.13713478 0.14022376 -0.094459325 0.01897159 0.007259845 0.17630172 -0.020725854
-0.07204999 0.086008586 0.24576463 0.10342706 -0.10768022 0.0044405856 -0.09452054 0.014828466
-0.18036988 -0.095290944 0.059422303 -0.061150692 -0.061677087 -0.09318858 -0.10339487 -0.14976774
0.025232116 0.011757957 0.13689439 -0.18610327 -0.14652778 0.19853938 -0.1851843 0.12691985
-0.093330845 0.28781188 0.07753796 -0.0013833039 -0.08788662 0.1285501 -0.070164025 0.0011568926
-0.051662188 0.00483435 -0.03781923 0.15795974 -0.10762384 0.11314816 -0.08963181 0.012214631
-0.13335648 -0.089545675 -0.14865825 0.10505203 0.03715239 -0.06619425 0.0151365865 -0.21126105
-0.018567722 0.28203732 0.038649764 -0.012479138 -0.0012338591 0.06879795 -0.13441296 -0.044994462
-0.12075342 -0.31284338 -0.09405651 -0.24287614 -0.17430548 0.024455337 0.20504609 -0.02624212
-0.10551776 -0.108418 0.15614629 -0.20040707 0.103480384 0.17446195 -0.033870045 -0.023380447
00000000: 4bc5 93bd c4a2 053d b997 9bbd 8a88 5f3e
00000010: 24e3 513e b9cf 44be f59f 973d 1286 83bd
00000020: 67c7 33be fd05 5fbe a868 16be 81ff bc3d
00000030: 1bd2 823d 12ae 23be 2858 0abe 73de 053e
00000040: 1107 153e 7947 82be b99c 2abd 317f 6a3e
00000050: fb5d 6bbe 5541 c4bc 3157 61bc a0f6 2ebe
00000060: 796e 7b3e a390 35be 0043 58bd 1135 ccbd
00000070: a885 253d 454c 9f3e 56e1 803d 2ce5 9ebc
00000080: 9c36 213d f1ef 673e d055 aebd c0a6 813d
00000090: 584c a83e 1135 29be fe95 32be 62d2 053e
000000a0: b5ca 57be 9e46 efbd dc26 6a3d 549e 073d
000000b0: c316 b63d 69b8 28bd 6a83 a83e f25e 7bbe
000000c0: 4a3b 60bd f297 8e3d 4b7f 54be 3dc8 63be
000000d0: 96a7 27bd 050a 713d f2ad 33bd c0f0 04be
000000e0: 2ba0 d7bd c477 093e d2fa 8cbb 37fd 7a3e
000000f0: 3b5f 12be 4b63 cdbc e8bd 5abe 03bd 5cbd
00000100: 3eb9 83be d1ad 2c3e 94db bc3d b956 88bd
00000110: 602f 4a3e e9da 51bd db6a a8bd eade 82bd
00000120: fe95 acba 1982 d3bd cffd 303e 36de a2bd
00000130: 9dcf 14be 25ba b13e 2efb 97be 4e6b d0bd
00000140: 9a45 b8be 83db 883e 702c f53d 0f38 7dbe
00000150: 9402 9ebd 4002 763d 604b b73d b773 eb3d
00000160: 3022 b73d 09e1 953e a52c 61be 91a5 bc3d
00000170: 76a1 043e 29c3 583e c461 963c 25f4 6e3d
00000180: bf22 25bc b0cc e4ba 21b0 e7bd 135d 463d
00000190: 3498 c5bc 8c61 3abc 456e 27bd 58bb 73be
000001a0: 4a3b 41be 0cda 993e 347e 0dbe 9637 2dbe
000001b0: 6aa1 c9bd 8405 26bd 5e95 2ebe 6d48 55be
000001c0: 4422 a6bd 0eb5 55be a089 85be 528d 17be
000001d0: 4b26 2fbe 8c18 ba3d 2d9a 873e 98a2 92bd
000001e0: 6345 babe 8905 13be c232 c23e 52d2 0e3d
000001f0: 714d e33c dd2e 813e d4ae 80be 8a6e 22be
00000200: 4022 9c3b 1a9f 3ebe 17dc 30be 95a1 a33d
00000210: a8cc 983c d601 5fbe a06c 003e 7b98 20bc
00000220: 1264 80be d647 0bbe 78de cebd e09f b53d
00000230: 5992 673e dcf4 51bd 6511 30be 4e53 a1bc
00000240: 04ee 67bd 5e1f 03be 378a ce3d 7726 a33c
00000250: 5f03 afbd 41c5 513d f4a7 693c d7c3 26bd
00000260: 33c4 9d3d 98ba e9bd b805 563e 3899 01be
00000270: bacb 8abd 2541 18bd e935 c0bd 0e2e a93d
00000280: 4e3f 553e 46d2 fa3d f0b5 d0bd d82d cdbd
00000290: 91d6 333e fc93 a53d 69bf 2d3e c257 11bc
000002a0: 41dd eebd 959c a33c 680c 903d 2ad5 83bd
000002b0: 1729 c6bb 26d0 ea3b 1aae e3bd fffd a5bc
000002c0: b352 eabc 0f6d 0cbe d196 0f3e e473 c1bd
000002d0: 4f6a 9b3c fee3 ed3b 7088 343e 44c9 a9bc
000002e0: f28e 93bd 4525 b03d b9a9 7b3e 91d1 d33d
000002f0: 7287 dcbd 5582 913b fc93 c1bd 18f3 723c
00000300: e2b2 38be e627 c3bd cd64 733d 2679 7abd
00000310: 1da1 7cbd a7d9 bebd b1c0 d3bd b75c 19be
00000320: 95b3 ce3c 72a4 403c 0b2e 0c3e db91 3ebe
00000330: 610b 16be e84d 4b3e f4a0 3dbe 47f7 013e
00000340: 3e24 bfbd 145c 933e 39cc 9e3d fa4f b5ba
00000350: e6fd b3bd a3a2 033e 28b2 8fbd e0a2 973a
00000360: bb9b 53bd 7869 9e3b 56e8 1abd 33c0 213e
00000370: e369 dcbd 39ba e73d e290 b7bd e01f 483c
00000380: 9a8e 08be b963 b7bd de39 18be 8525 d73d
00000390: 1b2d 183d da90 87bd 72ff 773c d154 58be
000003a0: 561b 98bc 3267 903e 374f 1e3d 4c75 4cbc
000003b0: 71b9 a1ba f1e5 8c3d 8da3 09be 1d4c 38bd
000003c0: 924d f7bd 022d a0be b3a0 c0bd 86b4 78be
000003d0: 237d 32be 8f56 c83c 9af7 513e b7f9 d6bc
000003e0: b219 d8bd 420a debd d0e4 1f3e 8337 4dbe
000003f0: 86ed d33d 27a6 323e 51bb 0abd 5a88 bfbc

onnx::LSTM_200 f4 [1, 1024]
-0.0739165 -0.1355949 -0.03315193 -0.24450679 -0.09232567 -0.0107900845 -0.07772028 0.03734797
0.15439507 -0.04158428 -0.033603415 0.11152737 -0.115699545 0.07980408 0.031084675 -0.13062678
0.08874244 -0.12174587 -0.12548146 0.06239618 -0.07615329 -0.19954133 0.082879506 -0.10053877
-0.06055346 -0.12842366 0.039299283 0.039172452 0.04759621 -0.07545606 -0.08903739 -0.10006951
0.06868497 -0.048261225 -0.026866771 -0.023815926 -0.03487875 0.032930788 -0.052303914 0.0072015007
0.08635712 0.025383133 -0.010854774 -0.04537067 -0.0075810617 0.044613287 0.01600616 -0.015629072
0.03278059 -0.058012072 0.06876721 -0.016350549 -0.01293736 0.041382074 0.12922108 -0.14878577
-0.057376795 -0.19007415 0.010407259 0.046390522 -0.13224219 -0.14660907 -0.072405525 -0.08419087
0.1106218 0.05904846 -0.05834605 0.102560915 -0.07819545 -0.16115509 0.033865206 -0.052458357
0.013232772 0.0023285998 0.1487977 0.0029288754 0.15407906 -0.082379 0.08834711 0.071472436
0.117772214 -0.04816137 -0.001005187 -0.026200296 -0.1175375 -0.094994366 0.08300437 0.010680997
0.0036451463 -0.08725669 0.015457019 -0.118724436 -0.012239744 -0.10874216 0.02647472 0.11766373
-0.03404254 -0.06562193 -0.012013555 -0.055859145 0.04520838 -0.09153975 -0.038606048 6.498827e-06
-0.010827118 0.10284064 0.004224562 -0.18361382 -0.029754579 -0.026922332 0.08406772 0.012294907
-0.04366601 0.04351442 -0.09012149 0.03902362 -0.04840432 -0.0419444 -0.0773717 -0.076159015
-0.14973487 -0.029601136 -0.11005923 -0.10270174 -0.19382639 -0.06968203 0.06364667 -0.021293607
-0.11696497 -0.106915474 0.04133749 -0.08687391 0.085395694 0.054551456 -0.023146963 -0.0066886935
0.08355593 0.12568618 0.013883911 0.15332556 0.04440214 0.0052196616 -0.027874326 -0.14065824
0.1126465 -0.16605827 -0.03816728 0.16343687 -0.06763005 -0.12800011 -0.03534329 -0.04328237
-0.1051908 0.03131917 -0.00058119406 -0.024147531 0.022381581 -0.05514696 -0.15662815 -0.11401279
0.036624137 -0.05976824 0.0012746365 -0.10439776 0.04858153 0.1076741 -0.13596725 -0.03295266
0.050944995 0.12500533 0.029945761 0.092308745 -0.01290372 -0.09476254 -0.034462553 -0.03088244
-0.016929816 0.022638014 -0.009698576 -0.007311563 0.011077501 -0.06367351 -0.007716853 -0.074276745
-0.012235528 -0.036268592 0.018741876 -0.030584278 -0.16987638 -0.033480078 -0.12880088 -0.06373361
0.12980713 0.12796634 -0.03436532 0.027107827 0.0419748 0.012723246 0.09037603 0.10456846
-0.049720425 -0.058962546 0.1361582 0.06475524 0.15784171 0.07383086 -0.009732657 0.14293689
0.020515645 -0.02318232 0.0006249153 -0.044107575 -0.18193334 0.017793396 -0.07010222 0.03371897
-0.03324992 -0.06996406 0.08329301 -0.109166205 0.011134929 0.008270734 -0.029816587 0.11667421
0.1010994 0.011081928 -0.12369249 0.08172475 0.08222794 -0.0677584 0.07971905 0.126348
0.03037063 0.056604665 -0.0051102643 0.004037781 -0.059301086 -0.09752312 0.0226789 0.09291581
-0.0040292856 0.06069801 -0.11617124 0.0154660195 -0.017322093 -0.009778946 -0.07225665 -0.1344058
-0.00081534596 0.07746156 -0.05406827 -0.18180227 -0.039528746 -0.040254187 -0.06149749 0.056865428
00000000: 8961 97bd 64d9 0abe 51ca 07bd fd5f 7abe
00000010: 3e15 bdbd e5c8 30bc cf2b 9fbd 2ffa 183d
00000020: be19 1e3e 4754 2abd bca3 09bd 7668 e43d
00000030: e2f3 ecbd 5270 a33d 4aa5 fe3c 07c3 05be
00000040: 99be b53d e655 f9bd 367e 00be 2393 7f3d
00000050: 42f6 9bbd 9054 4cbe bbbc a93d 45e7 cdbd
00000060: e806 78bd 7e81 03be 49f8 203d 4b73 203d
00000070: 3ef4 423d b588 9abd 3c59 b6bd 3ef1 ccbd
00000080: b5aa 8c3d 90ad 45bd b417 dcbc 9e19 c3bc
00000090: 05dd 0ebd 6fe2 063d a13c 56bd 91fa eb3b
000000a0: 00dc b03d 4af0 cf3c 39d8 31bc 98d6 39bd
000000b0: 8e6a f8bb 6cbc 363d 5a1f 833c 8a08 80bc
000000c0: f144 063d 119e 6dbd d3d5 8c3d 96f1 85bc
000000d0: 39f7 53bc 4080 293d 8852 043e 4c5b 18be
000000e0: ee03 6bbd cca2 42be 3583 2a3c fd03 3e3d
000000f0: 7f6a 07be b020 16be 5949 94bd 436c acbd
00000100: af8d e23d ccdc 713d 45fc 6ebd 750b d23d
00000110: f024 a0bd d705 25be 3eb6 0a3d 93de 56bd
00000120: 45ce 583c 6c9b 183b 6d5e 183e 60f2 3f3b
00000130: e7c6 1d3e 52b6 a8bd 54ef b43d 2460 923d
00000140: 8f32 f13d db44 45bd 7bc0 83ba 01a2 d6bc
00000150: 80b7 f0bd 688c c2bd 32fe a93d 59ff 2e3c
00000160: 68e3 6e3b a3b3 b2bd 703f 7d3c cc25 f3bd
00000170: 3589 48bc 36b4 debd 83e1 d83c aff9 f03d
00000180: 3170 0bbd ca64 86bd 80d4 44bc 8fcc 64bd
00000190: 6c2c 393d 3179 bbbd 6021 1ebd 8010 da36
000001a0: 3964 31bc 1d9e d23d 326e 8a3b 4305 3cbe
000001b0: e0bf f3bc 398c dcbc b22b ac3d 9470 493c
000001c0: 21db 32bd 2d3c 323d 9e91 b8bd 3bd7 1f3d
000001d0: 9c43 46bd e4cd 2bbd 0e75 9ebd 42f9 9bbd
000001e0: 1954 19be 157e f2bc bc66 e1bd 4a55 d2bd
000001f0: 6d7a 46be 74b5 8ebd 2f59 823d ee6f aebc
00000200: 558b efbd 80f6 dabd 8051 293d f3ea b1bd
00000210: f0e3 ae3d 5971 5f3d b39e bdbc d42c dbbb
00000220: 5f1f ab3d e1b3 003e 5879 633c 6001 1d3e
00000230: 05df 353d b209 ab3b b358 e4bc b708 10be
00000240: 35b3 e63d 2e0b 2abe 4b55 1cbd ff5b 273e
00000250: a081 8abd 7612 03be 20c4 10bd db48 31bd
00000260: 466e d7bd 8848 003d 465b 18ba 0bd1 c5bc
00000270: 9459 b73c c7e1 61bd 2163 20be 8a7f e9bd
00000280: 3103 163d 8bcf 74bd b411 a73a 7ece d5bd
00000290: 6dfd 463d 3d84 dc3d 003b 0bbe 5ef9 06bd
000002a0: b3ab 503d 6601 003e d050 f53c 5e0c bd3d
000002b0: 206a 53bc dd12 c2bd 9b28 0dbd 2cfd fcbc
000002c0: 66b0 8abc 5b73 b93c c7e6 1ebc d695 efbb
000002d0: 687e 353c 4267 82bd a8dd fcbb 681e 98bd
000002e0: 8677 48bc 608e 14bd 9088 993c e18b fabc
000002f0: 13f4 2dbe 6822 09bd 61e4 03be c486 82bd
00000300: 29ec 043e 9c09 033e a6c2 0cbd 3c11 de3c
00000310: c5ed 2b3d 2975 503c 1117 b93d fd27 d63d
00000320: a5a7 4bbd b682 71bd 0e6d 0b3e 659e 843d
00000330: 42a1 213e a234 973d b975 1fbc 0c5e 123e
00000340: 6d10 a83c d9e8 bdbc 5bd1 233a 25aa 34bd
00000350: bc4c 3abe 75c3 913c c191 8fbd e71c 0a3d
00000360: 1131 08bd 5149 8fbd 8795 aa3d 8892 dfbd
00000370: 476f 363c f981 073c ea41 f4bc e3f2 ee3d
00000380: 340d cf3d fa90 353c 7d52 fdbd 4e5f a73d
00000390: 1f67 a83d ebc4 8abd be43 a33d 5f61 013e
000003a0: d4cb f83c 4bda 673d 0174 a7bb 5d4f 843b
000003b0: b2e5 72bd 34ba c7bd 1ac9 b93c a54a be3d
000003c0: 1908 84bb 7a9e 783d 30eb edbd 3065 7d3c
000003d0: 10e7 8dbc df37 20bc 4bfb 93bd ada1 09be
000003e0: f1bc 55ba 2ba4 9e3d b176 5dbd 602a 3abe
000003f0: e5e8 21bd 93e1 24bd cbe4 7bbd b9eb 683d

onnx::LSTM_218 f4 [1, 512, 128]
-0.13333128 -0.25462574 0.020328399 -0.0863137 -0.0987283 0.09320243 0.064001046 0.30672044
-0.030189842 -0.04491725 0.22928572 -0.05524292 -0.019634005 0.1082373 -0.28794873 0.028753163
-0.20152071 -0.26886833 0.067277476 -0.20416933 0.035950698 -0.18466681 0.11549346 -0.10542143
0.13376622 0.034451798 0.041555073 -0.09734828 0.018593222 -0.03183753 -0.041559074 0.17906342
-0.36197785 0.037709147 0.102812245 -0.23619398 -0.2833996 0.1518157 0.11312674 -0.04357872
0.13079238 0.37137106 -0.232994 0.0779538 -0.08991984 0.23599786 -0.3649964 0.17199261
-0.35898128 0.014056546 0.095214136 0.17224939 -0.059296098 -0.14799912 0.15857176 -0.07943703
-0.23052487 0.08335524 0.14614803 -0.22587998 0.09610399 0.20154761 0.045330252 0.20521073
0.1344002 -0.21093358 -0.03307125 0.23433116 -0.25187737 0.26836345 -0.047176782 -0.25466305
-0.2361518 -0.031395257 0.06703149 -0.30623809 0.3148951 -0.04092313 0.197737 0.06741938
0.0004903709 0.24702394 0.00654085 0.021002399 -0.010554781 -0.07592566 -0.3318214 -0.12278234
-0.1509957 -0.20512404 0.009174298 0.034031097 -0.12619413 0.014275963 -0.049937967 0.12415555
-0.08744086 -0.13705553 -0.08466661 0.29672933 0.092201106 0.1343647 -0.28916517 -0.055266134
0.13866687 0.15614216 0.19805813 0.10272232 -0.1926105 0.068524025 -0.2523673 0.13819407
0.015946304 -0.123588696 -0.1354955 0.19593453 0.05170167 0.3001591 -0.027916607 -0.029034548
0.05844956 0.020628046 -0.12663779 -0.2691762 0.017712371 0.08622469 0.24976864 -0.0118123125
-0.025351038 0.12699047 0.050129104 0.11703162 0.08696234 -0.053825106 0.14087251 -0.1345023
-0.04499289 -0.069461755 -0.028084818 0.06313236 0.08079303 -0.07786327 -0.24065657 -0.08577502
-0.037325725 -0.20114268 0.07416116 -0.08966986 0.011586945 0.09485182 0.16482814 0.10207552
0.15853116 0.002066954 -0.16588077 -0.15640081 -0.036861982 0.012233145 -0.12891339 0.15135519
-0.18120027 0.108583026 -0.030363794 0.08633595 0.10393157 0.07364359 -0.14649484 0.027438944
-0.11189979 0.027643962 0.008196002 -0.031106329 -0.0049732802 -0.1401862 0.0010407225 -0.038690355
-0.15516101 -0.08466167 0.0137323765 0.02482761 -0.1520314 0.13633466 0.19744171 0.04196583
-0.25072485 -0.051877573 0.14609857 -0.060597315 -0.15297648 -0.04077815 0.06910772 -0.20298034
-0.06107051 0.088440426 0.15111549 -0.022348132 -0.021433596 0.14592496 -0.07963531 -0.068393186
-0.17625736 0.031305123 0.45816067 -0.1297797 -0.15367079 0.14452404 -0.0418052 0.0034663389
-0.17905746 -0.015440155 0.1112118 -0.2742257 -0.07258795 0.04455329 -0.02078591 -0.04723928
0.24176839 0.059877474 -0.0045350436 -0.043769564 0.070299335 0.09464255 -0.1300835 0.06084765
-0.11283328 0.21106061 -0.0729305 0.024707222 -0.14884555 -0.16904609 0.019791676 -0.21390961
-0.1606252 0.18156303 0.38788003 -0.0072823036 -0.01875968 0.19127692 -0.21227963 -0.17934647
-0.12058145 -0.20758352 0.036971662 -0.14603387 -0.13559653 0.037060358 0.099841565 0.013077772
0.007993394 -0.13040712 0.0096153105 0.06752622 -0.152919 0.23555532 -0.12521587 -0.15598641
00000000: ff87 08be 4e5e 82be be87 a63c 3dc5 b0bd
00000010: 1032 cabd eae0 be3d fb12 833d 760a 9d3e
00000020: b050 f7bc 26fb 37bd e0c9 6a3e 6646 62bd
00000030: 7ed7 a0bc 84ab dd3d 046e 93be c18b eb3c
00000040: 725b 4ebe 1ca9 89be c6c8 893d c411 51be
00000050: 0a41 133d 4c19 3dbe d687 ec3d 31e7 d7bd
00000060: 03fa 083e 541d 0d3d a735 2a3d 895e c7bd
00000070: d050 983c 1268 02bd d939 2abd 675c 373e
00000080: 2955 b9be e874 1a3d 3a8f d23d d6dc 71be
00000090: c119 91be 9375 1b3e feae e73d 9a7f 32bd
000000a0: 70ee 053e 5924 be3e fb95 6ebe 3ea6 9f3d
000000b0: e527 b8bd 6ca9 713e cfe0 babe d51e 303e
000000c0: 65cc b7be 6d4d 663c a1ff c23d 2562 303e
000000d0: 77e0 72bd 158d 17be a360 223e e2af a2bd
000000e0: b60e 6cbe 27b6 aa3d d4a7 153e 154d 67be
000000f0: 2bd2 c43d 7f62 4e3e 37ac 393d c322 523e
00000100: 35a0 093e f9fe 57be b875 07bd 82f4 6f3e
00000110: 12f6 80be ef66 893e 713c 41bd 3263 82be
00000120: c7d1 71be 5098 00bd ce47 893d 3dcb 9cbe
00000130: ee39 a13e 039f 27bd 917b 4a3e 2c13 8a3d
00000140: 3c8c 003a d8f3 7c3e a054 d63b 390d ac3c
00000150: f6ed 2cbc ea7e 9bbd 7fe4 a9be 4f75 fbbd
00000160: 9e9e 1abe 090c 52be cb4f 163c 3164 0b3d
00000170: 0939 01be bbe5 693c c18b 4cbd 4445 fe3d
00000180: 3214 b3bd 4958 0cbe b065 adbd e8ec 973e
00000190: efd3 bc3d e696 093e 750d 94be be5e 62bd
000001a0: b0fe 0d3e bbe3 1f3e c0cf 4a3e 1460 d23d
000001b0: b03b 45be 5356 8c3d 4936 81be bf82 0d3e
000001c0: d3a1 823c 121c fdbd 55bf 0abe 10a3 483e
000001d0: 21c5 533d 74ae 993e 5eb1 e4bc dcd9 edbc
000001e0: ce68 6f3d 26fc a83c 56ad 01be 76d1 89be
000001f0: 8919 913c 9296 b03d 5ac3 7f3e 6e88 41bc
00000200: fbac cfbc ca09 023e 2d54 4d3d 46ae ef3d
00000210: 5019 b23d b777 5cbd e240 103e f9ba 09be
00000220: 774a 38bd f741 8ebd 2212 e6bc 8a4b 813d
00000230: d176 a53d c776 9fbd ad6e 76be d0aa afbd
00000240: dce2 18bd 59f8 4dbe cee1 973d d5a4 b7bd
00000250: 2bd7 3d3c ac41 c23d b5c8 283e f80c d13d
00000260: fe55 223e bc75 073b a6dc 29be 8927 20be
00000270: 97fc 16bd 876d 483c df01 04be dbfc 1a3e
00000280: 908c 39be c760 de3d 7ebd f8bc e7d0 b03d
00000290: 13da d43d 73d2 963d be02 16be a3c7 e03c
000002a0: b82b e5bd 9775 e23c 8648 063c b3d2 febc
000002b0: e6f6 a2bb f98c 0fbe da68 883a c779 1ebd
000002c0: 87e2 1ebe 1963 adbd c3fd 603c 4663 cb3c
000002d0: 1fae 1bbe 509b 0b3e 292e 4a3e 5de4 2b3d
000002e0: 025f 80be 947d 54bd dd9a 153e e434 78bd
000002f0: dea5 1cbe fd06 27bd 5988 8d3d 14da 4fbe
00000300: 1225 7abd 4120 b53d 05be 1a3e 6e13 b7bc
00000310: 8295 afbc 5a6d 153e d617 a3bd ba11 8cbd
00000320: cf7c 34be cd39 003d 0994 ea3e f8e4 04be
00000330: e05b 1dbe 1cfe 133e ee3b 2bbd 842b 633b
00000340: d75a 37be b4f8 7cbc 03c3 e33d 5067 8cbe
00000350: fea8 94bd 837d 363d 3647 aabc fa7d 41bd
00000360: 2292 773e 1542 753d b49a 94bb b747 33bd
00000370: 19f9 8f3d f4d3 c13d 9c34 05be 633b 793d
00000380: 2215 e7bd 4620 583e 965c 95bd cd66 ca3c
00000390: f86a 18be 6b1a 2dbe 2722 a23c 1f0b 5bbe
000003a0: ef7a 24be a9eb 393e 3698 c63e 64a0 eebb
000003b0: e7ad 99bc 19de 433e d55f 59be 9aa6 37be
000003c0: 68f3 f6bd c690 54be 996f 173d e789 15be
000003d0: d1d9 0abe 9acc 173d bc79 cc3d 2744 563c
000003e0: b9f6 023c 7289 05be 8989 1d3c 304b 8a3d
000003f0: cc96 1cbe 6a35 713e 9738 00be e7ba 1fbe

onnx::LSTM_219 f4 [1, 512, 128]
-0.050005764 0.12779795 0.11057453 0.11709504 -0.18387066 -0.26471055 -0.027023913 -0.10480831
0.042912234 0.07450056 0.2350299 0.05881791 -0.045117058 0.04250555 0.07246439 0.1390193
-0.056923643 -0.1729764 -0.07155625 0.1150116 0.16572551 -0.2551039 0.002443946 -0.058674004
0.1473021 0.13624214 -0.04660176 0.030291937 0.13116616 0.024875268 -0.17134885 -0.08015851
0.19741337 -0.14651373 -0.049131196 -0.03060422 0.19874817 -0.09927034 -0.08584607 -0.03824366
0.15421368 0.043501947 -0.08266427 0.15418573 -0.00614963 0.036795136 0.10664621 0.11681162
0.19813451 -0.011846633 -0.11075191 0.0612811 0.16065353 -0.077229306 0.25123426 -0.057305902
0.14010845 -0.067726515 0.15439382 0.024169983 -0.11295574 0.05743277 0.1006089 0.02780132
0.055027794 0.2914923 -0.2721277 -0.08093086 0.08414599 -0.13381112 -0.037914865 0.07353116
-0.12879615 -0.03775031 0.08625395 -0.03475193 -0.027457869 0.052145842 0.15121959 -0.14754328
-0.1215781 -0.01011659 0.17196517 -0.08643183 -0.20008552 -0.00056429184 0.18903689 0.1469651
-0.20495407 0.14305408 -0.04511921 0.016390787 0.050764177 -0.038599685 0.16543518 0.15100068
0.087117836 0.16806452 -0.109799735 0.12394161 -0.09605978 -0.13586456 0.12559898 0.029806348
-0.023393204 0.09799754 0.10820463 -0.055983614 -0.013620222 0.073396556 0.024332488 -0.036041588
0.028616827 -0.20981725 0.097572096 -0.0429106 -0.061515342 0.07883312 -0.08437154 -0.011290856
-0.093586326 0.15685406 -0.10224925 0.042964153 0.101760656 -0.03966267 0.10628725 -0.11119519
0.11054908 0.023919249 0.06321538 0.073847726 0.24681284 0.09051842 0.053934958 -0.2475727
0.09975402 0.08302307 -0.12815017 -0.0043007154 0.12090303 0.0787133 -0.17224076 0.018800255
0.031231664 0.025618797 0.13122189 -0.12657274 0.05268196 0.22337031 0.07784746 -0.12805365
0.10397291 0.2704117 0.034555413 -0.035760906 0.040101346 0.0166822 -0.15878628 0.053133056
-0.10194876 0.10343485 0.03043973 0.17485933 -0.009599057 -0.053409178 -0.05472754 0.12595172
0.20969766 -0.09962943 0.17475404 0.1972045 -0.21934001 0.108186245 0.20457949 0.10387782
0.0049573034 0.18706992 -0.05506486 0.059483156 0.15557982 0.04342546 -0.23981668 -0.29932585
-0.3711134 0.06888963 -0.07964273 0.08204119 -0.11912953 -0.110984564 0.13666007 -0.03851137
0.025718346 -0.24129057 -0.1287538 -0.00543429 0.15012358 0.2792315 -0.17246398 0.13855281
-0.14512207 0.048348613 0.17239466 0.057611037 -0.027697235 0.09278308 -0.057964027 0.15861627
0.17613453 0.16005509 0.05938845 0.1448465 -0.026962047 0.29734445 -0.15727691 -0.07115725
-0.07979435 0.119813584 0.16617028 0.0918295 0.26823372 0.06979628 0.039672792 0.14055155
0.065813854 -0.054419458 0.040936492 0.05852998 0.07732912 0.27249017 -0.1252544 -0.13585646
0.068031654 0.083007276 0.22100481 0.021525957 0.1270718 -0.10471346 -0.148902 0.25471094
0.07504838 0.16348815 0.10501366 -0.024469862 0.1316852 -0.090433754 0.21967271 0.07001963
0.1697622 -0.22173895 0.13985023 -0.2675087 0.0299157 0.046869382 0.076708935 0.11316211
00000000: d8d2 4cbd 77dd 023e e674 e23d 86cf ef3d
00000010: 9748 3cbe 2488 87be 4161 ddbc bda5 d6bd
00000020: bdc4 2f3d c093 983d aeab 703e 0ceb 703d
00000030: aacc 38bd 4d1a 2e3d 3668 943d 135b 0e3e
00000040: c428 69bd ba20 31be 158c 92bd 348b eb3d
00000050: f3b3 293e fa9c 82be 9c2a 203b 2754 70bd
00000060: 5dd6 163e 0f83 0b3e 7de1 3ebd cc26 f83c
00000070: 6c50 063e 38c7 cb3c 1376 2fbe 252a a4bd
00000080: bb26 4a3e b207 16be cb3d 49bd b4b5 fabc
00000090: a484 4b3e 3f4e cbbd 10d0 afbd 62a5 1cbd
000000a0: 31ea 1d3e 192f 323d e34b a9bd dde2 1d3e
000000b0: d682 c9bb 7fb6 163d 5469 da3d ee3a ef3d
000000c0: c6e3 4a3e 6118 42bc e6d1 e2bd e401 7b3d
000000d0: 5c82 243e 662a 9ebd c7a1 803e 98b9 6abd
000000e0: 9778 0f3e 33b4 8abd 6a19 1e3e 2100 c63c
000000f0: 5755 e7bd a03e 6b3d 0a0c ce3d 98bf e33c
00000100: d364 613d 7b3e 953e 5254 8bbe 14bf a5bd
00000110: bc54 ac3d c805 09be 9e4c 1bbd 8197 963d
00000120: 23e3 03be 12a0 1abd e9a5 b03d 0a58 0ebd
00000130: 53ef e0bc e196 553d 4fd9 1a3e 9615 17be
00000140: f0fd f8bd 0ec0 25bc a317 303e 2c03 b1bd
00000150: 38e3 4cbe fcec 13ba e392 413e 057e 163e
00000160: 7bdf 51be c57c 123e ecce 38bd f945 863c
00000170: 19ee 4f3d b41a 1ebd d767 293e ec9f 1a3e
00000180: d66a b23d 1b19 2c3e afde e0bd 19d5 fd3d
00000190: fdba c4bd 1420 0bbe 059d 003e 712c f43c
000001a0: 1ba3 bfbc efb2 c83d 649a dd3d 134f 65bd
000001b0: 5a27 5fbc ef50 963d ed54 c73c 58a0 13bd
000001c0: d66d ea3c 55da 56be e1d3 c73d 06c3 2fbd
000001d0: 83f7 7bbd 4273 a13d fcca acbd 48fd 38bc
000001e0: 30aa bfbd 5a9e 203e 0e68 d1bd 2efb 2f3d
000001f0: e467 d03d 5375 22bd 21ad d93d 4eba e3bd
00000200: 8e67 e23d 4df2 c33c 1177 813d 7a3d 973d
00000210: 81bc 7c3e b961 b93d e7ea 5c3d b383 7dbe
00000220: d64b cc3d 0008 aa3d cc39 03be 04ed 8cbb
00000230: 029c f73d 7034 a13d e25f 30be fe02 9a3c
00000240: 8cd9 ff3c 83de d13c 085f 063e 499c 01be
00000250: 0ac9 573d 30bb 643e 7d6e 9f3d 7f20 03be
00000260: c0ef d43d 6773 8a3e fa89 0d3d 077a 12bd
00000270: 4f41 243d 1ca9 883c df98 22be 0ca2 593d
00000280: 83ca d0bd a7d5 d33d be5c f93c 530e 333e
00000290: 5d45 1dbc 95c3 5abd fc29 60bd 7df9 003e
000002a0: fcba 563e 840a ccbd b9f2 323e faef 493e
000002b0: ab9a 60be c090 dd3d 497d 513e e5bd d43d
000002c0: e070 a23b 428f 3f3e b18b 61bd 9ca4 733d
000002d0: 5150 1f3e e5de 313d 8192 75be 3d41 99be
000002e0: 9302 bebe 0216 8d3d ba1b a3bd 3605 a83d
000002f0: 2ffa f3bd e04b e3bd 9ef0 0b3e 19be 1dbd
00000300: 48af d23c e014 77be 09d8 03be 2112 b2bb
00000310: ffb9 193e 6ef7 8e3e 669a 30be cae0 0d3e
00000320: e19a 14be 3209 463d 3a88 303e 8df9 6b3d
00000330: 50e5 e2bc 0e05 be3d b06b 6dbd 4e6c 223e
00000340: 9c5c 343e 7be5 233e 4e41 733d a452 143e
00000350: 83df dcbc 883d 983e 330d 21be e4ba 91bd
00000360: 386b a3bd d360 f53d 8b28 2a3e 1b11 bc3d
00000370: ee55 893e 5af1 8e3d f07f 223d bfec 0f3e
00000380: 6ac9 863d f0e6 5ebd 06ad 273d 22bd 6f3d
00000390: bb5e 9e3d d583 8b3e b042 00be f51d 0bbe
000003a0: 2e54 8b3d b8ff a93d 164f 623e 3457 b03c
000003b0: 1c1f 023e 0374 d6bd c479 18be 7969 823e
000003c0: f7b2 993d 7069 273e 6711 d73d 0575 c8bc
000003d0: 7cd8 063e 5535 b9bd e2f1 603e 7466 8f3d
000003e0: 24d6 2d3e 890f 63be e634 0f3e e6f6 88be
000003f0: c511 f53c 1cfa 3f3d 9319 9d3d 89c1 e73d

onnx::LSTM_220 f4 [1, 1024]
-0.1448344 -0.14231597 -0.20504142 -0.19019356 0.084688306 -0.09736461 -0.17572896 0.03255299
-0.014083344 -0.18857057 0.05391642 0.06692361 -0.16389859 -0.09768599 -0.052838206 -0.018348873
-0.06694847 0.05325815 -0.0051582316 -0.03205821 -0.19731787 -0.09838533 -0.057796698 -0.17710626
0.14155589 0.108377315 -0.020517394 0.021491047 -0.055205237 -0.07668716 -0.12023998 0.020491347
-0.002549096 -0.10134227 -0.12958243 -0.09067607 -0.17881991 -0.10095783 -0.16609116 -0.13543363
-0.2111323 -0.0792699 -0.19673835 -0.15544279 -0.0862584 -0.017700797 -0.38365215 0.06963829
-0.11185282 -0.10985781 0.12828636 0.028361904 0.14554709 -0.23214734 0.053396743 -0.0020549314
-0.067779675 -0.13169044 -0.0800061 -0.035724506 -0.14969009 -0.028841658 -0.2279634 -0.07480925
-0.20652339 0.06295837 0.10829638 -0.048875537 -0.1159432 -0.12905121 -0.05412487 0.074732445
-0.016616 -0.060138926 0.041662283 -0.12798084 -0.040293727 -0.0384285 -0.07338609 -0.13396421
-0.08311249 -0.098471634 -0.10957337 -0.082480416 0.07972758 -0.12933385 -0.101688616 -0.24416623
0.022793408 -0.023948828 -0.023716155 -0.015201068 0.015202757 0.06685686 -0.21422069 -0.08636044
-0.2631013 -0.05403913 0.1552263 -0.1345877 -0.091704056 0.031247197 -0.06478306 0.018318659
-0.15458131 -0.00811562 0.04307628 -0.0621622 0.012873903 -0.083703436 0.016927008 -0.0481988
-0.12710437 0.17797542 -0.04698508 -0.014386652 0.033458 -0.08712168 -0.26376635 -0.23128538
-0.018691998 0.009925886 -0.24033478 0.10718991 -0.12559013 -0.20219606 -0.043162487 -0.27382392
-0.026784766 -0.07581542 -0.16185465 -0.15970017 0.00054179435 -0.13655955 -0.22031575 -0.03715212
0.060181394 -0.12211237 0.008009031 0.024248209 -0.061712343 -0.057174545 -0.0642355 -0.055565685
-0.008886128 -0.092496485 -0.08519492 -0.11834594 -0.19195114 -0.057993334 -0.0323108 -0.009589501
0.018840032 0.14272423 -0.061921265 -0.099344276 -0.097425565 -0.08916389 -0.1359622 0.08300707
-0.106219254 0.025153756 -0.089127876 -0.115500644 -0.13425729 -0.10793885 -0.14945105 -0.059997775
-0.11499717 0.09878304 -0.14201073 -0.09649676 -0.06325159 -0.05515349 -0.2708454 0.00097453967
-0.23033567 -0.017346513 0.04352182 0.0044704517 0.04959779 -0.15413396 0.011559787 -0.074523374
0.14838338 -0.18064943 -0.03525598 -0.1084376 -0.069784775 0.035778727 -0.1387424 -0.083915554
-0.10303257 0.09525912 -0.034048725 0.021661155 -0.082872145 -0.014712889 0.07654473 0.016468003
0.022037005 0.022893913 0.017419677 -0.20313707 -0.085175246 -0.037983198 -0.028333236 -0.124697626
0.021094833 0.049238097 -0.12648039 0.04855847 0.0046720994 -0.1350993 0.044349406 -0.120458916
-0.020087477 -0.004828767 -0.0690224 -0.029203665 0.015899597 0.092209764 -0.10407978 0.049826
-0.13429408 0.0141201895 0.022839013 -0.076799184 -0.07260771 -0.024893168 -0.013535813 -0.03987359
-0.05621482 -0.14686881 -0.037435148 0.028039908 -0.100204505 0.0003169537 0.08980158 -0.028354185
-0.059835557 0.24171387 -0.10697632 -0.16936298 -0.027685562 -0.16866875 -0.20366132 -0.28199485
-0.145886 0.04724174 -0.14985403 0.07907574 0.0073434603 -0.062577955 -0.057745248 -0.15644163
00000000: 784f 14be 47bb 11be 61f6 51be 1ac2 42be
00000010: 1071 ad3d 1967 c7bd 4bf2 33be 4956 053d
00000020: d3bd 66bc a518 41be 77d7 5c3d 3f0f 893d
00000030: 08d5 27be 980f c8bd e06c 58bd 6050 96bc
00000040: 481c 89bd 3825 5a3d 6206 a9bb 784f 03bd
00000050: b20d 4abe 3f7e c9bd 3bbc 6cbd 585b 35be
00000060: 07f4 103e edf4 dd3d 1814 a8bc fe0d b03c
00000070: e31e 62bd 280e 9dbd 6140 f6bd 78dd a73c
00000080: bc0e 27bb 898c cfbd 42b1 04be 60b4 b9bd
00000090: 911c 37be fbc2 cebd cd13 2abe 1daf 0abe
000000a0: 1133 58be 4258 a2bd c775 49be 652c 1fbe
000000b0: 3ea8 b0bd 4301 91bc 0e6e c4be 859e 8e3d
000000c0: 1713 e5bd 22fd e0bd 805d 033e 3957 e83c
000000d0: 4c0a 153e 08b8 6dbe 8bb6 5a3d 07ac 06bb
000000e0: 12d0 8abd dcd9 06be 3dda a3bd dc53 12bd
000000f0: 5c48 19be 5745 ecbc 3d6f 69be 9835 99bd
00000100: de7a 53be 51f0 803d 7eca dd3d b731 48bd
00000110: a173 edbd 0026 04be 0ab2 5dbd 530d 993d
00000120: 471e 88bc 3c54 76bd 12a6 2a3d 690d 03be
00000130: 090b 25bd 3467 1dbd 724b 96bd ea2d 09be
00000140: e236 aabd 7fab c9bd 0168 e0bd 7eeb a8bd
00000150: 3748 a33d 1870 04be 1f42 d0bd b606 7abe
00000160: 3eb9 ba3c 5530 c4bc 6248 c2bc e60d 79bc
00000170: fc14 793c 40ec 883d ab5c 5bbe bedd b0bd
00000180: 37b5 86be 2358 5dbd a5f3 1e3e 5cd1 09be
00000190: 56cf bbbd 1ffa ff3c fbac 84bd 0311 963c
000001a0: 904a 1ebe 61f7 04bc c170 303d cb9d 7ebd
000001b0: 10ed 523c b56c abbd 82aa 8a3c 1b6c 45bd
000001c0: a627 02be 303f 363e 6d73 40bd feb5 6bbc
000001d0: 410b 093d da6c b2bd 620c 87be 13d6 6cbe
000001e0: f61f 99bc 2fa0 223c 521a 76be 6286 db3d
000001f0: b39a 00be 7c0c 4fbe 26cb 30bd a632 8cbe
00000200: ba6b dbbc 1d45 9bbd 3abd 25be 7188 23be
00000210: 3407 0e3a 44d6 0bbe 749a 61be d22c 18bd
00000220: c480 763d 0d16 fabd 5038 033c 2ea4 c63c
00000230: 15c6 7cbd db2f 6abd e78d 83bd d898 63bd
00000240: 1f97 11bc cc6e bdbd ad7a aebd 5b5f f2bd
00000250: d78e 44be 6b8a 6dbd 5458 04bd 481d 1dbc
00000260: 6956 9a3c 4d26 123e 27a1 7dbd 0375 cbbd
00000270: 0e87 c7bd 8f9b b6bd ad39 0bbe 9cff a93d
00000280: 7b89 d9bd 400f ce3c ad88 b6bd 9a8b ecbd
00000290: be7a 09be 0b0f ddbd b209 19be 3ac0 75bd
000002a0: a383 ebbd c34e ca3d 436b 11be 18a0 c5bd
000002b0: 0d8a 81bd a0e8 61bd 40ac 8abe 4078 7f3a
000002c0: 1ddd 6bbe 461a 8ebc f043 323d de7c 923b
000002d0: 0d27 4b3d 4bd5 1dbe 4365 3d3c b69f 98bd
000002e0: d0f1 173e 2afc 38be 9368 10bd 8814 debd
000002f0: 52eb 8ebd b78c 123d 7d12 0ebe ebdb abbd
00000300: bd02 d3bd 3717 c33d ad76 0bbd bc72 b13c
00000310: dfb8 a9bd 540e 71bc 7cc3 9c3d e8e7 863c
00000320: f386 b43c 048c bb3c b6b3 8e3c 2a03 50be
00000330: 5c70 aebd 4594 1bbd 1a1b e8bc 7861 ffbd
00000340: 12cf ac3c e3ad 493d 1384 01be 3fe5 463d
00000350: 6918 993b 7957 0abe b9a7 353d 2ab3 f6bd
00000360: 7e8e a4bc a23a 9ebb 9e5b 8dbd 863c efbc
00000370: df3f 823c 79d8 bc3d c827 d5bd 5916 4c3d
00000380: 6384 09be 5e58 673c e218 bb3c e448 9dbd
00000390: 5ab3 94bd c2ec cbbc 51c5 5dbc 7d52 23bd
000003a0: 8341 66bd c764 16be 9955 19bd f3b3 e53c
000003b0: 0538 cdbd ce2c a639 e4e9 b73d 0947 e8bc
000003c0: 2116 75bd d783 773e 6716 dbbd 7d6d 2dbe
000003d0: d5cc e2bc 80b7 2cbe 988c 50be a161 90be
000003e0: 2463 15be 8e80 413d 5673 19be 76f2 a13d
000003f0: 69a1 f03b df28 80bd 4886 6cbd 3c32 20be
